multiple_model_analysis/results/er_experiment_MM_size_10_25_alpha_0_scale_100_dynwght_False_std_reg_1.0_equiv_reg_0.0/neural_network.pth (torch, 16501 bytes, 14 tensors)

g.0.weight f4 [30, 1]
0	0x3e0c4ef7	0.13701998
1	0x3da51fe8	0.08062726
2	0xbf1ce9be	-0.6129416
3	0x3f5bda03	0.85879534
4	0xbcf1936c	-0.029489242
5	0xbd850773	-0.064955615
6	0xbf5e3d3b	-0.8681218
7	0x3f801b98	1.0008421
8	0xbf5a9af7	-0.8539271
9	0x3d47889f	0.048714276
10	0xbf260352	-0.64848816
11	0x3e64cd90	0.22344041
12	0xbf6f4fa5	-0.934809
13	0xbf1294bd	-0.57258207
14	0x3e8009d8	0.2500751
15	0xbf90f2fb	-1.1324152
16	0x3f3f0fe8	0.74633646
17	0xbf1f9266	-0.6233276
18	0xbf62a462	-0.8853208
19	0x3eb56cb6	0.35434502
20	0x3f2ba48b	0.6704795
21	0x3f1d1e1c	0.6137407
22	0xbe3f3b42	-0.18674949
23	0x3f1f173c	0.6214483
24	0x3ebffa83	0.37495813
25	0xbe95a531	-0.29227594
26	0x3ecc5c5c	0.39914215
27	0x3c6cbe0a	0.014449606
28	0x3f2f9a83	0.6859514
29	0xbe2d4b06	-0.1692315

g.0.bias f4 [30]
0	0x3e91f4d6	0.28507107
1	0x3d0414ea	0.032246508
2	0x3f3f1720	0.7464466
3	0xbda91154	-0.08255258
4	0x3f2597c6	0.6468471
5	0xbf02e45d	-0.51129705
6	0xbde71e76	-0.11285107
7	0xbde52c1e	-0.11190055
8	0x3cc0c9c6	0.023533713
9	0x3eb31c7d	0.34982672
10	0xbf133ae1	-0.5751172
11	0x3f0f4fcb	0.5598113
12	0x3e112a0e	0.14176199
13	0xbf2828fb	-0.6568753
14	0xbbcfe757	-0.0063447165
15	0x3db4e3be	0.08832501
16	0xbd3c8755	-0.0460275
17	0xbeb9cf51	-0.36290982
18	0x3de57ae3	0.112050794
19	0x3f298f6f	0.6623449
20	0xbd7a9b50	-0.061183274
21	0xbe74217b	-0.23840897
22	0xbef4335d	-0.47695437
23	0x3c751dc2	0.014960708
24	0x3b9023ed	0.004398814
25	0xbf196e96	-0.59934366
26	0xbe56266d	-0.20913096
27	0xbf38addf	-0.72140306
28	0xbc053af1	-0.0081317285
29	0x3cbcece3	0.023062175

g.2.weight f4 [30, 30]
0	0x3db62521	0.088938005
1	0xbdc625f3	-0.09675207
2	0x3bd2ded8	0.0064352565
3	0x3e5e56c1	0.21712781
4	0xbe2fcaa9	-0.17167152
5	0x3dae8893	0.08522143
6	0xbcc94f33	-0.024573898
7	0x3e809c38	0.25119185
8	0xbeba4900	-0.3638382
9	0x3d3ad0cf	0.04560929
10	0x3e0b65d7	0.13613068
11	0x3de3a984	0.11116317
12	0xbe0f3527	-0.1398512
13	0xbd28576b	-0.041098993
14	0x3deba126	0.11505346
15	0xbd866303	-0.06561854
16	0x3e94195d	0.289256
17	0x3e0df0d4	0.138614
18	0xbe87dfa8	-0.26537824
19	0x3e394361	0.1809211
20	0x3d8881f9	0.06665415
21	0xbd46860f	-0.048467692
22	0xbd338a7d	-0.043833245
23	0x3e62f17d	0.22162433
24	0x3d356aa7	0.044291165
25	0x3dd7f347	0.10544448
26	0x3d9641c1	0.0733676
27	0xbcadfc04	-0.021238334
28	0x3e2e3a22	0.17014363
29	0xbcf7340a	-0.030176181
30	0xbd165286	-0.036699794
31	0xbd5ca110	-0.05386454
32	0xbdc68d61	-0.09694935
33	0x3b262f93	0.0025357946
34	0x3df396dd	0.11894009
35	0xbd99e240	-0.07513857
36	0x3d45740b	0.04820637
37	0x3cbaced7	0.022803707
38	0x3c5b5ef8	0.0133893415
39	0xbd85aa30	-0.06526601
40	0x3de82aec	0.11336312
41	0x3dffb9a3	0.12486579
42	0x3bab11ad	0.005220613
43	0xbe006670	-0.12539077
44	0xbb993db7	-0.0046765464
45	0x3c84fb68	0.016233161
46	0xbc16490e	-0.009172691
47	0xbdb47e71	-0.08813179
48	0x3d030147	0.03198364
49	0x3de58d26	0.112085626
50	0xbc5e3e88	-0.013564713
51	0x3d9ec8f3	0.07753172
52	0xbbc222b0	-0.005924545
53	0xbbc2af48	-0.0059413053
54	0xbc119d66	-0.008887624
55	0x3e13c34e	0.14429972
56	0xbd21f26c	-0.039537832
57	0xbd24a368	-0.0401949
58	0xbc2e32ba	-0.010632211
59	0xbce18ae9	-0.027532058
60	0x3ded2338	0.11578983
61	0xbda1dba7	-0.079032235
62	0x3deabcf8	0.11461824
63	0x3d5a2e72	0.05326695
64	0xbd9ed1fb	-0.07754894
65	0x3d7982f1	0.06091589
66	0x3cb424ad	0.021990145
67	0x3c7082d4	0.014679629
68	0xbe9003f5	-0.2812802
69	0x3e10a189	0.14124121
70	0x3d248460	0.040165305
71	0xbe018042	-0.12646583
72	0xbe724235	-0.23658068
73	0x3da6f2ab	0.08151754
74	0xbcea434e	-0.028596547
75	0xbe40da69	-0.18833317
76	0x3de9122c	0.11380419
77	0xbe0a2803	-0.13491826
78	0xbd404bfc	-0.046947464
79	0xbcbfb21a	-0.023400355
80	0xbbec1331	-0.007204436
81	0x3e08bc67	0.1335312
82	0xbcf357ae	-0.029704895
83	0x3e700728	0.2344023
84	0xbc5e1d08	-0.013556726
85	0x3d8bcb5b	0.06825896
86	0x3d2f4c1c	0.042797193
87	0xbd876c0d	-0.06612406
88	0x3e4474f4	0.19185239
89	0x3ce2bd83	0.027678257
90	0xbe26d178	-0.16290843
91	0xbe214cda	-0.15751973
92	0x3e0bac88	0.13640034
93	0xbd3c7405	-0.046009082
94	0x3deb6e78	0.114956796
95	0x3e014991	0.1262572
96	0x3da1c751	0.07899345
97	0xbd176722	-0.03696359
98	0x3eaca989	0.33723095
99	0x3d4b95db	0.04970346
100	0x3e3d8ce6	0.1851078
101	0x3d5008b0	0.050789535
102	0x3e4d01c6	0.20020208
103	0x3d11b826	0.03557601
104	0xbded42a2	-0.11584975
105	0x3de97dea	0.11400969
106	0xbdede0ec	-0.11615166
107	0x3dfe88fd	0.12428472
108	0x3d65e4d8	0.056126446
109	0xbd4d2fcc	-0.05009441
110	0xbd8a178e	-0.06742774
111	0x3db13fff	0.086547844
112	0xbd8273d1	-0.063697465
113	0xbdfcfeb6	-0.1235327
114	0x3d740ed8	0.05958447
115	0xbe1dc1a4	-0.154059
116	0x3e215756	0.15755972
117	0x3ddc42df	0.10754942
118	0xbe9fcb04	-0.31209576
119	0x3e1a751a	0.15083733
120	0x3e2a3627	0.1662222
121	0x3dca8239	0.09888119
122	0xbe118e13	-0.14214353
123	0x3e10de4f	0.14147304
124	0x3d0c04d6	0.0341843
125	0x3caf80ca	0.021423716
126	0x3d7488c3	0.05970074
127	0xbade8c82	-0.001697913
128	0xbeafe2e1	-0.34352782
129	0xbdab631f	-0.08368515
130	0x3d046ff9	0.032333348
131	0xbb87bead	-0.0041426034
132	0x3d8d2c8b	0.068932615
133	0xba6bd001	-0.00089955336
134	0x3e140cdf	0.14458035
135	0xbe9c1d71	-0.30491212
136	0x3e54790a	0.20749298
137	0x3d6234cd	0.055226136
138	0xbdfdc7b9	-0.1239161
139	0x3df03a5e	0.11729883
140	0xbc0f45f1	-0.008744703
141	0x3e0f35bc	0.13985342
142	0x3dfaf3be	0.122535214
143	0x3dda3957	0.10655468
144	0xbc75fd27	-0.0150139695
145	0xbdc2e5d1	-0.0951649
146	0xbe204532	-0.15651396
147	0x3d55c45b	0.052189212
148	0x3e9078ab	0.28217062
149	0x3e282fa5	0.16424425
150	0xbd81803d	-0.06323288
151	0xbd0934d2	-0.03349764
152	0x3db5de88	0.08880335
153	0xbe0280c5	-0.12744434
154	0x3d7e67b9	0.062110636
155	0x3cbf8939	0.023380863
156	0x3e6d6a6a	0.23185125
157	0x3d403964	0.046929732
158	0x3e1278f4	0.14303952
159	0x3d7e8017	0.062133875
160	0x3e3a1fc9	0.18176188
161	0x3cdedbcc	0.027204417
162	0x3e3a2d3d	0.1818132
163	0x3e0fac62	0.14030603
164	0x3dd894c4	0.1057525
165	0x3e76d1c1	0.24103452
166	0x3cdf7b46	0.027280461
167	0x3d8c2ce1	0.068444975
168	0x3e5ab6ed	0.21358843
169	0x3dc18be7	0.094505124
170	0xbdd3c8f5	-0.10341064
171	0xbd8fcf7a	-0.07021995
172	0x3ddc5613	0.10758605
173	0xbe5a2ecd	-0.21306916
174	0xbaa01898	-0.0012214361
175	0xbdaa1383	-0.08304503
176	0xbd0af993	-0.03392942
177	0xbe1902ea	-0.14942518
178	0xbe454051	-0.19262816
179	0xbb80be25	-0.003928917
180	0x3df9183c	0.121628255
181	0x3d97fc1d	0.07421134
182	0x3dbf5d9b	0.09344026
183	0xbe609fa2	-0.21935895
184	0x3e092567	0.13393174
185	0xbdd49a1c	-0.103809565
186	0x3e2a5cd7	0.16636978
187	0xbe417f6e	-0.18896267
188	0x3dbd5d45	0.092463054
189	0x3da766d9	0.081739135
190	0x3d954129	0.07287819
191	0x3e2f4066	0.1711441
192	0x3e30c42c	0.17262334
193	0x3e043b5a	0.12913266
194	0x3ca56ef0	0.0201945
195	0x3e925d37	0.28586742
196	0x3cb8bfad	0.022552336
197	0xbd3557cc	-0.044273183
198	0x3db0021a	0.08594151
199	0xbbe316c1	-0.0069302027
200	0x3c5770d3	0.013149458
201	0xbe4be81c	-0.19912761
202	0x3d8b65be	0.06806515
203	0xbe403217	-0.18769108
204	0xbd459ad5	-0.048243362
205	0xbd172f8b	-0.036910575
206	0xbd815c3f	-0.06316423
207	0x3dcb8b9f	0.0993874
208	0xbe670257	-0.22559486
209	0xbd97f443	-0.07419636
210	0xbd53612a	-0.051606335
211	0xbdcb531a	-0.0992796
212	0xbd79643c	-0.060886607
213	0xbdd225ec	-0.10261139
214	0x3e007079	0.12542905
215	0x3e11048e	0.14161894
216	0xbc673166	-0.014110899
217	0xbe5aa3be	-0.21351525
218	0x3e266fa4	0.16253525
219	0xbd38b08f	-0.045090254
220	0xbd926615	-0.07148377
221	0xb89dfc6a	-7.533359e-05
222	0x3db4634e	0.08808003
223	0xbd2457d2	-0.040122814
224	0xbcbf9847	-0.023388041
225	0x3e74c66f	0.23903821
226	0xbe21824a	-0.15772358
227	0xbdd4d4e6	-0.1039217
228	0x3e008fd8	0.12554872
229	0xbdc02f5c	-0.09384033
230	0xbe0f94ba	-0.14021578
231	0x3e030559	0.12795009
232	0x3e0799fa	0.13242331
233	0xbd01459d	-0.03156053
234	0xbc10ae53	-0.008830625
235	0xbda4c2af	-0.080449454
236	0x3d15b32c	0.036547825
237	0x3cc6bf85	0.024261246
238	0xbe00a682	-0.12563518
239	0xbdc2b790	-0.09507668
240	0xbe0f7cf4	-0.1401251
241	0x3de5de30	0.112240195
242	0xbd01927c	-0.03163384
243	0x3e0a4e54	0.13506442
244	0x3d95325a	0.072849944
245	0xbc500eac	-0.012698811
246	0x3c6a3564	0.014294956
247	0x3e1c65a9	0.15273155
248	0xbe9ff425	-0.31240955
249	0xbe05a99d	-0.13052984
250	0x3e15ed15	0.14641221
251	0xbe15b316	-0.14619097
252	0xbd8c15a7	-0.06840067
253	0xbde00dd6	-0.10940139
254	0xbd5baa70	-0.05362934
255	0xbe79b577	-0.2438563

g.2.bias f4 [30]
0	0xbe15ff97	-0.14648281
1	0xbdf443e8	-0.119270146
2	0x3dacb368	0.084326565
3	0x3d93530e	0.07193576
4	0x3da444ff	0.080209725
5	0x3c33e005	0.010978703
6	0xbe336572	-0.17519167
7	0x3cc9fd0c	0.024656795
8	0x3db41cc3	0.08794548
9	0xbbff841e	-0.007797732
10	0x3d74a528	0.059727818
11	0xbdab6655	-0.08369128
12	0xbe059a67	-0.13047181
13	0x3d7fc22b	0.062441032
14	0x3d866865	0.065628804
15	0xbdde5f89	-0.10858066
16	0x3de9c16d	0.11413846
17	0xbe09b29e	-0.13447043
18	0xbd717cb1	-0.058956806
19	0x3ddf2842	0.108963504
20	0xbda704a8	-0.08155185
21	0x3ce51990	0.02796629
22	0x3dd60474	0.10450068
23	0xbe1b7fab	-0.1518542
24	0xbab06e7d	-0.0013460662
25	0x3e1a5326	0.15070781
26	0x3e02ea92	0.12784794
27	0x3dd05780	0.10172939
28	0xbdf053e1	-0.11734749
29	0x3d6bed83	0.057599556

g.4.weight f4 [1, 30]
0	0xbe43734c	-0.19086951
1	0xb99212e8	-0.00027861376
2	0xbd24b286	-0.040209316
3	0x3dcdf6c4	0.100568324
4	0xbd97acfe	-0.074060425
5	0x3d9c9ae2	0.07646729
6	0x3e1d74ac	0.15376538
7	0x3cc9cf86	0.024635088
8	0xbdb5c69f	-0.088757746
9	0xbd0d886c	-0.03455393
10	0x3d13dfa7	0.036101963
11	0x3e12a88b	0.14322107
12	0xbe30bfc6	-0.17260656
13	0xbd4326ba	-0.047644354
14	0xbe68f1ea	-0.22748533
15	0x3e15be98	0.14623487
16	0x3d8a6f84	0.06759551
17	0x3db817c5	0.08988909
18	0x3e32b45d	0.17451616
19	0x3d8d09ee	0.068866596
20	0xbe0b0112	-0.13574627
21	0xbd95ddba	-0.073176816
22	0xbe3ec3d1	-0.18629386
23	0x3d53d819	0.05171976
24	0x3d99b8e6	0.0750597
25	0x3e1b1e25	0.15148218
26	0x3dde4926	0.10853796
27	0x3e1172f0	0.14204001
28	0x3dd0e847	0.102005534
29	0x3da16234	0.07880059

nn_fun1.0.weight f4 [30, 1]
0	0xbe202602	-0.15639499
1	0xbed9f222	-0.42567545
2	0x3f6df3c0	0.9295006
3	0xbf0fcf54	-0.5617573
4	0xbf710821	-0.9415303
5	0x3df3b141	0.11899043
6	0x3eee6b28	0.4656613
7	0x3b4f7f7b	0.0031661678
8	0xbe5e4334	-0.21705323
9	0xbf730843	-0.9493448
10	0x3f496a90	0.78678226
11	0xbf253682	-0.645363
12	0xbe59c338	-0.21265876
13	0xbe6bf797	-0.23043667
14	0xbdbfbb77	-0.09361928
15	0xbe28246a	-0.16420141
16	0xbe9471b1	-0.2899299
17	0x3f5267be	0.8218955
18	0xbeee14da	-0.46500283
19	0xbe5e71c4	-0.21723086
20	0xbe9ed320	-0.3102045
21	0xbf133bff	-0.5751342
22	0x3ca31b56	0.019910496
23	0xbe06690a	-0.13126007
24	0x3d2d64b4	0.042332366
25	0x3e2fb71c	0.17159694
26	0x3f01ebe2	0.50750554
27	0xbf81c41a	-1.013797
28	0xbe556711	-0.20840098
29	0xbe258e4b	-0.16167562

nn_fun1.0.bias f4 [30]
0	0xbf2e11f0	-0.6799612
1	0x3eb844fa	0.35990125
2	0xbcea23de	-0.028581556
3	0xbdf0341e	-0.117286906
4	0x3f336e58	0.70090246
5	0xbf342cdf	-0.7038097
6	0xbf1db809	-0.6160894
7	0x3f0dcc57	0.5538992
8	0x3d4d0677	0.050054993
9	0x3f00e53b	0.5034978
10	0x3d94fe7a	0.072751
11	0xbd63a6f7	-0.055579152
12	0xbf0751f3	-0.5285942
13	0x3b7548b4	0.0037427368
14	0xbef91db8	-0.48655486
15	0x3e93837d	0.28811255
16	0xbedf28dd	-0.43585864
17	0xbf4ee9d1	-0.80825526
18	0xbd347b93	-0.044063162
19	0xbf0d6e91	-0.55246836
20	0xbf1d2316	-0.6138166
21	0xbced37ec	-0.02895733
22	0xbd97f520	-0.07419801
23	0x3e003232	0.12519148
24	0x3f5a14fd	0.85188276
25	0x3e5247e7	0.20535241
26	0xbe1b7d2b	-0.15184467
27	0x3d80a50e	0.06281482
28	0xbf1be263	-0.60892314
29	0xbf079cac	-0.5297344

nn_fun1.2.weight f4 [30, 30]
0	0x3ccfea0a	0.025380153
1	0xbccfd38e	-0.025369432
2	0xbcfb1239	-0.030648338
3	0xbc078f29	-0.008273878
4	0x3d804dbb	0.06264826
5	0xbd583aef	-0.05279058
6	0xbc28a493	-0.010293144
7	0xbd802526	-0.062570855
8	0xbce6727b	-0.02813076
9	0x3e28e834	0.16494828
10	0xbb9a08fe	-0.004700779
11	0x3cf302f6	0.029664498
12	0x3dac71dc	0.084201545
13	0x3a176f30	0.0005776761
14	0x3db9fb4e	0.09081136
15	0x3d8b275d	0.06794617
16	0x3e08c756	0.1335729
17	0xbdd6ae46	-0.10482459
18	0x3bcc1808	0.0062284507
19	0x3da832f4	0.082128435
20	0xbd921f8f	-0.071349256
21	0x3d04d25f	0.032427188
22	0x3cef6f16	0.029227775
23	0x3d741e3f	0.059599157
24	0x3ddb5012	0.107086316
25	0xbde71982	-0.11284162
26	0x3cbca225	0.023026535
27	0x3d990f29	0.07473595
28	0xbacc69b1	-0.0015595463
29	0xbbde4192	-0.006782719
30	0x3d8bca6b	0.068257175
31	0xbc1d71bf	-0.009609639
32	0x3af35988	0.0018566111
33	0xbc479767	-0.012182093
34	0x3d1043f6	0.035221063
35	0xbd171064	-0.036880866
36	0x3d73dd36	0.059537135
37	0x3b8d6990	0.0043155625
38	0xb993bc67	-0.00028178396
39	0x3b472a70	0.0030390285
40	0x3c08f3db	0.008358921
41	0x3b2ee0c6	0.0026684268
42	0xbd779a66	-0.06044998
43	0x399609b1	0.0002861745
44	0x3c106152	0.0088122655
45	0xbc80a619	-0.015704202
46	0xbcde4a0a	-0.027134914
47	0x3ddeed19	0.108850665
48	0x3adbe840	0.001677759
49	0x3ce95d52	0.028486881
50	0x3db324f3	0.08747282
51	0xbb328380	-0.0027239025
52	0x3b5fc17a	0.003414242
53	0xbb0b9bc1	-0.0021302553
54	0x3d9462f0	0.07245433
55	0xbd1d96eb	-0.038474005
56	0x3a946b89	0.0011323552
57	0xba435895	-0.00074518594
58	0xbd0f7b03	-0.035029422
59	0x3d0bdb2e	0.034144573
60	0xbd1c94db	-0.038227897
61	0x3d8776b7	0.0661444
62	0x3d08e1da	0.033418514
63	0x3df20432	0.118172064
64	0xbda4a541	-0.08039332
65	0x3dbcbb6d	0.09215436
66	0xbce43727	-0.02785833
67	0xbd470afc	-0.04859446
68	0xbd995188	-0.07486254
69	0xbd3a74aa	-0.045521416
70	0xbc058e14	-0.00815155
71	0x3d51a9e3	0.051187407
72	0xbdf53584	-0.11973098
73	0xbc0f965f	-0.008763879
74	0x3d29423f	0.041322943
75	0xbd4e8a26	-0.050424717
76	0xbdc4bf9d	-0.0960686
77	0xbd6f4723	-0.05841745
78	0x3bf4b117	0.0074674
79	0x3d06aae6	0.032877825
80	0x3dce7748	0.10081345
81	0x3d748f26	0.05970683
82	0xbd228d41	-0.03968549
83	0xbd69bc27	-0.0570642
84	0x3cdf4f51	0.0272595
85	0x3e0fdc96	0.1404899
86	0x3dd78a28	0.10524398
87	0x3d0b0970	0.033944547
88	0x3da7c483	0.081917785
89	0x3dd20c7b	0.10256287
90	0x3ddab89a	0.10679741
91	0x3e22bbba	0.15891925
92	0x3d0193e9	0.0316352
93	0xbe31b834	-0.17355424
94	0xbdaee6dc	-0.08540127
95	0xbc7df3e4	-0.015500043
96	0xbdc8b0f2	-0.09799375
97	0xbdbcea66	-0.092243955
98	0x3d117de3	0.035520446
99	0x3d81358b	0.06309041
100	0x3da11a91	0.07866395
101	0xbe37d640	-0.17952824
102	0x3d0328d8	0.032021374
103	0x3c9d35a2	0.019190613
104	0xbd7c8d2d	-0.061658073
105	0x3d952e58	0.0728423
106	0x3e1a8490	0.15089631
107	0xbe246e17	-0.16057621
108	0xbcff64ba	-0.03117596
109	0xbe1a5bac	-0.15074033
110	0x3e1582ef	0.14600728
111	0xbe036de9	-0.12834896
112	0x3d7655af	0.060140308
113	0x3dd0ac6d	0.101891376
114	0xb98b801d	-0.00026607598
115	0xbdf90999	-0.12160034
116	0x3e0fef03	0.1405602
117	0x3d5a1c52	0.053249665
118	0x3e14fba3	0.14549117
119	0xbdd2b161	-0.102877386
120	0x3d70e5d2	0.058812924
121	0xbe07008b	-0.13183801
122	0xbd866a37	-0.065632276
123	0x3daecca5	0.085351266
124	0xbd71705c	-0.058945045
125	0xbd2e3ad1	-0.04253656
126	0xbdf14c08	-0.1178208
127	0xbdbdeffc	-0.09274289
128	0xbd993ebb	-0.07482668
129	0xbc456f7f	-0.0120505085
130	0x3d6cedb8	0.057843894
131	0x3bbafd5b	0.005706472
132	0xbc7ac17b	-0.015304918
133	0xbca77a8c	-0.020444177
134	0xbd8f765e	-0.070049986
135	0x3e333873	0.17502002
136	0xbdc21274	-0.09476176
137	0x3d89d803	0.06730654
138	0x3d6a9fc5	0.057281274
139	0x3e0934e8	0.13399088
140	0x3bf2bb97	0.0074076164
141	0x3b943b21	0.0045236503
142	0xbd3e3df5	-0.046445806
143	0x3d768f19	0.060195062
144	0x3e24f771	0.16110016
145	0x3d17b503	0.03703786
146	0x3e193d65	0.14964826
147	0xbdf4e819	-0.119583316
148	0x3cbd2760	0.023090065
149	0xbdb13fa9	-0.0865472
150	0xbdb11c92	-0.086480275
151	0x3d68c107	0.05682471
152	0xbeae98e2	-0.34101015
153	0x3dc613fd	0.09671781
154	0xbd91ff26	-0.07128744
155	0xbd69c071	-0.057068292
156	0x3db781b3	0.08960285
157	0xbd41b7a7	-0.047294285
158	0x3de4d582	0.11173536
159	0x3ceb8950	0.028752
160	0xbe8e33da	-0.27773935
161	0x3e83033c	0.25588405
162	0xbdbad951	-0.09123481
163	0x3cafdf6c	0.02146884
164	0xbdc88ff2	-0.097930804
165	0xbe102cae	-0.14079544
166	0xba989f89	-0.0011644225
167	0x3d926a43	0.07149174
168	0x3e09b3dc	0.13447517
169	0x3e11ac3a	0.14225855
170	0xbe1475ac	-0.14498013
171	0x3e012eff	0.12615584
172	0x3c72d429	0.014821091
173	0x3dbaf310	0.09128392
174	0xbe23c931	-0.15994717
175	0x3b920401	0.0044560437
176	0x3d245d8b	0.040128272
177	0x3ed21d57	0.4103801
178	0xbd0f4ff9	-0.034988377
179	0x3e114fad	0.1419055
180	0x3e00a5d7	0.12563263
181	0x3d908fe9	0.07058699
182	0xbe581b82	-0.21104243
183	0x3e462c85	0.1935292
184	0xbd36feb1	-0.044676486
185	0xbdb23291	-0.08701051
186	0x38cfb0e7	9.90348e-05
187	0x3e224d4c	0.15849799
188	0x3df7e811	0.1210481
189	0x3e50062a	0.20314851
190	0xbb2e28aa	-0.002657453
191	0x3dd3343f	0.103126995
192	0xbe211f4b	-0.15734594
193	0x3da35599	0.07975311
194	0x3df58599	0.11988372
195	0xbdb43d0d	-0.08800707
196	0x3d32328e	0.043505244
197	0x3d28cdfc	0.041212067
198	0x3cf47cde	0.029844698
199	0xbd172d1b	-0.03690825
200	0x3e21070a	0.15725341
201	0x3e33207d	0.17492862
202	0x3ddd8c04	0.108177215
203	0xbdc59a1c	-0.09648535
204	0xbd567f88	-0.052367717
205	0xbd8fbdd2	-0.07018627
206	0xbe2e93c1	-0.17048551
207	0x3eaab30a	0.3333972
208	0xbd528c39	-0.051403258
209	0xbc964750	-0.018344551
210	0x3d264112	0.0405894
211	0xbd876f45	-0.0661302
212	0xbe20a287	-0.15687
213	0xbdd509f3	-0.10402288
214	0x3e11d278	0.14240444
215	0xbde3cd89	-0.11123187
216	0xbd9af858	-0.07566899
217	0xbd82ffaa	-0.0639642
218	0x3d8ab5a1	0.06772924
219	0x3e2d0d79	0.1689967
220	0xbdf352ec	-0.118810505
221	0x3e299c29	0.16563477
222	0x3db40333	0.08789673
223	0x3d8e13ea	0.06937392
224	0x3d823cda	0.06359263
225	0xbd59bd26	-0.0531589
226	0x3dba743e	0.09104203
227	0xbe48bcd1	-0.19603278
228	0x3e450894	0.19241554
229	0x3d568bc4	0.052379385
230	0x3e219f0d	0.1578333
231	0x3e18de99	0.14928664
232	0xbdc6bc0e	-0.09703837
233	0x3da7eacb	0.0819908
234	0x3c52c468	0.01286421
235	0xbd976c36	-0.073936865
236	0xbd9dc287	-0.07703119
237	0x3eb74871	0.35797456
238	0x3c8ce1a6	0.017197441
239	0x3dd6c747	0.10487228
240	0x3daa3b0d	0.08312044
241	0xbc0fefe5	-0.008785223
242	0xba3ea95e	-0.00072731625
243	0x3c07d059	0.00828942
244	0xbd0be603	-0.034154903
245	0xbde5d6f2	-0.11222638
246	0x3d945560	0.072428465
247	0x3c784a37	0.015154413
248	0xb9ec9aa8	-0.00045128656
249	0xbc8ea258	-0.017411396
250	0xbc1b7700	-0.009488821
251	0x3ba7f8fd	0.0051261173
252	0xbcebbe36	-0.028777223
253	0xb9ea891f	-0.0004473412
254	0x3d814e53	0.06313767
255	0x3c274a4b	0.010210584

nn_fun1.2.bias f4 [30]
0	0xbde3e5a4	-0.11127785
1	0x3db2aebc	0.08724734
2	0x3decb6bb	0.115582906
3	0xbd33ef35	-0.043929297
4	0xbd8d8f84	-0.06912139
5	0x3dffa775	0.12483112
6	0xbc427bf8	-0.011870377
7	0xbd6a5141	-0.057206396
8	0x3d8547f7	0.06507867
9	0xbd9d4be3	-0.0768049
10	0xbd8bf1d7	-0.06833237
11	0x3d8a2a10	0.06746304
12	0xbe0cb47b	-0.13740723
13	0xbdb16e92	-0.08663668
14	0xbd2b9a2f	-0.041895088
15	0x3e04c0f5	0.12964232
16	0xbda4e08d	-0.08050642
17	0xbd6535a5	-0.055959363
18	0x3cb06836	0.021534067
19	0xbba472bb	-0.0050185598
20	0xbe154032	-0.1457527
21	0xbd4d7620	-0.05016148
22	0xbd5a8315	-0.053347666
23	0x3e4258cb	0.18979184
24	0xbc1438e7	-0.00904677
25	0xbe117e75	-0.14208396
26	0x3e05c378	0.13062847
27	0xbe1a34de	-0.1505923
28	0xbd7289b9	-0.059213374
29	0x3dde9b21	0.10869432

nn_fun2.0.weight f4 [30, 1]
0	0x3d897fd7	0.06713837
1	0xbe959f94	-0.2922331
2	0x3f96d6d9	1.1784316
3	0xbcf081e3	-0.02935881
4	0x3e2b024f	0.167001
5	0xbef466fd	-0.47734824
6	0x3e59b8d9	0.2126192
7	0x3f7083ba	0.93951
8	0x3e67992f	0.22617029
9	0xbe520399	-0.20509185
10	0x3efe1773	0.49627265
11	0x3d915196	0.070956394
12	0xbf60f7cf	-0.87878126
13	0x3f1dc981	0.61635596
14	0x3e881f46	0.2658636
15	0xbf560b7d	-0.8361128
16	0x3db5d5a6	0.08878641
17	0xbe193061	-0.14959861
18	0x3b61f4fe	0.0034478302
19	0x3f2068d5	0.6265996
20	0x3c62538e	0.013813866
21	0xbdd84b82	-0.10561277
22	0x3d20253a	0.039098002
23	0xbd86be02	-0.0657921
24	0x3d8697f9	0.06571955
25	0xbf542c21	-0.82879835
26	0xbbd371c0	-0.006452769
27	0xbf273751	-0.6531878
28	0xbe839c3b	-0.25705132
29	0x3e1459d7	0.14487396

nn_fun2.0.bias f4 [30]
0	0xbf0a45ed	-0.5401295
1	0xbef12cf3	-0.47104606
2	0xbf506526	-0.8140434
3	0x3f596da9	0.84932953
4	0x3efc96a7	0.4933369
5	0xbf2ca0f3	-0.6743309
6	0x3ddec14c	0.10876712
7	0xbf396383	-0.7241747
8	0x3ea4f75f	0.3221998
9	0x3f0f46e1	0.5596753
10	0x3e6bc73a	0.23025218
11	0x3ec6a66d	0.38798848
12	0x3f5b2776	0.8560709
13	0xbcac6dff	-0.021048544
14	0x3eb8bdc9	0.36082295
15	0x3f4f5f2d	0.810046
16	0xbf2ea7f1	-0.6822501
17	0xbece40b4	-0.4028374
18	0xbf43aa06	-0.7643131
19	0xbf25b740	-0.6473274
20	0xbf3df26a	-0.7419802
21	0x3f1c5942	0.61073697
22	0xbf13cc68	-0.57733774
23	0x3e943514	0.28946745
24	0xbf25022b	-0.64456433
25	0x3f4530c5	0.7702754
26	0x3f213a30	0.6297941
27	0x3f25fb31	0.6483641
28	0xbf0b83a3	-0.54497737
29	0xbe8b9269	-0.2726014

nn_fun2.2.weight f4 [30, 30]
0	0xbdf19de3	-0.117976926
1	0x3dd6f2b4	0.10495511
2	0xbe2b66fb	-0.16738503
3	0x3d8b3c93	0.06798663
4	0x3cb970aa	0.02263673
5	0xbcdb5959	-0.026776003
6	0x3d341ce6	0.043972872
7	0xbd13973c	-0.0360329
8	0xbdaea496	-0.08527486
9	0x3dc57e43	0.09643223
10	0xbd4418e1	-0.04787529
11	0xbd17252c	-0.036900684
12	0x3d6972e8	0.05699435
13	0x3d6e008d	0.058105994
14	0xbdcc7aee	-0.099843845
15	0xbddd4514	-0.10804191
16	0x3e02c9d1	0.127723
17	0xbd805e98	-0.06268042
18	0x3d8eeb3f	0.069784634
19	0x3df1fd44	0.11815885
20	0x3df79400	0.12088776
21	0x3c8663af	0.016404955
22	0x3d843afa	0.064565614
23	0xbd916501	-0.07099343
24	0xbdd67d87	-0.10473161
25	0x3dbdc5fc	0.09266278
26	0xbcd0ee31	-0.025504204
27	0x3cb5c7da	0.022190023
28	0xbd78fe37	-0.060789313
29	0xbd3b6da9	-0.045758877
30	0x3dfb4507	0.12269025
31	0xbde285e6	-0.11060695
32	0x3d5d0fee	0.05397027
33	0xb97b8311	-0.00023986051
34	0x3d991f8f	0.074767224
35	0xbdc3f3b2	-0.095679656
36	0xbd965486	-0.0734034
37	0xbcc4ab86	-0.02400757
38	0xbd9f47b6	-0.0777735
39	0x3db6fbc2	0.08934738
40	0x3d2ab9df	0.041681167
41	0xbd71346a	-0.058887877
42	0x3db8ebe0	0.090293646
43	0xbd714f1d	-0.05891334
44	0x3d1a1607	0.037618663
45	0xbdfd6b6d	-0.123740055
46	0xbc3029f4	-0.01075219
47	0xbd5d14a4	-0.053974763
48	0xbdcc6557	-0.099802665
49	0xbdd16925	-0.10225133
50	0x3de794af	0.11307656
51	0xbdcf9d8c	-0.101374716
52	0x3d35d5dd	0.04439341
53	0xbb7a5d17	-0.0038202459
54	0xbe06e6b6	-0.13173947
55	0xbd9d82b6	-0.07690947
56	0xbcfa9e5c	-0.03059309
57	0xbd40cc26	-0.04706969
58	0xbdbbdb99	-0.09172744
59	0xbc189f6d	-0.009315354
60	0x3cd58bd9	0.026067661
61	0x3bfe2e95	0.007757018
62	0x3ba909f6	0.005158658
63	0x3dd7e027	0.105408005
64	0x3dd667cd	0.10469017
65	0x3d8619a8	0.06547862
66	0x3d479b00	0.048731804
67	0x3df62848	0.12019402
68	0x3d92b07c	0.07162568
69	0xbd6cd4d9	-0.057820175
70	0x3dc58697	0.096448116
71	0x3d9f5b58	0.07781094
72	0x3e022f86	0.12713441
73	0x3e19d40e	0.15022299
74	0x3c2daddf	0.010600536
75	0xbe177fb0	-0.14794803
76	0xbe04dd96	-0.12975153
77	0xbcebb525	-0.0287729
78	0xbdeb3db5	-0.11486379
79	0xbbce4c60	-0.0062957257
80	0x3c800862	0.015628997
81	0xbdaf59b6	-0.08562033
82	0x3d18829c	0.037233934
83	0xbc1d077b	-0.009584303
84	0x3d2a122c	0.041521236
85	0xbdd413a7	-0.10355311
86	0xbd6685ad	-0.056279827
87	0x3d5149be	0.051095717
88	0xbbc1702d	-0.005903265
89	0x3e00034b	0.12501256
90	0x3d117f80	0.035521984
91	0x3d3bcc5d	0.045849193
92	0x3c349a33	0.011023092
93	0x3e03661b	0.12831919
94	0xbcb97562	-0.02263898
95	0xbdad4c47	-0.084618144
96	0x3ce235a3	0.027613467
97	0xbdc9a464	-0.09845808
98	0xbde0fd3d	-0.10985801
99	0x3d6ff93b	0.058587294
100	0xbbd84f7c	-0.006601272
101	0x3dc22789	0.09480197
102	0x3d880a00	0.06642532
103	0x3c398ac4	0.011324588
104	0xbd55b2fd	-0.05217265
105	0xbe094ed0	-0.13408971
106	0x3d9f6c80	0.077843666
107	0x3cac0764	0.020999618
108	0xbd6a4ad1	-0.057200257
109	0x3d807b1a	0.0627348
110	0x3db8b259	0.09018392
111	0x3df374d8	0.118875206
112	0xbba049e0	-0.004891619
113	0x3da93374	0.08261767
114	0x3e34a0c5	0.17639454
115	0x3dc76f06	0.09737973
116	0x3e01d797	0.12679897
117	0xbd698b12	-0.057017393
118	0x3d9fb075	0.077973284
119	0x3e1054f4	0.14094907
120	0xbd3c1d75	-0.04592653
121	0x3db5568b	0.088543974
122	0x3d90009c	0.07031366
123	0xbc1da26b	-0.009621243
124	0xbd143249	-0.03618077
125	0xbde2f904	-0.11082652
126	0x3db22cf8	0.08699983
127	0x3c886999	0.016651915
128	0x3d66fbcd	0.05639248
129	0xbe009b97	-0.12559353
130	0x3dc0061e	0.09376167
131	0x3d2a9e99	0.041655157
132	0x3e20b8fa	0.15695563
133	0xbbba50a3	-0.005685882
134	0xbd518f97	-0.05116233
135	0xbd892fde	-0.06698583
136	0x3e1434a7	0.1447321
137	0xbe36db87	-0.1785718
138	0x3e1b18e5	0.15146215
139	0x3cb305a8	0.021853283
140	0xbe3937ef	-0.18087743
141	0x3d2eb3c1	0.042651895
142	0x3d84ed9d	0.06490634
143	0x3e281c78	0.1641711
144	0x3e01a78a	0.12661567
145	0xbdb907e2	-0.09034707
146	0x3dd0aae3	0.10188844
147	0x3c319f4e	0.010841204
148	0xbe25198f	-0.16123031
149	0x3e080cab	0.13286082
150	0xbda08b3c	-0.07839057
151	0x3e2e0f32	0.16997984
152	0x3e55735c	0.20844787
153	0x3e19d588	0.15022862
154	0x3e1fe76a	0.15615621
155	0xbd9aed28	-0.07564765
156	0x3e376ef8	0.17913425
157	0x3e3f1b90	0.18662858
158	0x3e2dc26f	0.16968702
159	0xbdac5014	-0.08413711
160	0x3e18fa2f	0.14939187
161	0x3d2ad7b9	0.041709635
162	0xbe24d68c	-0.16097468
163	0xbdb43a93	-0.08800235
164	0xbd1aafc0	-0.037765265
165	0xbe0aaeb5	-0.13543208
166	0x3c9139b5	0.017727712
167	0xbe12d2a6	-0.14338169
168	0xbdaba6a8	-0.083813965
169	0x3e1d9710	0.15389657
170	0xbdf342d1	-0.118779786
171	0xbd39ab45	-0.04532935
172	0xbbf42e56	-0.0074518127
173	0xbcf7fbc9	-0.030271428
174	0xbe313a9c	-0.17307514
175	0x3c439dc4	0.01193947
176	0x3dbc6f72	0.09200944
177	0x3def8888	0.11695963
178	0xbdad0f7d	-0.0845022
179	0x3da3eebc	0.08004519
180	0x3df4badf	0.11949705
181	0x3d344135	0.0440075
182	0xbe0453ff	-0.12922667
183	0x3cccbdc8	0.024992839
184	0x3cdc86f9	0.026919829
185	0xbe342d7a	-0.17595473
186	0x3ba2d7a5	0.0049695545
187	0xbda50803	-0.08058169
188	0xbe08e279	-0.13367642
189	0x3c451436	0.012028744
190	0x3d369a2e	0.04458063
191	0x3e1a9891	0.15097262
192	0xbcc00a9c	-0.023442559
193	0x3d0a47c3	0.033759844
194	0xbda12a79	-0.07869429
195	0x3d97709f	0.07394528
196	0xbd1471fc	-0.036241516
197	0x3d1d18e4	0.038353816
198	0x3dc8858f	0.09791099
199	0x3de780e5	0.113038816
200	0xbdb0df3d	-0.08636329
201	0xbd8424df	-0.06452345
202	0x3e193e8e	0.14965269
203	0x3dd94519	0.106088825
204	0x3e198add	0.14994378
205	0x3e1a8d69	0.15093006
206	0xbe0175a4	-0.12642533
207	0x3e0b03ee	0.13575718
208	0xbca2341c	-0.019800238
209	0xbd9090fe	-0.07058905
210	0x3e32d8bf	0.17465495
211	0x3d871c7b	0.06597229
212	0x3e03d0cf	0.12872623
213	0xbda56bc7	-0.080771975
214	0xbda8f219	-0.082493015
215	0x3e4184a6	0.18898258
216	0x3dab5ab7	0.08366912
217	0x3e003181	0.12518884
218	0x3de8e3be	0.113715634
219	0x3a071ad7	0.0005153841
220	0x3dbee248	0.093205035
221	0x3c552ebd	0.013011632
222	0x3dce0a06	0.100605056
223	0x3b0f6f53	0.0021886423
224	0x3dcc9535	0.099893965
225	0xbd88f125	-0.0668662
226	0x3dc0af12	0.09408392
227	0xbe1d8aad	-0.15384932
228	0x3decfde6	0.11571865
229	0x3c058673	0.008149731
230	0xbdd67d71	-0.10473145
231	0x3e0c8309	0.13721861
232	0xbe130573	-0.14357547
233	0x3dfe0d92	0.12404932
234	0x3db72749	0.0894304
235	0xbd8dca2f	-0.06923329
236	0x3dc17970	0.094469905
237	0xbe2cd255	-0.1687711
238	0x3d0e244a	0.034702577
239	0xbdd11e3f	-0.10210847
240	0xbd133873	-0.035942506
241	0x3d30143b	0.042988043
242	0x3cf8de7d	0.030379528
243	0x3bec6350	0.0072139874
244	0x3d2de951	0.042458836
245	0xbc959d4f	-0.018263487
246	0x3a12973a	0.00055919925
247	0x3d871ba7	0.06597071
248	0xbcc77ea9	-0.024352388
249	0xbcd4bac2	-0.02596796
250	0x3a11a35a	0.00055556523
251	0x3d14fc3a	0.036373354
252	0x3c4bc0e5	0.012436126
253	0xbaa3df55	-0.0012502471
254	0x3c34a547	0.011025733
255	0x3d07d129	0.033158455

nn_fun2.2.bias f4 [30]
0	0x3d17efb0	0.03709382
1	0xbe159b8c	-0.14610118
2	0xba612e35	-0.0008589954
3	0xbc1b61e3	-0.009483787
4	0xbc7ab3fd	-0.015301702
5	0xbe2fa2ae	-0.17151901
6	0x3d4325c9	0.047643457
7	0x3dc4dec9	0.096128054
8	0xbcef355b	-0.029200247
9	0x3df025e1	0.11725975
10	0x3d7a460d	0.061101962
11	0x3d47b723	0.048758637
12	0xbd58e705	-0.052954692
13	0x3e0f5374	0.13996679
14	0xbdb27bb8	-0.08715004
15	0x3d7f296a	0.062295355
16	0xbdbbbbca	-0.09166677
17	0x3e0d67e3	0.13809161
18	0xbde27485	-0.110573806
19	0x3ddc4ce1	0.10756851
20	0xbd1c0d80	-0.038098812
21	0xbdbc0fc7	-0.09182697
22	0xbe16c790	-0.14724565
23	0xbd0dd2d9	-0.034624908
24	0xbb0f108a	-0.0021829926
25	0xbd745588	-0.05965188
26	0x3d8cf37d	0.06882379
27	0x3e1f4710	0.15554452
28	0x3db07e8c	0.08617887
29	0xbdca14a0	-0.09867215

agg.0.weight f4 [1, 30]
0	0xbbe260d4	-0.0069085155
1	0xb9a71843	-0.000318708
2	0x3c77ea6b	0.015131573
3	0xbd8eebbb	-0.06978556
4	0x3dac72db	0.084203444
5	0x3dc1a391	0.09455026
6	0xbd4052d9	-0.04695401
7	0x3d280bc6	0.041026853
8	0x3b82514b	0.003976976
9	0xbc1ec7f6	-0.009691229
10	0x3c3c3457	0.011487088
11	0xbc39e125	-0.011345183
12	0x3d884fc2	0.066558376
13	0x3c9556fb	0.018229952
14	0xbd43cd66	-0.047803305
15	0xbcf3c094	-0.029754914
16	0x3bf2a434	0.0074048284
17	0x3d388b01	0.04505444
18	0x3ce2808a	0.027649183
19	0x3d9542d1	0.07288135
20	0x3c5e189b	0.013555671
21	0x3ce745de	0.028231557
22	0x3cf1410b	0.02944996
23	0xbd6f5850	-0.05843383
24	0xbd8f5aa6	-0.06999712
25	0x39aa4cbd	0.000324821
26	0x3bacfb4c	0.0052789804
27	0x3ca40cdb	0.020025661
28	0x3d164dd2	0.03669531
29	0xbd81d8fa	-0.06340213
