multiple_model_analysis/results/er_experiment_PD_size_10_36_alpha_0_scale_100_dynwght_False_std_reg_1.0_equiv_reg_0.0/neural_network.pth (torch, 16501 bytes, 14 tensors)

g.0.weight f4 [30, 1]
000000 8a e1 5e 3f 96 9f a0 be 4f 3f 09 bf 3c 1e 5f bf
       0.87062895 -0.31371754 -0.53612226 -0.8715551
000010 d6 e2 fe be 98 bc 77 3e 0e c5 96 3e 67 74 3c bf
       -0.49782437 0.24193037 0.29447216 -0.73615116
000020 aa 14 a9 3e 75 e9 01 bf 00 7f 07 bf b9 b9 3f 3f
       0.33023578 -0.5074685 -0.5292816 0.74892765
000030 f7 5e 06 3f e9 65 82 be f0 47 ce bd 33 45 00 3d
       0.52488655 -0.25468376 -0.10072315 0.031315994
000040 ca c8 31 3f 0e fd cd be 0a ab 37 3f a7 2b 9f be
       0.69447005 -0.40232128 0.7174536 -0.31087992
000050 25 59 0b 3f 17 30 2f 3f 53 f9 07 bf bf fb f6 3e
       0.544329 0.68432754 -0.53114814 0.48238942
000060 d6 1e 41 bf 4f a6 5a bc 20 c2 75 be 9f 4b 2d 3e
       -0.75437677 -0.013345315 -0.23999834 0.16923378
000070 86 bf 5b 3f 2c 74 5e bf
       0.85839117 -0.86896014

g.0.bias f4 [30]
000000 71 3b 38 bf 71 07 be 3d 8b d3 5f 3e 59 78 e2 be
       -0.719657 0.09278763 0.21858041 -0.44232443
000010 60 04 29 bf 6c fe d0 bd 4c 19 35 3f cd 46 54 3f
       -0.660223 -0.10204777 0.70741725 0.82920533
000020 12 25 f1 3e 9d e0 1a be 41 6d 55 bf 12 9f f0 be
       0.47098595 -0.15124746 -0.83369833 -0.4699636
000030 fc 05 42 be 91 5c 3a 3e bb 7a 80 be 50 2a ce 3e
       -0.18947595 0.18199374 -0.25093636 0.40266657
000040 b4 4a 1e 3f 6f ad 30 bf f1 21 ab be be c5 1c bf
       0.6183274 -0.6901464 -0.33424333 -0.6123923
000050 e5 a8 a5 be 5f 05 31 bf 06 2b 18 3f 6c 31 e6 be
       -0.3235542 -0.6914882 0.5944065 -0.4495958
000060 5b a9 97 be 05 5f 3e 3f 14 19 08 bc 52 9a 1a 3f
       -0.29621395 0.7436374 -0.00830676 0.60391724
000070 dc 2e 98 be a8 57 14 3f
       -0.2972325 0.5794625

g.2.weight f4 [30, 30]
000000 8f c4 0f 3d 0f 5d 79 ba 70 ab b4 3c 1c cd 6b bd
       0.035099562 -0.0009512463 0.022054404 -0.057568654
000010 5d db d5 3d 88 ef c9 bb f5 35 94 bd 43 95 8a bd
       0.10442231 -0.0061625876 -0.07236854 -0.06766751
000020 89 0f e2 3d fd 63 b5 bd 4f 68 f5 bc 8d 17 04 bc
       0.11038119 -0.08856962 -0.029956965 -0.008062256
000030 62 1f d9 3c a9 8d 88 3b b6 b9 94 bd 9c 37 e3 bb
       0.026504222 0.004167278 -0.07261984 -0.0069341194
000040 8e ea 27 be 65 4c 62 bc db 96 04 bd 46 99 26 3c
       -0.1639807 -0.013812159 -0.03237043 0.010168379
000050 a1 18 0a bc 20 76 21 bd c6 75 eb bd 7e 67 c1 3d
       -0.008428724 -0.039419293 -0.11497073 0.09443568
000060 de ed b7 bd 5c 61 7d 3d ae 8b af 3c 97 ed 97 bc
       -0.089809164 0.061860427 0.02142891 -0.018545909
000070 4a 51 ec bc 3c ba cd 3b c7 69 95 3d dd 7a c3 bd
       -0.028847355 0.0062783044 0.07295566 -0.09544919
000080 53 42 fc 3c 6e 27 f7 bd 02 da 58 3d 4b 4a 69 bd
       0.030793345 -0.120680675 0.052942283 -0.056955617
000090 8e 91 6a 3c 24 60 2e be c6 90 54 3d 99 11 de 3c
       0.0143169295 -0.17028862 0.05189588 0.027108
0000a0 4f 56 60 3d e7 98 38 be 0a 28 4f bc 53 c2 30 3e
       0.05476981 -0.18027078 -0.012643823 0.17261629
0000b0 ea 37 47 3d 89 e8 0e be e0 43 84 3d db 93 3f be
       0.04863731 -0.13955893 0.06458259 -0.18708746
0000c0 ba e8 62 3d b9 fb 14 be 07 61 a0 bd 28 a2 0b be
       0.055397727 -0.1454915 -0.078310065 -0.13636076
0000d0 3c b6 00 be 55 c5 eb bd 33 fd ac bd 65 6a ff 3d
       -0.12569517 -0.115122475 -0.084467314 0.12471465
0000e0 2e b9 ef bd 37 8f c3 3c 61 4d a9 bd ce e8 6a 3c
       -0.11705242 0.023872001 -0.08266712 0.0143377315
0000f0 e1 de d7 3d 00 3d 9e 3d 65 de 97 3d a0 f8 e1 3d
       0.10540558 0.077264786 0.07415465 0.110337496
000100 be 72 04 3e bc 45 be 3d b2 22 26 3e 0a c3 de bd
       0.12934396 0.092906445 0.16224173 -0.108770445
000110 ec 3e 5b 3c ea a3 f5 3d e5 ad 06 be 86 94 58 bd
       0.013381701 0.11994155 -0.13152273 -0.052876018
000120 14 18 1e be 27 88 33 bd 0f 2e ac bd 8d 97 db bd
       -0.15438873 -0.043831017 -0.084072225 -0.107222654
000130 a6 c2 b5 3d 92 74 a2 3d 85 d6 40 bd ce 43 20 bd
       0.08875017 0.0793239 -0.04707958 -0.039127164
000140 41 6a bc bd fe ab 06 bd cb 99 c5 bb 81 61 25 bd
       -0.09199954 -0.03287887 -0.0060302964 -0.04037619
000150 b1 d7 ed 3d fd 99 a7 3c 72 e0 06 3e 18 71 14 3d
       0.116134055 0.02045917 0.13171557 0.036240667
000160 94 f0 ca 3d fa e7 c1 3d 74 4a 58 3e 03 6b b7 bc
       0.09909168 0.09468074 0.21122152 -0.022389894
000170 6f c7 17 be c1 73 82 bc 3c f5 0e be 62 25 f3 bd
       -0.14822172 -0.015924336 -0.13960737 -0.118723646
000180 f6 01 82 bd 6c e3 89 bd 7c fe 63 bd 8b cf 2a be
       -0.0634803 -0.067328304 -0.055662617 -0.16680734
000190 a2 03 07 be 28 07 08 be d5 c4 13 3e f7 a7 32 3e
       -0.1318498 -0.1328398 0.14430554 0.17446886
0001a0 0f 7a b3 3d 49 53 8f 3d 0d ea 9c bc 6c be 0e 3e
       0.08763515 0.06998307 -0.019154573 0.13939828
0001b0 fe 18 53 bd c1 57 08 bd 70 ae 8a 3c 7b 03 22 3d
       -0.051537506 -0.033286814 0.016928881 0.0395541
0001c0 71 a2 4b bd ef af c4 bd b0 c5 f2 3d 9f 36 2e 3e
       -0.049715463 -0.09603869 0.11854112 0.17013024
0001d0 4a bd 8e bd 81 8e 0b 3e 11 86 15 3e 7c f6 fc bd
       -0.06969698 0.1362858 0.14601924 -0.12351701
0001e0 10 83 07 be 85 f7 c2 39 3d 46 d6 bb db cd c1 3d
       -0.1323359 0.0003718698 -0.006539135 0.09463092
0001f0 c4 0a a5 bd 2d 71 b9 bd 30 f1 1f 3e 63 16 1a 3e
       -0.08058694 -0.0905479 0.1561935 0.15047602
000200 4e 3f 19 3b 7a 96 f0 3d 83 63 46 bc ca 33 9b 3d
       0.002338368 0.11747451 -0.012108686 0.07578237
000210 de aa 22 be 14 c6 a4 3c 16 7b de 3c d8 00 f7 3d
       -0.15885493 0.020113982 0.027158301 0.12060708
000220 bc 71 94 bd 3f 7a 48 bd 79 81 90 3c bb ff 5b 3c
       -0.072482556 -0.048944708 0.017639862 0.01342767
000230 4e 6a 8b bd a2 39 89 3d 33 a0 93 bd 11 2a 09 be
       -0.068073854 0.06700446 -0.0720829 -0.13394953
000240 82 c8 0f 3e 5b d7 09 3c 34 9c e9 3d 25 27 71 bd
       0.14041331 0.008413161 0.114067465 -0.05887522
000250 18 28 3d bb b0 ec 42 3e 54 6e 3c 3d 1b aa 15 be
       -0.002886301 0.19035602 0.046003655 -0.14615671
000260 1a a9 2b 3d 7d 20 c2 3d 04 1b 02 3d ad ef b7 3d
       0.041909315 0.09478853 0.031764045 0.089812614
000270 90 22 02 3d 4f d0 6b bd 12 b2 42 3e b4 2d 87 bd
       0.031771243 -0.057571705 0.19013241 -0.06600514
000280 58 43 b3 3d 2a 3a b0 3d 72 f3 a2 3d e2 b9 64 3b
       0.08753079 0.08604844 0.0795659 0.0034900834
000290 fd 9a ee bd cc f0 b8 bd 18 7b 0d be f8 ee 55 bd
       -0.116506554 -0.09030303 -0.13816488 -0.05222985
0002a0 70 ee 21 3e 3b 35 1f 3d 57 51 1c 3d b3 60 cf bd
       0.15813613 0.038869124 0.03816351 -0.10125866
0002b0 1a b1 dc bd 86 76 83 3d 4d 35 21 3d e3 35 3e 3e
       -0.10775967 0.06419091 0.039357472 0.18575244
0002c0 31 f6 ba 3d 0f bd 9a 3d 41 1a 2f bd d0 81 01 bd
       0.091289885 0.07555591 -0.042749647 -0.03161794
0002d0 7c 4d 00 3a d0 5e 08 bd c9 40 55 bc a2 ff 19 3d
       0.00048943586 -0.033293545 -0.013015934 0.037597306
0002e0 07 1c ad bc dc ed a2 3b d2 ed 34 bd c0 44 01 3d
       -0.021131529 0.0049722027 -0.044172116 0.031559706
0002f0 d3 9d d6 3d 40 ad 5a 3d 4f f7 7b bc 7d ed 25 3d
       0.10479321 0.05338788 -0.015378787 0.04050969
000300 e0 8a a3 bc 5d b0 d7 bb 52 75 a4 bd 5a ad 27 3d
       -0.019963682 -0.0065823034 -0.080301896 0.040936805
000310 50 83 29 bd a8 af 0e 3e f4 dc 77 bd 03 f0 ae bd
       -0.041384995 0.13934195 -0.06051345 -0.08541872
000320 b5 39 69 3c 39 47 42 3d 04 53 13 3c e2 81 57 bd
       0.01423495 0.047431204 0.00899196 -0.0526141
000330 28 bb 91 bc 5f bd 34 bc 24 98 c5 3c 8c c7 44 3d
       -0.017789438 -0.011031478 0.024120398 0.048041865
000340 63 70 84 bd a9 ea c2 bc 02 aa 8b 3d 56 20 80 bd
       -0.064667486 -0.023793535 0.06819536 -0.062561676
000350 15 bc a8 3c 7f 6a b2 3d 6b ab 8a bd 3d c4 18 3d
       0.020597497 0.08711719 -0.06770977 0.037296522
000360 ce 3c a7 3d a0 bf 81 3d 4e fc 82 3d 08 e0 46 bd
       0.081658944 0.06335378 0.063957796 -0.048553497
000370 7a 70 02 be b5 2b 88 3d 02 4f 3f bd ec fc c7 3c
       -0.12738219 0.066489615 -0.046706207 0.024412595
000380 f3 fc 9c 3d 7d 81 23 3e 87 57 a6 bc ec 3d 74 3b
       0.07665434 0.15967365 -0.020305408 0.0037268354
000390 ed 65 9e 3d 06 74 0b 3e 8f 42 08 bd 6a 4f 06 3d
       0.077342845 0.13618478 -0.0332666 0.03279058
0003a0 72 d5 e8 bd df 31 d0 bd f8 4e 5d bd 8d 95 86 3d
       -0.113688365 -0.10165762 -0.05403039 0.06571493
0003b0 69 1d 8b bd 45 83 e7 bd f6 4e fd 3b 86 b8 73 3d
       -0.06792719 -0.113043346 0.00773036 0.059502147
0003c0 18 06 bd bb 91 59 97 3a 53 24 4c 3b 45 27 b7 3b
       -0.0057685487 0.0011547079 0.003114958 0.005589398
0003d0 e7 d5 3a bc 7e f5 32 bb de e6 dd bb d6 79 2e bc
       -0.011403537 -0.002730697 -0.0067719063 -0.010649165
0003e0 ee a3 81 3c 00 ab 39 3c 07 dd b9 3c 29 21 83 bc
       0.015825238 0.0113322735 0.022688402 -0.016007023
0003f0 37 c3 4a bb cc f1 6c 3b 86 34 9c bc 65 80 ab 3b
       -0.003093911 0.0036154864 -0.019068014 0.0052338117

g.2.bias f4 [30]
000000 99 78 70 3d 68 15 2d bd 0c 75 38 3d 7e d9 1a be
       0.05870876 -0.042256743 0.0450335 -0.15122029
000010 f2 74 cc 3a b1 cf 95 bb 58 63 27 3c 51 99 1c be
       0.0015598817 -0.004571878 0.0102165565 -0.1529286
000020 25 50 2c bd ff 60 09 3e fc a7 15 3e 32 30 81 bd
       -0.04206862 0.13415907 0.14614862 -0.06308021
000030 05 21 35 3c 5a 10 25 be aa ec 9f 3a 54 b7 13 3e
       0.011055236 -0.16119519 0.0012201269 0.14425403
000040 4d 32 12 be 2c c1 78 3d 5c 18 dc bd 10 b6 a1 bd
       -0.14277 0.060731098 -0.10746834 -0.07896054
000050 f4 cb d6 bd 03 78 03 3e d2 de 40 3d e7 e7 2f be
       -0.1048812 0.1283875 0.047087498 -0.17178307
000060 a0 77 5d 3d d3 a9 e4 bd 8b 31 d7 bd dd b2 60 3e
       0.05406916 -0.11165204 -0.105074964 0.21943231
000070 70 a8 46 bc f9 7e 33 3e
       -0.01212512 0.17528905

g.4.weight f4 [1, 30]
000000 67 61 0d ba 61 f2 3d bd 29 1a f1 3b 7f 35 15 bd
       -0.0005393237 -0.04637373 0.007357855 -0.03642797
000010 c6 db 87 3b ec 0d 0c bb c0 24 83 b9 c1 88 63 ba
       0.004146072 -0.0021370603 -0.00025013648 -0.0008679741
000020 b8 7a 2b 39 45 0a d5 3d 6c 80 79 3d 51 87 2e 3d
       0.00016353547 0.104023494 0.06091349 0.042609517
000030 26 7b e3 bb 4b f8 19 bd 72 5b b3 38 f5 01 af 3b
       -0.0069421707 -0.037590306 8.552418e-05 0.0053408095
000040 b0 49 d0 ba 5f 8d 57 b9 5c f5 fb 39 61 1a 6d ba
       -0.0015891101 -0.00020556663 0.00048057258 -0.0009044763
000050 de 2a c5 b9 8f 56 34 bb e7 33 19 be 08 07 31 3e
       -0.00037606707 -0.0027517413 -0.14961205 0.17287838
000060 4c ef b6 be 3b c3 97 3d bd 13 9c bb de 83 f3 bd
       -0.35729444 0.07410284 -0.004763095 -0.11890386
000070 0f 78 f4 3d a0 f8 9e bc
       0.11936962 -0.019405663

nn_fun1.0.weight f4 [30, 1]
000000 de 71 22 bf d1 41 3d 3f 1f 64 a3 be 96 ba 6e 3f
       -0.63455 0.7392855 -0.31912324 0.9325346
000010 50 0a 74 bf 07 37 eb be 1e 63 0f 3f 69 92 f1 3e
       -0.95328236 -0.4594042 0.56010616 0.47182015
000020 32 79 a4 bd e1 79 14 3d 1f d5 5b be b2 7f 3a 3f
       -0.08030929 0.036249045 -0.21468018 0.728511
000030 04 d6 73 bd 18 7d 66 bf 5b 06 0c 3e 89 8e 3f bf
       -0.059530273 -0.9003463 0.136743 -0.74826866
000040 e6 63 1b bf 15 3f 02 be f8 0e a6 3e e5 7e 08 3f
       -0.6069931 -0.12719376 0.32433295 0.53318626
000050 6b e9 40 3f 34 47 12 bf f2 63 3b bf 6a d3 1e bf
       0.7535617 -0.571399 -0.7319938 -0.6204134
000060 b3 3e 48 bf fb 0d a6 be f8 ce 0e 3f 9e 58 66 3e
       -0.7822067 -0.3243254 0.5578456 0.22494742
000070 65 99 a3 be 99 54 3a bf
       -0.31952968 -0.72785336

nn_fun1.0.bias f4 [30]
000000 bd 57 0d 3f 19 84 e3 3e f4 38 11 bf 00 49 4a bf
       0.55212003 0.4443672 -0.5672753 -0.7901764
000010 64 3b 52 3f 45 71 3f 3f b2 d5 46 bc dc 47 1b 3f
       0.8212187 0.7478221 -0.01213591 0.60656524
000020 ce a2 73 be ea 4b 71 3e 25 74 e2 3e cc ef ab 3e
       -0.23792574 0.23564115 0.44229236 0.33581388
000030 23 04 f6 bd 4a 2f 1a 3f 92 c4 76 3e d8 4f 37 bf
       -0.12012508 0.6022841 0.24098423 -0.71606207
000040 45 5a 6c 3e a8 a0 d8 3e 3c ae a5 bd 27 ea 46 3b
       0.2308131 0.4231007 -0.08089873 0.0030351968
000050 68 33 21 bf ef 3a 33 3c fa 5b b7 3e de e9 bc be
       -0.62969065 0.010939344 0.3581236 -0.36897177
000060 59 e8 72 3e b6 8e 44 bf 73 e2 f4 be 71 62 a4 3c
       0.23721446 -0.7678026 -0.47829017 0.020066472
000070 96 cb 8c 3e ae c6 a1 3e
       0.27499074 0.31596893

nn_fun1.2.weight f4 [30, 30]
000000 fa 13 88 bd c1 de 44 bd 64 5d 62 3c f0 0d 7d 3d
       -0.06644435 -0.048063997 0.013816211 0.06178087
000010 d1 85 bb bd 21 da 07 3e b5 fb 9c 3b 1f 32 93 bd
       -0.09156383 0.13266803 0.004790748 -0.07187294
000020 0d 2f 9b 3d 81 ae d1 bd d6 5a 51 3d 15 f1 88 bd
       0.075773336 -0.10238362 0.05111202 -0.06686608
000030 73 73 07 3d 9f 04 a6 3e a3 70 0e 3e 8f f3 0a 3e
       0.033069085 0.324254 0.13910155 0.13569473
000040 01 0e 6d bd df a4 80 bd f8 e8 d9 3d 91 62 bc bd
       -0.057874683 -0.06281447 0.106401384 -0.091984876
000050 19 1b 2e be 11 3f 14 3e 11 79 17 3e 79 bb 27 be
       -0.17002524 0.14477183 0.14792277 -0.16380109
000060 d1 eb 17 3e 38 73 ec bc 6b 70 99 bd 21 cc 9e bd
       0.1483605 -0.028863534 -0.07492145 -0.07753778
000070 e1 16 cf bd 87 06 e1 3d 0d 11 b4 bd 30 8d c7 bc
       -0.10111786 0.10987573 -0.08792315 -0.024359316
000080 5e 54 2f be 5a 19 e2 3c bb 03 08 3e 1e 3d a4 bc
       -0.17122027 0.02759998 0.13282673 -0.020048674
000090 b4 ea 59 3d e8 d6 9a 3c d2 41 99 bd a3 27 b6 3d
       0.053202346 0.018901303 -0.07483257 0.08894279
0000a0 f7 ec a3 bb 19 b7 0f bd 83 48 47 bd de 7e 5a 3d
       -0.0050026136 -0.035086725 -0.048653137 0.053343646
0000b0 88 93 64 bd 25 d0 07 3e 84 89 7b 3c 22 e4 82 3b
       -0.05580476 0.13262995 0.0153526105 0.0039944807
0000c0 f5 f2 8f bc 22 f1 bc bd 89 5c 50 3c 58 5a 3d 3d
       -0.017571906 -0.0922568 0.012717375 0.046228737
0000d0 40 fd 71 bd 12 e1 ee 3b 19 67 e9 3c 9c 1d 0e be
       -0.05907941 0.007290014 0.028491544 -0.13878483
0000e0 28 02 12 3d 4c 05 9f bd 0d 34 d0 bc 48 ec 46 bd
       0.035646588 -0.07764682 -0.025415445 -0.04856518
0000f0 2c c2 4a bd 2a d6 0d 3d 51 08 04 bd 84 15 bc bc
       -0.049501583 0.03462807 -0.032234494 -0.022959478
000100 fe 65 97 3c bd c3 87 3b 74 bd b1 3c 2f 1d 14 3d
       0.01848125 0.004143207 0.021696784 0.036160644
000110 1e ce ae 3d a0 be d2 bc 6b 3f 73 bc 24 cb 02 bd
       0.085354075 -0.025725663 -0.014846663 -0.03193201
000120 57 24 76 3c f7 9a 0b 3d a1 1e 25 bd e1 6b b0 bd
       0.0150233125 0.034083333 -0.040312413 -0.08614326
000130 a4 04 e3 3c 15 49 b2 3c 9b ca 98 bc 3c 70 b3 bd
       0.027712174 0.021763364 -0.018651297 -0.087616414
000140 b1 f6 61 3d 33 3e 32 3c d7 81 11 3d a6 04 b2 3d
       0.055166904 0.010879087 0.035524216 0.08692293
000150 d2 ab 97 3d 46 58 0d bd 74 96 59 bd 8d 54 ea bc
       0.07405819 -0.034508012 -0.053122 -0.02860477
000160 f3 af a5 3c 7f 5b 14 3d 93 cd 0b be 0e c8 b9 bd
       0.0202255 0.03622007 -0.13652639 -0.090713605
000170 00 5b 3e bd 0c e6 c6 bd be 76 e1 bd d2 b8 89 bd
       -0.046473503 -0.09711847 -0.110089764 -0.06724705
000180 03 c7 80 bd 10 7f f2 bd 17 59 56 bc 79 9e 8e ba
       -0.062879585 -0.118406415 -0.013082764 -0.0010880969
000190 b0 55 60 3d 67 05 23 3e 13 dc 99 bd 70 00 fe bb
       0.054769218 0.1592003 -0.07512679 -0.007751517
0001a0 bf 11 9e 3d 38 5f 53 3d 90 0a d0 bc 0d b8 30 bd
       0.077182285 0.05160448 -0.025395662 -0.043144275
0001b0 f3 0a 26 3d 6e c1 75 3c 9f cb d3 bc 1a 9e b4 bd
       0.040537786 0.0149997305 -0.02585393 -0.08819218
0001c0 bd b6 e2 bd 49 e0 ba bd b8 6e d5 bd 36 3e c9 3d
       -0.11070011 -0.0912481 -0.104215086 0.09826319
0001d0 e3 39 72 bd 66 c5 7a 3d db 28 5c bd 8a 98 14 bd
       -0.059137236 0.06122341 -0.0537499 -0.036278285
0001e0 88 9c 03 3d 0a d8 c9 bd 0c 3e 87 3d a6 22 a4 3d
       0.0321317 -0.09855659 0.066036314 0.08014421
0001f0 a8 62 24 3e ca d0 41 bc e3 b0 31 3d 53 13 25 bd
       0.1605326 -0.011829564 0.043381583 -0.040301632
000200 1f 9d 1f be 7f f2 a6 bb 83 23 01 3e c9 0d 6b bd
       -0.1558728 -0.0050948258 0.12611203 -0.057386193
000210 cd 8c 81 bd 64 ea 32 3e 28 6d 16 3e c5 c4 ef 3d
       -0.06325684 0.17472225 0.14690077 0.11707453
000220 c9 42 08 3e 71 86 35 bd 87 f5 33 3c a1 d1 fe bd
       0.13306727 -0.044317666 0.010983831 -0.12442327
000230 19 b4 4c 3d 08 4a e4 3d 57 45 ac 3d df 9a 02 bd
       0.049976442 0.11146933 0.08411663 -0.031885978
000240 cf b8 23 bd 90 9c 7c bc 8c f8 98 3d 0b ec bf 3d
       -0.03997117 -0.015418187 0.074692816 0.093711935
000250 97 2f 23 bd ba 7b 1c 3e 85 07 7b bd 3a da bf bd
       -0.039840307 0.15281573 -0.061286468 -0.09367795
000260 20 22 20 3e e0 6e 40 3e 18 07 31 bd ef 86 16 3e
       0.15638018 0.18792295 -0.043219656 0.1469991
000270 5c e4 2d 3e c7 f8 24 3b bb 64 c8 bd d2 bd 3f 3d
       0.16981643 0.0025172697 -0.09784838 0.046811886
000280 74 77 1c 3e c6 e8 e3 bd e0 8a 1a 3d 7a 77 41 be
       0.15279943 -0.111283824 0.037730098 -0.18893233
000290 be 8f 0e be 80 7a 3a bd a0 42 27 be 76 13 00 3e
       -0.13922021 -0.04552698 -0.16334009 0.12507424
0002a0 28 3a 5b 3d 4b 05 56 b9 66 f9 b8 bd 46 bf 26 3e
       0.05352226 -0.00020410602 -0.09031944 0.16283903
0002b0 42 d5 4a ba 66 bb 0b bd c9 cb 8c bd 01 18 b5 bc
       -0.00077374664 -0.034114264 -0.068748064 -0.022106173
0002c0 e2 1c fd bd ed 34 a1 3d 96 92 0a be 39 1e 81 3d
       -0.123590246 0.07871423 -0.1353248 0.06304593
0002d0 81 c7 88 3d f8 ba 80 3d a8 5e 02 be c6 cd 02 3e
       0.06678677 0.062856615 -0.12731421 0.12773809
0002e0 cc 3b e5 bc ae 05 81 bd eb 24 c4 bb c6 c3 3c bd
       -0.027982615 -0.062999114 -0.0059858463 -0.04608514
0002f0 af dd fb 3d c4 60 ad bb d2 35 66 bc db 08 b8 3d
       0.12298142 -0.0052910764 -0.014050918 0.08986064
000300 ca f9 4c bc 08 93 3f bd dd 6b aa 3d 3e b5 98 bd
       -0.012510726 -0.04677108 0.083213545 -0.07456444
000310 0b 75 53 ba e5 a8 e2 bd 3c 59 a2 3c 30 58 d2 3d
       -0.0008066452 -0.1106737 0.01981794 0.10270727
000320 db f4 b8 3c c5 83 84 3d b4 e3 83 bd 9b 25 aa 3c
       0.022577694 0.064704455 -0.06439915 0.020769885
000330 41 f8 a8 bd a2 82 b3 3d 84 93 00 bd b9 a1 fb 3c
       -0.08250476 0.087651506 -0.031390682 0.030716764
000340 ed 23 5e 3d e7 21 d1 3c 0e 4f c4 3c 2f 6e d9 bd
       0.05423348 0.025528861 0.023963477 -0.10616719
000350 8b 9d fd 3d 07 a8 fd bb de 0c 97 bc 91 1f 12 3c
       0.123835646 -0.0077409777 -0.018438753 0.008918659
000360 ef c4 2b 3e 25 30 0d be 65 59 ff bc f0 33 9c bd
       0.16774343 -0.13787897 -0.031170556 -0.07627094
000370 b0 c6 18 be 17 1c 1c bd ac 7a a1 bd b4 a3 94 bd
       -0.14919543 -0.038112726 -0.07884726 -0.072577864
000380 85 60 09 3e ad 4a cb 3d 6d 71 a5 bd 96 33 b2 3c
       0.13415726 0.09926353 -0.08078275 0.021753114
000390 54 30 b4 3d 8b d1 45 bd ab 4c df 3d 4e bd 11 be
       0.0879828 -0.04829554 0.10903295 -0.1423237
0003a0 b2 b1 14 3c c9 59 f0 bd 26 1c c4 3d c6 c1 2b 3e
       0.009075569 -0.11735875 0.095756814 0.16773137
0003b0 52 07 f1 bd 1d b4 04 be b1 fa d5 3d 88 cc 52 3d
       -0.11768974 -0.12959333 0.10448206 0.051464587
0003c0 72 53 c0 3d d4 06 53 3e 5b 78 f2 bd 55 fe 87 3d
       0.09390916 0.20608073 -0.11839362 0.06640307
0003d0 81 21 1d 3e f2 63 82 3d 8b 4b 84 bd 8a 23 ba bd
       0.15344812 0.06366719 -0.06459721 -0.0908881
0003e0 a3 7c e6 3d ed 40 06 3e 68 2e ca bb 61 f4 9b bd
       0.11254241 0.13110705 -0.006170083 -0.07614971
0003f0 90 40 71 bd 58 2a 77 bc aa 02 1e 3d 39 ce ac 3d
       -0.058899462 -0.015085779 0.03857676 0.08437771

nn_fun1.2.bias f4 [30]
000000 77 1c 9e 3d 12 4b 64 bd 22 cb 32 3b d6 c3 70 bd
       0.07720273 -0.055735655 0.002728172 -0.058780514
000010 46 da 3d 3e 09 8c 77 3c 80 bc 89 bd 35 51 1a 3e
       0.18540296 0.015109071 -0.06725407 0.1507004
000020 57 18 b6 bd 96 1b 5d 3c 1d f8 db bd 2c a5 22 3d
       -0.08891361 0.0134953465 -0.10740683 0.0397083
000030 7c a7 35 3e 34 f0 b1 bc d0 d4 19 3d 27 85 a1 3d
       0.17739671 -0.021720983 0.03755647 0.07886725
000040 e1 2a 9e bd 9b 88 fb 3d 1c 02 35 bd d9 d3 ac bd
       -0.07723022 0.12281915 -0.044191465 -0.08438844
000050 52 19 a2 bb 9c 82 6a 3c ab 19 19 be 35 c6 bb bc
       -0.004946866 0.014313366 -0.14951198 -0.02292166
000060 4d f2 c3 bb bc 72 ed bc 01 42 90 3d bd 95 ac bc
       -0.0059798122 -0.028985374 0.07043839 -0.021067495
000070 9b 1b 9f bd 05 e3 d2 3d
       -0.07768937 0.10297207

nn_fun2.0.weight f4 [30, 1]
000000 6f 85 86 3e 1a e1 64 3f 88 43 c2 be 7a 55 ec be
       0.26273677 0.8940598 -0.37942147 -0.46158963
000010 3a 3f 25 bf 8f 67 0c 3e 33 0d 6e 3f 92 2c 61 bb
       -0.645496 0.1371138 0.9298889 -0.0034358841
000020 d1 4a 5c bf 69 a4 be be 07 01 44 3f 8c d9 f1 be
       -0.8605166 -0.3723481 0.7656407 -0.47236288
000030 59 67 19 3f 22 96 ba 3d 8c be 3c bf e1 68 3a bf
       0.5992332 0.09110667 -0.7372825 -0.7281628
000040 89 9a bc 3e a1 62 74 be 37 4a 6b be db 94 16 be
       0.3683665 -0.23865749 -0.2297753 -0.14705221
000050 db 73 22 be 6d e9 3e 3f 35 a2 78 bf 2a 3a c1 3e
       -0.15864508 0.7457493 -0.9712251 0.37739688
000060 55 4f 28 bf c5 87 92 be 45 9b cb 3e c6 55 9d be
       -0.6574605 -0.2861921 0.397669 -0.30729502
000070 4e af 06 be ad df 40 be
       -0.13152811 -0.18835326

nn_fun2.0.bias f4 [30]
000000 cb 38 1f be 29 6b 1f bf d3 ac 49 3f 3d c6 fc 3e
       -0.15549009 -0.6227289 0.78779334 0.49369994
000010 ae 1e 3b be 08 20 61 bf 6c b3 86 bf da 60 57 3f
       -0.18273422 -0.879395 -1.0523505 0.8413216
000020 07 0a b5 3e 17 2c e8 3e 48 24 b9 3e 50 f6 39 bf
       0.35359213 0.45346138 0.36160493 -0.7264147
000030 23 e7 f6 be 9e e8 57 be ff e6 47 3f 28 6e 53 3e
       -0.48223218 -0.2108483 0.7808685 0.2064749
000040 a5 a1 96 be 52 a9 50 3f 31 bf c6 be 57 22 62 be
       -0.294202 0.8150836 -0.38817742 -0.22083412
000050 44 73 8e be 58 d8 0d 3f 38 7b 58 3f ac ef 1a bf
       -0.27822316 0.5540824 0.84563017 -0.6052196
000060 8a 7d a9 be 06 d7 70 3f f5 c2 e2 3e 67 2a 8f 3c
       -0.3310359 0.940781 0.44289365 0.017476274
000070 b6 d6 17 bf 2e 1e 38 bf
       -0.59312 -0.7192105

nn_fun2.2.weight f4 [30, 30]
000000 85 a4 c2 3d 9f ce 15 be 5e b0 39 bd 62 48 25 3e
       0.09504036 -0.14629601 -0.045334212 0.16140893
000010 59 e2 ca bd 81 c7 2c 3e 5d 1c be bd b2 98 a9 3c
       -0.09906454 0.1687298 -0.092827536 0.020702694
000020 cf 2e c7 3d a0 10 24 bd 63 98 1e be 8f ee cb 3d
       0.09725725 -0.040054917 -0.15487818 0.09957611
000030 aa 57 39 3d bd 3c 0b 3d d9 10 56 3d 8b 04 53 3d
       0.04524962 0.03399347 0.05226216 0.051518004
000040 2c 66 54 bd 97 93 85 bd b6 c5 d1 bd bb a7 08 be
       -0.05185525 -0.06522291 -0.102427885 -0.13345234
000050 8a 33 24 be c7 7f c9 3c a7 95 e2 3d 01 2b 8b 3c
       -0.16035286 0.024597062 0.110637 0.01698828
000060 df 72 ad 3d 61 62 cb bc 4d 3b 12 3c 4a 9f c7 3d
       0.084691755 -0.024827184 0.008925271 0.09747179
000070 5b b3 1b be a9 62 14 3e a4 12 00 3d d8 4b 76 3c
       -0.15205137 0.14490761 0.031267777 0.015032731
000080 10 24 c1 3d ab 6e 4a 3c 50 0c a8 3d 3c d7 15 be
       0.094307065 0.012355487 0.082054734 -0.14632887
000090 4b 37 85 3d 59 fd 09 3e 75 c4 8c 3c 43 50 84 bd
       0.06504687 0.1347555 0.017183522 -0.06460621
0000a0 60 b0 c2 3d d0 cb 38 3d b9 cd 9e 3c d5 00 68 3c
       0.09506297 0.045116246 0.019385206 0.014160355
0000b0 33 e4 5d bd 97 2f bc 3d c0 62 36 3c 54 a5 2d bc
       -0.054172706 0.091887645 0.011131942 -0.010598499
0000c0 2e b2 0c bc 19 b5 0e bd 65 64 5a 3d d4 ed de 3b
       -0.008587403 -0.034840677 0.0533184 0.0068032537
0000d0 b2 93 13 bd c8 d9 9e 3d 58 2e 29 3d 5f 84 90 3d
       -0.036029525 0.07756382 0.041303962 0.07056498
0000e0 4e b9 f6 bd 93 e9 d0 3c 31 3e 45 bd 10 6e 84 bd
       -0.12047063 0.025502002 -0.048155013 -0.06466305
0000f0 fa d1 2a 3d 23 2f 04 bb 58 7e f0 3d d0 93 d5 bd
       0.041704156 -0.0020169697 0.11742848 -0.104285836
000100 23 bb 97 3c 31 d5 e6 bc a0 43 05 3e d7 b7 f4 bd
       0.01852185 -0.02817783 0.13014078 -0.11949127
000110 4c 8b c0 bd a3 cc 36 3d 27 c6 a1 b9 80 c0 1b 3e
       -0.09401569 0.04462875 -0.00030855948 0.15210152
000120 ea 5c bd 3c e9 64 63 bc d0 9d 50 bd 47 40 a7 bd
       0.023115594 -0.013879039 -0.05093175 -0.08166557
000130 43 5f d1 3a dc d0 ed bd e0 eb c4 3d 91 1f e0 3d
       0.0015973825 -0.116121024 0.09615302 0.10943521
000140 f0 8b 76 bc 27 85 b6 3d 44 93 9b bd 9f ec f3 3d
       -0.015048012 0.089121155 -0.07596448 0.11910366
000150 53 76 f3 bd b9 82 02 3e 01 3d 10 3c 36 2a c4 3d
       -0.11887803 0.12745179 0.008803607 0.095783636
000160 38 6f 13 be 7c f9 0a be 26 0f 6b 3c 88 b2 12 bc
       -0.14397895 -0.13571733 0.014346873 -0.008953698
000170 0c 68 3a 3d 1c f1 46 bb e8 17 8d 3d d5 fe 60 bb
       0.045509383 -0.0030356115 0.068893254 -0.003433158
000180 cc cf 38 be d8 e4 29 bd 8d db 18 be 49 c5 07 be
       -0.18048018 -0.041478008 -0.14927502 -0.13258852
000190 8e 7a 74 bd 50 d8 26 be e0 4d a2 ba fb ea 01 be
       -0.05968719 -0.16293454 -0.0012382828 -0.12687294
0001a0 1c 34 57 bd a0 73 4a 3d f5 6c e8 3c 69 8d 63 bd
       -0.05253993 0.049426675 0.028372267 -0.05555478
0001b0 c8 77 c3 3d b3 5b 9f 3d a8 2c 3e 3d e9 d2 75 bd
       0.09544331 0.07781162 0.046429306 -0.060015593
0001c0 5f d0 93 bc 28 f1 c0 3d ff 24 a9 bd ae 7a 1f be
       -0.018043695 0.09420997 -0.082590096 -0.15574142
0001d0 4b 11 e1 3d 81 73 a3 bd e3 31 c1 bd 4f cb 03 3d
       0.109896265 -0.07981015 -0.09433343 0.032176312
0001e0 4c a4 3f bd 46 59 6d be 1f 09 be bd 37 c6 32 bd
       -0.046787545 -0.23178586 -0.092790835 -0.043646064
0001f0 8e 00 8b bd bb 03 8f 3d 25 a8 49 be 77 2b 0f be
       -0.06787215 0.069831334 -0.19693048 -0.13981424
000200 07 ac 8c 3b 58 6c 04 3d 0c fe e2 bd 98 90 21 3e
       0.004292968 0.032329887 -0.11083612 0.15777814
000210 e0 5a 3c 3d 90 ad 9d 3d 7e a7 60 3d 06 81 09 bd
       0.045985103 0.0769912 0.054847233 -0.033570312
000220 db 8b 23 bd ae 1a fe 3d 82 ea 6e bd f0 b0 9e bd
       -0.0399283 0.124074325 -0.058329113 -0.07748592
000230 9d 5e 16 ba 78 ac be bd 50 2f 8d 3c b0 09 9a bd
       -0.00057361444 -0.093102396 0.017234474 -0.07521379
000240 db be 8a bd 17 8b 2f be 6b 8e 26 bc 84 9b d1 bc
       -0.06774684 -0.17142902 -0.010165791 -0.025586851
000250 cf e2 d5 bd 3e cf e0 bd a6 07 ac bd 31 ef 31 bb
       -0.10443651 -0.10977028 -0.08399896 -0.0027150626
000260 ff 27 f2 3a d9 8f 0c bd f9 15 c9 bd 0f d6 21 3d
       0.0018475055 -0.03431687 -0.09818644 0.039510783
000270 ed 68 0e be 6a 4d 27 3e b7 97 8e 3d 10 56 06 3d
       -0.13907214 0.16338125 0.06962531 0.03279692
000280 39 4c b6 bd 31 34 bc bd e9 a9 38 3d 18 46 7c 3c
       -0.08901257 -0.09189642 0.045083914 0.015397571
000290 03 bf 96 bd 50 a2 2a be c6 5c 2f 3d 6b 26 83 bd
       -0.07360651 -0.1666348 0.042813085 -0.06403812
0002a0 71 f1 d5 3d 5d 9b 1c be 02 5b 84 3a cc 18 6d 3c
       0.10446442 -0.15293641 0.0010097923 0.014471244
0002b0 c6 f5 e2 bd ba 83 00 bd ab 06 08 3c 88 ab 0c be
       -0.11082034 -0.031375624 0.008302371 -0.13737309
0002c0 4a ce 11 bd 63 4e 1f be fb ed 4d 3d 20 3e b2 bd
       -0.035597123 -0.15557246 0.050275784 -0.08703256
0002d0 9a bb 5d bc 64 a0 82 bd 7c 0d 12 bd 8a 89 f7 b9
       -0.013533497 -0.06378248 -0.03565739 -0.00047213986
0002e0 b0 81 34 3b ad df bc bd bb 00 da bd 66 35 dc 3c
       0.002754312 -0.0922235 -0.106446706 0.026880931
0002f0 5e 4c 53 3d 4c dc 55 bd 99 48 19 3d 00 ba d4 3b
       0.0515865 -0.052212045 0.03742275 0.0064918995
000300 17 be e8 bc 27 16 2b 3d 92 27 a4 3c ca 54 a3 3d
       -0.028410954 0.041769173 0.0200384 0.079751566
000310 a2 b4 ab bc 4b d1 a4 3d 77 3f 50 bd ed f0 2a 3c
       -0.020960156 0.08047732 -0.050841775 0.010433418
000320 e9 86 bc bd f7 66 28 3d 63 aa 7d 3d 44 0d b8 3d
       -0.092054196 0.04111382 0.06193007 0.08986905
000330 f2 e8 0d 3e 9f 5e 1d 3d 4d 34 c7 bd e1 7a 91 bb
       0.13858393 0.038420316 -0.097267725 -0.004439697
000340 b2 d6 b7 bd e0 de ed 3d 4f 6f b1 3d d7 dc 38 be
       -0.08976497 0.11614776 0.086638086 -0.18052994
000350 10 cd 1c 3e cd fb 7a 3d 98 f9 ef bd d7 d7 e9 3d
       0.153126 0.061275292 -0.11717528 0.11418121
000360 13 d5 65 bd 3e c2 63 3c 43 e6 a5 bd 16 17 e1 bc
       -0.056111407 0.013901291 -0.081005596 -0.027476829
000370 09 85 a2 3c 15 9b 0f be 96 9d 36 39 79 2b de bd
       0.019838827 -0.14024003 0.00017415578 -0.108481355
000380 7e 7f e4 3d 5b a1 49 be b5 47 46 3e 3b 8e e0 bc
       0.1115713 -0.19690458 0.19363292 -0.02741157
000390 3f 95 d7 bd 6c 25 14 be 6f 26 df bd 58 11 25 3d
       -0.10526513 -0.144674 -0.108960025 0.040299743
0003a0 cc c8 54 3e 95 be 30 3e cc 1d 2d be d1 61 ac bd
       0.20779723 0.17260201 -0.16905898 -0.084170945
0003b0 34 42 3a be b0 fa de 3d cd 2b 9b 3c 2a 27 fb 3d
       -0.18189317 0.108876586 0.018941784 0.12263329
0003c0 b1 57 7e 3d 61 65 f3 bd db 49 c3 3d 99 b8 a4 bd
       0.062095348 -0.11884571 0.09535571 -0.08043022
0003d0 4b 04 3d 3c 49 1a 38 3d ed db 0c be e7 18 10 be
       0.011536668 0.044946942 -0.1375577 -0.14072
0003e0 15 f2 fb 3d 5c 18 2e 3e 3a a0 bd 3c 43 87 94 bd
       0.12302033 0.1700148 0.023147691 -0.072523616
0003f0 16 06 00 3d e3 ec 4b bd 54 7b e7 bd d5 5a 2f be
       0.031255804 -0.04978646 -0.1130282 -0.17124493

nn_fun2.2.bias f4 [30]
000000 6e de e1 bc 28 d7 d6 bd fe ac 2e bb e6 34 2b 3d
       -0.027571883 -0.104902565 -0.0026653404 0.041798495
000010 bd ef 21 3d 09 b4 fd bd d1 e5 df bd 8f 3c 35 be
       0.039535273 -0.123878546 -0.10932506 -0.17698883
000020 1c 1b 2e 3d e7 72 9f 3d 3a 2f 89 3c d7 7f 39 3e
       0.042506322 0.07785588 0.016746152 0.18115173
000030 62 0b 27 bd 2c 6f aa 3d 21 68 8c bd 26 28 94 bc
       -0.04078234 0.083219856 -0.068557985 -0.01808555
000040 78 1a 46 be 98 5f 77 bb 1f fd 0d 3e cb 64 c8 bd
       -0.19346035 -0.0037746187 0.1386609 -0.0978485
000050 25 43 3b 3d 17 5c e8 3d d0 b4 06 be 57 8c ac bb
       0.04571833 0.1134569 -0.13154912 -0.0052657533
000060 9b cc 1d 3e 29 0b f9 bd 5f 22 9b 3d fe 56 5e bc
       0.15410082 -0.12160332 0.07574915 -0.013570545
000070 2f 94 f8 bd 70 b6 1f 3e
       -0.12137639 0.15596938

agg.0.weight f4 [1, 30]
000000 83 48 47 3d 99 ab b4 bc 16 5d 19 bc d6 92 4c bb
       0.048653137 -0.02205448 -0.009360572 -0.003121545
000010 14 85 a7 3d e1 65 8c bd f4 d3 8b bc 29 c9 ca bd
       0.081796795 -0.06855369 -0.01706884 -0.099016495
000020 eb b8 a6 bd 60 3d 87 3c 03 f5 08 bd c1 75 55 bc
       -0.08140739 0.016508758 -0.033436786 -0.013028563
000030 1e 44 9e bd 3b c3 00 be 5d d1 16 3c fc c5 19 38
       -0.07727836 -0.12574475 0.0092051895 3.666243e-05
000040 e6 f4 fa bd 52 15 8b bd bf 87 a6 bc a0 ca b2 bc
       -0.12253742 -0.06791176 -0.0203284 -0.021825135
000050 14 4b a6 3d fe 2e 70 bc 8f db 87 bc 40 a1 76 bb
       0.08119789 -0.014659641 -0.016584186 -0.0037632734
000060 fd 9d 08 3d d0 ac e5 bb 98 06 fc b9 6f 67 99 b9
       0.033353794 -0.0070091262 -0.00048070098 -0.00029259498
000070 73 5b 66 bd 60 a3 91 bd
       -0.056239557 -0.071112394
