multiple_model_analysis/results/er_experiment_MAK_size_10_1_alpha_0_scale_100_dynwght_False_std_reg_1.0_equiv_reg_0.0/neural_network.pth (torch, 16627 bytes, 14 tensors)

g.0.weight f4 [30, 1]
00000000: afbd 183f 4446 19bf 4df9 483f 0a10 00bb
00000010: 7d34 d8be 2f60 4c3e 527f e0be ccd9 d0be
00000020: e4dd 08be a31d 31be ae4b 8cbe 214f 283e
00000030: 1b8d 69bf 281c 243f b684 6a3f b6c0 bcbd
00000040: 6938 6ebd c79e 47bf 6c24 853e 5b87 3d3f
00000050: 6343 473f 71e0 803e c6d8 a93e 0a2f 5e3f
00000060: 02e0 273e 1d50 fabe 83eb 11bf 7cb3 4e3e
00000070: b262 be3e 3fd0 693f
0.59664434 -0.5987284 0.785054 -0.001954081 -0.42227545 0.19958566 -0.43847138 -0.40791166
-0.13365895 -0.17296462 -0.2740149 0.16436435 -0.91230935 0.64105463 0.9160875 -0.09216444
-0.058159266 -0.7797665 0.2600435 0.7403466 0.778372 0.25171235 0.33173198 0.86790526
0.16394046 -0.48889247 -0.5699999 0.20185655 0.37184674 0.91333383

g.0.bias f4 [30]
00000000: 2802 c8be 965b 9a3e 13be acbe 9bf4 12bd
00000010: da11 f23e d587 6ebf 2d41 293f c88d f13e
00000020: 4e37 1bbf 9bac c93e 5477 223d 5e05 75bd
00000030: 82d6 83be 7b49 71bf 8930 a4bd 60f2 503e
00000040: 829d 123d fa1e dabe 01a3 f1bd 4d9d 293e
00000050: e525 b3be e539 12bf b8a8 0cbf cefd 36be
00000060: 3475 cb3e c613 623f 5bf2 803e d0e1 2c3e
00000070: 9c04 153f 25c8 bdbe
-0.39064145 0.30148 -0.33738765 -0.035877805 0.47279245 -0.93176013 0.66115075 0.47178483
-0.60631263 0.393895 0.03966458 -0.05981957 -0.25749594 -0.9425275 -0.0801707 0.20404959
0.035794742 -0.42601758 -0.11798669 0.16563912 -0.3498985 -0.5711959 -0.54944944 -0.17870256
0.39737856 0.8831142 0.25184903 0.16883016 0.5821016 -0.3706676

g.2.weight f4 [30, 30]
00000000: 044b 35bb d914 873d 5190 503e 6c84 8c3d
00000010: 9ff2 3ebe 868f 1c3e 608e 4bbe b37b 1d3d
00000020: 04b9 883d 0157 6e3c cb2d 07be 9053 bebd
00000030: e078 f23d 00e1 453e aa65 8fbd c40b db3d
00000040: da85 a8bc 2da1 87bd f7e9 dcbd 2fd9 b9bc
00000050: 368e 223d 7980 083e 57e1 4bbd d07a 51bd
00000060: d581 61be a6e6 c23d ac71 a0bb c843 35be
00000070: 1fc4 5cbd 92b7 a53d 6545 0c3d 0c30 3bbc
00000080: a913 5cbb 2920 31bd a8f9 2bbd 018a 06bd
00000090: 861c bc3c 91ac c33d 0380 5abb dff1 d43d
000000a0: a015 d83d a61e 44bd aeda 0fbc 22d7 89bd
000000b0: 5910 333d 3840 4ebd b785 d23c 21a1 423c
000000c0: d89d 6bbd b59e c4bd a7f4 88bc d79b a8bd
000000d0: 746a 2c3d 1665 663b 1109 ca3d b26d 0bbe
000000e0: d742 cbbb f368 01be 0737 2abb 903f 433c
000000f0: cae7 febd fa64 fa3d 470c 243c 6213 313e
00000100: 7662 5ebd 2db5 023e 69ce 0d3e 971b babd
00000110: ff0a b9bc 4e88 953d 9c82 fdbd 372b 9b3d
00000120: 2b46 c2bd 9fbb 483e 7528 ecbd 32ad dabd
00000130: 59ab 113e d95f 72bd 49ae e83d 64d9 e43d
00000140: 46f9 303e 7d43 1abe 90d4 db3c 0e47 32bd
00000150: 8412 cb3c 7f31 27be cc3d c23d ec6d cebc
00000160: 7519 dabd d334 acbd fcff 0f3d 837b bdbc
00000170: e478 de3d 5649 1bbc 3ba2 e73d 4fab c4bd
00000180: e478 203d b2b3 273b 180b 63be 6a2c 303e
00000190: 1f0c 32be b291 1b3e e048 02be becb 343d
000001a0: d0c9 523e a794 28bd 41dc dd3d 89dd 7bbd
000001b0: aefa 84bd 11ee 083e 7801 9f3d 5bb6 c63d
000001c0: 9834 71be 3fcc 4c3e 1dc5 4b3e ffec 7b3e
000001d0: c74a fb3c 5fcb ffbc ce4a 503e 6f28 283e
000001e0: 2a97 a1bd 65da 44bc ec5e 183d e5fe 043e
000001f0: 698a f23d 24f0 063e 9124 afbd 8cef c5bc
00000200: 851b 91bd 2a10 ba3d 888d 0e3d 1b1e e2bd
00000210: cb3a 9abc 5cbb 19be e13e 35be 33d2 2b3e
00000220: 930f a0bd 3f9f a43d c31e bbbc b6dd 2fbd
00000230: 8574 a5bc a550 073e fc1d e4bc 5d0d dd3d
00000240: 9fbb cb3d df1e 013e 74e5 18be eb9d a7bd
00000250: c4af 12be 9e22 7cbd e40f 0fbd 209b 023d
00000260: d23d 9c3c def8 8f3d b6b8 e7bd 500a cabd
00000270: 385d ef3d 61e3 2f3c cf7a 683d b06c bbbd
00000280: 4c15 58bc f9b3 ff3c c155 c1bd b9da ea3d
00000290: 88ed 443d 91c9 c7bd b068 36bd e54d dbbc
000002a0: 1410 773c 8493 9cbd 3b2f 3b3d a74f 1ebe
000002b0: 3a41 acbd ec8f eebd 6764 033d 8f4a 913c
000002c0: 47aa e5bc 185c 013e c2c6 1ebe 3783 5d3b
000002d0: 88f0 ffbc 68c6 c5bd 24ea 81bc 8d5a cabd
000002e0: 2341 52be dc98 0b3e 8540 ffbd e686 063d
000002f0: 76cb 35bd 2cdd c1bd cc9b 8a3d 2004 d23d
00000300: 9a12 c2b8 a63d 2a3e 5f80 d13c 3b5c 423d
00000310: 0bae f43d 8215 fb3d 9e50 a4bd 83aa b7bd
00000320: 0c04 0d3e ee36 1a3e 830e 463d ce0c ac3d
00000330: 9060 1fbe 0f67 253d 65bd e43b 25bc 26be
00000340: eee7 0ebe b982 44bc e180 803c c408 93bd
00000350: 326b e1bc 9c9c aebc 5462 b6bd 351b 9dbb
00000360: 3dea 46bc bbd2 763d 45d8 ec3d 891f bcbd
00000370: f8b2 a03d 79fc f93b 3dbd d0bd 8e5e b4bd
00000380: ce9f 123d 2598 403d 3a45 66bc a464 bbbd
00000390: 6e75 a53d 35e1 dd3c 7e06 a9bd 78a8 27bd
000003a0: dfd2 5bbd b956 94bd f074 b0bd 1e24 04be
000003b0: aa2f 153e 1fca 13be 76aa 2a3e 2d3b c7bd
000003c0: 6d50 6c3a a6b5 cbbd e991 cabb 0970 b23d
000003d0: 2b6b 733d 66e3 98bd ebfc f1bd 92e7 393d
000003e0: d72e 8b3c d66f bf3b db40 ec3d 8c74 9ebd
000003f0: b406 7dbd e6c0 d53d 1133 a9bd 69c2 17be
-0.002766312 0.06595773 0.20367552 0.06861195 -0.1864724 0.15289125 -0.1987853 0.038448047
0.06675914 0.014547111 -0.13201062 -0.09293282 0.11839461 0.19324112 -0.07001813 0.106956035
-0.020571638 -0.06622539 -0.10786813 -0.022686569 0.039686404 0.13330258 -0.049775448 -0.051142514
-0.22022183 0.09516649 -0.0048963632 -0.17701638 -0.053897973 0.08091654 0.034245867 -0.0114250295
-0.0033581054 -0.04324356 -0.041986138 -0.032846455 0.02296282 0.09554399 -0.003334046 0.10397696
0.10551 -0.04788079 -0.008780165 -0.067304865 0.043716762 -0.050354213 0.025698526 0.011879236
-0.05752358 -0.096005835 -0.016718222 -0.08232849 0.04209371 0.0035155467 0.098650105 -0.13616064
-0.0062030363 -0.12637691 -0.002597274 0.01191701 -0.12446554 0.12226291 0.010012693 0.1729255
-0.05429312 0.12764426 0.1384827 -0.090872936 -0.022588251 0.07301389 -0.123784274 0.07576602
-0.0948604 0.19602822 -0.11531154 -0.10677566 0.1422552 -0.05917344 0.11361367 0.111742765
0.1728259 -0.15064807 0.026834756 -0.043524794 0.024789102 -0.16327475 0.09484443 -0.0251989
-0.10649387 -0.08408513 0.035156235 -0.023130184 0.10862902 -0.009477934 0.1131024 -0.09602987
0.03917779 0.0025589284 -0.221722 0.17204443 -0.17387436 0.15192297 -0.12723112 0.044139616
0.20584798 -0.04115739 0.10833026 -0.06149057 -0.06493126 0.13372065 0.07763952 0.0970275
-0.23555219 0.19999789 0.19899411 0.24602126 0.030675305 -0.031224905 0.20341036 0.16421674
-0.078901604 -0.01201496 0.0371999 0.1298786 0.11842806 0.13177544 -0.08551896 -0.024162076
-0.07085327 0.09085114 0.034802943 -0.110408984 -0.018826863 -0.15012878 -0.17699768 0.16779403
-0.078154705 0.08038186 -0.022841817 -0.04293605 -0.020197162 0.13214357 -0.027846329 0.107935645
0.09947895 0.12609433 -0.1493128 -0.08184417 -0.14324862 -0.06155645 -0.034927264 0.03188622
0.019072447 0.070298895 -0.11314528 -0.09865248 0.11687702 0.010735364 0.056757744 -0.0915159
-0.013188671 0.031213747 -0.094401844 0.11467499 0.04807809 -0.097552426 -0.04453343 -0.026770541
0.015079517 -0.07645324 0.04569934 -0.15460072 -0.084108785 -0.11648545 0.032078173 0.017735748
-0.028035296 0.12632787 -0.15505508 0.0033800134 -0.031242624 -0.096569836 -0.015858717 -0.098805524
-0.2053266 0.1363253 -0.12463478 0.032843493 -0.04438349 -0.09466013 0.06767997 0.10254693
-9.254106e-05 0.1662508 0.025573907 0.04745124 0.119472586 0.12259962 -0.08023189 -0.089680694
0.13771075 0.15060017 0.048353683 0.0840088 -0.1556418 0.040381487 0.0069805854 -0.16282709
-0.13955662 -0.011994057 0.015686454 -0.07179406 -0.027516935 -0.021314912 -0.08905473 -0.004794503
-0.012140808 0.060259562 0.11564688 -0.09185702 0.078466356 0.007628974 -0.10192344 -0.088070974
0.035796933 0.047020096 -0.014054591 -0.09150055 0.080790386 0.027084926 -0.082531914 -0.04093215
-0.0536679 -0.072431035 -0.08616054 -0.12904403 0.14568964 -0.14432572 0.16666588 -0.09728084
0.000901467 -0.09946756 -0.0061819446 0.08712775 0.059428375 -0.07465248 -0.118158184 0.04538686
0.016990108 0.0058421893 0.11535808 -0.07737073 -0.06177397 0.10437183 -0.08261693 -0.14820255

g.2.bias f4 [30]
00000000: 0c81 ba3d 5b7d d1bc 838a ec3c c7d0 eb3c
00000010: b749 2e3d 0faa 13bd 1b4e 1dbe 2ed7 82bd
00000020: 962a 0a3e b851 fe3c 94b7 11bd 651a 943b
00000030: 0893 65be 5464 a03b 6a91 073e 97c2 0a3b
00000040: 1341 8e3d b043 5abe c1fc 4dbc 37b3 2d3e
00000050: dc01 0bbe 8778 7cbd 9d29 3d3e 00ae 8a3d
00000060: 71c3 933d b0ab f3bd 49dc 393d 0545 4ebc
00000070: 229e 4e3d 78c0 1d3e
0.09106645 -0.02557247 0.028874641 0.028786076 0.04255077 -0.036050852 -0.15361826 -0.063886985
0.13492808 0.031044826 -0.035575464 0.004519748 -0.22419369 0.0048947725 0.13239065 0.0021173113
0.06946006 -0.21314883 -0.012572468 0.16962896 -0.13574928 -0.06163838 0.18472905 0.06771469
0.07215012 -0.11897981 0.045376096 -0.012589698 0.050443776 0.15405452

g.4.weight f4 [1, 30]
00000000: 2051 e8bd e509 8abb 91df 0cbd 1f6a 1b3e
00000010: dfb1 af39 6403 83b8 2210 bfbd d447 85b8
00000020: 4512 a43a f19d c939 000c 173e e7ab 31bc
00000030: 565a 82bd 2a46 a339 2145 5e3c e05b 0b3b
00000040: da14 533d e8c0 90bd 235f b4b8 bc4e 003e
00000050: db84 993b 501b 81ba 0d37 083e 3a02 e93a
00000060: 2311 9fbc 2056 353b 43cd fdbd 63c4 6a3a
00000070: 57e1 c53c d656 523b
-0.11343598 -0.0042126053 -0.034392897 0.151772 0.00033511125 -6.247198e-05 -0.09329249 -6.355313e-05
0.0012517652 0.00038455383 0.14750671 -0.010844207 -0.063648865 0.0003114206 0.013566286 0.0021264479
0.051533557 -0.07068044 -8.6007894e-05 0.12530035 0.004685027 -0.0009850059 0.1330225 0.0017777153
-0.019417351 0.0027669743 -0.12392666 0.00089556555 0.024155302 0.0032095215

nn_fun1.0.weight f4 [30, 1]
00000000: 1e59 f93d 4ef7 40bf fe07 d23e a701 e83e
00000010: 21eb 2fbf e8ae f5bd aa79 c23e 17b1 013f
00000020: af3e cc3e 8c01 223f 8f9c 733e c261 133f
00000030: f189 7dbf eabe 493f 2df2 8dbe 73f6 0c3f
00000040: c135 743e 7f9e ba3d 49c1 8f3e f8dd 14bf
00000050: 5426 7c3e ca71 153f 80de d1be e62d 113f
00000060: f776 34bf 3df7 24bf a9fb 173f c942 2f3f
00000070: 7d74 79bf b651 fa3e
0.12175201 -0.75377357 0.41021723 0.4531376 -0.68718153 -0.11996251 0.37983447 0.5066084
0.39891574 0.6328361 0.23790191 0.5757104 -0.99038607 0.78806937 -0.27723828 0.5506355
0.2384863 0.09112262 0.28077152 -0.581512 0.24623996 0.58376753 -0.40990067 0.5671066
-0.70494026 -0.64439756 0.5936838 0.6846128 -0.9744337 0.48890465

nn_fun1.0.bias f4 [30]
00000000: 5580 a4bc 1f03 503f 83d1 68bf aa15 3dbe
00000010: 7b84 e3be 8364 08bf bd1a 0ebe 12c2 c0be
00000020: f04c e53e 0941 94be c4d9 9e3e d7e2 8abe
00000030: 5cac 653d 235a 1bbf a450 2b3f 556f 423f
00000040: b0b8 213f ad14 36be 6619 b83e ea28 38bf
00000050: d694 b43e 6424 ccbd 21c6 42bf bb8b 36bf
00000060: 8eb9 4bbf efd1 3a3e a354 b7be 2646 bfbe
00000070: 5ce8 383f 6e97 57be
-0.020080725 0.8125476 -0.9094469 -0.18465295 -0.44437012 -0.5327837 -0.13877387 -0.37648064
0.4478526 -0.28955868 0.31025517 -0.2712619 0.056072578 -0.6068441 0.6691992 0.7595113
0.63172436 -0.17781325 0.35956877 -0.7193743 0.35269803 -0.099678785 -0.7608357 -0.7130696
-0.7958001 0.18244146 -0.3580676 -0.37358207 0.7222955 -0.2105386

nn_fun1.2.weight f4 [30, 30]
00000000: 525e 833d 01c5 02bd 2340 df3d 8e81 7d3d
00000010: e1ff d13d df66 2d3d b40a 8fba db3c 203e
00000020: 94f5 14bb f33e 9dbd 29fc 7b3d dd24 7bbc
00000030: d449 24be 2a80 023d 4898 17bd 0617 83bd
00000040: 0971 a2bd 761d aabd aca6 7abd 0cc1 243c
00000050: 23f8 383e 8a01 0dbd 94be b8bd 500e f7bd
00000060: 2cae 80bc bd81 1bbe 7dbc d1bd 5b8d bb3d
00000070: 8eb9 2cbe 70c8 2a3e 2767 d43c c1a5 5c3c
00000080: 9b95 b6bd 808e 4eba 8d1b f73d 924f 02be
00000090: d5cd a6bd 048c c93d 74f8 c6bc 3e3f 2fbe
000000a0: fc4a 33bd 60ef 11bd 1ce3 cf3b 4dc2 22be
000000b0: 1ea6 b6bd d3cd 6d3d d9f6 063e 45f6 093e
000000c0: f1a3 5dbc 5fa0 653d 0671 00be 0fd4 17bd
000000d0: 9218 1d3e 227e 7b3d 7f25 a1bd 9c9e 2c3e
000000e0: e4e4 4abe 1b31 9cbd f129 863b 4caf 3fbe
000000f0: 1d96 8fbd 7a03 d7bd c694 dd3c 1ad0 18bd
00000100: 0603 893d 4d5c 5ebd 91c6 6a3d 4bed b9b9
00000110: ae29 233e cda7 b83d 7ec8 03be 554a 0abe
00000120: 9334 c83d ddd4 083e dae8 05be a696 8d3c
00000130: 61e7 53bd bc36 103e 5d87 213e 95ca e63d
00000140: a909 d83d c7b8 3dbd aeb6 153e 5d87 cebd
00000150: d330 c1bb 9808 513d d85b 11be a8f8 d4bd
00000160: 7aec 8b3d 40c2 24bd 5dd0 5fbd 1806 30bd
00000170: efc8 3d3d 7916 1bbc bebb a83d 53e5 17be
00000180: b888 a23d 560f 02be 3971 0fbe b8c5 9d3d
00000190: 35ba 283e 34f5 463e a5ec 0abd 05c5 323e
000001a0: 2d56 c2bd e28d e03d 1a0e ea3d 40fb 28be
000001b0: af0f e4bd 3c3e 803d ac24 fc3c f973 9e3d
000001c0: 7036 16be 20b9 0e3e 55bc a83b 08e9 49be
000001d0: cfac abbd ce86 533e 7df7 24be 8575 133e
000001e0: 863c 4a3d 5120 b23c ac29 873d 96cd 573d
000001f0: febd 00be 7953 c33d 8e48 4d37 d1fd 793d
00000200: d3d8 b53c c140 7a3d 6a80 3c3e 7dd4 4e3d
00000210: 4304 aebe 639d 373e 2ac1 37bd 0576 5f3e
00000220: 9bab 68ba aa97 f13d 4f94 003e 37fb 91bd
00000230: 5223 093e e3e2 963e 0836 18be f2ee 993d
00000240: e35e 543d 5cc7 2dbf 4bbf 5d3e 107a 9f3d
00000250: a347 f5bd 5667 673c 2143 be3c 33bd 48bd
00000260: 9483 a13d d6b6 cabc ea9d 00bc d20d bebd
00000270: 8d9f 673a 8c04 cb3d 2f3d 883d bdb7 48bc
00000280: 23e8 b5bd fdcd 4abd 7914 8abd 8c07 db3d
00000290: 0933 7ebd 97ff 823d f776 ef3d 15cc dd3c
000002a0: 589e d3bd 3a47 d9bc fb9a cdbc 8ab1 a63b
000002b0: 2e1b bbbc 1166 36bc 2be8 e83d 5033 8f3b
000002c0: 70eb 083d 855f b1bc 245f 9d3d b7b0 d33b
000002d0: 180e 0ebd 5cd4 053d 5900 0cbe aaed 92bb
000002e0: ca2d b93d a0d2 20be c577 8cbd f293 e43d
000002f0: a30e a8bb fa62 b6bc 08e2 2a3c 6422 a5bd
00000300: 36f8 273e e3dc b0bc 19fb 8cbd f0dc ae3d
00000310: 6bcc 1cbe 19f4 c6bc e113 fd3b b4d4 3ebd
00000320: d0da b13d fac4 19be 3d92 32bd 597b 91bd
00000330: cdbe 303e 4611 c33d 0ecc 03be 0b77 5b3d
00000340: 1ea2 4e39 4cd2 f73d 0d77 603d ffab 9cbd
00000350: a8eb 103e 43ce 1fbe 967a f7bb 800c 7b3d
00000360: 4f52 a73b 7e97 093d ae7a 4dbe 9a6e 4cbe
00000370: b81d 103e 689c efbd d42f 583d 9491 4ebe
00000380: ee64 d0bd 8256 f2bd 149c e43c e755 b13d
00000390: 47d4 0f3e d90f 0e3e 7131 babc d756 46be
000003a0: 8bbb f63d 4ecd 32be 2150 ea3d e372 fe3e
000003b0: 8da7 373d 2ed1 38be 202f d33d 250f 0fbe
000003c0: 24c7 a83c a438 15bb 4abd a9bd 4290 133d
000003d0: 0082 c23d 2891 6cbd 4393 f4ba 59d0 9cbd
000003e0: fadd adbd 0e67 8d3c 1d76 cab9 5ed9 e63c
000003f0: 40d8 3fbd 86ac e73d 5a4a 1cbc 72db cebd
0.064144745 -0.03192616 0.10900905 0.06189113 0.10253883 0.042334434 -0.0010913224 0.15648215
-0.0022729384 -0.07678022 0.061519776 -0.015328613 -0.16043788 0.031860508 -0.03701046 -0.06400876
-0.07931716 -0.083064005 -0.061194107 0.010055792 0.18063407 -0.034425296 -0.09020725 -0.12063277
-0.015708052 -0.1518621 -0.102410294 0.09157821 -0.16867658 0.16678023 0.025928093 0.013467253
-0.08915254 -0.00078795105 0.12065802 -0.12725666 -0.08144728 0.09841159 -0.024288394 -0.17113969
-0.043772683 -0.035628676 0.006344212 -0.15894432 -0.08918403 0.058057617 0.13180102 0.1347285
-0.013527856 0.056061145 -0.12543115 -0.03706747 0.15341404 0.061399586 -0.0786848 0.1685738
-0.19813877 -0.076265536 0.0040943553 -0.18719214 -0.07011054 -0.1049871 0.02704848 -0.037307836
0.0669003 -0.054287244 0.057318274 -0.00035462747 0.15933868 0.090163805 -0.1286945 -0.13504918
0.09775653 0.13362451 -0.13077107 0.017283749 -0.051734332 0.1408338 0.15774293 0.11269108
0.105487175 -0.046318796 0.14620468 -0.10084412 -0.005895713 0.051033586 -0.14195192 -0.1039899
0.06832214 -0.040224314 -0.05464207 -0.04297456 0.046334203 -0.009465807 0.08238934 -0.14833574
0.07936233 -0.12701163 -0.14008035 0.077037275 0.16477282 0.19429475 -0.033917088 0.1745797
-0.09489093 0.10964562 0.11428471 -0.16502094 -0.11135804 0.0626187 0.030779205 0.07736964
-0.14669204 0.13937807 0.005149404 -0.197178 -0.0838257 0.20656893 -0.16110034 0.14400299
0.049374126 0.021743925 0.06599745 0.052686296 -0.12572476 0.095374055 1.2235845e-05 0.061033074
0.022198116 0.06109691 0.18408361 0.050495613 -0.33987626 0.17931132 -0.04486195 0.21822365
-0.0008875669 0.11796506 0.12556575 -0.071279936 0.1339238 0.29469976 -0.14864361 0.07516278
0.051848304 -0.67882323 0.21655004 0.077869534 -0.11976554 0.014123758 0.023225369 -0.04900856
0.07886425 -0.024745386 -0.00785015 -0.0927998 0.00088357256 0.099129766 0.06652295 -0.012250838
-0.08882167 -0.049512852 -0.06742186 0.10694799 -0.06206039 0.06396406 0.116926126 0.027074853
-0.10332936 -0.026523221 -0.025098315 0.0050870823 -0.022840109 -0.011132733 0.113724075 0.0043701306
0.033427656 -0.021651993 0.07684162 0.006460275 -0.03468141 0.032673225 -0.13672008 -0.004483898
0.09041937 -0.15705347 -0.06858782 0.11161031 -0.005128698 -0.022263993 0.010429867 -0.080632
0.16403279 -0.021589702 -0.068838306 0.08538234 -0.15312354 -0.024286317 0.007723317 -0.04658957
0.08684313 -0.15016547 -0.043596495 -0.07103605 0.17260285 0.09524779 -0.1287081 0.053580325
0.00019706084 0.12100658 0.054801036 -0.07649993 0.14152396 -0.15606026 -0.007552455 0.061291218
0.0051062475 0.03359174 -0.2006633 -0.19964066 0.14073837 -0.11699754 0.052779987 -0.20172721
-0.10175501 -0.11832906 0.027906455 0.08658963 0.14045821 0.13873233 -0.022728654 -0.19369064
0.1204749 -0.1746113 0.114410646 0.49697027 0.044837523 -0.18048546 0.10311723 -0.13970621
0.02060277 -0.0022769356 -0.08288057 0.036026247 0.09497452 -0.05775562 -0.001865961 -0.07656927
-0.08489604 0.017261054 -0.00038616444 0.02817982 -0.04683709 0.11312203 -0.009539211 -0.101004496

nn_fun1.2.bias f4 [30]
00000000: 5775 ef3d f255 32bc d05d 1e3e 100a ef3d
00000010: cc51 5b3c 6215 443d 516b 003c 8443 2c3e
00000020: 1e60 bd3d 1ef0 d2bd 462f 19bc 81e0 3a3d
00000030: 49c0 d33d 30f7 a03d 4865 f13c 8bc7 25bc
00000040: b558 a8ba f018 c5bd 6ef1 193e d5e4 473e
00000050: 55fa 99bd 30d0 16be 5591 a83d 12e4 54be
00000060: 8765 f33d 39c0 33be 2e15 babd 4edd 51bd
00000070: af7a 233e 77e8 e73b
0.11692303 -0.010884749 0.15465474 0.11671841 0.013386201 0.047871955 0.007838086 0.1682263
0.092468485 -0.10299705 -0.00934965 0.04562426 0.1033941 0.07859647 0.02946724 -0.0101183755
-0.001284382 -0.09623897 0.15033504 0.19520886 -0.0751845 -0.14727855 0.08230845 -0.20790127
0.11884599 -0.17553796 -0.09086071 -0.051236443 0.15964769 0.0070772725

nn_fun2.0.weight f4 [30, 1]
00000000: c3b2 3f3f e238 8a3e e9e5 7f3f 9831 0d3f
00000010: 1e5a 303f a03c 573f f70d c3be 693d c3be
00000020: 4b4f ee3e 79c8 7e3f dd8c d9be d213 4fbf
00000030: 132f 44bf fc6c 19be 35b1 5c3e 534e 12be
00000040: f8d8 16be d0e6 adbe 0130 bc3e 99c7 7cbf
00000050: fc84 703f e4b3 a83c a433 363c d3a5 0b3f
00000060: 1e1d a7be 237c 393f f4ba f13d b6c2 7e3e
00000070: e42c 75bf f12c 123e
0.74882144 0.26996523 0.9996019 0.551538 0.6888751 0.8407688 -0.38096592 -0.3813279
0.4654487 0.99524647 -0.42490283 -0.8088962 -0.7663433 -0.1498298 0.21551974 -0.14287691
-0.14731205 -0.33965158 0.36755374 -0.9874206 0.9395292 0.020593591 0.0111207105 0.545499
-0.32639402 0.7245504 0.118032366 0.24878964 -0.9577162 0.14274956

nn_fun2.0.bias f4 [30]
00000000: fa1e 6e3e 1095 8f3d b8cf 06be 30d3 193f
00000010: 8a50 393f d90c 203f 839a fdbd f937 1a3e
00000020: fd20 25bf 8c8c 33bf 0820 0fbe 8880 393e
00000030: 33b6 02bf 5cfa f3be f027 d63e dcc6 883e
00000040: 8af4 fdbe 857d 1c3f ec7f 18bf 57ca 2e3f
00000050: e2c4 ec3e 36c3 4abe ffb7 4f3f 2e11 e4be
00000060: d209 bebe 5bc8 333f a482 4fbe 9b9a b0be
00000070: 3631 593e f1db a7bd
0.23254004 0.07010853 -0.13165176 0.6008787 0.7238852 0.62519604 -0.123829864 0.15060414
-0.6450346 -0.7013633 -0.13977063 0.18115437 -0.51059264 -0.47651947 0.41827345 0.26714218
-0.4960063 0.6112903 -0.59570193 0.68277496 0.4624396 -0.1980103 0.8114013 -0.44544357
-0.37116867 0.70227593 -0.20264679 -0.34492955 0.21210179 -0.08196247

nn_fun2.2.weight f4 [30, 30]
00000000: 11cc 063e 5580 153e 5a2e b33d 6f5e 7f3d
00000010: 40e0 8d3d 2303 f93c ae03 243a a077 0a3d
00000020: 25a1 b33d 84c9 663d eb6c 0ebd 67c1 4c3d
00000030: 1882 78bc b2a2 1d3d 2d0a 273e c793 b0bd
00000040: bf72 9439 45b1 ecbb 3bd4 48be 380b 01be
00000050: a597 3c3b bc64 c53d add8 b9bd 4502 c83c
00000060: dc41 9a3d 5236 d1bd abc0 333d 00c0 903b
00000070: 0cbb 11be 1c49 b5bc e98d dfbd 91e9 893d
00000080: 9d9d 863d 95be 233d bc31 c03d 6f30 c13d
00000090: b758 8f3d 5ff1 75bc 8fa9 57bd 9aa4 493e
000000a0: 3a1c 6f3c 5982 27bd edfb 2abd aaf2 133e
000000b0: 991d 7a3c d145 2e3d ba30 d63c 259b 8f3d
000000c0: ab3c 79bd 4895 51bd 0f9f c93c a068 be3b
000000d0: fd4e da3d baf8 8e3d b1d2 693c 9eb9 a73d
000000e0: f536 df3b d7ea 9e3c fa36 8ebd 57b3 8b3c
000000f0: 6c11 3fbd 71f5 d33d 5c9e 203e 88ea 04be
00000100: 368c 8ebd d9e7 453e 67a3 b0bd fcf5 c73d
00000110: 77c4 083e cd2d a0bd 8272 15be 39c6 1f3d
00000120: 74a0 3d3d 67b7 f83d 18a7 463d 6367 db3d
00000130: 5b31 2cbe 30e4 553d 17ca 453c f897 0c3e
00000140: 110c 6cbd cabe 21bd 2464 9bbd 4eb1 09be
00000150: 404c 2f3d fbd8 603d b770 193d 9717 dfbc
00000160: ffb6 fcbc 4e33 b2bc 0810 253d 55d7 0fbe
00000170: 226a bfbd f283 843d c9c5 933d 28d8 e0bd
00000180: 315e 1f3e f011 273b b3d4 a43d ddad 9d3d
00000190: ae6c 583d 9b28 3b3e b490 00be f19a 35bd
000001a0: 18c6 afbd d7a1 0abe e7f8 60bc 36e0 033e
000001b0: 9229 80bc 0b43 563e 8a19 3ebe 67ba b23d
000001c0: fbab 013e 85be 023e 59a6 07bd 84cc 36be
000001d0: 9333 1cbd 6ad6 ec3d 068c 313e 2de6 bc3d
000001e0: b76e 54bd e92e e7bc bb4b 8f3e ad41 f03d
000001f0: 8057 81bd a9fc 673e 2579 18be 78fe 82be
00000200: 5289 073d ca77 54bd f969 2fbe 8c56 c7be
00000210: f053 59bc e061 153d 22ea 2f3e 4b78 babd
00000220: 83b9 b7bd f602 2e3e 590b e8bd 7ed7 f0bd
00000230: ac2c ff3c 168d 61be 45f2 aebd 1582 2c3e
00000240: de77 c9bc 1388 b43d 7635 da3c 138c a63d
00000250: bdf5 32be 0626 183e 5c7a 6c3d feac 863d
00000260: ac7d 883d 577c aabc 34c5 803c 85a6 91bd
00000270: 47a2 90bd 64e6 603c 4407 bdbd c900 77bd
00000280: b2e4 cabd dd82 21bd 4fc0 e23c 36f2 873d
00000290: 6da8 cdbd cd81 cb3b c4f0 d1bd 3db9 923c
000002a0: df82 a53d f288 69bd a091 68bd 3ea8 8b3d
000002b0: d802 babd 6441 89bc 2d78 e1bd da6f d43d
000002c0: 7d44 d33c 4a9a 28bd f5ed b43c a0a5 393d
000002d0: 26b7 7b3d 5774 f2bd 1d40 39bd 06fe 063e
000002e0: 43a2 f33d 1e24 80bd 3eb8 e23d e3a2 67bd
000002f0: e01b 3e3d ddf3 093e 6eeb 203d 31e6 b7bd
00000300: 0998 6b3d 7402 d23d 4d8d df3d 3858 dcbd
00000310: 3bc9 c3bc 4082 23bc e88d d6bc 4a21 e0bc
00000320: 4961 8abd fc67 7a3d 9295 9a3d f08e 06bd
00000330: 6ee7 0e3e 125b e3bb a2bc 233d d02d 2d3d
00000340: e029 e9bc fc36 15bb 5911 dfbc 8883 6e3d
00000350: 317e 2ebe 17c9 98bd 0e1f 2abe e0f8 93bd
00000360: 534e 7d3d 36de 743e 8128 56be d412 0cbe
00000370: aed8 fa3d f15c 313d 892d f23d 57cc a0bb
00000380: 081f 22be 45b2 863d c2d8 f7bd d1c8 9f3d
00000390: f385 43be 0888 783e 2e2b 9bbd 234c e53d
000003a0: c022 d0bd d1e4 49be dc48 843d da6f f13d
000003b0: ca94 6dbc a31b 33be 1474 b53d 0234 2ebe
000003c0: 431a 043d f961 0a3c b085 0c3d 10dd dc3d
000003d0: 4e4e 4cbd 11fc b53d 0fb3 b43c 1990 a3b9
000003e0: 8ad1 a1bd 4abe 0cbd 34be 853c 335e 473a
000003f0: ab03 523d 806b 1f3c 365e 4abd 53a8 49bd
0.13163783 0.14599736 0.08749075 0.06234592 0.06927538 0.030397004 0.0006256652 0.03380549
0.0877097 0.056344524 -0.03477184 0.04998913 -0.0151677355 0.038485236 0.16312476 -0.08621936
0.00028314252 -0.0072232806 -0.1961221 -0.12601936 0.002877691 0.09638354 -0.09074531 0.024415145
0.07532093 -0.10215439 0.043884914 0.0044174194 -0.14231509 -0.022129588 -0.10915739 0.067340024
0.06573031 0.039976675 0.09384486 0.09433066 0.06999343 -0.015011161 -0.052651938 0.19691697
0.014594132 -0.040895794 -0.04174416 0.14448038 0.015265846 0.04254705 0.026146282 0.07012013
-0.060848873 -0.051167756 0.024611978 0.005810812 0.10659597 0.069810346 0.014271424 0.081897005
0.0068119713 0.01939909 -0.0694408 0.01705329 -0.046647474 0.103495486 0.1568541 -0.12980092
-0.06960337 0.19326724 -0.086249165 0.09763715 0.13356195 -0.07821236 -0.14594463 0.0390074
0.0462956 0.12144356 0.048499197 0.10713079 -0.16815703 0.05221957 0.012072108 0.13729846
-0.057628695 -0.03948859 -0.0758746 -0.13446543 0.042797327 0.05489443 0.03746101 -0.027232928
-0.030848978 -0.02175298 0.04029849 -0.14046986 -0.09346415 0.06470479 0.07215459 -0.109787285
0.15563275 0.002549287 0.08048382 0.076991774 0.05283802 0.18277209 -0.125552 -0.044337217
-0.08582705 -0.135383 -0.013731218 0.12878498 -0.015644822 0.20924012 -0.1856443 0.0872696
0.12663262 0.1276799 -0.033117626 -0.17851454 -0.038135123 0.11564334 0.17338571 0.0922359
-0.0518634 -0.02822061 0.27987465 0.11731277 -0.063155174 0.22654976 -0.14889963 -0.2558477
0.033089943 -0.051872052 -0.17130269 -0.38933218 -0.013264641 0.036470294 0.17179158 -0.09104975
-0.089709304 0.16993317 -0.113302894 -0.11759852 0.03114923 -0.22026476 -0.08542303 0.16846497
-0.02459329 0.088150166 0.02663682 0.08132186 -0.17476554 0.14858255 0.05773388 0.065759644
0.06664595 -0.020811243 0.015719034 -0.07111839 -0.07062202 0.013726804 -0.092299014 -0.060303483
-0.099069014 -0.03943144 0.02767959 0.06637995 -0.1004189 0.006210542 -0.102510005 0.017910594
0.08081602 -0.057015367 -0.056779504 0.06819199 -0.09082574 -0.016754813 -0.1100925 0.103728965
0.025789494 -0.041162767 0.022086123 0.045323968 0.06145396 -0.11838596 -0.04522716 0.1318284
0.11896183 -0.06256889 0.11070298 -0.056551825 0.046413302 0.13471933 0.039287023 -0.089794524
0.05751804 0.10254374 0.10915623 -0.10759014 -0.023899665 -0.0099797845 -0.026190713 -0.027359623
-0.06756837 0.061134323 0.075480595 -0.03285116 0.13955471 -0.0069383467 0.039974816 0.04228002
-0.02846235 -0.002276837 -0.027229952 0.058230907 -0.17040326 -0.0746023 -0.16613409 -0.072252035
0.061842274 0.23912892 -0.20913889 -0.13679057 0.122483596 0.043301526 0.118250914 -0.0049071717
-0.1583215 0.06576971 -0.1210189 0.078019746 -0.19094066 0.24270642 -0.07576595 0.111961626
-0.10162878 -0.19716193 0.06459209 0.11788912 -0.014500806 -0.17491011 0.08860031 -0.17012027
0.032251608 0.00844621 0.03430718 0.10784352 -0.049879365 0.088859685 0.022058038 -0.00031197144
-0.079012945 -0.03436116 0.016326047 0.00076052843 0.05127303 0.00973022 -0.049406253 -0.049232792

nn_fun2.2.bias f4 [30]
00000000: afca c9bd 0359 0fbe 96a6 e9bd 8646 153e
00000010: 21b8 9a3c 6deb 21bd e660 b73d f760 b9bd
00000020: 603b 13bd 3926 243e 2c46 d33d 86f6 10be
00000030: a1ae 4cbd 2e88 8e3c b051 933c 27fe 95bd
00000040: 6aaf 1a3d 10b5 a2bc a3e0 0dbe 8a07 f9ba
00000050: 8592 babd ded1 ac3b 2975 2dbe a3c0 67bc
00000060: e239 60bd e6d8 25be 929f 55bd 43d6 6c3c
00000070: f4bb 5abd b014 9a3c
-0.09853112 -0.13998799 -0.11408727 0.14577684 0.018886628 -0.03953116 0.08954029 -0.09051698
-0.035945296 0.16030206 0.103161186 -0.14156541 -0.049971227 0.01739892 0.017983288 -0.07323866
0.037764944 -0.019861728 -0.13855223 -0.0018999439 -0.09109978 0.0052740416 -0.16939224 -0.014145049
-0.0547427 -0.16196021 -0.05215413 0.014455381 -0.053401902 0.018808693

agg.0.weight f4 [1, 30]
00000000: 5de2 693d 545c ffb8 543b c5bd 8dac 9a3b
00000010: e0a1 bcbd e512 2fbb 12d6 26bd b06d 83bd
00000020: 84c0 5fba 9ca0 4c3d 76ef 1dbc 6454 be3b
00000030: 8a65 e6bb 1285 fdbd 438b 1eba 7b83 d73b
00000040: 2e9d 1dba fc41 be3c 13be 523c b96f e63d
00000050: b901 7d3b 4b66 9bbc d868 903d 42dd fa3d
00000060: 89dd 833c d887 5f3d 2190 2b3c bfa6 003e
00000070: 4e53 cb3d b1ba efbd
0.057100642 -0.00012176545 -0.096304566 0.0047202767 -0.09210563 -0.0026714143 -0.040731497 -0.064174056
-0.0008535462 0.049957857 -0.0096396115 0.0058084 -0.0070311474 -0.12378897 -0.00060479733 0.006576953
-0.00060124963 0.023224823 0.0128627 0.11251778 0.0038605763 -0.018969676 0.07051247 0.12249233
0.016096847 0.05457291 0.010471375 0.12563609 0.099279985 -0.117055304
