multiple_model_analysis/results/er_experiment_MM_size_10_35_alpha_0_scale_100_dynwght_False_std_reg_1.0_equiv_reg_0.0/neural_network.pth (torch, 16501 bytes, 14 tensors)

g.0.weight f4 [30, 1]
0.87781864 0.38127548 -0.096263036 0.3562152 -1.4088212 0.5704411 0.63215536 -0.9631604
-0.62334245 0.05876063 0.57994884 0.26472092 0.3130659 -0.15260668 0.7935661 -1.2255595
-1.0064836 0.22764052 -0.4725086 -1.2143493 -0.6521381 -1.0529284 0.1336927 -0.5168505
0.6662872 -0.4727027 0.23514782 -0.74313724 -0.3790591 0.4229965
00000000: b9b8 603f 8a36 c33e 8e25 c5bd d761 b63e
00000010: 4154 b4bf 6e08 123f efd4 213f ae91 76bf
00000020: 5f93 1fbf fdae 703d 8777 143f 8089 873e
00000030: 2c4a a03e ed44 1cbe 2627 4b3f 22df 9cbf
00000040: 74d4 80bf 991a 693e a6ec f1be cc6f 9bbf
00000050: 86f2 26bf 5cc6 86bf bde6 083e 5050 04bf
00000060: cc91 2a3f 1706 f2be 97ca 703e 3e3e 3ebf
00000070: 0914 c2be ff92 d83e

g.0.bias f4 [30]
-0.618834 -0.43303674 -0.002911268 0.7356114 0.6349022 0.3887593 0.02269232 0.07289837
-0.42635655 -0.642773 -0.12695897 0.59074277 0.29127055 -0.23332785 -0.08838328 0.017956655
0.12427485 0.02751661 0.05404509 0.71968895 -0.028063834 -0.08585942 -0.58942 -0.38973078
0.21977226 -0.036462545 -0.31712514 0.6067774 -0.57104886 0.3768374
00000000: e86b 1ebf feb6 ddbe f9ca 3ebb 0751 3c3f
00000010: f388 223f 750b c73e 3fe5 b93c be4b 953d
00000020: 684b dabe c58c 24bf 8801 02be eb3a 173f
00000030: 6a21 953e 7fed 6ebe 4b02 b5bd d619 933c
00000040: d083 fe3d 846a e13c 625e 5d3d 893d 383f
00000050: 20e6 e5bc 10d7 afbd 3be4 16bf cb8a c7be
00000060: fb0b 613e c059 15bd 3a5e a2be c455 1b3f
00000070: 4230 12bf d5f0 c03e

g.2.weight f4 [30, 30]
0.009292782 -0.10975707 -0.04338768 -0.0436008 -0.05012494 0.04494092 0.024620904 -0.171834
0.046023346 -0.03540898 -0.031148713 0.14034852 -0.01293993 0.1447112 0.07739441 -0.11724303
-0.049631406 0.10571865 -0.093051255 0.09635895 -0.1216919 -0.04835776 -0.09048201 0.02350051
-0.072434224 0.049507175 0.1110457 0.04822324 0.043925766 -0.046724685 0.0076358467 -0.07776436
0.11302701 -0.11691529 -0.13568632 -0.026255166 0.0948436 -0.30719975 -0.06716952 0.023214204
0.1560303 0.06989324 -0.075473726 0.13060944 0.1109958 -0.43211755 -0.26803637 -0.10676783
-0.04200808 -0.033544462 -0.1695817 -0.27911082 -0.09093987 0.09318714 0.076464415 -0.10382694
0.14019871 0.018129906 0.15903415 0.0546731 0.13479081 0.006501712 0.0058377497 -0.040538654
-0.19885466 -0.023936642 0.19945146 -0.11676408 0.01782729 0.12947336 -0.028926479 0.1527693
0.027149135 -0.14707908 0.23538436 -0.3249025 -0.17349382 -0.13981202 -0.10896483 -0.11922171
0.0335557 -0.0035424049 0.00035359003 -0.07257615 -0.13062172 0.0027262468 0.054556727 0.028642965
-0.13753216 0.04488232 0.13947596 0.14753841 0.005569543 -0.02298659 0.051254366 0.050204452
0.016832722 -0.10166668 0.023907121 -0.045621805 -0.05396287 0.01613829 0.022913186 0.015422361
-0.011320455 -0.11718064 0.023375116 -0.021784626 -0.013176309 0.0029440818 -0.12530212 0.008777191
-0.118862495 -0.11945795 0.1475273 0.036852457 -0.08998953 -0.123228855 -0.019269628 -0.089767426
0.12651473 0.016996399 -0.11701563 -0.009599094 0.20925564 -0.044226754 0.018084573 0.28620157
-0.14237052 0.07160576 -0.011578607 0.12533417 -0.040625148 -0.04135936 -0.14800736 0.42723784
0.24407926 -0.10257694 0.099219 0.101372324 -0.06358272 0.26083472 0.16477282 0.12911735
0.03891209 0.078729786 -0.07996702 -0.13958287 0.10602444 0.0052327653 -0.10336202 0.026566077
-0.014550071 0.03411149 0.067626745 -0.00029352235 -0.13366981 0.33007103 0.13823344 0.16899632
0.07469801 0.10114067 -0.19289075 0.140384 -0.032433834 0.33557928 0.007193863 -0.022429986
0.08247246 -0.13899054 0.004194299 0.31604594 -0.1346426 -0.052693304 -0.20226 -0.038725447
-0.10119753 0.13027233 0.062766284 -0.016130883 -0.074395955 0.043646414 -0.12417042 -0.14936031
-0.21641006 -0.07688197 0.14942656 -0.119041584 -0.058425028 0.13657776 -0.07834758 0.1570284
0.08281485 -0.06641454 -0.0014386477 -0.30457807 -0.20393088 -0.14193855 0.013995756 -0.033456355
0.005214372 -0.07560433 -0.06342824 -0.17421538 0.13085088 -0.14157692 0.1521929 0.015511506
0.115613945 0.17624468 0.03403239 -0.06633433 -0.091389425 -0.022120696 0.00060527836 -0.18554148
-0.09176021 -0.031912953 0.2016893 0.12880854 -0.15955473 0.0069840415 -0.021999814 -0.04260384
-0.090871625 0.19942157 0.21921425 0.044167433 0.09923676 0.112108745 0.21141806 0.20264891
-0.14338599 0.12055952 -0.21233173 0.046152752 -0.05160965 0.13560636 0.08863956 0.08641888
-0.071357206 -0.0024860192 0.11397923 0.13354848 0.22119848 -0.15858364 -0.1890099 0.11679328
-0.01594533 0.1626343 0.08751085 0.023037355 -0.096270986 -0.13458197 0.0079516135 0.38589942
00000000: c140 183c 51c8 e0bd 48b7 31bd c196 32bd
00000010: cf4f 4dbd f813 383d c7b1 c93c 41f5 2fbe
00000020: fa82 3c3d 0209 11bd 962b ffbc 86b7 0f3e
00000030: 0002 54bc 2c2f 143e f680 9e3d 1d1d f0bd
00000040: 4d4a 4bbd 0583 d83d a891 bebd d757 c53d
00000050: 9a39 f9bd c912 46bd a24e b9bd 2484 c03c
00000060: 6558 94bd 09c8 4a3d ee6b e33d bb85 453d
00000070: 81eb 333d 6262 3fbd 2036 fa3b ec42 9fbd
00000080: b47a e73d 4971 efbd 5bf1 0abe 1315 d7bc
00000090: 5d3d c23d 4949 9dbe 2c90 89bd b72b be3c
000000a0: 68c6 1f3e 3024 8f3d f891 9abd 7bbe 053e
000000b0: c451 e33d 833e ddbe 103c 89be 18a9 dabd
000000c0: aa10 2cbd eb65 09bd d3a6 2dbe 9de7 8ebe
000000d0: af3e babd e6d8 be3d 6099 9c3d 38a3 d4bd
000000e0: 4090 0f3e 2b85 943c d9d9 223e e7f0 5f3d
000000f0: 9a06 0a3e 500c d53b 984a bf3b dc0b 26bd
00000100: 8ea0 4bbe c716 c4bc 013d 4c3e 0222 efbd
00000110: 890a 923c aa94 043e 39f7 ecbc 8e6f 1c3e
00000120: dd67 de3c e69b 16be 9908 713e 9f59 a6be
00000130: 5da8 31be e22a 0fbe f428 dfbd 832a f4bd
00000140: b471 093d b127 68bb 0d62 b939 cea2 94bd
00000150: b3c1 05be d5aa 323b e076 5f3d a7a4 ea3c
00000160: 3bd5 0cbe 86d6 373d c9d2 0e3e 4f14 173e
00000170: b780 b63b 604e bcbc 19f0 513d 2fa3 4d3d
00000180: c7e4 893c 9f36 d0bd ded8 c33c eedd 3abd
00000190: 2c08 5dbd 7234 843c 6fb4 bb3c 12ae 7c3c
000001a0: 6e79 39bc 67fc efbd 2c7d bf3c ac75 b2bc
000001b0: 72e1 57bc 7ff1 403b 334f 00be 35ce 0f3c
000001c0: 2e6e f3bd 5fa6 f4bd 6611 173e 9af2 163d
000001d0: 6e4c b8bd 695f fcbd 57db 9dbc fcd7 b7bd
000001e0: 148d 013e 083c 8b3c e4a5 efbd 8545 1dbc
000001f0: 1c47 563e 1d27 35bd 1926 943c 0389 923e
00000200: 94c9 11be 0aa6 923d 33b4 3dbc 9a57 003e
00000210: 8e66 26bd 6f68 29bd 3e8f 17be ebbe da3e
00000220: eaef 793e dc13 d2bd 5533 cb3d 4b9c cf3d
00000230: a837 82bd 218c 853e 35ba 283e 5737 043e
00000240: 4962 1f3d 153d a13d c0c5 a3bd d0ee 0ebe
00000250: 5723 d93d 9e77 ab3b 77af d3bd 1aa1 d93c
00000260: 6c63 6ebc 7db8 0b3d e47f 8a3d e7e3 99b9
00000270: bde0 08be 12ff a83e 118d 0d3e 5f0d 2d3e
00000280: 45fb 983d d722 cf3d 2785 45be d3c0 0f3e
00000290: 57d9 04bd 0cd1 ab3e 7fba eb3b 17bf b7bc
000002a0: 52e7 a83d 8953 0ebe 5570 893b c6d0 a13e
000002b0: c0df 09be efd4 57bd 3f1d 4fbe 939e 1ebd
000002c0: a740 cfbd 1c66 053e 9c8b 803d ea24 84bc
000002d0: e85c 98bd 95c6 323d 104d febd e9f1 18be
000002e0: 999a 5dbe 4b74 9dbd 4703 193e 13cc f3bd
000002f0: 154f 6fbd 0adb 0b3e b274 a0bd 0ecc 203e
00000300: d59a a93d 5904 88bd 0291 bcba a8f1 9bbe
00000310: 42d3 50be 5758 11be 754e 653c 8809 09bd
00000320: 53dd aa3b 71d6 9abd aae6 81bd 8465 32be
00000330: c6fd 053e 8af9 10be 75d8 1b3e f923 7e3c
00000340: 01c7 ec3d 7c79 343e 8c65 0b3d 4bda 87bd
00000350: 612a bbbd 7636 b5bc 8bab 1e3a 96fe 3dbe
00000360: c7ec bbbd 28b7 02bd a487 4e3e 63e6 033e
00000370: 5162 23be 63da e43b f438 b4bc 5d81 2ebd
00000380: e71a babd 2b35 4c3e b379 603e e9e8 343d
00000390: a43c cb3d 4599 e53d fa7d 583e 3283 4f3e
000003a0: c7d3 12be e9e7 f63d 7d6d 59be ab0a 3d3d
000003b0: a464 53bd 65dc 0a3e a888 b53d 62fc b03d
000003c0: ba23 92bd 7bec 22bb f16d e93d efc0 083e
000003d0: db81 623e c063 22be d08b 41be 5131 ef3d
000003e0: c89f 82bc 9b89 263e e338 b33d d6b8 bc3c
000003f0: b929 c5bd dbcf 09be 7c47 023c 9c94 c53e

g.2.bias f4 [30]
-0.064632304 -0.07193862 0.17043562 -0.018148057 0.11037831 0.14693274 0.07959046 0.13497187
-0.15993738 -0.13152309 -0.14086835 0.053800274 -0.16808413 0.13152489 -0.04604669 -0.05327314
0.17904305 -0.11490346 0.101487495 0.036476478 0.021224305 -0.02161951 -0.061341137 -0.06333845
-0.036391757 0.08328056 -0.18333441 0.007825888 -0.08708102 0.14969246
00000000: f15d 84bd 8e54 93bd ad86 2e3e 3cab 94bc
00000010: 060e e23d 8975 163e 5300 a33d 1136 0a3e
00000020: a0c6 23be fdad 06be cb3f 10be ad5d 5c3d
00000030: 3f1e 2cbe 76ae 063e 749b 3cbd f034 5abd
00000040: 1057 373e 8152 ebbd add8 cf3d 5c68 153d
00000050: 98de ad3c 661b b1bc d840 7bbd 97b7 81bd
00000060: 860f 15bd 008f aa3d 04bc 3bbe 2738 003c
00000070: 8957 b2bd fb48 193e

g.4.weight f4 [1, 30]
-0.0033584987 -0.14040199 -0.120568275 -0.008595155 0.14450867 0.12472411 -0.0542942 0.059596907
0.08471019 0.25223494 -0.15705672 -0.11052462 -0.13457048 -0.19689566 0.17929915 0.09581355
-0.045782857 -0.0021887503 0.26164606 -0.04090329 8.474861e-05 0.1035417 0.06437668 -0.12933181
-0.05163912 0.08162366 0.08781871 0.13808051 0.00082043855 0.07878719
00000000: 421a 5cbb 8ac5 0fbe 80ec f6bd b1d2 0cbc
00000010: 15fa 133e 5b6f ff3d 9863 5ebd e31b 743d
00000020: 897c ad3d f024 813e 7ad3 20be bb5a e2bd
00000030: d8cc 09be 049f 49be 329a 373e e539 c43d
00000040: ce86 3bbd 2371 0fbb 79f6 853e 358a 27bd
00000050: 10bb b138 ac0d d43d ecd7 833d 8f6f 04be
00000060: 8b83 53bd 4e2a a73d 4cda b33d fa64 0d3e
00000070: b312 573a 2e5b a13d

nn_fun1.0.weight f4 [30, 1]
0.27657548 -0.1383753 -0.14514492 -0.016211417 0.28992322 -0.44468978 0.21866862 0.23527303
-1.051541 -0.878588 0.019990355 -0.6485946 0.7335697 0.22967596 -0.70210606 0.22747527
-0.7602125 0.91886 0.1913662 0.11471739 0.23461027 0.8449586 -0.30552685 0.55797994
0.023335556 -0.13199562 -0.360563 -0.65729374 0.5013231 0.049115982
00000000: 4d9b 8d3e 41b2 0dbe dfa0 14be cecd 84bc
00000010: d170 943e 61ae e3be abea 5f3e 6aeb 703e
00000020: e598 86bf 25eb 60bf d0c2 a33c 4c0a 26bf
00000030: 39cb 3b3f 2d30 6b3e 39bd 33bf 47ef 683e
00000040: 499d 42bf 693a 6b3f 80f5 433e f3f0 ea3d
00000050: ad3d 703e 354f 583f 046e 9cbe c6d7 0e3f
00000060: 352a bf3c dc29 07be b79b b8be 6744 28bf
00000070: b656 003f d72d 493d

nn_fun1.0.bias f4 [30]
0.21661393 -0.66400564 -0.6872426 0.22934546 0.16503881 -0.4951185 0.574549 -0.7367536
0.816669 0.026423372 -0.6607198 0.08999732 -0.43244708 -0.60864365 0.41192228 0.5374778
0.14727774 -0.041097987 0.53756404 -0.1131508 0.38307896 -0.0027184687 -0.62831604 -0.5952642
0.5967987 0.3068139 0.4327591 0.529629 0.3582448 0.6612838
00000000: 0bd0 5d3e 46fc 29bf 22ef 2fbf 89d9 6a3e
00000010: efff 283e 2c80 fdbe a515 133f e29b 3cbf
00000020: 3811 513f d475 d83c ef24 29bf 8450 b83d
00000030: b469 ddbe 12d0 1bbf 7ae7 d23e 2598 093f
00000040: facf 163e 5d56 28bd cc9d 093f 9bbb e7bd
00000050: ed22 c43e 5628 32bb 52d9 20bf 3c63 18bf
00000060: cdc7 183f b616 9d3e 9a92 dd3e c495 073f
00000070: dd6b b73e e549 293f

nn_fun1.2.weight f4 [30, 30]
0.06747072 0.09652692 0.01924104 0.13352938 0.07046385 -0.050445117 -0.06726828 -0.12757024
-0.06462701 0.092538506 0.0700447 0.15280177 -0.18579859 -0.030756122 -0.08808561 -0.09864559
-0.0014469769 -0.13526475 0.120066404 -0.0045087896 0.0073376857 -0.07062268 -0.023638366 0.10176758
-0.059964325 0.062294327 0.10248447 -0.10954507 -0.1390059 -0.05349565 0.017357603 -0.12590274
-0.034969155 0.07677168 0.13063225 -0.00034679612 -0.12900913 0.022440607 -0.13041347 -0.065362774
-0.14209786 0.016251035 0.061974354 0.061734226 -0.15404345 -0.06221348 -0.23642206 0.16773649
0.022791883 0.11889898 0.07899349 0.13520892 -0.1388859 0.19137473 -0.071967326 0.049504083
0.13147534 0.12761308 0.04621973 -0.06972135 0.102281205 0.062261242 0.06562825 0.014072153
0.052006304 0.0756075 0.031113012 0.123219006 -0.079738714 0.0034976369 -0.044639487 0.018636264
-0.012723147 0.008356036 0.06709627 -0.053996988 0.036739886 -0.0003067252 -0.14089581 -0.0448119
0.13906585 -0.007076713 0.11091485 0.033203695 0.116397955 -0.12114861 0.07948173 0.041343883
-0.072007254 0.12268384 -0.014479248 -0.026967019 0.05706897 -0.02053019 -0.0038268224 -0.030804025
-0.028188085 -0.013717297 0.0010315119 0.0008849441 -0.050311223 0.00026622668 0.0035785672 0.04970143
-0.028474394 -0.040559426 -0.00054589374 -0.00084748573 0.05352883 0.002811532 -0.040655665 -0.0010041806
-0.022956654 0.022558458 0.03852649 -0.0321304 -0.045074355 0.030343883 -0.034170575 -0.035702165
0.0068061124 -0.012231231 0.00022208337 -0.009086195 -0.0033650289 -0.014142322 0.050689552 0.060130797
-0.0223232 0.07553725 0.0036146138 0.0019057714 0.058630075 -0.034044426 -0.01516461 0.063395
-0.016798303 -0.078621514 -0.0836314 -0.00089636544 0.03482162 -0.05247458 -0.04106535 0.00387072
0.04949649 -0.016008282 0.021875152 -0.040552437 0.04618855 0.0044048484 0.038717147 0.07402652
0.047050975 -0.1503774 -0.0756894 -0.007623816 -0.048650675 -0.09753952 0.13989979 0.07771835
-0.013458944 0.0075483387 -0.16737093 -0.07983736 -0.041309506 0.02423781 0.16569686 -0.056837253
-0.09854006 0.04050441 -0.08041523 -0.11061898 0.003008305 0.11484956 -0.047231946 0.032979704
-0.011607582 0.12251691 0.072534174 -0.07605179 0.07931747 0.004438009 0.027457321 0.0241399
-0.010992787 -0.117851526 0.10858238 -0.11591194 -0.16444235 0.016417226 -0.016708262 0.009831895
-0.04329459 0.058771513 0.00803361 -0.120355584 -0.027250055 -0.018059148 -0.12829052 0.035083003
-0.066876054 -0.018406892 0.060945936 -0.044822842 -0.13066565 -0.069443785 0.052594803 0.09740079
0.011561897 -0.008619066 -0.08480907 -0.017214825 -0.118893564 0.14971396 0.014465448 0.042234857
0.06086757 -0.10113448 -0.12399813 -0.120498344 0.03476149 -0.09703314 -0.15004994 0.006126829
0.039248053 -0.020916274 -0.029338025 0.1283926 0.12875451 -0.105603516 -0.091191195 0.10078882
-0.13107084 -0.12095517 -0.13125494 -0.029110271 0.011764519 -0.15639894 0.1508288 -0.1409787
-0.093518905 -0.0031879335 -0.052144587 -0.15187614 -0.060962122 0.16279416 0.054884356 0.02689803
0.10129233 0.03291563 -0.059672672 0.056096096 -0.1300047 0.012657526 0.10635343 0.08138549
00000000: 172e 8a3d e8af c53d 639f 9d3c edbb 083e
00000010: 5a4f 903d 8a9f 4ebd f4c3 89bd c6a1 02be
00000020: 2a5b 84bd d484 bd3d 9873 8f3d 1178 1c3e
00000030: fc41 3ebe 43f4 fbbc 3a66 b4bd b306 cabd
00000040: 7da8 bdba d882 0abe 60e5 f53d 78be 93bb
00000050: f870 f03b a0a2 90bd 3fa5 c1bc 856b d03d
00000060: 279d 75bd 5628 7f3d 61e3 d13d 2a59 e0bd
00000070: 9057 0ebe 411e 5bbd 8831 8e3c a6ec 00be
00000080: d13b 0fbd 783a 9d3d 76c4 053e 30d2 b5b9
00000090: f81a 04be 5dd5 b73c 1c8b 05be ebdc 85bd
000000a0: 1a82 11be e420 853c d2d8 7d3d 07dd 7c3d
000000b0: 91bd 1dbe 90d3 7ebd a018 72be 1dc3 2b3e
000000c0: 0bb6 ba3c 4f81 f33d 57c7 a13d 3574 0a3e
000000d0: 1b38 0ebe bdf7 433e 9b63 93bd cbc4 4a3d
000000e0: 79a1 063e 01ad 023e e650 3d3d 11ca 8ebd
000000f0: cf78 d13d a505 7f3d 1b68 863d e38e 663c
00000100: 9004 553d 1bd8 9a3d b7e0 fe3c 3f5a fc3d
00000110: 0d4e a3bd 9c38 653b e5d7 36bd 14ab 983c
00000120: bf74 50bc c1e7 083c c569 893d f22b 5dbd
00000130: 907c 163d f6cf a0b9 fe46 10be af8c 37bd
00000140: 4767 0e3e c5e3 e7bb 5327 e33d 9900 083d
00000150: 0d62 ee3d c31c f8bd 51c7 a23d 3458 293d
00000160: 8a78 93bd aa41 fb3d 5e3a 6dbc f0e9 dcbc
00000170: 27c1 693d ee2e a8bc 6dcb 7abb b958 fcbc
00000180: b3ea e6bc 84be 60bc cc33 873a 98fb 673a
00000190: 2413 4ebd 5794 8b39 6586 6a3b ba93 4b3d
000001a0: 2243 e9bc a421 26bd 4f1a 0fba ce29 5eba
000001b0: 0c41 5b3d ae41 383b 8e86 26bd b69e 83ba
000001c0: 980f bcbc 84cc b83c f4cd 1d3d 2b9b 03bd
000001d0: e39f 38bd bc93 f83c 72f6 0bbd 6f3c 12bd
000001e0: cf05 df3b 8065 48bc 0ddf 6839 44de 14bc
000001f0: d187 5cbb 33b5 67bc d99f 4f3d b64b 763d
00000200: 25df b6bc 46b3 9a3d 28e3 6c3b 14cb f93a
00000210: 1726 703d 2b72 0bbd fc74 78bc 3dd5 813d
00000220: 989c 89bc 5104 a1bd f046 abbd 11fa 6aba
00000230: 1da1 0e3d 96ef 56bd 2434 28bd e8ab 7d3b
00000240: d5bc 4a3d cd23 83bc 8533 b33c 501a 26bd
00000250: 3430 3d3d 8c56 903b df95 1e3d 379b 973d
00000260: 86b8 403d 88fc 19be 0b03 9bbd 34d1 f9bb
00000270: ee45 47bd cdc2 c7bd e441 0f3e cc2a 9f3d
00000280: e782 5cbc 0e58 f73b 4963 2bbe c581 a3bd
00000290: 2834 29bd 5f8e c63c 70ac 293e 2ece 68bd
000002a0: 5fcf c9bd f4e7 253d bdb0 a4bd 348c e2bd
000002b0: fc26 453b 3f36 eb3d 4976 41bd ba15 073d
000002c0: ba2d 3ebc 25ea fa3d cc8c 943d 0ac1 9bbd
000002d0: 3371 a23d b86c 913b 2dee e03c 0ac1 c53c
000002e0: 171b 34bc 245c f1bd 7060 de3d 3d63 edbd
000002f0: 9363 28be 6b7d 863c c4df 88bc f515 213c
00000300: ab55 31bd 66ba 703d 679f 033c fd7c f6bd
00000310: 823b dfbc c7f0 93bc 975e 03be 32b3 0f3d
00000320: 50f6 88bd 0dca 96bc 72a2 793d 2898 37bd
00000330: 37cd 05be 8b38 8ebd a66d 573d 117a c73d
00000340: 1c6e 3d3c fc36 0dbc 61b0 adbd 1b06 8dbc
00000350: 787e f3bd 9e4e 193e 7d00 6d3c 75fe 2c3d
00000360: 4650 793d 981f cfbd bbf2 fdbd d6c7 f6bd
00000370: 1062 0e3d 50b9 c6bd b1a6 19be 91c3 c83b
00000380: 91c2 203d 9b58 abbc 4c56 f0bc 5a79 033e
00000390: 39d8 033e a846 d8bd 73c2 babd 5e6a ce3d
000003a0: 6f37 06be 58b7 f7bd b267 06be aa78 eebc
000003b0: f8bf 403c 0b27 20be dd72 1a3e b85c 10be
000003c0: d786 bfbd a6ec 50bb 9095 55bd 6b85 1bbe
000003d0: 6bb3 79bd 83b3 263e 6bce 603d 4259 dc3c
000003e0: 5a72 cf3d 8ad2 063d 556b 74bd 05c5 653d
000003f0: f41f 05be 8361 4f3c d4cf d93d 70ad a63d

nn_fun1.2.bias f4 [30]
0.021925528 0.08469361 0.12397113 0.06396598 -0.07695832 -0.027421305 0.08833866 -0.11381708
-0.06318449 0.08715272 0.042683326 -0.15061639 -0.19317363 0.075568035 -0.003606384 -0.015110706
0.06787231 -0.0108610615 0.11608444 -0.08888133 -0.106562465 0.031804763 0.1877983 -0.059618626
-0.031466644 -0.077883184 -0.1261196 0.017801082 -0.09414435 0.040690817
00000000: 2a9d b33c d873 ad3d 93e4 fd3d 9900 833d
00000010: 539c 9dbd a5a2 e0bc e6ea b43d ee18 e9bd
00000020: df66 81bd 207d b23d b6d4 2e3d 2f3b 1abe
00000030: 4fcf 45be 6ac3 9a3d 1559 6cbb e592 77bc
00000040: a300 8b3d 98f2 31bc aebd ed3d 6a07 b6bd
00000050: 6c3d dabd b645 023d 334e 403e a932 74bd
00000060: 2be3 00bd 3881 9fbd 7f25 01be 93d3 913c
00000070: c1ce c0bd 6aab 263d

nn_fun2.0.weight f4 [30, 1]
-1.0520272 0.0030596373 0.17943072 0.33025065 -0.13671756 -0.57962245 -0.62674826 0.211848
-0.13251817 0.012839755 -0.3281711 0.99561983 0.3606257 -0.64878 -0.83585954 0.056064345
0.10154155 0.103673354 0.14658794 0.06350247 -0.016887855 -0.20113114 0.08084451 -0.6229906
-0.03562226 -0.074325 0.27170238 -0.23110737 0.95391583 0.97883147
00000000: d4a8 86bf 3284 483b b0bc 373e 9d16 a93e
00000010: b0ff 0bbe 2362 14bf 9372 20bf afee 583e
00000020: d8b2 07be d65d 523c 0b06 a8be f1e0 7e3f
00000030: efa3 b83e 7216 26bf e4fa 55bf baa3 653d
00000040: 04f5 cf3d b252 d43d 261b 163e 950d 823d
00000050: 6658 8abc 52f5 4dbe ce91 a53d 507c 1fbf
00000060: a6e8 11bd b537 98bd 931c 8b3e 69a7 6cbe
00000070: d433 743f b394 7a3f

nn_fun2.0.bias f4 [30]
0.7825207 -0.12147674 -0.63742113 0.32586104 0.44184998 0.3033461 -0.16975148 0.5220805
-0.37399742 0.09752004 0.0475175 -0.869798 0.10362757 0.062146563 -0.4505276 -0.8175993
-0.023798503 0.49732348 -0.69063365 0.9107644 -0.42645696 -0.30360276 -0.5019622 0.7566894
0.5914094 0.15758853 -0.52835447 0.104861654 -0.6163809 -0.586386
00000000: 4753 483f ccc8 f8bd 082e 23bf 42d7 a63e
00000010: 293a e23e 2e50 9b3e 55d3 2dbe 11a7 053f
00000020: 977c bfbe 96b8 c73d b6a1 423d 15ab 5ebf
00000030: b13a d43d 658d 7e3d 8eab e6be 304e 51bf
00000040: 14f5 c2bc 2fa1 fe3e 5ecd 30bf db27 693f
00000050: 9158 dabe d271 9bbe 9880 00bf 66b6 413f
00000060: 9b66 173f e35e 213e 3d42 07bf b5c1 d63d
00000070: 23cb 1dbf 651d 16bf

nn_fun2.2.weight f4 [30, 30]
-0.13895355 -0.045076903 -0.13243845 0.11402662 -0.13055523 -0.08717096 0.07764362 0.14520425
-0.17100374 -0.018388195 -0.1471512 0.07096874 0.09704681 -0.16143386 0.13727632 0.13318026
-0.044570737 0.100260675 -0.115884535 -0.036270175 -0.09912216 -0.06964571 0.081467606 -0.004177834
0.16821738 0.009228554 0.18652566 0.10629274 0.0970237 0.14229082 -0.047143474 0.06123836
0.11515461 0.1568132 0.09231577 -0.20419727 -0.0033545955 0.09343913 0.08689761 0.03926966
0.05571815 0.055067524 0.14705235 -0.054949 -0.031780317 0.1772248 -0.04871288 -0.18638533
-0.13397622 0.017083444 -0.09760171 -0.15631719 -0.09121182 -0.118146814 0.04050337 0.08377112
0.04907622 0.015812827 0.15342247 -0.057381354 -0.030269116 -0.00014534841 -0.020801442 -0.01060901
0.031011427 -0.0077551 -0.0025808294 -0.023015598 0.01674129 0.00078041136 -9.3376286e-05 0.0007264431
0.00069142017 -0.0002630321 0.02067461 -0.017784609 5.4850643e-05 0.037364926 -0.008155267 0.00016594512
-0.0039467146 0.009793476 -0.0005523676 0.041266058 0.008281038 -2.5574982e-05 -0.019448914 8.5158026e-05
-0.045115765 0.024757182 -0.039969064 -0.0006101956 0.02600596 -0.00077043526 -0.004017156 -0.01141738
-0.0019812256 -0.038048275 0.029916432 0.00018195953 -0.00019875655 -0.031676125 -0.00081166555 -0.00041208795
0.01676887 -0.049560167 9.1699774e-05 0.03317799 -0.011864102 -0.06468138 0.004924704 0.018135708
-0.035330333 0.0417281 0.00010533388 -2.8365957e-05 -0.00017425299 -1.1880725e-05 0.025258355 -0.004689515
-0.13127472 0.099533945 -0.09321632 -0.15881298 -0.117890835 -0.0047033615 0.12760863 -0.061349954
-0.14826046 -0.06255384 -0.057675708 0.008748675 0.08780415 0.06592064 0.120849065 -0.1581717
0.016263032 0.08962663 0.05198562 0.11600928 -0.10135526 0.12455683 -0.113784164 0.015210814
-0.08748586 -0.02620698 -0.13261242 -0.08703317 0.008467431 0.060176536 -0.06866519 -0.010639519
-0.04301816 0.018372836 0.049314853 0.01309704 0.033005986 -0.13394308 -0.08001712 0.030581314
0.004411079 -0.04300059 0.0006250238 0.011663035 0.08872039 0.10768922 -0.005542139 0.06846317
-0.07084931 -0.113847405 0.064638175 0.054970086 0.049776614 -0.11606055 0.08073777 -0.029827086
0.053784944 0.0004347711 -0.040662758 -0.018589161 0.12324327 -0.102704436 0.15401554 -0.04430871
-0.16822386 0.082385555 -0.008793576 -0.090561375 0.103080235 -0.07979789 0.031271257 -0.091786884
0.04664979 0.021791397 0.0004915351 -0.13553074 0.034864623 0.0985052 0.098307215 -0.08790879
0.091547556 -0.045659684 0.04087173 0.13216904 0.08798437 -0.06309823 -0.025793653 -0.06543096
0.12978667 -0.10487119 -0.1858606 -0.072750285 -0.079530895 -0.108420454 0.11776225 -0.023342522
-0.01756011 -0.032563392 0.11396003 -0.06308535 0.030193951 -0.0035173069 -0.027544944 0.100415275
0.0704855 -0.12310212 -0.016936176 -0.04104436 -0.06010201 0.0789351 -0.070148475 0.07988061
-0.014388378 0.016402686 -0.04975688 0.066279516 0.068297155 0.005481938 0.13250498 0.08327826
-0.09109927 -0.008989431 0.06503338 -0.071228385 -0.036650583 0.0028562844 0.06079391 0.027489543
0.0066958643 0.007983908 0.012585694 0.10391961 -0.009318485 0.026593074 0.08280394 -0.06146212
00000000: d749 0ebe 8fa2 38bd f29d 07be ca86 e93d
00000010: 45b0 05be b086 b2bd 9e03 9f3d 6cb0 143e
00000020: 9b1b 2fbe d7a2 96bc ceae 16be 0f58 913d
00000030: 7ac0 c63d eb4e 25be 2a92 0c3e 6860 083e
00000040: ce8f 36bd 7855 cd3d df54 edbd 0990 14bd
00000050: 8f00 cbbd 69a2 8ebd 7dd8 a63d 36e6 88bb
00000060: 2d41 2c3e 5c33 173c 9500 3f3e 02b0 d93d
00000070: 5db4 c63d afb4 113e 8419 41bd 13d5 7a3d
00000080: 2ed6 eb3d a493 203e 0d10 bd3d 1719 51be
00000090: c6d8 5bbb 045d bf3d 60f7 b13d 39d9 203d
000000a0: b738 643d 7c8e 613d e494 163e 3412 61bd
000000b0: 142c 02bd 6b7a 353e 2887 47bd ccdb 3ebe
000000c0: 1031 09be 94f2 8b3c 68e3 c7bd 9d11 20be
000000d0: 43cd babd f5f6 f1bd dde6 253d 3190 ab3d
000000e0: 2504 493d e789 813c c81a 1d3e b608 6bbd
000000f0: f0f6 f7bc ab68 18b9 c967 aabc 6ad1 2dbc
00000100: ad0b fe3c 7e1e febb 2223 29bb 358b bcbc
00000110: 0825 893c 8594 4c3a 03d3 c3b8 c56e 3e3a
00000120: 6c40 353a 92e7 89b9 cd5d a93c 07b1 91bc
00000130: 6e0f 6638 f70b 193d ab9d 05bc 8e01 2e39
00000140: 7153 81bb d174 203c c3cc 10ba 9906 293d
00000150: 31ad 073c db89 d6b7 5453 9fbc de96 b238
00000160: 4fcb 38bd 93cf ca3c 9ab6 23bd 89f5 1fba
00000170: 730a d53c 09f7 49ba 59a2 83bb f60f 3bbc
00000180: 73d7 01bb 82d8 1bbd 4e13 f53c 64cc 3e39
00000190: 4e69 50b9 d3be 01bd f4c5 54ba 820d d8b9
000001a0: df5e 893c 9aff 4abd f14e c038 a5e5 073d
000001b0: a761 42bc ac77 84bd 695f a13b 5691 943c
000001c0: 8ab6 10bd 16eb 2a3d b2e6 dc38 6ef3 edb7
000001d0: aeb7 36b9 5353 47b7 9cea ce3c 81aa 99bb
000001e0: e16c 06be 74d8 cb3d 33e8 bebd df9f 22be
000001f0: c070 f1bd a81e 9abb d6ab 023e 174a 7bbd
00000200: 97d1 17be 3a1c 80bd 5d3d 6cbd 9a56 0f3c
00000210: aad2 b33d 6701 873d b77f f73d c3f7 21be
00000220: 0d3a 853c 2b8e b73d e0ee 543d 4696 ed3d
00000230: 5993 cfbd a717 ff3d ac07 e9bd c736 793c
00000240: c92b b3bd 05b0 d6bc 8dcb 07be 723e b2bd
00000250: fbba 0a3c ac7b 763d 56a0 8cbd 6151 2ebc
00000260: cf33 30bd a182 963c 5ffe 493d f894 563c
00000270: 4931 073d 6028 09be 04e0 a3bd aa85 fa3c
00000280: d08a 903b 6321 30bd a3d8 233a 5016 3f3c
00000290: 09b3 b53d 2a8c dc3d d59a b5bb 6b36 8c3d
000002a0: 7119 91bd d428 e9bd 0561 843d 5028 613d
000002b0: 90e2 4b3d 27b1 edbd d859 a53d ef57 f4bc
000002c0: 9a4d 5c3d fdf1 e339 fe8d 26bd 4c48 98bc
000002d0: f866 fc3d b456 d2bd 40b6 1d3e 0d7d 35bd
000002e0: e042 2cbe c2b9 a83d ee12 10bc 3e78 b9bd
000002f0: bb1b d33d 136d a3bd 4a16 003d c3fa bbbd
00000300: da13 3f3d df83 b23c 5dda 003a 92c8 0abe
00000310: 35ce 0e3d 18bd c93d 4b55 c93d 8609 b4bd
00000320: 497d bb3d a605 3bbd 1d69 273d 5257 073e
00000330: 2631 b43d a539 81bd 364d d3bc ab00 86bd
00000340: cce6 043e b5c6 d6bd 3e52 3ebe 1afe 94bd
00000350: 18e1 a2bd 8b0b debd 562d f13d d138 bfbc
00000360: 38da 8fbc 3161 05bd e063 e93d e432 81bd
00000370: 4e59 f73c 9e82 66bb efa5 e1bc 86a6 cd3d
00000380: b45a 903d f71c fcbd bcbd 8abc 211e 28bd
00000390: 862d 76bd baa8 a13d 01aa 8fbd 7298 a33d
000003a0: 3bbd 6bbc ed5e 863c dfcd 4bbd 8ebd 873d
000003b0: 61df 8b3d d4a1 b33b 63af 073e cb8d aa3d
000003c0: 4192 babd 6848 13bc 3930 853d 30e0 91bd
000003d0: ec1e 16bd 8030 3b3b 0903 793d c031 e13c
000003e0: fb68 db3b f0ce 023c 3a34 4e3c ced3 d43d
000003f0: 8fac 18bc b8d9 d93c 1d95 a93d b4bf 7bbd

nn_fun2.2.bias f4 [30]
0.12158309 0.094586216 -0.052796315 0.028894177 -0.051340956 0.10970414 -0.005703459 0.105545044
0.102207474 -0.13832015 0.13308075 0.15024647 -0.13736382 0.046082668 -0.107685074 0.0033079141
0.12141768 -0.06578895 0.0017435818 0.11108865 0.12456131 -0.11659222 0.06819175 -0.10401705
-0.0078822505 0.1557877 -0.0794894 0.05388834 0.08147403 -0.15354677
00000000: 8e00 f93d 6bb6 c13d f340 58bd 7bb3 ec3c
00000010: e54a 52bd 90ac e03d 15e4 babb 0028 d83d
00000020: 2752 d13d cca3 0dbe 5246 083e 36da 193e
00000030: 1aa9 0cbe 2ec1 3c3d fe89 dcbd 97c9 583b
00000040: d5a9 f83d 5bbc 86bd e688 e43a 7282 e33d
00000050: 001a ff3d e7c7 eebd 1ea8 8b3d e406 d5bd
00000060: 8e24 01bc d086 1f3e 57cb a2bd 05ba 5c3d
00000070: dbdb a63d 5d3b 1dbe

agg.0.weight f4 [1, 30]
0.09870042 -0.09123617 -0.00042500463 0.0024650127 0.006163702 0.015148388 -0.009961186 -0.028434873
0.012252641 0.0037326976 0.14084983 -0.06048756 0.11462106 -0.010822638 0.015734619 1.3464565e-05
-0.00057684147 0.0019796607 0.023515025 0.022978302 -0.005820798 0.005265939 0.02870967 0.0075165574
0.0022325765 0.049120158 0.1256913 -0.0069347257 -0.00078189763 -0.10749861
00000000: 7223 ca3d 07da babd 28d3 deb9 0d8c 213b
00000010: e1f8 c93b f230 783c 3e34 23bc 40f0 e8bc
00000020: 4dbf 483c 46a0 743b f03a 103e cec1 77bd
00000030: 72be ea3d 6f51 31bc e3e5 803c dee5 6137
00000040: 2d37 17ba 32bd 013b 95a2 c03c fe3c bc3c
00000050: 65bc bebb e68d ac3b 8b30 eb3c 744d f63b
00000060: 6b50 123b 3832 493d 38b5 003e b23c e3bb
00000070: 43f8 4cba 3b28 dcbd
