multiple_model_analysis/results/er_experiment_SIS_size_10_17_alpha_0_scale_100_dynwght_False_std_reg_1.0_equiv_reg_0.0/neural_network.pth (torch, 16501 bytes, 14 tensors)

g.0.weight f4 [30, 1]
0.4288152 -0.9264397 1.1854244 -0.21869306 0.24722771 0.500147 0.6398118 -0.6179787
-0.93659854 0.47571278 -1.1445303 -0.7663418 -0.55757403 0.009907648 -0.60385215 0.2610685
-1.3073183 0.9770034 -0.51487714 -0.31619692 0.6208922 -0.47512445 0.67315793 0.31740084
-1.0247784 -1.2265965 0.9972147 -0.22656515 -0.64792025 0.07379034
00000000: aa8d db3e 272b 6dbf fdbb 973f 13f1 5fbe
00000010: 4329 7d3e a209 003f b5ca 233f da33 1ebf
00000020: ecc4 6fbf a090 f33e f87f 92bf fa2e 44bf
00000030: 2cbd 0ebf b053 223c 0e96 1abf c5aa 853e
00000040: 3556 a7bf e51c 7a3f fdce 03bf 90e4 a1be
00000050: cbf2 1e3f 8343 f3be 1454 2c3f 5d82 a23e
00000060: f02b 83bf 1d01 9dbf 7649 7f3f b200 68be
00000070: 1ade 25bf 641f 973d

g.0.bias f4 [30]
-0.063002266 -0.13062645 0.051674258 -0.089625634 0.38006225 -0.33316347 0.112358354 -0.86062914
-0.0999546 0.6304559 0.424196 0.015914224 0.08351931 0.19770281 -0.14666587 0.5217332
0.73119587 -0.20396633 0.2710836 0.049447957 -0.20220815 -0.6407887 -0.09004094 0.7240657
0.4614066 0.7076367 -0.47152725 -0.48867667 -0.17797717 -0.880999
00000000: 5507 81bd f1c2 05be 63a8 533d a58d b7bd
00000010: 8597 c23e 6794 aabe 231c e63d 3152 5cbf
00000020: ffb4 ccbd 8f65 213f 3830 d93e 8c5e 823c
00000030: 2c0c ab3d 9b72 4a3e 942f 16be 4f90 053f
00000040: a72f 3b3f 8ddc 50be 78cb 8a3e f189 4a3d
00000050: a70f 4fbe ba0a 24bf 6267 b8bd 5f5c 393f
00000060: 7c3d ec3e ae27 353f 056c f1be d433 fabe
00000070: a63f 36be 2789 61bf

g.2.weight f4 [30, 30]
0.088792264 0.025576713 -0.23144527 -0.022566933 -0.045357727 -0.005050857 0.04685357 -0.10806577
0.14644861 -0.0009667488 0.15604967 0.33388743 0.10690393 -0.16496037 0.13543963 0.12464663
0.18635592 -0.058489747 0.03749347 0.16217798 -0.16338408 -0.007018819 -0.004245839 -0.09981004
0.19014415 0.16010892 0.1108468 0.09792702 0.09902767 0.04561377 0.0485371 0.12616491
-0.19092193 0.020199852 -0.00083081116 -0.16793516 0.010861575 0.17299934 0.16192923 0.0020763706
0.04406493 0.3174576 -0.08093038 -0.1544714 -0.03943737 -0.16855153 0.0970072 0.049882006
-0.0024082023 0.13832937 0.052169796 0.15817319 -0.06328542 0.12574658 0.1890394 -0.045205895
0.0016942086 0.13606939 -0.076709196 -0.10634085 0.15095167 -0.12768908 0.038151514 0.0029798744
-0.028964022 -0.02071678 -0.0697543 -0.11128302 -0.17059037 0.14489496 -0.070262104 -0.29620776
0.029260654 0.08019405 -0.030167926 -0.044705722 -0.2063638 0.08806257 0.06616823 -0.13087301
0.09286396 0.14542976 0.049380098 -0.0069327303 -0.039968308 0.08695229 -0.013160185 -0.06281133
0.02127975 0.10064064 0.011794174 0.039972372 0.026958438 0.04570141 -0.038624506 0.05110778
0.04347617 -0.05268533 -0.010114617 0.039610155 0.06008842 0.02316355 0.000348877 -0.10783993
0.032325108 -0.08269992 0.032041386 -0.009641312 0.097001806 0.04656087 0.058340546 0.09395851
-0.026596565 0.091558956 0.090529375 0.074045815 -0.006051605 -0.074209675 -0.0612419 0.12466166
0.029662065 -0.10772959 0.07733523 0.11456132 0.020885944 0.10259084 -0.14844458 -0.088243656
-0.11931535 -0.16110635 -0.009842629 -0.015665213 -0.036067873 -0.0018006394 0.07514337 0.11907687
-0.10328607 0.09221074 -0.07025918 0.061670497 -0.06342914 -0.11109951 0.019207407 -0.03898879
-0.012177665 -0.053030495 -0.02394687 -0.108672105 0.13728572 -0.09503462 0.19758722 -0.14629957
0.22335546 -0.12516846 0.15002611 0.18616301 0.21539788 0.1573432 0.10398513 -0.12484966
-0.09643403 -0.21246128 -0.032118883 -0.14190598 -0.1731486 0.16884528 0.13507566 0.115801096
0.05793054 0.15953587 -0.096157715 -0.13894889 0.18960163 0.17154554 -0.1660849 -0.21298279
0.08825736 -0.056405675 -0.18786062 -0.098562695 -0.20061019 0.16550948 -0.20730391 0.10301834
-0.0041247196 -0.10909639 -0.041206263 0.17214094 0.23624797 -0.08519501 0.07313996 0.40878138
0.20843554 0.1194896 -0.04232524 0.11544827 0.077810235 0.0045956317 0.026830185 0.04970122
-0.2053731 -0.13250937 0.026910545 -0.10960367 -0.073530585 -0.07673772 -0.012726106 0.017993534
0.11501739 0.11377907 -0.049687125 -0.024771662 0.29947186 0.00095243484 -0.008368454 0.11171348
0.033108566 -0.09840875 -0.2647737 0.033473823 0.014601192 -0.40677783 -0.032199726 -0.040361837
0.046832133 0.020172825 -0.16147532 0.22714011 0.099705845 -0.11667617 0.13921848 -0.05567519
0.06435598 0.067544244 -0.15741564 -0.16765065 0.039705615 0.017891059 0.07945427 -0.037946787
0.21275432 0.026562542 0.38658938 0.026513577 -0.032743126 -0.019705161 0.12134646 0.13286103
-0.15125214 -0.104927234 -0.10618582 -0.58239126 -0.19194186 -0.023565141 0.033921815 -0.14112617
00000000: b8d8 b53d 4186 d13c fdff 6cbe 4ade b8bc
00000010: 06c9 39bd a981 a5bb 87e9 3f3d 9651 ddbd
00000020: a0f6 153e 6a6d 7dba 7ccb 1f3e 4bf3 aa3e
00000030: 73f0 da3d 5feb 28be b0b0 0a3e bb46 ff3d
00000040: 16d4 3e3e f292 6fbd c192 193d fc11 263e
00000050: 284e 27be 1ffe e5bb ae20 8bbb 3569 ccbd
00000060: 26b5 423e 98f3 233e a603 e33d f68d c83d
00000070: 05cf ca3d 81d5 3a3d d7ce 463d 6031 013e
00000080: 0a81 43be 297a a53c cbca 59ba 32f7 2bbe
00000090: bff4 313c bd26 313e c7d0 253e b813 083b
000000a0: 6e7d 343d cd89 a23e d4be a5bd c02d 1ebe
000000b0: 1489 21bd c698 2cbe b6ab c63d 1351 4c3d
000000c0: eed2 1dbb 37a6 0d3e ffaf 553d 27f8 213e
000000d0: c99b 81bd b6c3 003e 8b93 413e d129 39bd
000000e0: 3510 de3a c655 0b3e b619 9dbd 3bc9 d9bd
000000f0: 1393 1a3e edc0 02be c344 1c3d ff49 433b
00000100: f545 edbc 3db6 a9bc 58db 8ebd 5ae8 e3bd
00000110: 3eaf 2ebe 585f 143e 94e5 8fbd 8ba8 97be
00000120: 0ab4 ef3c c73c a43d ba22 f7bc 591d 37bd
00000130: 0851 53be 265a b43d 3583 873d 9303 06be
00000140: 762f be3d 8aeb 143e c942 4a3d f52b e3bb
00000150: cfb5 23bd 0b14 b23d d19d 57bc 3aa3 80bd
00000160: df52 ae3c ae1c ce3d 5a3c 413c 12ba 233d
00000170: f1d7 dc3c 6731 3b3d bb34 1ebd 6456 513d
00000180: 1214 323d 93cc 57bd c7b7 25bc 423e 223d
00000190: 461f 763d 7cc1 bd3c 7ae9 b639 2edb dcbd
000001a0: 5567 043d 935e a9bd d43d 033d 98f6 1dbc
000001b0: e2a8 c63d 9cb6 3e3d 7ff6 6e3d 526d c03d
000001c0: 0ae1 d9bc 4383 bb3d 7767 b93d 55a5 973d
000001d0: 8b4c c6bb 3efb 97bd c9d8 7abd 9d4e ff3d
000001e0: dcfd f23c 55a1 dcbd ef61 9e3d 209f ea3d
000001f0: 0019 ab3c 251b d23d db01 18be 17b9 b4bd
00000200: 9b5b f4bd 10f9 24be fa42 21bc 5554 80bc
00000210: e8bb 13bd 6f03 ecba c4e4 993d 93de f33d
00000220: a687 d3bd fcd8 bc3d 0ce4 8fbd 349a 7c3d
00000230: 23e7 81bd 2488 e3bd da58 9d3c b6b2 1fbd
00000240: d484 47bc 8136 59bd 3a2c c4bc 7b8f debd
00000250: a194 0c3e 83a1 c2bd 4e54 4a3e 8ecf 15be
00000260: 4bb7 643e 292c 00be 72a0 193e 84a1 3e3e
00000270: 4391 5c3e 931e 213e 28f6 d43d 2eb1 ffbd
00000280: 347f c5bd 738f 59be 178f 03bd cd4f 11be
00000290: de4d 31be c7e5 2c3e 4651 0a3e 2029 ed3d
000002a0: 9348 6d3d 5f5d 233e 56ee c4bd 9e48 0ebe
000002b0: ee26 423e a2a9 2f3e 2912 2abe 2918 5abe
000002c0: 46c0 b43d a309 67bd 895e 40be 3ddb c9bd
000002d0: c26c 4dbe 517b 293e 7a47 54be 48fb d23d
000002e0: a828 87bb ee6d dfbd e6c7 28bd b745 303e
000002f0: fdea 713e b97a aebd 67ca 953d cb4b d13e
00000300: 2070 553e f7b6 f43d 3b5d 2dbd 2570 ec3d
00000310: f95a 9f3d f496 963b faca db3c 8293 4b3d
00000320: 534d 52be 89b0 07be 8173 dc3c e477 e0bd
00000330: 3497 96bd aa28 9dbd 2881 50bc 2d67 933c
00000340: 3d8e eb3d 0005 e93d ba84 4bbd f1ed cabc
00000350: 6054 993e d2ac 793a d71b 09bc 09ca e43d
00000360: d99c 073d 878a c9bd 6b90 87be d91b 093d
00000370: d739 6f3c 2f45 d0be dce3 03bd 7452 25bd
00000380: 0dd3 3f3d 7b41 a53c c959 25be 6b97 683e
00000390: 9432 cc3d eaf3 eebd 4a8f 0e3e ab0b 64bd
000003a0: 11cd 833d a354 8a3d 9131 21be 9dac 2bbe
000003b0: 5ba2 223d 4590 923c ecb8 a23d 176e 1bbd
000003c0: 45dc 593e b099 d93c 0bef c53e 0033 d93c
000003d0: a81d 06bd b86c a1bc 7e84 f83d b90c 083e
000003e0: d7e1 1abe 17e4 d6bd f477 d9bd 9817 15bf
000003f0: 688c 44be af0b c1bc 9af1 0a3d 6183 10be

g.2.bias f4 [30]
-0.16492899 0.065951325 0.05447812 -0.055286895 -0.031029394 -0.12056545 0.17172429 0.0043601487
-0.14898668 -0.023196934 -0.05331367 -0.12416642 0.0930678 -0.111087315 0.0131208375 0.09399922
0.06454912 0.14936928 -0.16031621 -0.024104208 -0.09112486 0.063984826 -0.1868614 0.08925145
-0.0030498693 -0.08076836 -0.03110232 -0.065025754 0.026262922 -0.115916215
00000000: 25e3 28be 7d11 873d 7324 5f3d 8374 62bd
00000010: 5b31 febc 05eb f6bd 7ed8 2f3e 94df 8e3b
00000020: f78f 18be 7f07 bebc 6f5f 5abd f74a febd
00000030: 559a be3d bf81 e3bd c8f8 563c aa82 c03d
00000040: 5432 843d 43f4 183e ef29 24be 3076 c5bc
00000050: ac9f babd 7a0a 833d 9858 3fbe 77c9 b63d
00000060: 51e0 47bb e269 a5bd 4bca febc 392c 85bd
00000070: 5725 d73c 7b65 edbd

g.4.weight f4 [1, 30]
0.2940126 0.10000011 -0.016169757 0.0016209661 -0.0043828124 -0.0975272 0.061508656 -0.19823748
-0.10074631 0.00059468887 0.0825287 -0.11628726 -0.097809926 -0.16613182 0.021834191 0.34916383
-0.07773481 -0.0173436 0.14376709 -0.056075353 0.1194444 0.04970231 0.17540282 0.013682536
0.16213097 -0.22464028 -0.029827217 0.05192859 -0.050615598 0.13018331
00000000: d288 963e dccc cc3d 7076 84bc 9976 d43a
00000010: b29d 8fbb 57bc c7bd 80f0 7b3d c4fe 4abe
00000020: 1554 cebd e5e4 1b3a cf04 a93d 0428 eebd
00000030: 9250 c8bd 761e 2abe 9edd b23c 9ac5 b23e
00000040: 6e33 9fbd 2a14 8ebc ae37 133e 45af 65bd
00000050: 449f f43d a694 4b3d cc9c 333e b72c 603c
00000060: a905 263e 1a08 66be 3558 f4bc 13b3 543d
00000070: 4d52 4fbd c64e 053e

nn_fun1.0.weight f4 [30, 1]
-0.77727795 0.9396774 -0.77820486 0.9875948 -1.249243 -0.7270186 -0.22139545 -0.6906136
0.3025405 -0.66278636 0.7334083 -0.33030924 0.2582907 -0.21305123 -0.869377 -0.50830626
-0.57478106 0.90236205 -0.28259835 0.3800866 0.92225724 -0.63537395 -0.53854877 -1.069717
-0.64966744 0.6638818 -0.5864113 -0.78045523 0.8062703 1.4217693
00000000: b0fb 46bf b38e 703f 6f38 47bf 03d3 7c3f
00000010: 32e7 9fbf e41d 3abf 7db5 62be 0ecc 30bf
00000020: 97e6 9a3e 5eac 29bf a5c0 3b3f 4b1e a9be
00000030: ae3e 843e 1a2a 5abe 7e8f 5ebf 5c20 02bf
00000040: da24 13bf 3301 673f bbb0 90be b69a c23e
00000050: 0d19 6c3f dea7 22bf 55de 09bf 7dec 88bf
00000060: 9b50 26bf 28f4 293f 0d1f 16bf eacb 47bf
00000070: bb67 4e3f 89fc b53f

nn_fun1.0.bias f4 [30]
0.7457021 0.14388873 0.0144464495 -0.42352465 0.59551036 -0.4699419 0.6489035 -0.60093737
-0.8170596 0.7798845 0.22096503 -0.30163682 -0.6525203 -0.7328353 0.10314537 -0.77267265
0.01260431 0.08067788 -0.47653055 -0.8419078 -0.54670197 -0.5158783 0.5722697 0.6635293
0.025367588 -0.2966322 -0.8741552 -0.7520201 0.5905367 -0.84339905
00000000: 55e6 3e3f 9157 133e cdb0 6c3c 39d8 d8be
00000010: 5e73 183f 3a9c f0be 8a1e 263f 08d7 19bf
00000020: d12a 51bf 83a6 473f a844 623e 2470 9abe
00000030: 920b 27bf 189b 3bbf e13d d33d e0cd 45bf
00000040: 4f82 4e3c 723a a53d d0fb f3be 4587 57bf
00000050: a9f4 0bbf 9a10 04bf 4480 123f 0edd 293f
00000060: b0cf cf3c 2de0 97be a3c8 5fbf 6484 40bf
00000070: 6a2d 173f 00e9 57bf

nn_fun1.2.weight f4 [30, 30]
0.10432056 0.065907106 -0.06703422 -0.14686626 0.16756895 -0.046434425 0.112033784 0.05428856
0.115992725 -0.09223177 -0.0038140006 -0.032985467 0.09852195 -0.08236115 -0.09122982 0.12235616
-0.012501753 0.10706934 0.16417868 0.067811094 -0.13787645 0.007940672 0.12966855 -0.03249555
0.00027475055 0.13857844 -0.10603842 0.10078829 -0.113687076 -0.012100454 0.0061396984 -0.00084348687
0.00048755654 0.006395509 -0.006864001 -0.0050166207 -0.0014746186 0.015923606 0.0025378955 -0.0047874777
0.00014985685 0.0029391854 0.010772617 -0.005275932 0.00013004798 -0.020785922 0.00016417551 -0.0003897794
-0.008264674 -0.0077712936 0.01003841 0.0037701349 -0.009645445 -0.022662379 0.0010513308 0.002392113
0.024743708 0.012288349 0.010940295 -0.012323606 0.0067272303 4.6807356e-05 -5.840433e-05 -0.0004817785
0.0064216782 -0.0026107696 -0.008829313 -0.0057105157 0.008164121 -0.0010077152 0.00013060175 -0.000114806775
-0.0037872605 -0.006036328 -7.551365e-05 0.010325178 -3.503095e-05 4.7506393e-05 0.001660322 0.010283965
0.0012564271 0.002105223 -0.003506225 0.00092108705 -0.00010983504 0.00018079762 -0.009690178 0.0062544253
0.00096318097 0.00027197157 0.041249346 -0.11924045 0.067330666 -0.014369878 0.1569708 -0.062291045
0.1359308 0.12735991 -0.14457591 -0.17955191 0.11641434 -0.029925803 0.080776826 0.055454537
0.03433609 0.071075656 -0.08127279 0.008892165 0.060934115 0.038492326 -0.12985618 0.02658555
-0.12984487 -0.100978486 0.013162318 -0.048417386 -0.04932704 -0.020281909 -0.083848655 0.103672706
-0.08453131 0.12985809 -0.021873591 -0.15877604 -0.07043973 0.06646339 0.13371907 -0.13561723
0.10171123 -0.11475477 -0.004206259 0.037548214 -0.08558994 0.12791842 0.012095812 -0.030804927
-0.04399089 0.073483 0.058917716 -0.056781113 -0.13323744 0.10739594 0.12984496 0.063001245
-0.012699117 0.07785321 -0.0100877 0.11378831 0.058655407 -0.070344105 0.10928729 0.07470891
0.07175578 -0.008147917 0.14611448 -0.055973753 -0.015546745 0.015463982 0.08067807 -0.04961231
0.07023128 -0.032624632 0.15324062 0.14663054 0.073246844 0.038394522 -0.08041237 0.051418204
-0.006683141 -0.0487522 0.05523748 -0.06630513 0.0069278125 0.18445164 0.058170814 -0.15403578
0.012522741 -0.013938612 -0.14593354 0.0030609188 0.09965112 -0.12982415 0.055856165 0.04899748
-0.12847286 -0.04048857 0.113188244 -0.15470175 -0.09885626 0.15169115 0.104930155 0.1827843
-0.056687616 0.06175186 0.06992093 -0.13713583 0.067022376 0.10364875 0.0243162 0.16398345
0.012752829 0.059936393 -0.035865128 -0.14687666 0.045204416 0.16449921 0.10340214 0.13502802
0.0010621407 -0.1040874 0.010878381 -0.1875539 0.2648514 -0.17801675 0.07308882 0.1210162
0.15992093 0.055071328 0.01592814 -0.049262468 0.15691347 0.07783757 0.15630034 0.04866692
-0.006137728 0.09634481 -0.04262426 -0.18076457 0.10013896 -0.102362804 0.084040865 0.13897242
0.11289428 0.054861598 0.15809704 -0.00060957693 0.1204768 -0.14003281 0.061296403 0.032094683
0.006898942 6.711888e-06 5.2473333e-05 -0.0019355917 -0.006230372 -0.0001652012 -0.0074151764 0.0012343909
0.0121511165 0.0061693294 -0.00080510834 -0.0008772309 0.01657969 -0.008428142 0.00024300297 -0.00754717
00000000: 05a6 d53d 4efa 863d 3d49 89bd 1c64 16be
00000010: 3297 2b3e 0632 3ebd f871 e53d ae5d 5e3d
00000020: 988d ed3d 03e4 bcbd 50f4 79bb c51b 07bd
00000030: e0c5 c93d f6ac a8bd b3d6 babd de95 fa3d
00000040: 27d4 4cbc 2c47 db3d 751e 283e 8be0 8a3d
00000050: 7c2f 0dbe 9819 023c d5c7 043e 0e1a 05bd
00000060: 650c 9039 82e7 0d3e ac2a d9bd 176a ce3d
00000070: c5d4 e8bd fc40 46bc 862f c93b 721d 5dba
00000080: bb9e ff39 6b91 d13b 6aeb e0bb 7762 a4bb
00000090: fd47 c1ba 3972 823c d252 263b 46e0 9cbb
000000a0: e422 1d39 599f 403b a17f 303c bae1 acbb
000000b0: 7d5d 0839 3d47 aabc 8726 2c39 4e5b ccb9
000000c0: 8e68 07bc 56a6 febb 2578 243c 5e14 773b
000000d0: ee07 1ebc 74a6 b9bc cfcc 893a ffc4 1c3b
000000e0: 51b3 ca3c 1255 493c ec3e 333c f3e8 49bc
000000f0: 1970 dc3b 0453 4438 2cf7 74b8 3797 fcb9
00000100: f16c d23b 7219 2bbb d3a8 10bc 471f bbbb
00000110: cec2 053c 5015 84ba 24f2 0839 6bc4 f0b8
00000120: b033 78bb 64cc c5bb 155d 9eb8 ef2a 293c
00000130: 32ee 12b8 9a41 4738 299f d93a 137e 283c
00000140: b3ae a43a c8f7 093b b2c8 65bb 1b75 713a
00000150: 3d57 e6b8 7e94 3d39 8dc3 1ebc ecf1 cc3b
00000160: fb7d 7c3a 6897 8e39 13f5 283d 5634 f4bd
00000170: a9e4 893d a36f 6bbc f4bc 203e e524 7fbd
00000180: 7231 0b3e a36a 023e b50b 14be 75dc 37be
00000190: a46a ee3d f526 f5bc 526e a53d 4c24 633d
000001a0: 00a4 0c3d 1d90 913d 5972 a6bd 71b0 113c
000001b0: 0d96 793d 21aa 1d3d 05f9 04be f0c9 d93c
000001c0: 0ef6 04be cfcd cebd c3a6 573c 4f51 46bd
000001d0: 260b 4abd 3f26 a6bc d8b8 abbd 5b52 d43d
000001e0: c01e adbd 85f9 043e 3f30 b3bc 3096 22be
000001f0: b542 90bd f51d 883d a7ed 083e 3edf 0abe
00000200: fa4d d03d 8d04 ebbd a8d4 89bb 28cc 193d
00000210: c749 afbd 0cfd 023e 832d 463c 9d5a fcbc
00000220: cb2f 34bd 417e 963d b453 713d 5093 68bd
00000230: 656f 08be 67f2 db3d 14f6 043e cc06 813d
00000240: f50f 50bc 8171 9f3d e146 25bc d809 e93d
00000250: a740 703d 9210 90bd 04d2 df3d fc00 993d
00000260: b2f4 923d d77e 05bc 099f 153e bc44 65bd
00000270: c6b7 7ebc a45c 7d3c 8b3a a53d 4736 4bbd
00000280: 6bd5 8f3d 68a1 05bd 1ceb 1c3e 5126 163e
00000290: 7102 963d 9343 1d3d 3eaf a4bd e59b 523d
000002a0: 40fe dabb 63b0 47bd b240 623d fcca 87bd
000002b0: b402 e33b e4e0 3c3e 8544 6e3d 8ebb 1dbe
000002c0: 2f2c 4d3c c75e 64bc 9a6f 15be b299 483b
000002d0: e315 cc3d 9ff0 04be 6fc9 643d 95b1 483d
000002e0: 648e 03be 58d7 25bd 3dcf e73d 236a 1ebe
000002f0: 2775 cabd ed54 1b3e 9fe5 d63d cf2b 3b3e
00000300: 4631 68bd 85ef 7c3d b432 8f3d 566d 0cbe
00000310: 0743 893d cc45 d43d c432 c73c 47eb 273e
00000320: 3ef1 503c dd7f 753d 50e7 12bd d666 16be
00000330: 4428 393d 7b72 283e 80c4 d33d c944 0a3e
00000340: 8737 8b3a c62b d5bd 3d3b 323c 210e 40be
00000350: 9a9a 873e 064a 36be 97af 953d 57d7 f73d
00000360: 50c2 233e 7992 613d bb7b 823c 71c7 49bd
00000370: edad 203e 4e69 9f3d 320d 203e f756 473d
00000380: ff1e c9bb 6e50 c53d c796 2ebd 591a 39be
00000390: a815 cd3d 97a3 d1bd 9e1d ac3d c94e 0e3e
000003a0: 1e35 e73d 8eb6 603d 31e4 213e 04cc 1fba
000003b0: 8abc f63d c364 0fbe f011 7b3d b775 033d
000003c0: 8510 e23b ae36 e136 d016 5c38 aeb3 fdba
000003d0: 2628 ccbb dc39 2db9 02fb f2bb 49cb a13a
000003e0: 7a15 473c 1628 ca3b e80d 53ba f8f5 65ba
000003f0: 21d2 873c 3116 0abc 9dce 7e39 404e f7bb

nn_fun1.2.bias f4 [30]
0.037419938 0.03742157 0.007193996 0.16651553 -0.07037729 -0.005280558 0.03623954 0.15240614
-0.026224857 0.1658433 -0.12328404 -0.003410825 0.11863214 -0.10350615 -0.07793399 0.19103284
-0.15969986 0.14952525 -0.11810948 -0.078063555 -0.11122408 0.13953865 0.096570835 0.025018401
0.17926633 -0.03002307 0.15950353 0.09691475 0.15307406 0.11702411
00000000: a645 193d 5c47 193d 9dbb eb3b 0c83 2a3e
00000010: f821 90bd 8808 adbb e96f 143d 5b10 1c3e
00000020: 83d5 d6bc d3d2 293e 587c fcbd 2688 5fbb
00000030: 68f5 f23d 08fb d3bd db9b 9fbd 1d9e 433e
00000040: 5c88 23be 261d 193e 62e3 f1bd c9df 9fbd
00000050: 73c9 e3bd 38e3 0e3e eec6 c53d 64f3 cc3c
00000060: 9891 373e f1f2 f5bc e554 233e 3e7b c63d
00000070: 72bf 1c3e 56aa ef3d

nn_fun2.0.weight f4 [30, 1]
-0.015535062 0.0046611703 0.25477618 -0.5355349 0.12236994 -0.49822497 -0.37568748 -0.44592196
-0.7553931 -1.225134 -0.5464962 -0.11210663 -0.04177082 -0.111366145 -0.88785386 -0.33644125
-0.1590768 0.38862777 -0.5318474 -0.21462473 0.18434197 -0.4864778 0.20932508 -0.8757138
-1.1186098 0.88026243 -0.5820648 0.21762963 0.16085874 -0.46867996
00000000: c686 7ebc bbbc 983b 0672 823e d118 09bf
00000010: 179d fa3d 5817 ffbe 1c5a c0be e24f e4be
00000020: 7161 41bf 31d1 9cbf 2de7 0bbf 2998 e5bd
00000030: e117 2bbd ef13 e4bd 644a 63bf 0742 acbe
00000040: 07e5 22be 38fa c63e 2727 08bf 96c6 5bbe
00000050: 24c4 3c3e 9e13 f9be 5059 563e c82e 60bf
00000060: 9b2e 8fbf e158 613f 3302 15bf 4dda 5e3e
00000070: 27b8 243e d2f6 efbe

nn_fun2.0.bias f4 [30]
-0.6141725 0.4107743 -0.04200868 0.39164037 -0.63437253 0.17828447 -0.18591124 0.1398679
0.1160394 0.95421124 0.710172 -0.23363243 0.4766128 -0.20933188 0.6906566 -0.90241516
-0.11595255 -0.12939078 0.23832643 0.09947737 -0.6618467 0.38564202 -0.65447575 0.52184236
0.7807201 -0.693834 0.34296536 -0.25503486 0.73248094 0.25859568
00000000: 693a 1dbf 0251 d23e 4b11 2cbd 1685 c83e
00000010: 3d66 22bf 3490 363e 845f 3ebe 8839 0f3e
00000020: 11a6 ed3d 3047 743f d5cd 353f 573d 6fbe
00000030: 9806 f43e 195b 56be dfce 303f ae04 67bf
00000040: 8878 edbd 047f 04be d80b 743e cbba cb3d
00000050: c96e 29bf df72 c53e b98b 27bf 7697 053f
00000060: 46dd 473f 1b9f 31bf 2899 af3e ee93 82be
00000070: df83 3b3f a766 843e

nn_fun2.2.weight f4 [30, 30]
-0.09698633 -0.011825158 0.0012737201 0.1324194 0.091492966 0.06362606 -0.12353369 -0.020287272
-0.067108415 -0.014370107 0.09476008 -0.015023214 0.017651137 -0.05145252 -0.053372156 0.06766104
-0.08414794 -0.045976806 0.031778187 -0.026196644 -0.03106631 -0.021050835 0.09925161 0.12506458
0.12029785 0.034982663 -0.027834482 0.064735934 0.0313601 -0.02411294 -0.002620782 0.03402697
-0.00014535447 0.013116266 -0.034086782 0.0033789715 0.0072447923 0.00010276819 0.0036550513 0.0055382336
0.081145845 -0.0005768058 -0.06547947 -0.043244425 0.035649613 0.016872363 0.010608563 0.00073147414
-0.0074791773 -0.0058213053 0.10416521 0.0047773854 -0.06945018 -0.010967501 -0.075540386 0.008027326
-0.012024942 -0.008874069 0.0496395 -0.06209493 -0.0019040299 0.016721027 2.2259394e-06 0.044418607
0.00051421596 -0.007730311 0.015623078 0.0020331235 -0.0015000261 0.03794844 -0.08483099 -0.015756998
-0.0117723495 -0.039393537 -0.048401132 0.07839888 0.003984028 -0.00041739544 -0.011302539 0.0066786534
0.046532404 -0.04334532 -0.074534655 0.06581578 -0.030333377 -0.085969485 -0.0012677376 -0.0149731925
-0.07978755 0.03915512 0.061148297 -0.046553474 0.007210342 0.08616132 0.12445102 -0.009789747
-0.020621743 -0.015925467 -0.0476562 0.13219611 0.07974592 -0.024037397 0.13977586 -0.15098624
-0.006640267 0.09948993 -0.08263749 0.015921738 -0.015410869 -0.01728416 0.030436521 -0.09802767
0.06895955 0.03547854 -0.09185721 -0.0019347328 -0.0021087113 -0.003433412 -0.045616545 0.054228816
0.06206944 0.1203659 -0.0026380026 -0.057880133 0.013028106 0.092380635 -0.08825884 0.069110096
0.045530755 0.018442905 -0.094947 -0.005864586 0.11734648 -0.010399773 -0.046351492 0.08145775
-0.09934657 -0.0072152195 -0.07262407 -0.034975488 -0.021016076 0.004225805 0.06026742 0.08329169
-0.023333117 -0.07829462 -0.07287563 -0.13588576 0.18158042 0.019175608 -0.14992365 0.023262685
-0.052547947 0.02025847 0.1011621 0.0031263987 0.10201026 -0.0025135318 0.03901896 -0.11871315
0.05951591 0.061165445 -0.013473045 0.06463812 -0.05480016 -0.0042036492 -0.07948971 0.025367012
0.09019806 -0.053235687 0.039028026 -0.05993345 -0.11944918 -0.12103884 -0.13626564 0.12571879
0.09878602 0.08528062 0.150035 -0.061697304 -0.028911425 0.09058543 -0.036447022 -0.046407387
0.056188453 -0.029041009 0.13706759 0.034516536 -0.014757418 -0.10486271 -0.11384124 -0.093798295
-0.038282618 0.0940441 0.05122284 0.09483652 0.101653636 -0.03242829 0.03536428 0.06325464
-0.07370093 0.17557974 0.03723179 0.016728314 0.17804934 0.10073647 0.076755375 -0.07043457
-0.042738352 0.15735015 -0.118920706 0.002888673 -0.01779562 0.069585815 -0.028740475 -0.102042966
-0.16471483 -0.111869164 0.028280249 -0.01969871 0.08528341 -0.110812455 0.14485006 0.049701065
-0.14712238 0.15453549 -0.1828542 0.0462522 0.065621085 0.023602031 0.0004401667 0.09895235
0.11215965 -0.14088498 -0.098960094 -0.0880256 -0.0409165 0.038952567 -0.03784191 0.06826915
-0.05998727 0.07056095 6.0424395e-06 0.078437656 0.09899011 0.039240867 -0.079359524 0.023413021
0.0024931934 0.10732902 -0.11115483 -0.050198056 -0.12759146 0.08459977 0.045806143 0.0065248543
00000000: c5a0 c6bd 4fbe 41bc f4f2 a63a f498 073e
00000010: aa60 bb3d 614e 823d 3bff fcbd 7e31 a6bc
00000020: 2370 89bd 9970 6bbc 9311 c23d ed23 76bc
00000030: 1e99 903c e1bf 52bd c39c 5abd df91 8a3d
00000040: c155 acbd 2d52 3cbd d829 023d 589a d6bc
00000050: c67e febc cd72 acbc 6e44 cb3d ee10 003e
00000060: b85e f63d fb49 0f3d 2405 e4bc 4694 843d
00000070: 7373 003d 8088 c5bc 6dc1 2bbb dd5f 0b3d
00000080: 4b6a 18b9 9be5 563c 959e 0bbd bc71 5d3b
00000090: b965 ed3b 4085 d738 9689 6f3b 127a b53b
000000a0: cb2f a63d c834 17ba 1a1a 86bd 1121 31bd
000000b0: 5405 123d e937 8a3c 8acf 2d3c 66c0 3f3a
000000c0: e313 f5bb a6c0 bebb 9254 d53d 9d8b 9c3b
000000d0: e53b 8ebd 09b1 33bc ebb4 9abd 0c85 033c
000000e0: 4304 45bc 8b64 11bc ca52 4b3d 4157 7ebd
000000f0: a490 f9ba 89fa 883c 5961 1536 49f0 353d
00000100: 73cc 063a 8c4e fdbb f0f7 7f3c 273e 053b
00000110: 869c c4ba d36f 1b3d dfbb adbd d214 81bc
00000120: d0e0 40bc 1e5b 21bd 4440 46bd 988f a03d
00000130: 738c 823b ded5 dab9 492e 39bc 9bd8 da3b
00000140: c398 3e3d dd8a 31bd a0a5 98bd 6cca 863d
00000150: b47d f8bc c510 b0bd 372a a6ba 1f52 75bc
00000160: a867 a3bd 1e61 203d a376 7a3d dbae 3ebd
00000170: bc44 ec3b 5975 b03d 2de0 fe3d 2d65 20bc
00000180: eeee a8bc 2076 82bc 2633 43bd 6b5e 073e
00000190: d451 a33d 13ea c4bc 6721 0f3e 239c 1abe
000001a0: 9996 d9bb 60c1 cb3d d83d a9bd 4e6e 823c
000001b0: df7d 7cbc 8397 8dbc 0356 f93c bbc2 c8bd
000001c0: aa3a 8d3d f251 113d a21f bcbd dc96 fdba
000001d0: 4e32 0abb 1803 61bb 6ad8 3abd 091f 5e3d
000001e0: 863c 7e3d 6682 f63d 57e2 2cbb b813 6dbd
000001f0: d673 553c 0f32 bd3d 0dc1 b4bd 9889 8d3d
00000200: 757e 3a3d 9315 973c 9373 c2bd b72b c0bb
00000210: 5a53 f03d cf63 2abc 10db 3dbd 52d3 a63d
00000220: 3776 cbbd a66d ecbb eebb 94bd 7542 0fbd
00000230: e829 acbc 9f78 8a3b f8da 763d d594 aa3d
00000240: 1825 bfbc ee58 a0bd d13f 95bd a325 0bbe
00000250: 38f0 393e 2a16 9d3c 9685 19be 6391 be3c
00000260: 843c 57bd 17f5 a53c 132e cf3d 44e4 4c3b
00000270: c1ea d03d 11ba 24bb 58d2 1f3d e11f f3bd
00000280: f4c6 733d 9e88 7a3d 0cbe 5cbc fe60 843d
00000290: 2276 60bd c4be 89bb 80cb a2bd 7bce cf3c
000002a0: c3b9 b83d aa0d 5abd dadb 1f3d c77c 75bd
000002b0: c6a1 f4bd 36e3 f7bd 3889 0bbe 6dbc 003e
000002c0: 5350 ca3d 9ba7 ae3d c6a2 193e 50b6 7cbd
000002d0: a7d7 ecbc db84 b93d 7949 15bd ac15 3ebd
000002e0: dd25 663d 69e7 edbc 725b 0c3e 3661 0d3d
000002f0: 19c9 71bc 43c2 d6bd 9925 e9bd 5219 c0bd
00000300: 3cce 1cbd 319a c03d 0acf 513d a639 c23d
00000310: c82f d03d 87d3 04bd 23da 103d a68b 813d
00000320: 83f0 96bd 2dcb 333e 5d80 183d d109 893c
00000330: 9152 363e ec4e ce3d ec31 9d3d 0040 90bd
00000340: 690e 2fbd 6620 213e b38c f3bd e44f 3d3b
00000350: 1fc8 91bc 0283 8e3d 2571 ebbc e7fb d0bd
00000360: 01ab 28be a91b e5bd fbab e73c 305f a1bc
00000370: 12a9 ae3d a4f1 e2bd 9353 143e 5893 4b3d
00000380: 40a7 16be 8d3e 1e3e 223e 3bbe f272 3d3d
00000390: 5964 863d 0c59 c13c 2dc6 e639 88a7 ca3d
000003a0: f5b3 e53d 2744 10be 97ab cabd c446 b4bd
000003b0: 0f98 27bd ba8c 1f3d 1e00 1bbd b2d0 8b3d
000003c0: 36b5 75bd 4282 903d 29c0 ca36 eca3 a03d
000003d0: 54bb ca3d 08bb 203d 3f87 a2bd aacc bf3c
000003e0: d864 233b 51cf db3d 25a5 e3bd 7a9c 4dbd
000003f0: 56a7 02be a542 ad3d 399f 3b3d 72ce d53b

nn_fun2.2.bias f4 [30]
-0.116496466 -0.018845214 0.06980292 0.07541319 -0.11880573 0.13971712 0.03823377 0.019563695
0.10577924 -0.0072114184 0.012658937 0.14591458 -0.17398238 -0.07261092 0.0653356 0.12652238
-0.07991457 0.12222668 0.109983616 -0.059341107 0.12293528 0.058473755 0.0041626818 0.030502046
-0.014910707 0.10636348 0.11735441 0.034961868 -0.15233068 -0.07970456
00000000: b395 eebd 4761 9abc d5f4 8e3d 3b72 9a3d
00000010: 6b50 f3bd 0112 0f3e 039b 1c3d 0b44 a03c
00000020: c9a2 d83d c34d ecbb 6e67 4f3c a26a 153e
00000030: 7028 32be 09b5 94bd acce 853d 158f 013e
00000040: 40aa a3bd fb51 fa3d 173f e13d a90f 73bd
00000050: 7ec5 fb3d 2d82 6f3d 1b67 883b 6ddf f93c
00000060: 0a4c 74bc 19d5 d93d 8257 f03d 2d34 0f3d
00000070: 93fc 1bbe 253c a3bd

agg.0.weight f4 [1, 30]
-0.036689177 -0.00056469376 -2.2220505e-05 -0.013988401 -0.038261835 0.03287721 0.12928669 0.078610815
-3.196773e-05 0.09086 0.009538968 0.0110428715 -0.031564247 0.0099835545 -0.011735336 0.11396171
-0.046653617 -0.052607656 -0.02653232 0.006506501 -0.061514255 0.0029798439 -0.06072127 -0.017736375
-0.059716444 -0.03379713 -0.02589639 -0.15824774 0.021852989 -0.094219185
00000000: 6447 16bd f507 14ba 2c66 bab7 9b2f 65bc
00000010: 71b8 1cbd 41aa 063d bb63 043e b5fe a03d
00000020: 1715 06b8 cf14 ba3d 5549 1c3c 29ed 343c
00000030: 8349 01bd 1092 233c 9145 40bc c264 e93d
00000040: dd17 3fbd 207b 57bd 4f5a d9bc 7d34 d53b
00000050: 5ff6 7bbd 7c49 433b deb6 78bd e04b 91bc
00000060: 3b99 74bd dc6e 0abd ab24 d4bc b20b 22be
00000070: 0a05 b33c fdf5 c0bd
