multiple_model_analysis/results/er_experiment_PD_size_10_1_alpha_0_scale_100_dynwght_False_std_reg_1.0_equiv_reg_0.0/neural_network.pth (torch, 16501 bytes, 14 tensors)

g.0.weight f4 [30, 1]
00000000: 8cc0 223f a5d6 21bf 1488 4d3f 6e1c 62be
00000010: fadd 01bf 0887 b43e e03c 16bf cb7b 01bf
00000020: c8d7 6a3d c916 85be 0eff 00bf ebec ab3e
00000030: bab2 4fbf 5d5e 4e3f 97b7 4a3f d716 353e
00000040: 2465 75be 9ea9 ecbe c91e e43e ef1e 193f
00000050: bb04 513f 2c07 8e3d 4c69 ea3e 4cd3 503f
00000060: 3a0e 233d 721d 2dbf 04d1 4bbf 3dc8 c03e
00000070: c021 993e e460 643f
0.63575053 -0.63218147 0.80285764 -0.22081158 -0.50729334 0.3525927 -0.5868664 -0.5057952
0.05733469 -0.25993946 -0.5038918 0.33579192 -0.8113209 0.80612737 0.79186386 0.17684494
-0.23964363 -0.46223158 0.44554737 0.59812826 0.81647843 0.06934962 0.4578346 0.81572413
0.03980849 -0.67623055 -0.7961581 0.3765277 0.29908562 0.89210343

g.0.bias f4 [30]
00000000: ac61 06bf 1b4e d93e b9d4 cebe cea4 47be
00000010: c761 d63e 8f87 5bbf 1e08 233f f7ee eb3e
00000020: 4c3e 01bf d2ef 743e 577a 13be d411 8abc
00000030: 85c1 84bd 64ea 69bf 7191 80be d080 e93e
00000040: 7682 7bbd 8c65 f8be ccf2 21bc 5fe2 1fbd
00000050: 1472 cebe f4b6 32bf b71a 02bf 8fc1 a6be
00000060: 2e14 a93e 7256 533f 5480 543e 5b54 643e
00000070: d609 f63e 1f0b fbbe
-0.52492785 0.42442402 -0.4039667 -0.19496462 0.41871473 -0.8575372 0.6368426 0.46080753
-0.5048568 0.23919609 -0.14402138 -0.016854204 -0.064822234 -0.91373277 -0.25110963 0.4560609
-0.061403714 -0.48514974 -0.009884547 -0.039034244 -0.4032141 -0.69810414 -0.50822014 -0.32569548
0.33023208 0.8255378 0.20752078 0.22297804 0.4805438 -0.49031922

g.2.weight f4 [30, 30]
00000000: 6ebd dcbb e2a9 a13c df21 553e 7f45 c93c
00000010: 3d4d 17be 67fe bb3d 6ff3 22be 7a89 803d
00000020: 9295 133b bd3d 683d a903 44be 1b95 1fbd
00000030: 5013 8f3d 3502 223e 1e37 e6bc fa6f 333e
00000040: f738 71bd aa58 f9bd e446 42bd 1377 cc3c
00000050: aacc 163d 7bcc 9e3d 718a b8bd fea5 babc
00000060: 9669 1cbe 919d 0a3e 02f2 4ebd 1787 ffbd
00000070: 7035 283c 6cbe ff3d e81d 713c c191 80bc
00000080: 4118 873d f399 7cbd 34f4 ebbc 8750 4fbd
00000090: 247e 283d 26e5 ed3d 4fbf 83bc 8309 013e
000000a0: 4947 eb3d a9ab 85bd 2b97 e9bc 2e3e bebd
000000b0: 47c5 923d 7d3b 38bd b0d8 053d 4961 06bb
000000c0: 3738 b2bd 6092 c6bd 874a f2bd 3b01 d5bd
000000d0: 5a24 e23c 189c 713c b16e fc3d 5d68 febd
000000e0: caa7 75bc 4087 07be 97f2 2f3c d011 ba3c
000000f0: d1d9 f6bd 49ff b33d d4ec 7a3c 4289 0b3e
00000100: fa18 05bd b5c4 ae3d 249e 203e 83b7 93bd
00000110: 35ea 88bd d781 c33d f8f5 2dbe fdfa fd3d
00000120: 609b f4bd ae0f 363e 6884 c9bd 6f78 5cbd
00000130: 1283 df3d 02df bfbd f18a 343e 4799 093e
00000140: ad0f 523e f3d0 40be 10f9 dab8 f390 1abd
00000150: a8fd 8f3d 2d9d 0cbe 949b 763d b3ed 1d3c
00000160: 4420 7fbd 7508 44bd eda9 af3d 9544 60bd
00000170: a2ba 753d adb3 873d be00 263d c04d fb3b
00000180: 3232 29bd 3cb7 94bd 5bff e9bd 70df c03d
00000190: 4ef9 a8bd b632 8e3d e081 32bd f345 f03d
000001a0: 5399 043e 6c38 15be 70c0 333e a8d4 083d
000001b0: fa54 2ebe c2da 563d c587 443d d1ba 433e
000001c0: 79d0 12be 2b61 0c3e 39e6 b63d 6df4 223e
000001d0: 2047 e93d 2cd1 f2bd 3571 c73d 44d6 713d
000001e0: dc97 bfbd eecd 473c 421a 883d b4be fe3d
000001f0: ced6 f53d 7f56 f73d c4cb 7bbd e744 d43a
00000200: a3e6 8fbd 38e2 bf3d 8be4 1a3d 05d7 f4bd
00000210: e1aa 04bd e74f 26be 607d 21be 248f 223e
00000220: e844 9dbd 8a92 8d3d e0de 1dbd dd30 f9bc
00000230: e543 dabc d04c f83d 6a1e 24bd 2a8d 003e
00000240: 5479 c43d 0a3f 0a3e 142a 1abe 779c 96bd
00000250: b778 0abe 007b afbd 7199 a1bc f758 543c
00000260: 18ea d03c 6ac2 613d f4eb 87bd af37 98bd
00000270: 5fa8 ad3d fd8e 253c 239f 433d e29a 79bd
00000280: 3c17 0c39 b24f 403c 5a1a 94bd aa9a a73d
00000290: 6428 0f3d 6288 a7bd 6bba acbc d744 96bc
000002a0: cc62 1eba b2bd 7fbd 911d 303d 713d ecbd
000002b0: 273e 58bd e74e b3bd 34bb 983c 13af 6b3c
000002c0: c5bb 78bc 52c4 bb3d f494 04be 0e22 f1bb
000002d0: adf1 76bc b1e3 29be 6e1e 50bc 2c42 24be
000002e0: d18f 28be f810 783d 7316 a5bd c789 423d
000002f0: e29c fabd 8b7f 2cbd 101f 71bc 21db 3d3e
00000300: bd58 97bd 23fe f83d 79ca cc3d 40f4 083e
00000310: 39d6 853d 4a56 2f3d 9539 5d3b 8da2 60bc
00000320: 1bcc 383e d55c a03d d9a5 2f3b 5c9b 153e
00000330: 1da4 90bd a8af b43d 9c83 89bd cb95 b3bd
00000340: 4198 5ebd 6ac8 923d f769 2abd 68c3 df3c
00000350: f045 f7bd 32bb 61bc 7420 8bbd f9bf 00bc
00000360: 0543 593c 52bb ca3d d75b fe3d 1135 aabd
00000370: 7d48 be3d 1197 13bc d3ec eabd 1985 fabd
00000380: 68c5 193d 6ed4 2f3d 4e6d 8abb d147 c5bd
00000390: a2a2 983d d11e f03c 6b51 5abe bfdc 34bd
000003a0: 7e7b 9cbd b8b3 b1bd 82d3 c8bd 280b debd
000003b0: 2bbc 2f3e fede 1fbe dd04 2b3e dd67 72be
000003c0: 650f 59bb 5455 b1bd dda4 ebbc dfa1 4f3d
000003d0: 852f b33d cfa1 fbbd e1a2 b9bd 0089 873d
000003e0: 251f 13bd 3692 213d e73d ab3d 860c 4fbd
000003f0: 4e63 c2bd 36dd ae3d 15cf 62bd dbf7 d9bd
-0.006736449 0.019734327 0.20813702 0.024569271 -0.14775558 0.09179383 -0.15913175 0.062762216
0.002251957 0.056699503 -0.19142021 -0.038960557 0.069861054 0.15821154 -0.028102454 0.17523184
-0.058892217 -0.121751145 -0.047430888 0.024959123 0.036816277 0.07753845 -0.090107806 -0.02278423
-0.15274653 0.1353667 -0.050523765 -0.12476938 0.010266647 0.12487492 0.014716603 -0.0156945
0.06596423 -0.061670255 -0.028802969 -0.050613906 0.041135922 0.11615972 -0.016082434 0.12601285
0.11488206 -0.06526882 -0.028514465 -0.092892036 0.07166534 -0.044978607 0.032677352 -0.0020504764
-0.087021284 -0.096958876 -0.11830621 -0.10400625 0.027605224 0.014746688 0.123258 -0.124222495
-0.014993617 -0.13235188 0.01073899 0.022713572 -0.12053264 0.08788926 0.015315253 0.13626578
-0.032494523 0.08533613 0.15685326 -0.072127365 -0.066852964 0.09546249 -0.16988361 0.12401388
-0.11943698 0.17779419 -0.098397076 -0.053825792 0.109136716 -0.09368707 0.17631127 0.13437377
0.20513792 -0.18829708 -0.000104414416 -0.03773589 0.07030803 -0.13731833 0.060206965 0.009639191
-0.06228663 -0.047859628 0.08577333 -0.054752905 0.05999244 0.06626067 0.04052805 0.0076691806
-0.041307636 -0.07261512 -0.11425658 0.09417617 -0.08250676 0.06943266 -0.04358089 0.11732092
0.12949114 -0.14572304 0.17553878 0.03340593 -0.17024603 0.052454717 0.047981042 0.19114234
-0.14337339 0.13708942 0.0893063 0.15913554 0.11390519 -0.118563026 0.097383894 0.05904223
-0.09355137 0.012195094 0.06645633 0.124387175 0.12003861 0.12077045 -0.061473623 0.0016194851
-0.07026412 0.0936932 0.03781561 -0.11955074 -0.032389525 -0.16241418 -0.15770483 0.15874916
-0.076791584 0.06912716 -0.03854263 -0.030418808 -0.026643703 0.12124026 -0.040068068 0.1255385
0.09593454 0.1350061 -0.15055114 -0.07354062 -0.13522612 -0.08568382 -0.019726487 0.012960664
0.02550225 0.05511705 -0.06636801 -0.07432496 0.0847938 0.010104892 0.047759186 -0.060938723
0.00013360096 0.011737751 -0.07231589 0.08183797 0.03495063 -0.0818031 -0.021084985 -0.018343372
-0.00060419436 -0.062436767 0.042996947 -0.115351565 -0.052793648 -0.08755284 0.018643953 0.014385003
-0.0151814865 0.091683045 -0.12947446 -0.007358796 -0.015072268 -0.16590764 -0.0127025675 -0.16040868
-0.16461112 0.060563058 -0.080609225 0.047494676 -0.12236954 -0.042113822 -0.0147168785 0.18540622
-0.07389972 0.12157848 0.09999556 0.13374424 0.06535 0.0428069 0.0033756245 -0.01371063
0.1804661 0.07830206 0.0026801734 0.14610046 -0.07062552 0.08822566 -0.067145556 -0.08768805
-0.05434442 0.07167132 -0.041604962 0.027314857 -0.120738864 -0.013777541 -0.06793299 -0.00785827
0.013260608 0.0989901 0.12419861 -0.08310903 0.0929117 -0.009008185 -0.11470952 -0.122324176
0.037541777 0.042927198 -0.004224456 -0.096328385 0.07452895 0.02931157 -0.21320121 -0.044155832
-0.07640742 -0.08676857 -0.09805967 -0.10841972 0.17161624 -0.15612409 0.16701074 -0.23672433
-0.0033120748 -0.08658853 -0.028765136 0.05069148 0.08749298 -0.12286722 -0.0906427 0.066179276
-0.035918374 0.03944608 0.08361416 -0.050549053 -0.09491597 0.085382864 -0.05537327 -0.10642978

g.2.bias f4 [30]
00000000: fa99 213e a7d6 3ebc 2d2d 9c3d 717e a7bd
00000010: 3f41 353d b1c5 17bd 28c7 8bbd fac8 8abd
00000020: a248 413e f187 e43c 9021 d8bd a2ea 753c
00000030: d661 1abe ab76 923c 9df9 d93d b3c4 9dba
00000040: f5fe 273d a4b7 67be d586 9ebc 66de 193e
00000050: fec4 f1bd d45b d7bd b1e3 e73d a944 763d
00000060: 3511 b43d 4cb3 6dbe cff6 1a3e 843f 29bc
00000070: 0b9c ee3c 1a74 173e
0.15781394 -0.011647857 0.07625804 -0.08178414 0.044251677 -0.037053768 -0.068250954 -0.067766145
0.18875363 0.027896853 -0.105532765 0.015009554 -0.15076384 0.01787885 0.10643313 -0.001203677
0.04101463 -0.22628647 -0.019351402 0.15026245 -0.118051514 -0.10515562 0.113227256 0.060124073
0.087923445 -0.23212928 0.15133213 -0.010330085 0.029127141 0.14790383

g.4.weight f4 [1, 30]
00000000: bd34 75bd 3a1c 76b9 0553 8ebd 1914 643d
00000010: 66a2 333b 44d1 2038 244b f5bb e581 673c
00000020: 710f 33bd d207 a13c 180a 653c 8a3c 69bb
00000030: cb9c 213a 5481 50b8 aa2e 2a39 e5a9 3e39
00000040: bfd3 5b3d 59f2 8abe 2c04 0cb9 fd4f 873e
00000050: f6fb a4b7 d326 883d 036e e53c 4523 d539
00000060: a880 ffbb b092 423e e412 10bd 6be8 a039
00000070: d0cb fb3b 9487 2cbb
-0.05986475 -0.00023470903 -0.069494285 0.05568323 0.002741003 3.8341866e-05 -0.007485764 0.01413009
-0.043715898 0.01965705 0.013979457 -0.0035589063 0.00061650266 -4.971151e-05 0.00016229847 0.00018183103
0.053668734 -0.27138022 -0.00013352995 0.26428214 -1.9667652e-05 0.0664803 0.02800656 0.00040652804
-0.0077973194 0.1900127 -0.035174266 0.00030690743 0.0076842085 -0.0026325928

nn_fun1.0.weight f4 [30, 1]
00000000: 13d2 103e efff 16bf 5c2a fd3e 5692 bd3e
00000010: b9b0 32bf a424 e1bc b78b a53e b1fb 153f
00000020: a856 303f d1ad 0f3f b8a8 583d 1345 193f
00000030: e53c 5abf 7484 413f 77e0 7ebe 49c5 083f
00000040: 2b76 473e 1156 983c b524 123f 6366 edbe
00000050: e630 0a3e c556 ec3e bd93 87be 33a4 b53e
00000060: 2a58 19bf 0ee4 ffbe c5e4 0c3f bd0c 0e3f
00000070: 967b 80bf 698f e03e
0.14142637 -0.58984274 0.4944638 0.37025708 -0.6980091 -0.027483292 0.32333156 0.58587176
0.68882227 0.561246 0.052895278 0.59871024 -0.8524917 0.7559273 -0.24890314 0.53426033
0.19478671 0.018595727 0.5708726 -0.46367177 0.13495216 0.4615995 -0.26479903 0.35476837
-0.5990015 -0.4997868 0.55036575 0.5548819 -1.0037715 0.43859413

nn_fun1.0.bias f4 [30]
00000000: 4a4d ae3c dd60 4c3f 3ba0 62bf c904 66be
00000010: f014 01bf 5f70 fbbe 6e19 2bbe 91f5 47bf
00000020: 458d 2e3f fa53 9cbe 4df5 6d3e 3522 fabe
00000030: 53bb b73d 99d4 21bf cdb3 133f 6d8a 4b3f
00000040: 2b06 263f 16bb 75be cb45 043f 5abb 2cbf
00000050: de97 833e 84f7 fcbd 62ca 39bf 5ee2 38bf
00000060: 7acf 04bf b819 6c3e f839 bcbe dc51 cabe
00000070: 03f9 563f 4014 80be
0.021277089 0.798353 -0.8852574 -0.22462763 -0.50422573 -0.4910917 -0.1670892 -0.7810908
0.6818431 -0.3053282 0.23238106 -0.48854223 0.08971276 -0.63215023 0.5769623 0.79508096
0.6485316 -0.23997149 0.51668996 -0.67473376 0.25701803 -0.12351897 -0.72574437 -0.7222041
-0.51879084 0.23056686 -0.36762977 -0.3951558 0.8397371 -0.2501545

nn_fun1.2.weight f4 [30, 30]
00000000: 650a 4b3d 41e2 93bc 1470 c63d 701d f5ba
00000010: 00a8 fb3d 70a3 553d 03ee b0bd e732 1b3e
00000020: d504 acbc 8fc9 25be 7765 173d 276f 44bd
00000030: 8f4c ddbd c8f2 a4bc e7d8 49bd 7b7e a5bd
00000040: 0d8f c2bd fedd 89bd e6d2 a9bd 2ed3 e03c
00000050: a51a 233e 73d3 12be 2f73 96bd 8ba7 01be
00000060: 050c 9d3a b71b ad3d 37ca 1abe 7479 cc3c
00000070: 96c3 cabd b596 ca3d 35f5 703c 8799 c83b
00000080: 8d35 6fbd 0848 77ba a231 9e3d aba8 b9bd
00000090: 826d 05ba b559 893d a1a1 dfbb 8cad fcbb
000000a0: 3eb3 95bc 3a5f 1dbc 6311 08bd 5425 81bd
000000b0: 96c4 6bbd 0ae7 5c3d af85 d73d 2813 883d
000000c0: e934 3e3b 628e 063d 8b7c 98bd b035 8d3c
000000d0: 2363 d93d 1145 273d 3996 94bd c15e 663c
000000e0: 087d eebb c706 30bc 1fe8 9bbb 678b 42bc
000000f0: ee44 96bd d5eb eebd aaf2 0e3d 4452 f43c
00000100: 880c 8e3d 5adf 4cbd b058 f73d e2fb 2c3c
00000110: 4d56 233e 0d94 073e 0032 0ebe c5e2 f8bd
00000120: b228 b63d 956c 163e ddde 11be 2ba3 533c
00000130: dd1c 6ebd 2bcb 1b3e 1c7a 223e 360d f33d
00000140: cecb d33d 7986 acbb cfeb 1d3e 8439 bcbd
00000150: dff0 54bb 8997 85bd 0ff3 a9bd 65a9 a2bd
00000160: 8f08 773d 3658 e93c c8ca 8abb cf18 21bc
00000170: 591e 553c b46b 9e38 8e4d 643d 615f 69bd
00000180: 914e a1b8 a880 5bbd 46d0 b5bd fe89 7939
00000190: ad99 3b3d 8a3c b63c a872 b83c 194e 923c
000001a0: 5aa3 2abd 9fda 5e3d d9da 5a3d 8352 12bd
000001b0: 5ff9 90bd 9396 263d cdc3 e63b 2c36 c7bb
000001c0: 6bef 93bd bac6 423d 0996 313c 9203 a7b7
000001d0: 2861 4e38 8f1f 433b 0334 c0bc 0e9f f438
000001e0: 7975 bfbb 374c 3f3b 8e25 ad3d ef95 8a3c
000001f0: 8df1 81bd 7813 ff3d 7aa9 543b 0572 973d
00000200: 60ad 02bd dc51 e23c ac60 043e 4026 323d
00000210: d1ee 3bbe a5cd 2d3e 17d3 99bd c5fc 283e
00000220: 18a2 28bd 1d68 193e 589c 873d 6ab6 b8bc
00000230: 1d4e a33d 6824 ed3c 483b cdbd cb12 bd3d
00000240: a870 ce3d 8941 85bd ba28 1b3e b9b4 2c3d
00000250: 2c18 f8bd 2cdf 45bb 2d37 293d 1b2d 41bd
00000260: 8877 9b3d 1204 f3b9 2332 62ba 1ae8 bebd
00000270: 9bb5 96ba 7c2d c93d 93e6 803d feb4 c4ba
00000280: c059 d1bd d9e7 32bd 5653 9fbd 354a a53d
00000290: e031 87bd 34a0 7b3d 8d99 f03d 0ffe 073d
000002a0: 327e f3bd 46a8 b5bc addc 07bd b621 1d3d
000002b0: 6354 9bbc 2bf6 32bc c52b ff3d c594 af3b
000002c0: 93bc 2d3c 45f1 79bc 1b30 893d c6e4 f637
000002d0: 1b47 0cbd 2a21 093d b0fd 06be 2fd1 c3bd
000002e0: 72cc a93d cc7f 26be aa46 1ebe 8f8e cb3d
000002f0: 2d44 1f3b 5669 fdbd 960a db3c 6885 a3bd
00000300: b13a 1b3e 5a96 84bc 20e3 59bd 93bf be3d
00000310: 6d98 0ebe 00eb 16bd d855 8f3c 61cc 62bd
00000320: b489 ce3d ea85 0abe b141 5dbd 132b 98bd
00000330: d594 263e f8cb b03d a469 12be db5a 0c3d
00000340: 8584 94bc 80b7 2abd ed90 b33d 686d b2bd
00000350: f134 113e e3d3 cebc bb76 17bd 4714 553d
00000360: 578e 833d 4562 303d 6d4d 31be cbd0 80bd
00000370: de24 193e 29c4 a7bd 85c1 91bd 727e 30be
00000380: bdc0 cabd d8ba cdbd 3edc 1e3d 3ea3 8c3d
00000390: a5c9 273e 54d0 f43d c7ef bbbb 49d4 473d
000003a0: e8dd d63d b8e7 22be 218c bb3d 9d1d 81bd
000003b0: ade6 8b3d 96b2 dabd 650b b63d 19d3 7f3c
000003c0: 396d beb9 be06 0c3c 1562 d0bd b6d9 5ebe
000003d0: 1ead 3e3e 70b0 f4bc e476 e5be 2f67 b9bd
000003e0: 9989 26be 9d08 d4be 3c53 90bd 4fd5 0ebd
000003f0: b438 9b3d 3559 1a3d 981e 4cbd c640 37be
0.04957046 -0.018052222 0.09689346 -0.001870079 0.12287903 0.05215782 -0.08639147 0.15156136
-0.020998398 -0.1619017 0.036962 -0.047957566 -0.10805618 -0.020135298 -0.04927912 -0.08080765
-0.09499941 -0.06731795 -0.08292179 0.027444448 0.15928133 -0.14338474 -0.07346188 -0.12661569
0.0011981732 0.08452552 -0.15116201 0.024960257 -0.09900586 0.09892026 0.014706899 0.0061218175
-0.05840068 -0.0009433036 0.077243105 -0.09065374 -0.00050898653 0.067065634 -0.0068246876 -0.007711118
-0.018273946 -0.009605223 -0.033219706 -0.06305948 -0.057560526 0.053931274 0.10523545 0.06644279
0.0029023236 0.03285063 -0.0744563 0.017237514 0.10614612 0.04083735 -0.07255215 0.014060677
-0.0072780885 -0.010743803 -0.0047578956 -0.011874056 -0.07337366 -0.11666075 0.03489939 0.029824384
0.06935984 -0.050017692 0.12077463 0.0105581 0.1595089 0.1324007 -0.13886261 -0.12152628
0.08894481 0.14689858 -0.14245172 0.01291732 -0.058132995 0.15214221 0.15866894 0.11867754
0.10341607 -0.005265054 0.15421985 -0.09190658 -0.0032492203 -0.06523044 -0.08298313 -0.07942466
0.060310896 0.028484445 -0.004235599 -0.009832575 0.013007724 7.5540884e-05 0.055738024 -0.056975726
-7.6917124e-05 -0.053589493 -0.08877616 0.00023797897 0.045800854 0.022245664 0.02251561 0.017859505
-0.04165969 0.054407712 0.053431366 -0.03572322 -0.07078814 0.040670943 0.0070423842 -0.006079456
-0.072234 0.0475528 0.010838994 -1.9909614e-05 4.920471e-05 0.002977345 -0.023462301 0.00011664453
-0.0058428613 0.0029189715 0.084544286 0.016917197 -0.063449 0.12454885 0.0032449649 0.073947944
-0.031903625 0.027626924 0.12927502 0.04349351 -0.1835282 0.16972978 -0.07510965 0.16502674
-0.04117021 0.14981122 0.06621617 -0.02254792 0.07973883 0.028948024 -0.100210726 0.092321
0.10080081 -0.065066405 0.15152255 0.042164538 -0.121139854 -0.0030192835 0.041312385 -0.047162157
0.07591158 -0.00046351604 -0.0008628687 -0.093216136 -0.0011498214 0.098231286 0.062939785 -0.0015007553
-0.102221966 -0.04367814 -0.07779567 0.080707945 -0.0660131 0.06143208 0.117480375 0.033201274
-0.11889304 -0.022174966 -0.033169437 0.038362227 -0.018961137 -0.010922949 0.1245952 0.005358311
0.010604042 -0.015255277 0.066986285 2.9432016e-05 -0.0342475 0.033478893 -0.13182712 -0.09561383
0.08290948 -0.16259688 -0.15456644 0.099393 0.002430211 -0.12373607 0.026738446 -0.079844296
0.15159108 -0.016184974 -0.05319512 0.09313884 -0.13925333 -0.036845207 0.017496988 -0.055370692
0.100848585 -0.13527647 -0.054017726 -0.07430091 0.16267712 0.08632654 -0.14298111 0.034266334
-0.018129596 -0.041678905 0.08767877 -0.08712274 0.14180352 -0.02524752 -0.036978465 0.05202129
0.064236335 0.043062467 -0.17314692 -0.06289824 0.1495547 -0.081917115 -0.07116989 -0.17235735
-0.09900043 -0.10045403 0.038784258 0.068670735 0.16385515 0.11953798 -0.005735371 0.048786435
0.10491544 -0.15908706 0.09157587 -0.063044764 0.06831107 -0.10678594 0.08888892 0.015614294
-0.00036321 0.008546529 -0.10174958 -0.21762738 0.18620726 -0.029869288 -0.4481727 -0.09052884
-0.16263427 -0.4141282 -0.07047126 -0.034871396 0.07579175 0.03768273 -0.049833864 -0.17895803

nn_fun1.2.bias f4 [30]
00000000: b76e d33d f657 1bbb 0c00 183e 0e86 8f3d
00000010: f40d bdbc f824 393d bfa9 9b3c 0006 2f3e
00000020: 9ae1 6a3d c6d2 bebd 5f54 2a3b 9714 163d
00000030: c211 413d 1e7e 163d 37e5 cd3c 5466 2bbc
00000040: 7d34 013c 5b2b d0bd c59b 183e bf6c 1f3e
00000050: 9c0b 98bd 696a 14be 01e9 c83d f103 47be
00000060: 55d0 db3d 39f5 2fbe 551e f8bd a6b4 6ebd
00000070: 03d9 203e 4097 47bd
0.103238516 -0.0023703552 0.14843768 0.07007991 -0.023077942 0.04520127 0.01900184 0.17092133
0.057344057 -0.093175456 0.002599023 0.03664073 0.047136076 0.03674137 0.025133712 -0.010461409
0.007886049 -0.101645194 0.14903171 0.15568827 -0.07424089 -0.14493717 0.09810067 -0.19435097
0.107330956 -0.17183389 -0.121151604 -0.05827775 0.15707783 -0.048728228

nn_fun2.0.weight f4 [30, 1]
00000000: 5673 5c3f f3fd 5e3e 7c73 503f c6cd 1c3f
00000010: 38a5 093f 2e73 6c3f 3d5a 04be 1d0a 92be
00000020: 1193 b93e 463e 693f 5983 93be 201e 28bf
00000030: be06 1cbf 5bcd 69be aabf d63d 35c7 2fbe
00000040: 768f 8abe 2495 0abf 7bc1 983e bcfe 60bf
00000050: 5308 403f 9423 f1bd ca88 e33d a5e4 cd3e
00000060: c3e3 cebe f96a b23e 997b 9f3c 5f33 ed3d
00000070: 3592 4abf 9214 203e
0.8611349 0.21776561 0.81426215 0.61251485 0.5376773 0.9236325 -0.12925048 -0.2852334
0.36245015 0.91110647 -0.28811148 -0.6567097 -0.6094779 -0.22832243 0.10485776 -0.17165835
-0.27062577 -0.5413382 0.29835114 -0.87888694 0.750127 -0.11774364 0.11110075 0.40213504
-0.40408143 0.3484724 0.019468116 0.11582064 -0.79129344 0.15632847

nn_fun2.0.bias f4 [30]
00000000: 65c0 8e3e 1c68 963d f361 47be e5aa 233f
00000010: 3a24 263f c9c4 193f 0744 8e3c d94b 513e
00000020: cc0f 33bf 1f98 45bf 8280 b8bd 85de 653e
00000030: c7af edbe 166a 09bf 5522 c23e 61f8 a83e
00000040: 6780 28bf ebe1 113f 0ad1 3bbf 15f7 433f
00000050: 49bf ce3e b5b6 a0be 0277 4f3f 4dc0 09bf
00000060: 9917 ecbe 9abe f33e 8612 82be 5c4c cebe
00000070: 4f0e 8c3e ed36 c5bd
0.2788116 0.07344076 -0.19470958 0.6393264 0.6489903 0.60065895 0.017366422 0.2043909
-0.6994598 -0.77185243 -0.09008886 0.22448166 -0.4642317 -0.536775 0.37916818 0.33001998
-0.65820926 0.5698535 -0.73365843 0.7654889 0.40380314 -0.31389394 0.81040967 -0.5380905
-0.46111754 0.47606355 -0.25404757 -0.40292633 0.27354667 -0.09629617

nn_fun2.2.weight f4 [30, 30]
00000000: 40fd f13d a087 223e 1e3b b23d e7a1 4a3d
00000010: dd41 5a3d dc8b 163c 7ff6 3a3c f1df 83bb
00000020: a497 f03d b241 473e e31d fcbc 7290 433d
00000030: 4200 a23b 72fc 4a3d 689f 213e 6b65 dcbd
00000040: 5382 1e3c 7265 4cbd 99f7 3abe d072 77be
00000050: 9af1 bebc 75ce da3d f288 d5bd 884c 733d
00000060: 5d78 b23d 82c2 febd 6663 5f3d d827 963c
00000070: 3b68 36be ad44 493c 0865 e5bd 7d88 0b3d
00000080: 5213 c33c ed37 cc3c 80f2 8c3d 6af1 8b3d
00000090: 4039 7f3d 9151 1cb9 85cc 2ebd ca02 ed3c
000000a0: 986b dd3c 2a07 66bc ab0d bebc 47f9 f73d
000000b0: e1f4 a93b 8ea2 cd3c f4b8 c53c ea5d 353d
000000c0: 0bdc 46bd 4efb af3a cfad 103c 0144 2a3c
000000d0: 915b a33d 9097 ac3c 86e8 a43c 4ccb 753d
000000e0: 301c 753b ee1e c23b f8e6 32bd 40e6 b439
000000f0: d5ac 63bd 4d62 f43d 6f9f 2b3e 7aef 0abe
00000100: 1e8d 94bd 1423 4c3e 936b c2bd 844d 06bc
00000110: 2e99 093e 615a c7bd 26ae 24be f70d 8c3d
00000120: c1f7 503d 37fe fe3d a8dc 5c3d 8939 f13d
00000130: cf06 36be 1654 763d 2f80 053c 3f97 193e
00000140: 77ca 84bd 9339 37bd 75d2 9abd cd9e 14be
00000150: 952a 3f3d d6a2 683d 7ce0 253d bbeb 03bd
00000160: c4cf 96bc 7384 dbbc 5170 093d 6efc a1bc
00000170: ff23 1a3b 2e4f 2a3d 2cbc 3b3d 5b7b 4dbd
00000180: 5390 b33c 0452 8538 7b9d e43c a650 d03b
00000190: a56d a93b c02f 683c dd62 95bd 0966 e7bc
000001a0: 5fcb d1bc faab b5bc ced5 30bc e943 b73c
000001b0: 98a7 69bb 4040 8c3c 5c07 afbd f275 a83c
000001c0: 67e9 8c3d 2045 d43c 46a3 a9bc 4853 b5bd
000001d0: 5e82 a6bb f4d5 d53c c554 293c de3c 2b3a
000001e0: 54fd eabd 10b3 c4bd fa8f c33d 0a25 5d3d
000001f0: 1b9c e9bd ed79 223e c83f 4ebd 95ad 573d
00000200: ec16 503d f42d 02be 4b69 90bd d911 c2bd
00000210: 808b 3a3d 9a1f af3d bf5b ca3d 0453 b2bd
00000220: 9fc9 fcbc f3fe 123e f7e2 98bd f75b 6c3b
00000230: 1b6e e4bc e41a 08be 7849 09be 9868 023e
00000240: a636 0f3d fe4b df3c c6ce 7d3d 438f cc3d
00000250: 04c0 b83d 09aa 383d 639b 4d3d 3692 6f3d
00000260: ea61 843d 09c5 c1bc 4d1c 403c 056a 93bd
00000270: 8e12 80bd 3945 b93a 3096 abbd f167 45bd
00000280: 07d0 b5bd a5a0 75bd 72a2 003d d9eb 863d
00000290: a086 c2bd 1a86 fc3b 1612 c0bd 22dc b63c
000002a0: a8cd 8a3d 1e6d 75bc 1a69 75bd ba8e 893d
000002b0: bf5a b2bd 0922 aabc 65e8 cdbd b421 c43d
000002c0: b4eb bb3c 8952 17bd e8ab 993d d443 a13c
000002d0: a8fb 8f3d caf1 eabd c190 03bd 3535 123e
000002e0: 1426 023e ccb0 83bd d738 e33d 2e9c 1dbe
000002f0: 7498 7a3d 0844 8a3e 565a d53c 4763 1fbe
00000300: da81 6c3d fcc9 cb3d 4001 f83d b5f2 f8bd
00000310: 6359 0bbd a279 34bd dd46 b2bc 2ef9 0fbe
00000320: ca22 93bd 9b3f 633d 582e ae3d f0b7 34bc
00000330: 2f92 0b3e 7c5c aebb 3c30 233d 96e5 3e3d
00000340: f1da 9cbd 8feb d93c a19c 873c 10f3 b93d
00000350: 81f9 71bd a93f 4dbd 5f2e 0ebe 59f1 29bd
00000360: 0c21 bd3c 632a 543d ffc5 55be 71cf 28be
00000370: 1aff a43d fe76 f2bd bd14 ad3d 4fe0 b0bc
00000380: 989c 09be 4a69 6f3d 4b39 09be ebe3 a33d
00000390: 6588 43be 57b7 803e 11b8 15bd 2d8f b33d
000003a0: 9bc9 abbd 22a7 3bbe 17a6 2d3d 52e7 103e
000003b0: ddfa cabc 3fbd 31be 67a2 98bd f2aa 01be
000003c0: 8c10 d63d 3c69 873d a335 1c3e 536a 703e
000003d0: 863e c3bc 3b7b 513e a2ea a73d 5d8e de3d
000003e0: a3b8 82be 95b3 d7be b8d4 113d cb7f fc3d
000003f0: 659b 183d a9e1 09bd cd56 51bd ce43 acbd
0.11815882 0.1587205 0.08702682 0.04947081 0.05328547 0.0091886185 0.011411308 -0.0040244986
0.11747673 0.19458655 -0.03077597 0.047745176 0.0049438784 0.049557157 0.15783465 -0.107615314
0.009674626 -0.049901433 -0.18258514 -0.24164891 -0.023308564 0.1068391 -0.10426511 0.059399158
0.08714364 -0.12439443 0.054538153 0.018329546 -0.17813198 0.01228444 -0.11200911 0.034065712
0.023812924 0.024929011 0.06882191 0.068331555 0.062310457 -0.00014907705 -0.042675514 0.028931994
0.027028844 -0.014039794 -0.023199877 0.12108093 0.0051866625 0.025101926 0.024136044 0.044279017
-0.048549693 0.0013426335 0.008830502 0.01039219 0.07976449 0.021068364 0.020130407 0.060008332
0.0037400834 0.0059240973 -0.0436773 0.00034503825 -0.055584747 0.11932812 0.16760038 -0.13567916
-0.072534785 0.19935256 -0.094931744 -0.008197192 0.1343734 -0.09734035 -0.16082057 0.06838601
0.051017527 0.124508314 0.05392137 0.11778552 -0.17776035 0.060138784 0.008148237 0.14999102
-0.064839296 -0.04473264 -0.07559673 -0.14513703 0.04667147 0.056795917 0.040497288 -0.032207232
-0.018409617 -0.026796555 0.03355438 -0.019773688 0.002351999 0.041579418 0.04583375 -0.05016647
0.021919405 6.357211e-05 0.027907124 0.0063572703 0.0051705413 0.014171541 -0.07294247 -0.028246896
-0.02560967 -0.022176731 -0.0107931625 0.02237125 -0.0035652872 0.01712048 -0.085463256 0.020564053
0.068804555 0.025911868 -0.020707738 -0.08853775 -0.005081459 0.026102997 0.010335152 0.0006532202
-0.114741 -0.09604466 0.09548946 0.0539904 -0.11406728 0.15866823 -0.050353795 0.052655775
0.05080311 -0.12712842 -0.07051333 -0.094760604 0.045543194 0.085509494 0.098807804 -0.0870724
-0.03085786 0.14355068 -0.07465165 0.0036065558 -0.027884534 -0.13291508 -0.13406932 0.12735212
0.034964226 0.027257916 0.061964773 0.099882625 0.09020999 0.045084033 0.050197016 0.058489047
0.06463988 -0.023653524 0.011725497 -0.07197956 -0.06253539 0.001413501 -0.08378255 -0.04819483
-0.08877569 -0.059967656 0.03140492 0.06587953 -0.09498334 0.007706416 -0.093784496 0.022321764
0.06777507 -0.014979629 -0.059914686 0.06716676 -0.08708715 -0.020768182 -0.10054091 0.09576741
0.02293954 -0.036943946 0.07503492 0.019685663 0.070304215 -0.11471899 -0.03212047 0.1427811
0.12709838 -0.06430206 0.11094826 -0.15391609 0.061180547 0.2700503 0.026044052 -0.15565215
0.057741024 0.09950635 0.121096134 -0.12155668 -0.034020793 -0.04406131 -0.021762306 -0.14059898
-0.0718437 0.05548058 0.08504933 -0.011030182 0.13629983 -0.0053210836 0.03984092 0.04660567
-0.07658947 0.02660158 0.016554179 0.090795636 -0.059075836 -0.05010954 -0.13884877 -0.041489933
0.023087047 0.051798236 -0.20876311 -0.16485383 0.08056469 -0.11839102 0.08451221 -0.021591334
-0.13438642 0.05845002 -0.13400762 0.08002456 -0.19094999 0.25139877 -0.036552493 0.08767543
-0.083880626 -0.18325475 0.042394724 0.14150742 -0.024777824 -0.17357348 -0.07452851 -0.12662867
0.10452375 0.06611869 0.15254836 0.2347806 -0.023833524 0.20457165 0.081990495 0.108669974
-0.25531492 -0.42129198 0.035603255 0.12329062 0.03725757 -0.033662472 -0.05110817 -0.0841137

nn_fun2.2.bias f4 [30]
00000000: 350b eabd da62 e6bd 6b2e e8bd 9a1b b73d
00000010: c480 0bbd f0eb 1cbd a6da c63d c8fc 9bbd
00000020: cac4 5b3c 9a95 343e 15ca de3d 4e43 d2bd
00000030: 7fef 1abd d168 92bc 6704 cf3c 5ec3 86bd
00000040: db48 3a3d df08 c0bc 6cb8 06be 734b 5f3d
00000050: 9a2d a2bd f6af 183c 2db2 28be 28e1 80bd
00000060: 16e8 bdbd 59be 31be c97d afbd 583c 013c
00000070: 2003 51bd d388 4a3d
-0.11427919 -0.11249323 -0.113369785 0.089408115 -0.034058347 -0.038310945 0.09709673 -0.076165736
0.013413617 0.17635193 0.10878388 -0.102667436 -0.037826058 -0.017872246 0.025270654 -0.06580232
0.045479637 -0.02344173 -0.13156289 0.054515313 -0.07918854 0.009319296 -0.16474219 -0.06292945
-0.092727825 -0.17357768 -0.085689135 0.007887922 -0.05102837 0.049446892

agg.0.weight f4 [1, 30]
00000000: 72f7 123d 3507 0fbb d797 d3bd 2a11 6939
00000010: ee5a 8fbc 238c f0ba 720c 8ebd 884d 89bc
00000020: c50e c1bd 871d 0f3d 4b5f 55bc 9cf4 c13b
00000030: c689 a6ba 085d f0bd 679c 463b a1fd 883a
00000040: 3423 18ba ce64 523c 839a 343d 6850 a03c
00000050: 9da4 433b 46f5 6bbc ec5e 683d 9df5 913d
00000060: 747b 563d 1ad6 c43d 62df 743d 9cbb a53d
00000070: ed9e e53d 0d9c 00be
0.035880513 -0.0021824364 -0.103316955 0.00022227006 -0.017499413 -0.0018352311 -0.069359675 -0.016760603
-0.09426645 0.03494027 -0.013023208 0.0059190523 -0.0012705855 -0.11736494 0.0030305625 0.0010451564
-0.00058035855 0.0128414165 0.044092666 0.01956959 0.0029852756 -0.014401739 0.05673115 0.07126925
0.052363828 0.09611149 0.059783347 0.08092424 0.11211953 -0.12559529
