multiple_model_analysis/results/er_experiment_MAK_size_10_25_alpha_0_scale_100_dynwght_False_std_reg_1.0_equiv_reg_0.0/neural_network.pth (torch, 16627 bytes, 14 tensors)

g.0.weight f4 [30, 1]
0	0x3f0133ce	0.5046967
1	0xbeb0e781	-0.34551623
2	0xbe2ba731	-0.16762997
3	0x3f0aa000	0.5415039
4	0x3ed1a741	0.40947917
5	0xbeed1dd9	-0.46311834
6	0xbf40c67a	-0.7530285
7	0x3f315ddc	0.69283843
8	0xbeb8e058	-0.3610866
9	0x3f13dd3d	0.5775946
10	0xbf0d6976	-0.55239046
11	0xbdbafaaf	-0.09129845
12	0xbf35e4c7	-0.7105221
13	0xbf3a4991	-0.72768503
14	0xbd83a909	-0.06428725
15	0xbf4ba229	-0.7954431
16	0x3eab4e53	0.33458194
17	0xbf2a6a1e	-0.6656817
18	0xbf0b000b	-0.5429694
19	0x3e5061fe	0.20349881
20	0x3e8b6804	0.27227795
21	0x3eef1e67	0.46702883
22	0x3e212d56	0.1573995
23	0x3e483755	0.19552357
24	0x3eb43c58	0.3520229
25	0xbf447b47	-0.76750606
26	0x3f1beb43	0.60905856
27	0x3ed3260c	0.41239965
28	0x3e41c007	0.18920909
29	0xbda07220	-0.078342676

g.0.bias f4 [30]
0	0x3f43288e	0.76233757
1	0x3ed9eabc	0.425619
2	0x3f56e493	0.83942527
3	0xbe72b5f3	-0.2370222
4	0x3f3a58ca	0.7279173
5	0xbf3dfa92	-0.74210465
6	0xbdd29d29	-0.10283882
7	0xbe8ac515	-0.27103487
8	0x3e0ee3a9	0.13954033
9	0x3efdd117	0.49573585
10	0xbef0eb80	-0.47054672
11	0x3e7f3a0a	0.24924484
12	0x3e9d23c3	0.30691347
13	0xbf266e74	-0.6501229
14	0x3cd95b81	0.02653289
15	0x3e47befa	0.19506446
16	0xbe00687d	-0.12539859
17	0xbec51903	-0.38495645
18	0x3e56ff8a	0.20995918
19	0x3f15a9bb	0.58462113
20	0xbe0ed83d	-0.13949676
21	0xbe9b2ba6	-0.3030674
22	0xbecda0cd	-0.40161744
23	0xbdb6bc11	-0.089225896
24	0x3d1b6231	0.03793544
25	0xbf2fd1f2	-0.68679726
26	0xbf198c6e	-0.59979904
27	0xbf42bd13	-0.76069754
28	0xbd5b0aed	-0.053477217
29	0x3e0abddb	0.13548987

g.2.weight f4 [30, 30]
0	0x3d31e13c	0.04342769
1	0xbe0e5018	-0.13897741
2	0xbcf5ac9a	-0.02998953
3	0x3e563f2c	0.20922536
4	0xbe6046c4	-0.21901995
5	0x3e055d46	0.13023862
6	0x3d98557f	0.07438182
7	0x3e1bdc94	0.15220863
8	0xbda8a783	-0.08235075
9	0xbc3c1661	-0.011479945
10	0x3e3bbd27	0.18333875
11	0x3d8f1689	0.0698672
12	0xbe7bc48a	-0.24586692
13	0x3bf8a55c	0.0075880717
14	0x3cd55294	0.026040353
15	0x3e1fcdfb	0.15605919
16	0x3df9b626	0.12192945
17	0x3e44f3ba	0.192336
18	0xbe4e6dd2	-0.2015908
19	0x3e08b891	0.13351656
20	0x3d91842d	0.07105289
21	0xbcaec4c3	-0.021334058
22	0x3ab9ce35	0.0014175834
23	0x3dd49b4d	0.10381184
24	0xbd6eb8ed	-0.058281828
25	0x3e23f943	0.16013055
26	0x3deb5f72	0.11492814
27	0x3ca43d84	0.020048864
28	0xbdbb71c4	-0.091525584
29	0xbd4c7d86	-0.049924396
30	0xbcda9e87	-0.02668692
31	0xbd000b3e	-0.03126072
32	0xbd940161	-0.072268255
33	0x3ae60323	0.0017548542
34	0x3de6258a	0.11237629
35	0xbd9a5f35	-0.075376906
36	0x3d8ff4e7	0.07029133
37	0x3ca0e64f	0.01964107
38	0x3cb5322f	0.022118656
39	0xbd6c58b9	-0.0577018
40	0x3dc5f7d8	0.09666413
41	0x3deb04ad	0.11475501
42	0xbb16766a	-0.0022958764
43	0xbdfbb8cc	-0.122911066
44	0xb9821b86	-0.0002481604
45	0x3caace10	0.020850211
46	0x3b35d152	0.0027743173
47	0xbdbb243c	-0.091377705
48	0x3b16fea3	0.002303996
49	0x3dd94014	0.10607925
50	0x3a5e596e	0.0008481954
51	0x3cda822c	0.026673399
52	0xbc4832d4	-0.01221915
53	0x3c117f8a	0.008880505
54	0xbd02fd63	-0.03197993
55	0x3e0215df	0.12703656
56	0xbd139e6a	-0.036039747
57	0xbd2d5ea8	-0.0423266
58	0x3b79a131	0.0038090462
59	0xbcbb3bfb	-0.02285575
60	0x3dddabe4	0.10823801
61	0xbdad1ddc	-0.08452961
62	0x3dee7467	0.11643296
63	0xbc8fdc13	-0.017560994
64	0xbdb7d963	-0.0897701
65	0x3d911f9f	0.07086109
66	0x3dd0563a	0.101726964
67	0xbdac2c29	-0.084068604
68	0xbdcd2822	-0.1001742
69	0x3dfabb8c	0.12242803
70	0x3d6964e2	0.056980975
71	0xbe126dff	-0.14299773
72	0xbe23e2f6	-0.16004547
73	0x3dc69bcd	0.096976854
74	0xbc2781f8	-0.010223858
75	0xbc4fbf3d	-0.012679872
76	0xbd10081a	-0.035163976
77	0xbdeaf3a6	-0.114722535
78	0x3c4180c4	0.011810485
79	0xbd18bdd8	-0.037290424
80	0xbd73433f	-0.059390303
81	0x3dd9ac3b	0.106285535
82	0xbc8f395b	-0.017483404
83	0x3e25bdc9	0.16185679
84	0xbdfac84e	-0.12245236
85	0x3db4da4e	0.08830701
86	0x3d1db99d	0.038507093
87	0xbd74f3cd	-0.05980282
88	0x3bc1e4db	0.0059171743
89	0x3d166569	0.036717806
90	0xbe13c802	-0.14431766
91	0xbe1128c9	-0.14175715
92	0x3e0717cc	0.13192672
93	0x3cd56ea6	0.026053738
94	0x3e00939f	0.12556313
95	0x3dde7455	0.10862032
96	0xbbf091fd	-0.007341622
97	0x3db93c16	0.090446636
98	0x3cda7fc4	0.026672252
99	0x3d976457	0.07392185
100	0x3e217669	0.15767826
101	0x3d7bc6e2	0.061468966
102	0x3d9ae73c	0.07563636
103	0x3c831514	0.016001262
104	0xbca0beed	-0.01962229
105	0xbdd43eb3	-0.103635214
106	0x3d3ceea5	0.046126027
107	0x3dbb3d8b	0.09142598
108	0xbd0d2a63	-0.03446425
109	0xbd0fd6fd	-0.03511714
110	0xbbd41853	-0.0064726262
111	0x3db7c8d1	0.089738496
112	0xbd890ddf	-0.06692099
113	0x3b00a13c	0.0019627353
114	0x3e1c07c6	0.1523734
115	0xbe2ed493	-0.17073278
116	0x3e18005f	0.14843892
117	0x3dc8978a	0.09794529
118	0xbd6c9e90	-0.057768404
119	0x3e1253fd	0.14289851
120	0x3e004f0b	0.12530152
121	0x3d86ff5d	0.065916754
122	0xbe36f1af	-0.17865632
123	0x3dac64a1	0.08417631
124	0xbc648ca3	-0.013949546
125	0x3d8750de	0.06607221
126	0x3e2e47f8	0.17019641
127	0xbddef8e5	-0.108873166
128	0xbd6a61eb	-0.057222288
129	0xbe114cad	-0.14189406
130	0x3daa8208	0.08325583
131	0xbd4bbe1d	-0.049741853
132	0x3c2f38f6	0.010694733
133	0x3d4b6908	0.049660712
134	0x3d7eaf4b	0.06217889
135	0xbe038228	-0.1284262
136	0x3d0c1837	0.03420278
137	0x3de62ece	0.11239396
138	0xbd446638	-0.047949046
139	0x3d8cd289	0.06876094
140	0xbd2b98e5	-0.04189386
141	0x3e1cdbe6	0.1531826
142	0x3e2ec853	0.17068605
143	0xbd12b110	-0.03581339
144	0xbe1322d3	-0.14368753
145	0xbd253cc5	-0.040341157
146	0xbe017221	-0.12641193
147	0x3dc0ac7a	0.09407897
148	0x3d3664d5	0.044529755
149	0x3e2212f0	0.15827537
150	0xbd675128	-0.05647388
151	0xbd132216	-0.03592118
152	0x3da9c89e	0.08290218
153	0xbc92d51d	-0.017923886
154	0x3d8c2f57	0.06844967
155	0x3c83b01d	0.016075188
156	0x3e33df37	0.17565618
157	0x3d86b26e	0.065770015
158	0x3d460519	0.048344705
159	0x3d9c61bc	0.07635829
160	0x3e24aafe	0.16080853
161	0x3d0c696a	0.03428022
162	0x3d384869	0.04499093
163	0x3dfda5d0	0.12385142
164	0x38a72766	7.970519e-05
165	0x3e0f5e19	0.14000739
166	0x3d07cfc2	0.033157118
167	0x3d504354	0.05084546
168	0x3d4172a6	0.047228478
169	0x3dc5d033	0.096588515
170	0xbcfc2d0d	-0.0307832
171	0xbd1fbb2d	-0.038996864
172	0x3dc178ad	0.09446845
173	0xbe15fa2c	-0.14646214
174	0x3cede699	0.029040622
175	0xbdbf4fe8	-0.09341413
176	0xbcc667bc	-0.024219386
177	0xbe0f46e2	-0.13991883
178	0xbdcb6113	-0.09930625
179	0xbbddfc86	-0.006774488
180	0x3e1d70dd	0.15375085
181	0x3dd6332a	0.104589775
182	0x3df796c6	0.120893046
183	0xbe875079	-0.26428583
184	0x3e2e02e2	0.16993287
185	0xbe0bee1c	-0.1366505
186	0x3dc4393e	0.095812306
187	0xbe1d80f6	-0.15381226
188	0xbdad88d0	-0.084733605
189	0x3e00d463	0.12581019
190	0x3d1c0b61	0.03809679
191	0x3e4ed805	0.20199592
192	0x3ea5713e	0.3231296
193	0x3dbe391f	0.09288239
194	0x3d19ef4e	0.037581734
195	0x3e19b1e4	0.15009266
196	0x3db27167	0.08713036
197	0xbdaa3494	-0.0831081
198	0x3dcc3159	0.0997035
199	0x3ce9007c	0.028442614
200	0xbcf3fca4	-0.029783554
201	0xbe639a32	-0.2222679
202	0x3d06b658	0.03288874
203	0xbdea7671	-0.11448372
204	0x3c37216b	0.011177401
205	0xbda2449b	-0.07923242
206	0xbdca6d9b	-0.09884187
207	0x3d89a6b1	0.06721247
208	0xbd960ae0	-0.07326293
209	0xbd7a07cf	-0.061042603
210	0xbcd5aa22	-0.026082102
211	0xbda97ca7	-0.08275729
212	0xbd34f64c	-0.0441802
213	0xbcce3124	-0.025169916
214	0x3e23fc34	0.16014177
215	0x3deec96f	0.11659514
216	0xbdebfc3a	-0.11522718
217	0xbde8efe3	-0.1137388
218	0xbdb07b1c	-0.08617231
219	0xbbdeabaf	-0.0067953686
220	0xbde083df	-0.109626524
221	0x3d109709	0.03530029
222	0x3da5b47e	0.08091067
223	0xbd9c3c31	-0.07628668
224	0xbb65af8d	-0.0035047263
225	0x3dec7255	0.115452446
226	0xbcf37ab7	-0.029721601
227	0xbe1a1a71	-0.15049149
228	0x3d3aec7e	0.045635693
229	0xbd7b8501	-0.06140614
230	0xbda67e94	-0.081296116
231	0x3e07c445	0.13258465
232	0x3dd18984	0.10231307
233	0x3e0340dc	0.1281771
234	0x3de9f4ad	0.11423621
235	0xbdfa520b	-0.1222268
236	0x3ccd02a0	0.025025666
237	0xbaaf1bb1	-0.0013359693
238	0x3dd533a9	0.10410244
239	0xbdd1828c	-0.10229978
240	0xbe11082a	-0.1416327
241	0x3de2f3a7	0.11081629
242	0xbcced5f6	-0.025248509
243	0x3cbe7ca0	0.023252785
244	0x3d81e942	0.063433185
245	0xbbfe071b	-0.007752312
246	0x3d9fa4bf	0.07795095
247	0x3cc77cab	0.024351439
248	0xbd83854d	-0.064219095
249	0xbe142fc3	-0.14471345
250	0x3e1d23f1	0.15345742
251	0xbe1648f6	-0.1467627
252	0xbc4541af	-0.012039586
253	0xbdc94233	-0.098270796
254	0xbcc0562a	-0.023478586
255	0xbd799a87	-0.060938384

g.2.bias f4 [30]
0	0xbe424f97	-0.18975674
1	0xbdc6bea7	-0.09704333
2	0x3d9da4aa	0.07697423
3	0x3d9f06ab	0.07764944
4	0x3d11b324	0.035571232
5	0x3c6ed696	0.014577528
6	0xbe114652	-0.14186981
7	0x3d59cc9c	0.053173646
8	0x3dadd01d	0.0848696
9	0xbc69531c	-0.014241006
10	0x3cf7c111	0.030243428
11	0xbd7b0292	-0.061281748
12	0xbe337461	-0.17524864
13	0x3d30c667	0.04315796
14	0x3d5c6e30	0.05381602
15	0xbdc10c8c	-0.09426221
16	0x3deb7df7	0.11498635
17	0xbdd7a4d5	-0.10529486
18	0xbc85549a	-0.016275693
19	0x3ddac1d3	0.106815
20	0xbde35347	-0.11099868
21	0xbb932e31	-0.0044915904
22	0x3dae7d83	0.08520033
23	0xbe059866	-0.13046417
24	0x3d8042bb	0.06262728
25	0x3e489ec0	0.19591808
26	0x3e26c2dc	0.1628527
27	0x3dfa6f6f	0.122282855
28	0xbdcad114	-0.0990316
29	0x3d9b6a1b	0.075885974

g.4.weight f4 [1, 30]
0	0xbe2a38e2	-0.16623262
1	0x37a62b11	1.9808796e-05
2	0xbba97ee8	-0.005172599
3	0xba9223a5	-0.0011149539
4	0xbd8edee4	-0.06976107
5	0x39da698c	0.0004165884
6	0x3dbee731	0.0932144
7	0x3cabe2a8	0.020982102
8	0x3a5e4971	0.00084795716
9	0x39e40f9b	0.00043499176
10	0xb8406477	-4.5869932e-05
11	0xba246a13	-0.000627191
12	0xbe1ed831	-0.15512158
13	0x38e5135f	0.00010923179
14	0xbd65e526	-0.056126736
15	0x3cee125e	0.029061493
16	0x3b506d93	0.0031803593
17	0x395f8553	0.00021316604
18	0x3d7ab599	0.06120834
19	0xb980924c	-0.00024523062
20	0xbbc10b9a	-0.0058912756
21	0x3893291a	7.017162e-05
22	0xbc9b360e	-0.018946674
23	0x39e9766b	0.0004452945
24	0x3daddfe6	0.08489971
25	0x3df221d4	0.118228585
26	0x3d9cda7b	0.07658859
27	0x3b9f5c60	0.004863307
28	0x394ff306	0.00019831592
29	0x3cbbb518	0.0229135

nn_fun1.0.weight f4 [30, 1]
0	0xbf32950d	-0.69758683
1	0xbe50080d	-0.20315571
2	0x3f616ca2	0.88056386
3	0xbf536299	-0.82572323
4	0xbf0ff458	-0.56232214
5	0x3f143310	0.57890415
6	0x3f8202d2	1.0157111
7	0x3e211594	0.15730888
8	0x3e49ef2c	0.19720143
9	0xbf7ac76f	-0.9796056
10	0x3f47cc1f	0.7804584
11	0xbf72178b	-0.94567174
12	0xbe8baaa7	-0.27278635
13	0xbba91757	-0.005160253
14	0xbe84243d	-0.25808898
15	0xbeb72de3	-0.35777196
16	0xbf158584	-0.58406854
17	0x3f5d51e0	0.86453056
18	0xbefb53f7	-0.49087498
19	0xbea04aca	-0.3130706
20	0xbf5a0e4a	-0.85178053
21	0xbf12fb93	-0.5741512
22	0xbe6c5985	-0.23081024
23	0xbd38ac98	-0.045086473
24	0xbebc4e79	-0.3677862
25	0x3eaea288	0.34108377
26	0x3f62b423	0.88556117
27	0xbf7add2b	-0.97993726
28	0xbf176557	-0.5913901
29	0xbe9c9605	-0.30583206

nn_fun1.0.bias f4 [30]
0	0xbf262e32	-0.6491424
1	0x3ec62efe	0.38707727
2	0xbd7c368b	-0.061575454
3	0xbdbee605	-0.093212165
4	0x3f331ddd	0.6996744
5	0xbf487fa9	-0.78319794
6	0xbf2d4e74	-0.67697835
7	0x3f13ebb3	0.57781523
8	0x3d01b840	0.031669855
9	0x3f062706	0.52403295
10	0x3c7c42d6	0.015396794
11	0xbd0de4d0	-0.03464204
12	0xbf0ea297	-0.5571684
13	0x3aedd952	0.0018146432
14	0xbeef993b	-0.46796593
15	0x3eaec369	0.3413346
16	0xbed33dee	-0.41258186
17	0xbf54d127	-0.8313164
18	0xbd08c74f	-0.0333932
19	0xbf167a2e	-0.5878018
20	0xbf170d17	-0.5900435
21	0x3d555950	0.05208713
22	0xbd52e1e0	-0.051484942
23	0x3dd8efcb	0.10592612
24	0x3f4b3c04	0.7938845
25	0x3e46e3c4	0.19422823
26	0xbe59c28c	-0.2126562
27	0x3de6ed23	0.11275699
28	0xbf1af50f	-0.6053018
29	0xbea15e29	-0.3151715

nn_fun1.2.weight f4 [30, 30]
0	0x3c417a19	0.0118088955
1	0xbcf80b36	-0.030278783
2	0x3dd8a4eb	0.105783306
3	0xbda899eb	-0.082324825
4	0x3d4a2985	0.049356002
5	0xbd5c6bb5	-0.053813655
6	0x3b04dae3	0.0020272068
7	0xbd6671b0	-0.056260765
8	0xbd5597c6	-0.052146696
9	0x3dd564c4	0.1041961
10	0x3dd74577	0.10511296
11	0xbd62a7a7	-0.055335667
12	0x3d98d1b9	0.074618764
13	0xb74536ac	-1.1754844e-05
14	0x3da49ced	0.08037744
15	0x3d6de789	0.058082137
16	0x3dfe8aed	0.12428842
17	0xbdb78d18	-0.08962458
18	0xbd997d53	-0.07494607
19	0x3d963856	0.07334964
20	0xbdb89329	-0.090124436
21	0xbc84df6a	-0.016219813
22	0x3cedfc51	0.029050978
23	0x3d9cf345	0.076635875
24	0x3dde1177	0.10843175
25	0xbde269cd	-0.11055336
26	0x3cff1b89	0.03114106
27	0x3d425af7	0.047450032
28	0xbc7486ed	-0.014924747
29	0xbcb3f40d	-0.021966958
30	0x3db861ba	0.09003015
31	0xbc400095	-0.011718889
32	0x3c9cc3fb	0.01913642
33	0xbd1c77f7	-0.038200345
34	0x3d1982df	0.037478324
35	0xbd1f2534	-0.03885384
36	0x3d5a3b5d	0.05327927
37	0x3b42f34c	0.0029747067
38	0x3aaae970	0.001303954
39	0x3a527e78	0.00080297096
40	0x3d6556fe	0.055991165
41	0x3d297b49	0.04137734
42	0xbd99a1a5	-0.075015344
43	0xb7270cf0	-9.956988e-06
44	0x3c65090a	0.013979206
45	0xbc8dd66b	-0.017314157
46	0xbd166ec6	-0.036726736
47	0x3de9e412	0.11420454
48	0x3d3a0842	0.04541803
49	0x3d1d8011	0.03845221
50	0x3debe1e2	0.11517693
51	0xbd4bc3b1	-0.049747173
52	0x3ca5c3bb	0.020234933
53	0xbb8925b2	-0.004185402
54	0x3da1fa96	0.079091236
55	0xbd9839e9	-0.074329205
56	0xba475791	-0.0007604296
57	0xbd154673	-0.03644414
58	0xbd2eee89	-0.042707954
59	0x3d42ff8d	0.047606993
60	0xbd127deb	-0.035764616
61	0x3df30a7a	0.118672326
62	0xbcabdbd0	-0.020978838
63	0x3e4dbb02	0.20090869
64	0xbd2127a4	-0.039344445
65	0x3d8e0ac7	0.06935649
66	0xbe0a049d	-0.13478322
67	0xbd434640	-0.047674417
68	0xbe0f3c01	-0.13987733
69	0x3dfe7fc6	0.124267146
70	0xbd97a51c	-0.07404539
71	0x3e19a1a7	0.15003072
72	0xbe0562bf	-0.1302595
73	0xbb94c847	-0.0045404765
74	0x3d5d2df8	0.053998917
75	0xbc55fd50	-0.013060883
76	0xbdbeb6a3	-0.09312179
77	0xbdfc6683	-0.1232424
78	0x3da94955	0.0826594
79	0x3d1041f6	0.035219155
80	0x3dec86ed	0.115491726
81	0x3e4027f9	0.18765248
82	0xbd0787d7	-0.03308853
83	0xbda3ae7d	-0.079922654
84	0x3d4bc302	0.04974652
85	0x3e111f1f	0.14172028
86	0xbe0de5cc	-0.13857192
87	0x3e580f73	0.21099643
88	0x3dc3ff13	0.09570136
89	0x3dfb28f7	0.12263673
90	0x3dda6ff3	0.10665884
91	0x3e24864d	0.16066857
92	0x3ce010ef	0.027351825
93	0xbe322246	-0.17395887
94	0xbda263de	-0.079292044
95	0xbc9cdd15	-0.019148389
96	0xbdd0c68a	-0.10194118
97	0xbdb6d18e	-0.08926688
98	0x3ce687f6	0.028141003
99	0x3d85c08e	0.065308675
100	0x3d97f451	0.074196465
101	0xbe39d705	-0.1814843
102	0x3cf3a408	0.029741302
103	0xbc23d8b6	-0.010000398
104	0xbd7ea714	-0.062171057
105	0x3d9a0a4d	0.07521496
106	0x3e1bbb54	0.15208179
107	0xbe2889e7	-0.16458856
108	0xbcedacbd	-0.029013032
109	0xbe1c96c7	-0.15291892
110	0x3e156021	0.14587452
111	0xbe0d2d14	-0.13786727
112	0x3d8e8d7e	0.06960581
113	0x3dce934b	0.10086688
114	0x3b71c2f1	0.0036889876
115	0xbe018b47	-0.12650786
116	0x3e0d9e65	0.13829954
117	0x3dc3f065	0.09567336
118	0x3e143a9e	0.14475486
119	0xbdd28b61	-0.10280491
120	0x3d5f1c02	0.05447007
121	0xbdeb074d	-0.11476002
122	0xbe0127aa	-0.12612787
123	0x3dd3f742	0.10349895
124	0xbd239f26	-0.039946698
125	0xbd581536	-0.052754603
126	0xbe0aa1c7	-0.13538276
127	0xbdaf1054	-0.08548036
128	0xbda3be38	-0.07995266
129	0x3c5abbb2	0.013350414
130	0x3d29ce87	0.041456725
131	0x3d1a9f13	0.03774936
132	0xbcb3f607	-0.0219679
133	0xbb889a1a	-0.004168761
134	0xbd9a381f	-0.075302355
135	0x3e3e767b	0.18599884
136	0xbdcbb6b3	-0.099469565
137	0x3d46608b	0.048431914
138	0x3db9b3ad	0.090674736
139	0x3e03e2dd	0.1287951
140	0x3b235687	0.00249234
141	0x3d1fe092	0.039032526
142	0xbd4291cd	-0.047502328
143	0x3d88bdb7	0.0667681
144	0x3e2f396f	0.17111753
145	0x3d183510	0.03715998
146	0x3e1def04	0.15423208
147	0xbdbec247	-0.09314399
148	0x3c9413ac	0.018075787
149	0xbdba3def	-0.09093844
150	0xbdbc8809	-0.09205634
151	0x3d200063	0.03906287
152	0xbe0e9b89	-0.1392652
153	0x3c204385	0.009781723
154	0xbdabc6d5	-0.083875336
155	0xbd5d2918	-0.05399427
156	0x3da2c2db	0.07947322
157	0xbd56c3c6	-0.052432798
158	0x3e04d3e7	0.1297146
159	0x3d31dfb4	0.04342623
160	0xbe20bc18	-0.15696752
161	0x3dff86ea	0.12476905
162	0xbdbceb0e	-0.092245206
163	0xbc06c653	-0.008225995
164	0xbdd30909	-0.10304458
165	0xbe1134e9	-0.1418034
166	0xbc6e0f09	-0.014529952
167	0x3d9c8a21	0.076435335
168	0x3d567c83	0.052364837
169	0x3e0f5f75	0.14001258
170	0xbe1eaa4e	-0.15494654
171	0xbc59285f	-0.013254254
172	0xba87c747	-0.0010359072
173	0x3db58c93	0.08864703
174	0xbe26e584	-0.16298491
175	0x3cd0ae9f	0.02547389
176	0x3d02ab30	0.03190154
177	0x3e4c6a4f	0.19962429
178	0xbd1c6aee	-0.038187914
179	0x3e085d72	0.13316897
180	0x3dea52fa	0.11441608
181	0x3db45d47	0.08806854
182	0xbc7709f5	-0.015078058
183	0x3e25ea23	0.16202597
184	0xbd0db21e	-0.034593694
185	0xbdd7b362	-0.105322614
186	0xbd3a40a6	-0.04547181
187	0x3e2ffe2c	0.17186803
188	0x3e0c7343	0.13715844
189	0x3e8a98c1	0.27069667
190	0x3d8ad223	0.06778362
191	0x3ccbaf22	0.024863783
192	0xbe30385e	-0.17209002
193	0x3d817c97	0.06322592
194	0x3de46ef7	0.11153977
195	0xbd8b7b99	-0.06810684
196	0x3d03fa3d	0.032221068
197	0x3cafef8e	0.021476533
198	0xbcfea686	-0.031085264
199	0xbd4d0485	-0.05005314
200	0x3e16f2b1	0.14741017
201	0x3dce7155	0.1008021
202	0x3dcf6875	0.101273455
203	0xbdcdd87b	-0.10051056
204	0xbd13d2d4	-0.036089733
205	0xbd70e6b0	-0.05881375
206	0xbe551cad	-0.2081172
207	0x3e052232	0.13001326
208	0xbd810010	-0.0629884
209	0xbce0d946	-0.027447354
210	0x3d126b0e	0.035746627
211	0xbd5ee85a	-0.054420806
212	0x3de30ec0	0.11086798
213	0xbe232035	-0.15930255
214	0x3e19feb1	0.15038563
215	0xbe0311ef	-0.1279981
216	0xbe04ee7e	-0.12981603
217	0xbd743299	-0.059618566
218	0x3d9a5267	0.07535248
219	0x3e83f1f9	0.25770548
220	0xbd54c67c	-0.051947102
221	0x3db75ca0	0.08953214
222	0x3da97b51	0.08275474
223	0x3d242d20	0.040082097
224	0x3d8040de	0.062623724
225	0xbd130fca	-0.03590373
226	0x3db55c8e	0.08855544
227	0xbe5ebf70	-0.21752715
228	0x3e269fd8	0.16271913
229	0x3d3dea19	0.04636583
230	0x3e1fc7f9	0.15603627
231	0x3d821b5c	0.06352875
232	0xbdf248f1	-0.11830319
233	0x3d9e75b2	0.07737292
234	0x3cceb2a5	0.025231669
235	0xbd903cff	-0.07042884
236	0xbe169d8f	-0.14708541
237	0x3e22f7c7	0.15914832
238	0x3c5dedd8	0.013545476
239	0x3dd959a2	0.10612799
240	0x3d9e1a47	0.07719856
241	0xbbf57da1	-0.007491783
242	0x3ce6e835	0.028186897
243	0x3c0656f5	0.008199443
244	0xbce1995a	-0.027538944
245	0xbdc078ee	-0.093980655
246	0x3d28774e	0.041129403
247	0x3c77f9c0	0.015135229
248	0x38a2e749	7.767842e-05
249	0xbbf000d3	-0.007324317
250	0xbd1411ec	-0.036149904
251	0x3cad76a5	0.021174738
252	0xbcf40f4e	-0.029792454
253	0x364f8d5f	3.0927692e-06
254	0x3d6a6fe8	0.05723563
255	0x3b80820c	0.003921753

nn_fun1.2.bias f4 [30]
0	0xbdd5ffc6	-0.104491755
1	0x3dc13ac0	0.09435034
2	0x3e046311	0.12928416
3	0xbd267ec6	-0.040648244
4	0xbd78536e	-0.06062644
5	0x3df28a20	0.118427515
6	0x398e9c9e	0.0002720104
7	0xbd543cb4	-0.051815704
8	0x3d7d9287	0.061907317
9	0xbda7cf41	-0.081938274
10	0xbda5343d	-0.08066604
11	0x3d687001	0.05674744
12	0xbe063950	-0.131078
13	0xbd87724b	-0.066135965
14	0xbd186bb5	-0.037212092
15	0x3e00e733	0.12588196
16	0xbdcaf397	-0.09909742
17	0xbd829e20	-0.06377816
18	0x3ce8ab3c	0.028401963
19	0xbc5b459f	-0.013383298
20	0xbe1b1fb0	-0.15148807
21	0xbd50790b	-0.050896686
22	0xbd99dfc4	-0.07513383
23	0x3e43991f	0.1910138
24	0xbc211988	-0.009832747
25	0xbe1906d1	-0.14944007
26	0x3e0b142b	0.13581912
27	0xbe530047	-0.20605575
28	0xbd28c433	-0.041202735
29	0x3de93cf0	0.11388576

nn_fun2.0.weight f4 [30, 1]
0	0x3eef0cc4	0.46689427
1	0xbf3bbcd8	-0.7333503
2	0x3f7aeefe	0.98020923
3	0x3f3f5b1b	0.7474839
4	0x3f05bafd	0.52238446
5	0xbf409737	-0.75230736
6	0x3ecfd7c8	0.40594316
7	0x3f82a5ab	1.0206808
8	0x3ef30d2d	0.4747099
9	0xbead65f3	-0.33866844
10	0x3f68fc97	0.9101042
11	0x3f2226f7	0.63340706
12	0xbf716277	-0.9429087
13	0x3f7a3d69	0.97749954
14	0x3f5cb919	0.86219937
15	0xbf0095ae	-0.50228393
16	0x3ee83272	0.45350987
17	0xbe89b0a7	-0.26892588
18	0xbf5b3ea1	-0.8564244
19	0x3f45f81e	0.7733172
20	0x3e58f98b	0.21188943
21	0xbe92119e	-0.28529066
22	0xbee0b09f	-0.4388475
23	0x3d2f9450	0.04286605
24	0x3e5a24ee	0.2130315
25	0xbf6df4b4	-0.9295151
26	0xbe23495f	-0.15945958
27	0xbf3888a0	-0.72083473
28	0xbef1d3a8	-0.47231793
29	0xbc579e09	-0.013160237

nn_fun2.0.bias f4 [30]
0	0xbeed0152	-0.4629007
1	0xbeed41d4	-0.46339285
2	0xbf355a5e	-0.70841014
3	0x3f635db9	0.88814884
4	0x3ef19108	0.47180963
5	0xbf3001bd	-0.6875265
6	0x3e25235d	0.16126771
7	0xbf313121	-0.6921559
8	0x3eabbeba	0.3354395
9	0x3f0c93e4	0.54913163
10	0x3e65c6d5	0.2243913
11	0x3eb040b7	0.34424374
12	0x3f67e364	0.90581346
13	0xba5dcb55	-0.000846078
14	0x3ec62f03	0.38707742
15	0x3f5350c2	0.825451
16	0xbf4d63c1	-0.8023034
17	0xbed3a353	-0.41335544
18	0xbf599698	-0.8499541
19	0xbf38d67a	-0.72202265
20	0xbf20db8c	-0.62835
21	0x3f5c2859	0.85999066
22	0xbf01788e	-0.50574577
23	0x3ec6b22b	0.38807806
24	0xbf30dbf4	-0.6908562
25	0x3f4edb40	0.808033
26	0x3f211cc0	0.62934494
27	0x3f26a840	0.6510048
28	0xbf03a483	-0.514229
29	0xbed35da8	-0.41282392

nn_fun2.2.weight f4 [30, 30]
0	0xbddb4fb5	-0.10708562
1	0x3dc03826	0.093857095
2	0xbdfbb88e	-0.122910604
3	0x3da1e7dc	0.07905552
4	0x3d0d9b67	0.03457203
5	0xbd0a360c	-0.03374295
6	0x3d5d3d7f	0.054013725
7	0xbc86d251	-0.016457709
8	0xbda23a4b	-0.07921275
9	0x3dc4b0d3	0.09604039
10	0xbd80e9e1	-0.06294609
11	0xbcd89221	-0.026436867
12	0x3d3b1d4b	0.045682233
13	0x3dd94fe8	0.10610944
14	0xbdceec45	-0.101036586
15	0xbdd0cd0e	-0.10195361
16	0x3de3be68	0.111203015
17	0xbd89e4d3	-0.06733098
18	0x3d668e9b	0.056288343
19	0x3dd6107e	0.104523644
20	0x3dd3f73e	0.10349892
21	0x3c9a8ad2	0.018865023
22	0x3d525d72	0.051358648
23	0xbd62b108	-0.05534461
24	0xbddf56be	-0.10905217
25	0x3d9b8292	0.07593264
26	0xbc836852	-0.016040955
27	0x3c792aa1	0.015207917
28	0xbd8a7290	-0.06760132
29	0xbd424bb1	-0.047435466
30	0x3e0953b6	0.1341084
31	0xbe00187b	-0.12509339
32	0x3d6da946	0.05802276
33	0xbb226081	-0.002477676
34	0x3dac4354	0.08411279
35	0xbdd66986	-0.10469346
36	0xbde3de65	-0.11126403
37	0xbcaf7fe4	-0.021423288
38	0xbdc6f08d	-0.0971385
39	0x3dc0458f	0.09388267
40	0x3d73cb3f	0.059520002
41	0xbd8ceb94	-0.068808705
42	0x3db9fbc1	0.09081221
43	0xbe0e1722	-0.13876012
44	0x3d393aa0	0.045221925
45	0xbe0ac3e4	-0.13551289
46	0xbc066de9	-0.008204916
47	0xbd7908bf	-0.060799357
48	0xbdd9ada0	-0.106288195
49	0xbdd3713a	-0.10324331
50	0x3e006be3	0.12541156
51	0xbde13c14	-0.10997787
52	0x3d4f87e7	0.050666716
53	0xbbecf1bd	-0.007230966
54	0xbe0f2779	-0.13979901
55	0xbdac3645	-0.084087886
56	0xbd14cfd2	-0.036331005
57	0xbd594810	-0.05304724
58	0xbdd279dc	-0.10277149
59	0xbbed1e8b	-0.007236307
60	0x3d5d46f3	0.05402274
61	0x3b81c126	0.0039597927
62	0x3d544847	0.05182674
63	0x3de95092	0.11392321
64	0x3df7d061	0.12100292
65	0x3d8e1bea	0.06938918
66	0x3d9587c7	0.07301288
67	0x3e45ba09	0.19309248
68	0x3db80e59	0.089871116
69	0xbda9bdfb	-0.08288189
70	0x3e027659	0.12740459
71	0x3dc2a9c9	0.0950504
72	0x3dd760be	0.10516499
73	0x3e8fbcbc	0.2807368
74	0x3c9efb46	0.019406926
75	0xbe2dc969	-0.16971363
76	0xbdfe2e83	-0.12411215
77	0xbd0151b2	-0.03157205
78	0xbdfe6a8f	-0.12422668
79	0x3cdc2268	0.026871875
80	0x3cd7916d	0.026314462
81	0xbde73131	-0.112886794
82	0x3d215c9c	0.03939496
83	0xbcc07a18	-0.023495719
84	0x3d5a8a82	0.053354748
85	0xbe1381da	-0.14405003
86	0xbd9952fd	-0.07486532
87	0x3cd1297f	0.025532482
88	0xbc20e372	-0.009819852
89	0x3e1f5d1c	0.15562862
90	0x3d31fbc1	0.04345298
91	0x3d50a03b	0.050934058
92	0xbc048656	-0.008088669
93	0x3dfaf736	0.12254183
94	0xbce6dc13	-0.028181111
95	0xbdace2f7	-0.084417276
96	0x3ce3db1b	0.027814439
97	0xbde11711	-0.10990728
98	0xbdf12e64	-0.117764264
99	0x3d5c1348	0.053729326
100	0x3c784669	0.015153506
101	0x3dc6ad21	0.097009905
102	0x3d91a7da	0.07112093
103	0x3da8a999	0.08235473
104	0xbd44daf8	-0.048060387
105	0xbe077af0	-0.1323049
106	0x3db141ba	0.086551145
107	0x3cf90670	0.030398577
108	0xbd4e63a1	-0.050387982
109	0x3d74b56c	0.05974333
110	0x3dce9a22	0.10087992
111	0x3de21f11	0.11041082
112	0x3aa2fcda	0.0012434975
113	0x3d946d6f	0.07247435
114	0x3e3e69c6	0.18595037
115	0x3dd66849	0.104691096
116	0x3dee3c0a	0.11632545
117	0xbd544683	-0.051825058
118	0x3dab9f35	0.08379976
119	0x3e1af7d9	0.15133609
120	0xbd445aef	-0.047938284
121	0x3dbc5e6c	0.09197697
122	0x3d9a7a94	0.07542911
123	0xbc03a6d1	-0.008035378
124	0xbd194016	-0.037414633
125	0xbde0ddf7	-0.109798364
126	0x3da71f62	0.08160283
127	0x3cc38a60	0.023869693
128	0x3d5cba2e	0.053888492
129	0xbdfcf6f8	-0.12351793
130	0x3d989360	0.074499846
131	0x3d1c86f3	0.038214635
132	0x3e1ce093	0.15320043
133	0xbde0df02	-0.10980035
134	0xbd791ddc	-0.06081949
135	0xbd8630fd	-0.065523125
136	0x3e11ed1a	0.14250603
137	0xbe39fd4c	-0.18163031
138	0x3e1a4d04	0.15068442
139	0x3cbff6bb	0.02343308
140	0xbe3da35a	-0.18519345
141	0x3d356e75	0.044294793
142	0x3d849327	0.064733796
143	0x3e2c0022	0.16796926
144	0x3dfdb3ee	0.123878345
145	0xbdbb3188	-0.09140307
146	0x3dd801e3	0.10547235
147	0x3c412e20	0.011790782
148	0xbe260f0d	-0.16216679
149	0x3e03a457	0.1285566
150	0xbd6bb769	-0.05754796
151	0x3e3af791	0.18258502
152	0x3e3654a3	0.17805724
153	0x3e09b337	0.13447271
154	0x3e125f9a	0.14294282
155	0xbd8dcbb4	-0.06923619
156	0x3e2e11e6	0.16999015
157	0x3e33e104	0.17566305
158	0x3e23ec39	0.1600808
159	0xbdc8fa2a	-0.0981334
160	0x3e288086	0.16455278
161	0x3cec6b25	0.028859684
162	0xbe2133ba	-0.15742388
163	0xbdd5f991	-0.10447992
164	0xbd219258	-0.039446205
165	0xbe03a5c4	-0.12856203
166	0x3d172105	0.036896724
167	0xbe026d2c	-0.12736958
168	0xbd8badaa	-0.06820233
169	0x3e21c407	0.15797435
170	0xbdcb8b7a	-0.099387124
171	0xbd777afa	-0.060420014
172	0x3c0a58e2	0.008444043
173	0xbd49400b	-0.04913334
174	0xbe203de5	-0.15648611
175	0x3ca5f2f5	0.020257453
176	0x3d96980f	0.073532216
177	0x3df14653	0.117809914
178	0xbd9976e0	-0.07493377
179	0x3dc771ed	0.097385265
180	0x3df7cf8e	0.12100135
181	0x3d8b63df	0.06806158
182	0xbdb7fd90	-0.0898391
183	0x3c664ec8	0.014056869
184	0x3c27d456	0.010243496
185	0xbe1f9b18	-0.15586507
186	0xbc6939da	-0.014234984
187	0xbd8d099f	-0.06886601
188	0xbe2f57d9	-0.17123355
189	0x3c153ce6	0.009108758
190	0xbc044edb	-0.008075441
191	0x3e12bd8b	0.14330117
192	0xbd4072a8	-0.046984345
193	0x3c4776da	0.0121743325
194	0xbdeede05	-0.116634406
195	0x3d29b2c5	0.041430254
196	0xbd15226e	-0.036409788
197	0x3d630d2f	0.055432495
198	0x3de810c0	0.1133132
199	0x3e013ae9	0.12620129
200	0xbdad653f	-0.08466577
201	0xbd89c11b	-0.06726285
202	0x3e2ce16e	0.1688287
203	0x3de791ee	0.11307131
204	0x3e279eb2	0.16369131
205	0x3e039903	0.12851338
206	0xbe0a9887	-0.13534747
207	0x3df821a7	0.12115794
208	0x3b4d7a0c	0.0031353263
209	0xbd997582	-0.07493116
210	0x3e3c34e3	0.1837955
211	0x3d1f46ef	0.038886007
212	0x3dfb71e1	0.1227758
213	0xbd7ccffc	-0.061721787
214	0xbd6e821e	-0.05822956
215	0x3e26f56b	0.16304557
216	0x3dfe80a3	0.12426879
217	0x3e155897	0.14584576
218	0x3e1d4afd	0.15360637
219	0x3b8eba76	0.004355724
220	0x3e1eaacf	0.15494846
221	0x3d27edd6	0.040998302
222	0x3de1cce2	0.110254064
223	0x3d061e32	0.03274364
224	0x3e114808	0.14187634
225	0xbd28571c	-0.0410987
226	0x3dbaf01e	0.0912783
227	0xbe3c404f	-0.18383907
228	0x3dc90d14	0.098169476
229	0x3c33d326	0.010975635
230	0xbdf4e2ae	-0.11957298
231	0x3e12705e	0.14300677
232	0xbe2d2059	-0.16906871
233	0x3e0cab87	0.13737307
234	0x3da0f55e	0.078593
235	0xbd7da0b4	-0.061920837
236	0x3dd8d82d	0.10588107
237	0xbe2baf49	-0.16766085
238	0x3bb81f9b	0.005619002
239	0xbde9a4a1	-0.114083536
240	0xbcfd6147	-0.030930175
241	0x3d800f09	0.06252868
242	0x3c54eb26	0.012995517
243	0x3b828a23	0.0039837523
244	0x3d556a20	0.05210316
245	0xbc9ab011	-0.018882783
246	0x3ac9e66e	0.0015403756
247	0x3d15acce	0.036541753
248	0xbd27550c	-0.04085259
249	0xbcde7717	-0.027156396
250	0x3a8c1710	0.0010688026
251	0x3d4833d1	0.04887754
252	0x3c82697f	0.015919445
253	0x3cb2c7e7	0.021823836
254	0x3c6d9467	0.014500714
255	0x3d13b7e6	0.03606405

nn_fun2.2.bias f4 [30]
0	0x3d3fef1f	0.046858903
1	0xbe218498	-0.15773237
2	0xbbd8d786	-0.0066174893
3	0xbcab945f	-0.020944772
4	0xbc2f4839	-0.010698372
5	0xbe414c41	-0.18876745
6	0x3d2a987f	0.041649338
7	0x3de84c08	0.11342627
8	0xbd088565	-0.03333034
9	0x3de60d15	0.11232964
10	0x3d89df7e	0.06732081
11	0x3d4cbe40	0.049986124
12	0xbd6b975f	-0.057517406
13	0x3e0b8cb6	0.13627896
14	0xbda86417	-0.082222156
15	0x3d97546b	0.07389148
16	0xbd8e8b9e	-0.069602236
17	0x3e2b7540	0.16743946
18	0xbdeddacb	-0.11613997
19	0x3dde7739	0.10862584
20	0xbd778da5	-0.060437817
21	0xbdbc4309	-0.091924734
22	0xbe1de316	-0.15418658
23	0xbcdf7670	-0.027278155
24	0xbbd225ad	-0.0064131827
25	0xbd61f8ec	-0.05516903
26	0x3d427a93	0.047480177
27	0x3e3b4fcc	0.18292159
28	0x3d9d693d	0.07686088
29	0xbddc15ab	-0.1074632

agg.0.weight f4 [1, 30]
0	0x396e4b73	0.00022725556
1	0x3a4912a3	0.00076703186
2	0x3d1f7d0a	0.038937606
3	0xbdae86d7	-0.085218124
4	0x3db4cd79	0.08828253
5	0x3d4dfa10	0.050287306
6	0xbd43116d	-0.04762404
7	0x3d46455e	0.048405997
8	0x3b1fbddc	0.002437464
9	0xbd3744d9	-0.044743393
10	0x3ca6e64b	0.020373484
11	0xbc5ae86f	-0.013361081
12	0x3e0be55e	0.13661715
13	0xbc765b04	-0.015036348
14	0xbd6ceb82	-0.057841785
15	0xbdfa9954	-0.12236276
16	0xbb1dabd3	-0.0024058714
17	0x3d76320d	0.060106326
18	0x3d81ad39	0.06331868
19	0x3da09151	0.07840217
20	0x3de3240f	0.11090862
21	0x3cdfdcf4	0.027327038
22	0x3d1151f9	0.035478566
23	0xbdbcece8	-0.09224874
24	0xbd90bba4	-0.070670396
25	0x3b226102	0.002477706
26	0xbac7547e	-0.0015207676
27	0x3e21db2e	0.15806267
28	0x3cf84ee2	0.030311052
29	0xbd8b9f81	-0.06817532
