multiple_model_analysis/results/er_experiment_MM_size_10_34_alpha_0_scale_100_dynwght_False_std_reg_1.0_equiv_reg_0.0/neural_network.pth (torch, 16501 bytes, 14 tensors)

g.0.weight f4 [30, 1]
0	0xbe6a92da	-0.22907582
1	0xbf83bef4	-1.0292649
2	0x3ed6ad5d	0.4192914
3	0x3f67d1ef	0.9055471
4	0x3f3e5ef3	0.7436363
5	0xbf7b8326	-0.9824699
6	0x3f5b76b0	0.8572798
7	0x3f0d1abc	0.5511892
8	0x3f9ab504	1.2086492
9	0xbf01c9fd	-0.50698835
10	0x3f9f6791	1.2453481
11	0xbf4033ca	-0.75079024
12	0x3e922336	0.2854249
13	0x3d94dbe1	0.07268501
14	0xbc6ba134	-0.014381696
15	0xbf9c78f1	-1.2224408
16	0xbe95f8d8	-0.29291415
17	0xbf022e46	-0.5085186
18	0xbd99f0e0	-0.075166464
19	0xbf6ced1f	-0.9254932
20	0x3dcbbc93	0.09948077
21	0x3e510f70	0.20416045
22	0x3f61d532	0.88215935
23	0x3e661811	0.22470118
24	0x3f2fe7e0	0.6871319
25	0x3f275d49	0.65376717
26	0xbe965b44	-0.29366505
27	0xbfa3c599	-1.2794677
28	0xbecbeb84	-0.39828122
29	0xbf99317a	-1.1968224

g.0.bias f4 [30]
0	0xbf113654	-0.56723523
1	0x3e9159de	0.28388876
2	0x3dbc8cd9	0.09206552
3	0x3ea97263	0.33095083
4	0xbeacd51d	-0.33756343
5	0x3e37b9bb	0.17941944
6	0x3ec0b7c8	0.37640214
7	0xbe6d383e	-0.23165986
8	0xbd8c15b5	-0.06840078
9	0xbf32a5da	-0.6978432
10	0xbf42ac5c	-0.7604425
11	0xbe9a8932	-0.30182797
12	0x3f127202	0.5720521
13	0x3f29bdb6	0.663051
14	0x3be1c704	0.0068901796
15	0x3eea6a61	0.45784286
16	0x3ea82ee5	0.32848278
17	0x3dc28d5d	0.09499619
18	0xbeb61730	-0.35564566
19	0x3ebd2b90	0.36947298
20	0xbf17fbcd	-0.5936859
21	0xbbd5af0e	-0.0065211123
22	0xbf2adea3	-0.66745967
23	0x3f256b75	0.6461709
24	0x3f5520c0	0.832531
25	0xbf26afc3	-0.6511194
26	0x3f3a31a7	0.72732013
27	0x3e895d31	0.26828912
28	0xbe0a8cc4	-0.1353026
29	0xbc6df06a	-0.014522651

g.2.weight f4 [30, 30]
0	0x3e086468	0.13319552
1	0x3e7848f6	0.24246582
2	0xbe1de187	-0.15418063
3	0xbe1232dd	-0.14277215
4	0x3d54557f	0.051839348
5	0xbc9c51dd	-0.019082004
6	0xbe20e2cb	-0.15711515
7	0x3d9276c4	0.07151559
8	0xbe861517	-0.26187965
9	0x3e4394c8	0.19099724
10	0xbdef9890	-0.11699021
11	0xbc688d18	-0.014193796
12	0x3dfb796d	0.122790195
13	0x3e0f08f6	0.13968262
14	0xbdff775f	-0.1247394
15	0xbd1fdfdc	-0.03903185
16	0xbdc89335	-0.097937025
17	0xbdeb6080	-0.11493015
18	0xbda87c13	-0.0822679
19	0x3e0a701e	0.13519332
20	0x3d549461	0.051899318
21	0xbd0d30a8	-0.03447023
22	0x3dd9aba3	0.1062844
23	0x3dfa996f	0.122362964
24	0x3b9174f8	0.0044389926
25	0xbe25de90	-0.16198182
26	0xbe13b223	-0.14423423
27	0x3e69433f	0.22779559
28	0x3cae9347	0.021310462
29	0x3e7b05a6	0.24513873
30	0x3e3250c0	0.17413616
31	0x3db62e51	0.08895553
32	0xbd416f53	-0.047225308
33	0x3d3912ab	0.04518382
34	0x3d204a1a	0.03913317
35	0xbe74bf04	-0.23900992
36	0x3d74dad0	0.05977899
37	0xbc5e51a9	-0.013569274
38	0x3e9c8ea7	0.30577585
39	0xbe170657	-0.14748512
40	0xbdef3364	-0.11679724
41	0x3dce6bb1	0.10079134
42	0x3daf6bf9	0.08565516
43	0xbe198fa4	-0.14996201
44	0x3e1b955a	0.15193692
45	0xbcb17f7a	-0.02166723
46	0xbd8988fe	-0.06715582
47	0x3d9665e8	0.07343656
48	0xbca77105	-0.020439634
49	0x3c5eae23	0.013591322
50	0xbdaf997f	-0.08574199
51	0x3d918f79	0.07107443
52	0x3e44caa3	0.19217925
53	0xbd87ed69	-0.06637079
54	0xbd618da7	-0.05506673
55	0xbe19ab1c	-0.1500668
56	0xbc74eea3	-0.014949474
57	0xbde08692	-0.10963167
58	0x3d284ec6	0.04109075
59	0xbe7c11f8	-0.2461623
60	0x3d31936f	0.043353494
61	0x3d192577	0.037389245
62	0x3da69064	0.08133009
63	0xbe537b68	-0.20652544
64	0x3c9e406a	0.019317824
65	0x3da90414	0.08252731
66	0x3db3f167	0.08786278
67	0xbbc6666c	-0.00605469
68	0xbec5da09	-0.3864291
69	0x3d4bc9e3	0.04975308
70	0x3d4f6487	0.05063298
71	0xbcc245fc	-0.023715012
72	0xbd8362ee	-0.06415354
73	0xbd5a8d8c	-0.053357646
74	0x3e213e21	0.15746357
75	0x3e0a9a80	0.135355
76	0xbd9f357e	-0.07773875
77	0x3dd4f994	0.10399166
78	0xbd824169	-0.06360132
79	0xbc39d03e	-0.011341153
80	0xbc99fb5f	-0.01879662
81	0xbd90ce0c	-0.0707055
82	0xbd45ac4a	-0.04826001
83	0x3d8e39cd	0.069446184
84	0xbda89b69	-0.08232767
85	0xbc3b4236	-0.01142936
86	0xbc92c05c	-0.01791399
87	0x3e38ac93	0.18034582
88	0x3e0e0b8f	0.13871597
89	0x3ec5f639	0.38664415
90	0x3b9bbcd4	0.0047527347
91	0xbe0863c7	-0.13319312
92	0x3e057962	0.13034585
93	0x3e6786e5	0.22610052
94	0xbc83ba08	-0.016079918
95	0x3d6c9af9	0.05776498
96	0x3d56e474	0.052463964
97	0x3dfc429b	0.123173915
98	0x3e870288	0.2636912
99	0xbd0d53ce	-0.03450375
100	0xbd9c5957	-0.07634228
101	0xbe486aee	-0.1957204
102	0x3e2da500	0.16957474
103	0xbdba424a	-0.09094675
104	0xbda16de2	-0.078822866
105	0x3cd66049	0.02616896
106	0x3dd52bf5	0.10408775
107	0xbdc59f79	-0.096495576
108	0x3dfe7ec9	0.12426526
109	0xbdc15cda	-0.09441538
110	0xbbbc5263	-0.005747126
111	0xbdf3f80b	-0.11912545
112	0xbcbea687	-0.023272766
113	0x3d96c6cb	0.073621355
114	0x3d80a35d	0.06281159
115	0x3df5733d	0.119848706
116	0xbe24ffe1	-0.16113235
117	0xbdff459b	-0.12464448
118	0xbdb62ba1	-0.0889504
119	0xbe8b2051	-0.27173093
120	0xbd95d548	-0.07316071
121	0xbd777079	-0.060409997
122	0xbdace649	-0.08442361
123	0x3e12f7c9	0.14352335
124	0x3deab789	0.11460788
125	0xbde31255	-0.11087481
126	0x3dfa1909	0.12211806
127	0x3c132f10	0.008983389
128	0x3ed3d60e	0.41374248
129	0xbdd82dd7	-0.10555618
130	0xbde235ec	-0.11045441
131	0xbdc42319	-0.09577007
132	0xbded8acb	-0.11598738
133	0x3d3aa538	0.04556772
134	0x3db8b0a6	0.09018068
135	0x3d05838b	0.032596152
136	0xbc5873a7	-0.013211167
137	0x3cefae30	0.029257864
138	0x3c193189	0.009350189
139	0xbe26fb3b	-0.16306774
140	0x3e2cd4cb	0.16878049
141	0x3d0b541c	0.03401576
142	0x3db1e438	0.086861074
143	0x3e21981d	0.15780683
144	0x3e19a6da	0.15005055
145	0x3ca23c58	0.019804165
146	0x3d41a08c	0.04727225
147	0xbdec03df	-0.11524176
148	0xbd405b21	-0.046961907
149	0xbedc24bd	-0.4299678
150	0xbd8fb14c	-0.070162386
151	0x3e1c99bc	0.1529302
152	0x3bf46076	0.007457788
153	0xbe04375a	-0.1291174
154	0xbdecb8ad	-0.115586616
155	0x3de3c6c3	0.11121895
156	0x3dd4301e	0.1036074
157	0x3dd62062	0.10455395
158	0xbeb9b74b	-0.36272654
159	0x3e0b8d22	0.13628057
160	0xbe487f71	-0.19579865
161	0x3c0cf0a2	0.008602293
162	0xbcb98309	-0.02264549
163	0x3d4a5afd	0.04940318
164	0x3e0fb237	0.14032827
165	0x3e2a0f4b	0.16607396
166	0x3d79d0dc	0.0609902
167	0x3daa0355	0.08301417
168	0xbda9dc98	-0.08294028
169	0xbe0775fb	-0.132286
170	0x3e0b42b2	0.13599661
171	0xbe35a01a	-0.17736855
172	0xbd6472e7	-0.055773642
173	0xbe0c1eab	-0.13683574
174	0xbe2fe938	-0.1717881
175	0xbe2d7851	-0.16940428
176	0xbce968a0	-0.028492272
177	0x3e6da725	0.23208292
178	0xbc281b7b	-0.010260458
179	0x3e8c6cd8	0.2742679
180	0xbca6e9ac	-0.020375095
181	0x3d2ad5a8	0.041707665
182	0x3da6ebec	0.08150467
183	0xbdc29fc5	-0.0950313
184	0x3d6ef87b	0.05834244
185	0x3e56eaba	0.20987979
186	0x3dee3633	0.116314314
187	0xbdf2bbdc	-0.118522376
188	0xbe59cf7d	-0.21270557
189	0x3d81b5dd	0.06333516
190	0xbc3d277f	-0.011545061
191	0x3dfca82f	0.12336766
192	0x3da79e53	0.08184495
193	0x3d91ab71	0.07112778
194	0xbd2d86a5	-0.042364735
195	0xbb43e804	-0.002989293
196	0x3a803295	0.00097807
197	0xbca9432e	-0.020661917
198	0x3d4e8870	0.050423086
199	0xbd2bb5ff	-0.041921612
200	0x3cf827bc	0.030292384
201	0xbb30a2b0	-0.0026952438
202	0x3ba6e616	0.0050933463
203	0x3b70b28b	0.0036727514
204	0xbd00fef7	-0.031493153
205	0x3d0287c2	0.03186775
206	0xbd075ef8	-0.033049554
207	0x3dd77f88	0.105223715
208	0x3dc6dd98	0.097102344
209	0x3e3bc62b	0.18337314
210	0x3e00b4ab	0.1256892
211	0xbdebb88a	-0.115098074
212	0x3e4f18de	0.2022433
213	0x3de19440	0.110146046
214	0xbd71be21	-0.05901921
215	0x3d0fef64	0.03514041
216	0x3cc34df0	0.023840874
217	0xbd412546	-0.047154687
218	0x3eebc3c7	0.46047804
219	0x3c82fa3d	0.015988464
220	0x3e272622	0.1632314
221	0x3d42dd38	0.047574252
222	0xbcaea021	-0.02131659
223	0xbd60651f	-0.054783937
224	0xbe1e4157	-0.15454613
225	0xbe46fb89	-0.1943189
226	0xbd2c8ecf	-0.04212838
227	0xbda5546a	-0.08072741
228	0xbda7a10b	-0.081850134
229	0xbe5605d3	-0.2090066
230	0xbc11471a	-0.00886705
231	0x3b3fcf77	0.0029267946
232	0x3d9a8c9e	0.07546352
233	0xbe108aab	-0.14115398
234	0xbdf862f9	-0.121282525
235	0xbd264a9a	-0.04059849
236	0xbc81fe31	-0.015868278
237	0xbe870b08	-0.26375604
238	0xbd5cd09f	-0.053909894
239	0xbee9330e	-0.45546764
240	0x3d0cac55	0.034344036
241	0x3e103cb1	0.14085652
242	0xbe67e794	-0.22646934
243	0xbd8761bf	-0.066104405
244	0x3c486db3	0.012233186
245	0x3d76aa6b	0.060221117
246	0xbe5e6175	-0.21716864
247	0x3cbe1ef9	0.023208128
248	0xbe9d6961	-0.3074446
249	0xbd23eac5	-0.040018816
250	0xbd0c1984	-0.03420402
251	0x3c2b4c23	0.010455164
252	0x3db4791e	0.08812164
253	0x3dd622d1	0.104558595
254	0x3de7066d	0.112805225
255	0xbd00f9cf	-0.031488236

g.2.bias f4 [30]
0	0xbd28d7f7	-0.041221585
1	0x3dc3a50d	0.09552965
2	0x3d82919e	0.063754305
3	0xbde11460	-0.10990214
4	0xbe1f2585	-0.15541656
5	0x3e1597dc	0.14608711
6	0x3c00efb0	0.007869646
7	0x3c028423	0.007966074
8	0x3c491c8e	0.012274874
9	0xbe0e07f8	-0.13870227
10	0x3c86f0f8	0.016472325
11	0xbd80fb18	-0.06297892
12	0x3e21189a	0.15732041
13	0xbe069206	-0.13141641
14	0xbe12c61a	-0.14333382
15	0x3dc34d93	0.095362805
16	0xbdbb807e	-0.09155367
17	0x3daa136e	0.08304487
18	0x3e436335	0.19080813
19	0x3da12268	0.078678906
20	0xbd91c7f7	-0.071182184
21	0xbd20c8d6	-0.039254032
22	0xbe131e4a	-0.14367023
23	0xbc040aff	-0.008059262
24	0x3d733b1b	0.05938254
25	0xbddf95e5	-0.10917262
26	0x3e13a0ec	0.14416856
27	0x3db121a7	0.08648997
28	0x3bfee829	0.0077791405
29	0xbddc69f0	-0.107623935

g.4.weight f4 [1, 30]
0	0x3d858cab	0.06520971
1	0xbc766a33	-0.015039968
2	0x3d6f7ed0	0.058470547
3	0xbce39d5b	-0.027784994
4	0xbdd26de5	-0.10274867
5	0x3ddad7c5	0.10685686
6	0x3bc94d53	0.006143251
7	0xbe241d3b	-0.16026776
8	0x3cbd4e23	0.023108548
9	0x3db945f6	0.09046547
10	0xbe1661c1	-0.14685728
11	0xbd8af0f3	-0.06784239
12	0xbd847927	-0.064684205
13	0xbc9365ea	-0.017992932
14	0x3e0b63dd	0.13612314
15	0xbcc460da	-0.023971964
16	0x3e303851	0.17208983
17	0xbc091551	-0.008366899
18	0xbe1ed281	-0.15509988
19	0x3d13087c	0.035896763
20	0xbdc165b0	-0.094432235
21	0x3e002867	0.12515412
22	0xbc750467	-0.014954663
23	0xbe2ebb0c	-0.1706354
24	0xbe4a8063	-0.19775538
25	0x3e106a6c	0.14103097
26	0xbde08f87	-0.10964876
27	0xbd1f0653	-0.03882439
28	0xbe22f859	-0.1591505
29	0x3e40a580	0.18813133

nn_fun1.0.weight f4 [30, 1]
0	0x3e4d2389	0.20033087
1	0x3e4fcfe6	0.2029415
2	0x3e0b0301	0.13575365
3	0x3ecc658f	0.39921233
4	0xbf66b0fa	-0.90113795
5	0xbd4b3d4a	-0.049618997
6	0x3f08c910	0.534318
7	0xbddda4b5	-0.10822431
8	0xbf707761	-0.9393216
9	0x3f7555cd	0.95834047
10	0xbf7501bd	-0.9570578
11	0x3e0f457b	0.13991348
12	0xbe97fa70	-0.29683256
13	0xbcc79414	-0.024362601
14	0xbec147bb	-0.37750039
15	0x3f538a85	0.8263324
16	0x3e09efb3	0.13470344
17	0x3edd0849	0.43170384
18	0x3e896ece	0.2684235
19	0x3ee4911d	0.44641963
20	0xbe6fc97d	-0.23416705
21	0xbe6fac18	-0.23405492
22	0x3ee6f263	0.451068
23	0xbec2ba1d	-0.38032618
24	0xbe4700a1	-0.19433834
25	0x3e04d941	0.12973501
26	0x3effdd9e	0.49973768
27	0x3e888924	0.2666713
28	0xbd461b21	-0.048365716
29	0xbc9dd6b2	-0.019267414

nn_fun1.0.bias f4 [30]
0	0x3f40e9de	0.75356853
1	0x3f1c8a50	0.6114855
2	0x3f010abb	0.50407
3	0xbee2dfbc	-0.4431132
4	0x3b86f560	0.0041186064
5	0x3f3627db	0.71154565
6	0x3df0cce4	0.1175783
7	0xbf082dcb	-0.53194875
8	0x3e5e567a	0.21712676
9	0xbeba4720	-0.3638239
10	0x3e5ddc6d	0.21666117
11	0xbefe5f5c	-0.49682128
12	0x3e626798	0.2210983
13	0xbedde374	-0.43337595
14	0x3e96dbde	0.2946462
15	0xbe9fc26d	-0.31203023
16	0x3ee14770	0.43999815
17	0x3f2aa312	0.66655076
18	0xbd84f744	-0.06492475
19	0xbf05a2b6	-0.522014
20	0x3e01d5b9	0.12679185
21	0x3efa8d70	0.48936033
22	0x3f1af918	0.60536337
23	0xbec32e35	-0.3812119
24	0xbf4a870d	-0.7911232
25	0xbead5f6b	-0.3386186
26	0x3eb67f90	0.35644197
27	0x3e31df7f	0.17370413
28	0xbeb10720	-0.34575748
29	0xbd4ee6df	-0.050513145

nn_fun1.2.weight f4 [30, 30]
0	0x3e2fab6f	0.1715524
1	0x3e373e07	0.17894755
2	0xbd8369b1	-0.064166434
3	0x3e2787a3	0.16360335
4	0xbe62a127	-0.22131787
5	0xbe0257df	-0.12728833
6	0x3e20c9b0	0.15701938
7	0xbdd0c81b	-0.10194417
8	0xbd79cc9a	-0.06098614
9	0x3e0707da	0.13186589
10	0x3c2c94e3	0.010533544
11	0x3dfbc542	0.12293483
12	0x3ddbea93	0.10738101
13	0x3e035e46	0.12828931
14	0xbc3dab72	-0.01157652
15	0x3e0cb140	0.1373949
16	0x3d9ecf6f	0.077544086
17	0x3e15600d	0.14587422
18	0x3dd98f9d	0.10623095
19	0x3d0335a6	0.032033585
20	0xbe1932c4	-0.14960772
21	0x3d2c6494	0.042088106
22	0x3e41bfbe	0.189208
23	0xbe45f872	-0.19333056
24	0x3e077946	0.13229856
25	0xbd9038fc	-0.07042119
26	0xbc8e26a7	-0.017352415
27	0x3e2c10d5	0.16803296
28	0x3c0d08b2	0.00860803
29	0xbd9d2116	-0.07672326
30	0xbd010231	-0.03149623
31	0x3d6a8d0f	0.05726343
32	0x3d8454ae	0.06461464
33	0xbd38f94a	-0.045159616
34	0xbbc03d51	-0.0058666845
35	0x3d6b7435	0.05748387
36	0x3bff28ad	0.0077868314
37	0x3db7c470	0.08973014
38	0xbd17eec6	-0.037092946
39	0x3cd289ec	0.025700532
40	0x3c18e203	0.009331229
41	0xbdd9b7b5	-0.106307425
42	0xbb374af0	-0.002796825
43	0xbcef93aa	-0.029245216
44	0x3cd4d899	0.025982188
45	0x3c99369e	0.018702801
46	0xbd85cd79	-0.065333314
47	0xbbf49d86	-0.0074650673
48	0x3c44b329	0.012005606
49	0x3daf4368	0.085577786
50	0x3bbad5c0	0.0057017505
51	0x3cbe7070	0.023246974
52	0x3cc073fa	0.023492802
53	0xbd1d0d15	-0.038342554
54	0xbd9c1ba2	-0.07622458
55	0x3d79b12d	0.060959984
56	0x3c14861e	0.009065179
57	0xbbcb7d28	-0.006209988
58	0x3c9ebecd	0.01937809
59	0x39a8c518	0.00032190303
60	0x3deacfcf	0.114654176
61	0x3ca56d4a	0.020193715
62	0xbce6bfb7	-0.028167589
63	0xbd954694	-0.07288852
64	0xb9f93b08	-0.00047536963
65	0xbd258f12	-0.040419646
66	0x3dbe5efd	0.09295461
67	0x3dd079cf	0.10179483
68	0x3d2e37c7	0.042533662
69	0xbdd9a8db	-0.1062791
70	0x3d619fcd	0.05508404
71	0xbd6f26ca	-0.0583866
72	0xbd5f6a96	-0.054545008
73	0xbda300c7	-0.07959133
74	0xbc97c1cb	-0.018525025
75	0x3b82da1d	0.0039932863
76	0x3cb650d9	0.022255348
77	0x3d953061	0.07284618
78	0xbcd06ffb	-0.025444021
79	0x3d03f477	0.03221556
80	0x3d708e29	0.058729324
81	0xbe0b8a5e	-0.13627002
82	0x3d4c46eb	0.04987232
83	0x3d8bdd1a	0.06829281
84	0xbdb0cb35	-0.08632509
85	0x3dcee9b0	0.10103166
86	0x3def7552	0.11692299
87	0xbdc39199	-0.09549255
88	0x3bdf1279	0.006807622
89	0xbc39fe31	-0.011352108
90	0x3cd1248e	0.025530126
91	0xbd498ee2	-0.04920853
92	0x3cfa8e5c	0.03058546
93	0x3df49292	0.119420186
94	0xbc28afbd	-0.0102958055
95	0xbd09437f	-0.033511635
96	0xbd42ef2d	-0.047591377
97	0x3c9a4335	0.018830875
98	0xbd1ee984	-0.038796917
99	0xbdd29926	-0.10283117
100	0xbdacd931	-0.084398635
101	0x3e0be9c6	0.13663396
102	0x3d875fa7	0.06610041
103	0x3e0997ba	0.13436785
104	0x3d996027	0.07489043
105	0xbcea2fde	-0.028587278
106	0xbdaba2dd	-0.08380673
107	0xbd75c587	-0.06000283
108	0x3d024a41	0.031809095
109	0x3d465a88	0.04842618
110	0xbc53b77b	-0.012922163
111	0xbca1f5a9	-0.01977046
112	0x3dc5275f	0.0962665
113	0xbdd31ae3	-0.103078626
114	0xbe0428dc	-0.12906212
115	0x3bcb62f0	0.0062068626
116	0xbdd602a1	-0.1044972
117	0x3d642efd	0.055708874
118	0x3d06d224	0.03291525
119	0xbb25e3c5	-0.0025312763
120	0xbcade317	-0.021226449
121	0xbe0456db	-0.12923758
122	0x3c55097d	0.01300275
123	0xbdeb3efc	-0.11486623
124	0x3e55083d	0.20803924
125	0x3dc9aa5d	0.09846947
126	0xbe40d25c	-0.18830246
127	0x3c4f54b9	0.012654477
128	0x3e4315a2	0.19051221
129	0xbb7e4d07	-0.0038803236
130	0x3ddcc445	0.10779623
131	0x3e1070fd	0.14105602
132	0xbdf48554	-0.11939493
133	0x3dfa7aa4	0.12230423
134	0xbc359c5c	-0.011084642
135	0xbdc6ffd3	-0.09716763
136	0x3d7903bc	0.060794577
137	0xbe2d94e5	-0.1695133
138	0xbcc122a3	-0.023576086
139	0xbe032a28	-0.1280905
140	0x3dad3a38	0.0845837
141	0x3e032cc3	0.12810044
142	0x3e05f649	0.13082232
143	0x3e39f563	0.18160014
144	0x3e22ab69	0.158857
145	0xbe0a3637	-0.13497244
146	0x3d5e8b2f	0.054331955
147	0xbddc6a0f	-0.107624166
148	0x3d45444c	0.048160836
149	0x3e0f0697	0.13967358
150	0xbe24b993	-0.16086416
151	0x36c70ba5	5.9320178e-06
152	0xbd7f096f	-0.062264856
153	0x3cda7021	0.026664795
154	0x3eff2fc2	0.49841124
155	0x3c2e5c9a	0.010642195
156	0xbde27392	-0.110571995
157	0x3d476901	0.048684124
158	0x3e888e63	0.26671132
159	0xbe6392fa	-0.22224036
160	0x3e6f9fe0	0.23400831
161	0xbd624812	-0.055244513
162	0x3e2c1ce1	0.16807891
163	0x3cc10d6e	0.023565974
164	0x3deb209d	0.1148083
165	0xbe45ad85	-0.19304474
166	0xbd4eb512	-0.05046565
167	0xbdfdda88	-0.12395197
168	0x3a757627	0.00093636144
169	0xbde8cfd4	-0.11367765
170	0xbabe957a	-0.0014540397
171	0x3df5ba46	0.119984195
172	0xbdcab56d	-0.098978855
173	0x3d4b0715	0.0495673
174	0x3dd6370b	0.10459717
175	0xbc5dd84d	-0.01354034
176	0xbe1b06a6	-0.15139255
177	0x3cc2eeea	0.023795564
178	0x3e10798d	0.14108868
179	0xbd4f207b	-0.050568085
180	0x3c8390cb	0.016060254
181	0xbdd1de0c	-0.1024743
182	0x3de5f254	0.11227861
183	0x3dd258e7	0.10270863
184	0xbcbe3d89	-0.023222702
185	0x3ddab475	0.10678951
186	0x3c96761d	0.018366868
187	0xbd449f89	-0.048003707
188	0x3cf824db	0.030291012
189	0xbd6866c8	-0.056738645
190	0xbd891d5c	-0.06695053
191	0xbdc73637	-0.097271375
192	0xbc918f4e	-0.017768528
193	0x3dffc9ac	0.12489638
194	0xbcbe3af0	-0.023221463
195	0x3d07b8e4	0.03313531
196	0xbe09b574	-0.13448125
197	0x3dab9d13	0.08379569
198	0xbcb2d775	-0.021831254
199	0x3dfd1a4c	0.12358531
200	0xbd57bbcb	-0.052669328
201	0xbd678db8	-0.056531638
202	0x3d4f4a90	0.050608218
203	0x3de0c501	0.109750755
204	0xbccd6f37	-0.025077445
205	0x3d6f4304	0.05841352
206	0xbd1d5b95	-0.038417418
207	0xbd371e74	-0.044706777
208	0xbdc6e836	-0.097122595
209	0x3cb23451	0.021753462
210	0xbda27773	-0.079329394
211	0xbd291e9e	-0.041288964
212	0x3da68241	0.08130313
213	0xbe085482	-0.13313487
214	0xbb75e199	-0.00375185
215	0x3e1dd33b	0.1541261
216	0x3e0f14e0	0.13972807
217	0x3d90796b	0.07054409
218	0x3dcfef6e	0.101530895
219	0xbce39322	-0.02778012
220	0xbd94bcf4	-0.072626024
221	0x3e030489	0.12794699
222	0xbd499703	-0.04921628
223	0xbd5092a7	-0.05092111
224	0xbda6cc3b	-0.081444226
225	0x3d2699bf	0.040673967
226	0xbe0c8fec	-0.13726777
227	0xbdbb7a28	-0.09154159
228	0xbdaef55b	-0.085428916
229	0x3dd906a0	0.10596967
230	0x3d603353	0.054736447
231	0xbd1763db	-0.036960464
232	0xbddef052	-0.10885681
233	0x3dc00d82	0.093775764
234	0xbe06be10	-0.1315844
235	0x3d1645aa	0.03668753
236	0x3d13c276	0.036074124
237	0xbd0dbc52	-0.034603424
238	0x3dc4a8ca	0.096025065
239	0x3be723bf	0.007053822
240	0x3c3adb4c	0.0114048235
241	0xbd4976d8	-0.049185604
242	0xbd6afa01	-0.05736733
243	0xbc818307	-0.015809549
244	0xbb60718e	-0.0034247371
245	0x3d67638d	0.056491423
246	0x3bf8509a	0.007577968
247	0xbb873501	-0.0041261916
248	0x3b2238bf	0.0024753062
249	0x3bbe37bc	0.005804984
250	0xba9cbbfb	-0.0011957878
251	0x3c835e07	0.016036047
252	0x3c453b4a	0.012038061
253	0xbcba6a21	-0.022755684
254	0xbce2ba09	-0.0276766
255	0x3cf3c951	0.029759081

nn_fun1.2.bias f4 [30]
0	0x3c2adf97	0.010429285
1	0xbdb850d2	-0.0899979
2	0xbe036da4	-0.12834793
3	0x3dfc22a6	0.12311296
4	0x3d94497a	0.07240577
5	0x3dae6900	0.08516121
6	0x3d888eb3	0.06667843
7	0x3e37d223	0.17951255
8	0xbd8fae3a	-0.07015653
9	0x3dc25415	0.094886936
10	0xbae6a1c7	-0.0017595821
11	0xbd4d3146	-0.05009582
12	0x3d7fab09	0.06241897
13	0x3caa7cc1	0.02081144
14	0x3c212462	0.0098353345
15	0xbd2fa6e9	-0.042883787
16	0x3bba0b86	0.005677643
17	0x3d7eb84b	0.062187474
18	0x3dcfdbbd	0.101493336
19	0xbd730ad3	-0.059336495
20	0x3df59167	0.11990624
21	0xbba49af4	-0.0050233547
22	0xbc965c91	-0.018354686
23	0x3c7b1d28	0.015326776
24	0x3d9fa9d8	0.07796067
25	0xbcbb257f	-0.022845028
26	0x3d443f54	0.047911957
27	0x3df4ca22	0.11952616
28	0x3d4edb23	0.050501954
29	0xbdcb4c79	-0.099266954

nn_fun2.0.weight f4 [30, 1]
0	0x3f2ad0d8	0.6672492
1	0x3ef40f41	0.47667888
2	0x3e6591d8	0.22418916
3	0x3c236c6d	0.009974581
4	0xbedc48e9	-0.43024376
5	0x3f82c8ed	1.0217568
6	0x3f7053a8	0.9387765
7	0xbe243a4e	-0.16037866
8	0xbd2972f3	-0.04136939
9	0xbdb17602	-0.08665086
10	0xbe327698	-0.17428052
11	0xbb83997a	-0.0040160986
12	0x3f1da00a	0.61572325
13	0xbe85a7e5	-0.26104656
14	0x3cb97143	0.022637015
15	0x3e73bbc5	0.23802097
16	0x3eb0c3d6	0.3452441
17	0xbd184ff6	-0.03718563
18	0xbf70995d	-0.93984014
19	0xbf514f39	-0.8176151
20	0x3f3ff258	0.7497916
21	0xbec69080	-0.3878212
22	0x3f36ba62	0.7137815
23	0x3d58de2c	0.052946255
24	0xbef2b077	-0.47400257
25	0xbf1909d2	-0.5978061
26	0x3e3590e5	0.17731054
27	0xbe155f17	-0.14587055
28	0x3ea8a679	0.3293951
29	0xbf2fff96	-0.6874937

nn_fun2.0.bias f4 [30]
0	0xbe6e9acd	-0.2330124
1	0xbe8a437c	-0.27004611
2	0xbf318f3e	-0.69359195
3	0x3f2c1467	0.6721863
4	0x3efbb8c7	0.4916441
5	0x3f01ddc1	0.50728995
6	0xbf461332	-0.7737304
7	0x3f3f4218	0.74710226
8	0xbecf185f	-0.4044828
9	0xbee8c0ab	-0.45459494
10	0x3f54bba2	0.83098805
11	0x3e392d17	0.18083607
12	0x3edefb67	0.4355118
13	0xbf59159e	-0.8479861
14	0x3f461ca9	0.7738748
15	0xbda4e199	-0.08050842
16	0x3d949456	0.07254855
17	0xbf51d2c6	-0.8196224
18	0x3f3ea17d	0.7446516
19	0x3f225c33	0.63421935
20	0xbeef2dab	-0.4671453
21	0x3c9406fe	0.01806974
22	0xbf13aade	-0.576826
23	0x3c840aab	0.016118368
24	0x3f405fc4	0.75146127
25	0x3e693e97	0.22777782
26	0x3ee503f7	0.44729587
27	0xbe09c1eb	-0.1345288
28	0xbe7231a3	-0.23651747
29	0x3c9c10bc	0.019050948

nn_fun2.2.weight f4 [30, 30]
0	0xbe618cc8	-0.2202636
1	0xbd0a7365	-0.033801455
2	0x3dbef6da	0.09324427
3	0xbdc08b9f	-0.094016306
4	0x3e40138a	0.18757454
5	0x3df630ca	0.120210245
6	0xbcad4546	-0.021151196
7	0x3e1dd757	0.15414177
8	0x3e2c848c	0.16847438
9	0x3cef1fe0	0.029190004
10	0x3d9f25c8	0.07770878
11	0x3e128e5d	0.1431212
12	0xbe15d443	-0.14631753
13	0xbd18258a	-0.037145175
14	0xbd4b2c81	-0.04960299
15	0x3d0e8f18	0.034804434
16	0xbe162f2d	-0.14666434
17	0x3dd65cfc	0.10466954
18	0x3df0d7ee	0.11759935
19	0xbcb25c25	-0.021772454
20	0xbe381062	-0.17975
21	0x3e3e1176	0.18561348
22	0xbe085efc	-0.13317484
23	0x3cd64f1d	0.026160771
24	0xbd883c84	-0.066521674
25	0x3e5093d3	0.2036889
26	0xbdd701b8	-0.10498375
27	0xbbe67504	-0.0070329923
28	0x38e4cf41	0.00010910491
29	0x3e8a4a95	0.27010027
30	0x3a2446a8	0.0006266632
31	0xbd359c05	-0.044338245
32	0x3da99dae	0.08282028
33	0x3c995fdb	0.018722465
34	0x3ca42b85	0.020040283
35	0x3d7e315e	0.0620588
36	0x3c3f9064	0.01169214
37	0x3d89eae8	0.06734258
38	0xb98c7034	-0.0002678648
39	0x3d6b10e0	0.05738914
40	0x3d65f4fb	0.056141835
41	0x3ce4a047	0.027908457
42	0x3c16dce3	0.009207937
43	0x3d03adce	0.032148175
44	0xbd60725c	-0.05479656
45	0x3adf8e00	0.0017055869
46	0xbba5008a	-0.0050354647
47	0x3d850116	0.06494348
48	0xbca5cb9c	-0.02023869
49	0x3da75bb6	0.08171789
50	0xbcab9057	-0.02094285
51	0xbac152f0	-0.0014749449
52	0x3b7425b8	0.0037253927
53	0x390c79b3	0.00013396777
54	0x3a70366e	0.0009163384
55	0x3d325ade	0.04354369
56	0xbd33ff86	-0.043944858
57	0x3c838cd7	0.016058369
58	0xbcfc934f	-0.030831961
59	0xbb87f278	-0.0041487776
60	0xbda00677	-0.07813733
61	0x3ca9807f	0.020691155
62	0xbdec1e89	-0.115292616
63	0xbe181903	-0.14853291
64	0x3d12383b	0.035698157
65	0x3c5791cd	0.01315732
66	0x3e058804	0.13040167
67	0xbdfa7cde	-0.12230848
68	0x3e208eeb	0.15679519
69	0xbc205098	-0.00978484
70	0xbb8753a5	-0.0041298443
71	0x3d1618bd	0.036644686
72	0xbe05f795	-0.13082726
73	0x3d19709b	0.037460905
74	0x3e14a2b6	0.14515194
75	0xbe21b2cb	-0.1579086
76	0xbb8eda0e	-0.0043594902
77	0x3dd5a206	0.10431294
78	0x3cae0d16	0.021246474
79	0xbd26ad35	-0.040692527
80	0xbc20e80d	-0.00982095
81	0x3d33c9e5	0.043893714
82	0xbded2696	-0.11579625
83	0xbde38593	-0.11109462
84	0x3e193dab	0.1496493
85	0x3dd9084d	0.105972864
86	0x3dfbb6b3	0.122907065
87	0x3cdc153b	0.026865592
88	0x3c22e0ae	0.009941263
89	0x3e109981	0.14121057
90	0x3b30cc8f	0.0026977395
91	0xbb6e2a2b	-0.0036341052
92	0xbd18f02b	-0.037338417
93	0xbd0991df	-0.03358638
94	0xbcd4976a	-0.025951106
95	0xbd9e7fe4	-0.07739237
96	0xb9cb7e82	-0.00038813433
97	0x3be94579	0.0071188775
98	0xbd1ace26	-0.037794255
99	0x3d2a4712	0.041571684
100	0x3d80c0fa	0.06286807
101	0xbbc359e2	-0.0059616426
102	0x3d0fa202	0.035066612
103	0xbd849c93	-0.06475177
104	0xbd11b2b9	-0.035570834
105	0xb935bc15	-0.00017331571
106	0x39e7463f	0.0004411209
107	0x3d77d041	0.06050134
108	0x3d33f2ae	0.04393261
109	0x3bd6f885	0.0065603876
110	0x3ce681a7	0.028137995
111	0xb90cd141	-0.00013429394
112	0xbd116f64	-0.03550662
113	0x3906aee1	0.00012844383
114	0x3d2a28bd	0.041542757
115	0xbb8bfaca	-0.0042718397
116	0xbd45a58c	-0.04825358
117	0x39a56c2f	0.00031551855
118	0xbb805631	-0.003916525
119	0xb95b29f6	-0.00020901099
120	0x3d1a2780	0.037635326
121	0x3a3f3f55	0.0007295509
122	0xbd2b950c	-0.04189019
123	0x3dfc649d	0.12323878
124	0xbd5704cd	-0.052494813
125	0xbdefc19f	-0.11706852
126	0x3dd484ea	0.10376914
127	0xbd9babe9	-0.07601149
128	0xbc806577	-0.015673382
129	0xbdcf1ea5	-0.10113267
130	0x3de2910b	0.11062821
131	0x3da21b61	0.07915378
132	0xbe02afbc	-0.1276235
133	0xbe205c1c	-0.15660137
134	0xbd7e8cb1	-0.062145893
135	0xbdfe8536	-0.12427752
136	0xbe249fc1	-0.16076566
137	0x3e115890	0.1419394
138	0x3e2a5594	0.16634208
139	0x3e2f32ac	0.17109174
140	0xbd435b34	-0.0476944
141	0x3d9778dd	0.073961
142	0x3cc35be1	0.023847522
143	0x3c8fb91c	0.017544322
144	0x3c8e7bec	0.017393075
145	0x3dcc5116	0.099764034
146	0xbc3269a3	-0.010889444
147	0x3e0aebce	0.13566515
148	0xbd14b224	-0.0363027
149	0xbd815108	-0.063142836
150	0x3e2fd92c	0.17172688
151	0x3d9a97bb	0.075484715
152	0xbdb89261	-0.090122946
153	0x3e0a4dc4	0.13506228
154	0xbe11961c	-0.14217418
155	0xbe6fea9f	-0.23429345
156	0x3e506b7d	0.20353504
157	0xbdb58d5c	-0.08864853
158	0xbd983774	-0.07432452
159	0xbd2ffa62	-0.042963393
160	0x3d8e097f	0.06935405
161	0x3d22acc2	0.039715536
162	0xbd657d84	-0.056027904
163	0x3d6731ef	0.056444105
164	0x3e1133a0	0.1417985
165	0x3dc1f32f	0.09470212
166	0xbba40ec9	-0.0050066453
167	0xbe025e2a	-0.12731233
168	0xbe1f3e95	-0.15551217
169	0xbe265e67	-0.16246949
170	0x3cfe2fb4	0.031028606
171	0xbe35db7c	-0.17759508
172	0x3dc5fc4e	0.09667264
173	0xbc8057db	-0.015666893
174	0x3d571b7e	0.052516453
175	0xbd95e212	-0.0731851
176	0xbd79ee04	-0.061018005
177	0x3e0b0924	0.13577706
178	0x3ddbeb5a	0.10738249
179	0xbd8b7b25	-0.06810597
180	0xbd130ca5	-0.03590073
181	0xbdabc67f	-0.083874695
182	0x3dbe8d0d	0.09304247
183	0x3e1f6551	0.15565993
184	0xbd8a88bc	-0.06764361
185	0xbd562400	-0.052280426
186	0xbd8d6152	-0.06903328
187	0x3e0324ed	0.12807055
188	0xbd44177e	-0.047873966
189	0xbd64b0c1	-0.05583263
190	0x3d5caa68	0.05387345
191	0x3d4c9049	0.04994229
192	0x3d56cf2b	0.052443665
193	0x3d485d40	0.048917055
194	0xbe0c2389	-0.1368543
195	0xbcb0284c	-0.02150359
196	0x3d2a7485	0.041615028
197	0x3db918d4	0.09037939
198	0x3de7f168	0.113253415
199	0x3cbfe88a	0.023426313
200	0xbe133387	-0.14375125
201	0xbb7c51b3	-0.0038500845
202	0x3d835223	0.06412151
203	0x3a6086e9	0.0008565025
204	0xbe0b5f78	-0.13610637
205	0xbd9fe1c6	-0.07806735
206	0xbd99033b	-0.07471319
207	0x3d5f31ae	0.054490738
208	0x3c02d5e9	0.0079855705
209	0xbbc4d671	-0.0060070087
210	0x3e005e8a	0.12536064
211	0xbd1534e8	-0.03642741
212	0x3e1e03db	0.15431158
213	0x3cea461a	0.02859788
214	0xbd9dfc71	-0.07714165
215	0xbdd418e1	-0.10356308
216	0xbd856f88	-0.065154135
217	0xbe3e3794	-0.18575889
218	0xbd173a7b	-0.036921006
219	0xbdbbae02	-0.09164049
220	0xbcc17252	-0.023614082
221	0x3de65db5	0.11248342
222	0xbd62c589	-0.055364165
223	0x3e28bbbb	0.16477863
224	0x3ded280f	0.11579906
225	0xbdd75349	-0.10513932
226	0xbdc92950	-0.09822333
227	0xbe0eadab	-0.13933437
228	0x3d294c8d	0.04133277
229	0x3c1bf53e	0.0095189195
230	0x3c894cf7	0.016760333
231	0x3cd89dc6	0.02644242
232	0xbc6944cd	-0.014237595
233	0xbda2b81b	-0.079452716
234	0x3d4a0786	0.04932358
235	0xbdf9a82c	-0.12190279
236	0x3d143d00	0.036190987
237	0x3e27ddb3	0.16393165
238	0xbd70f5d3	-0.058828186
239	0xbb1667b2	-0.002294999
240	0xbba749aa	-0.005105217
241	0x3b32789c	0.0027232533
242	0xbcc64f4e	-0.024207737
243	0xbd4cdf76	-0.050017796
244	0x3b4a5d62	0.0030878414
245	0xbd54101d	-0.05177318
246	0x3cff8081	0.031189205
247	0x3d85de8c	0.06536588
248	0xbce574de	-0.028009828
249	0xbd31b6cd	-0.043387223
250	0x3b9e8cbe	0.004838555
251	0x3b63d2f0	0.003476318
252	0xbc4aa9eb	-0.012369613
253	0x3d5993d1	0.053119484
254	0x3d1d55eb	0.038412016
255	0xb8bbad3e	-8.949124e-05

nn_fun2.2.bias f4 [30]
0	0xbe2fb84b	-0.17160146
1	0x3b7795ff	0.0037778614
2	0x3ccaf3ba	0.024774421
3	0xbd4b8a98	-0.04969272
4	0xbdbf475d	-0.09339783
5	0x3d8b5d45	0.06804899
6	0xbcce3376	-0.025171023
7	0x3dfc537d	0.123206116
8	0x3c496f13	0.012294549
9	0x3dd47d90	0.10375512
10	0xbd9172b1	-0.07101954
11	0xbe346e6b	-0.17620246
12	0xbda13def	-0.07873141
13	0xbe0026af	-0.12514757
14	0x3d737687	0.05943921
15	0xbc600b73	-0.013674605
16	0xbd9995de	-0.07499288
17	0x3e1aab05	0.15104301
18	0xbdd3c21b	-0.10339757
19	0xbc96de87	-0.018416656
20	0xbbd6ce39	-0.0065553454
21	0x3d851632	0.06498374
22	0xbd3870af	-0.04502934
23	0x3d47af9d	0.048751462
24	0x3d9ccf57	0.076567344
25	0xbd8149dd	-0.063129164
26	0x3de55cfb	0.11199375
27	0x3da69b61	0.08135105
28	0x3cd4ddf8	0.02598475
29	0xbd5be1b0	-0.05368203

agg.0.weight f4 [1, 30]
0	0x3d606cb9	0.054791186
1	0x3bba47d9	0.0056848344
2	0x3c8e958a	0.01740529
3	0xb9edcd2a	-0.00045357022
4	0xbcf1bc6d	-0.029508794
5	0x3df6f155	0.12057749
6	0x3c6496b9	0.013951951
7	0xbde6b516	-0.11265008
8	0xbb781826	-0.003785619
9	0x3d4687ed	0.048469473
10	0xb94a647a	-0.00019301652
11	0x3d289d94	0.041165903
12	0xbaeffd8c	-0.0018309816
13	0xb9a41dbf	-0.0003130268
14	0x3ca194b2	0.019724224
15	0x381dc5d3	3.7615955e-05
16	0x3d4f5d12	0.05062587
17	0xbbbe0cc5	-0.005799862
18	0xbce90519	-0.028444814
19	0x3dc20ab1	0.094746955
20	0x3b915946	0.004435691
21	0x3d053d0f	0.032528933
22	0xb8c64bc9	-9.455492e-05
23	0xb8a9970a	-8.086681e-05
24	0x3d1a889d	0.03772794
25	0xbabad1c8	-0.0014253194
26	0x3a8d68ec	0.0010788715
27	0x3c73c1de	0.0148777645
28	0x3db78243	0.08960392
29	0xbdaa5fed	-0.08319078
