multiple_model_analysis/results/er_experiment_MM_size_10_13_alpha_0_scale_100_dynwght_False_std_reg_1.0_equiv_reg_0.0/neural_network.pth (torch, 16501 bytes, 14 tensors)

g.0.weight f4 [30, 1]
-0.4733288 0.6593275 -0.15245268 0.2143744 -0.7778706 -0.5708704 -0.82433957 -0.47218496
-0.39143714 -0.2553381 1.0772614 0.06627036 1.1116351 0.14203154 -1.1325575 -0.26926985
-1.0375236 -0.66323525 -0.7997771 1.0367596 0.21557847 0.11747185 -1.0806065 -0.7309387
-0.8575194 0.72893447 -0.7663947 -0.8923551 -0.18381895 -0.030425698
00000000: 2758 f2be b0c9 283f 8e1c 1cbe f684 5b3e
00000010: 8722 47bf 9024 12bf eb07 53bf 3ac2 f1be
00000020: 736a c8be adbb 82be b4e3 893f c1b8 873d
00000030: 0f4a 8e3f b770 113e a5f7 90bf bddd 89be
00000040: 93cd 84bf c9c9 29bf 31be 4cbf 8ab4 843f
00000050: 9ac0 5c3e 1595 f03d 5051 8abf cc1e 3bbf
00000060: 6486 5bbf 739b 3a3f 7132 44bf 6271 64bf
00000070: 093b 3cbe 503f f9bc

g.0.bias f4 [30]
0.22466518 -0.375992 0.4544495 -0.47234097 -0.27262208 0.5442204 -0.16626461 -0.62239367
0.05166226 0.6084631 0.023478784 0.3052319 -0.046002947 -0.056023225 0.16283959 -0.15334295
0.45206967 0.24887371 -0.23589097 0.14809257 0.4570433 -0.34415147 0.13127929 0.08655942
0.6737708 -0.57222223 -0.3069616 0.11736868 -0.40395585 -0.52727044
00000000: a10e 663e 0682 c0be 9bad e83e add6 f1be
00000010: 1f95 8bbe 0752 0b3f 4541 2abe 3155 1fbf
00000020: ce9b 533d 3dc4 1b3f 9456 c03c 5b47 9c3e
00000030: 966d 3cbd 9c78 65bd 6cbf 263e ef05 1dbe
00000040: ad75 e73e c0d8 7e3e 678d 71be 94a5 173e
00000050: 9401 ea3e 9f34 b0be 146e 063e 1146 b13d
00000060: 3e7c 2c3f 287d 12bf 122a 9dbe fe5e f03d
00000070: 4dd3 cebe 32fb 06bf

g.2.weight f4 [30, 30]
-0.112282105 -0.11440848 0.07968145 0.07284595 0.12453293 -0.11470046 0.078229874 0.15163735
0.0021257452 0.16038583 -0.21146773 0.17653666 -0.13308117 -0.05350915 0.047955975 0.10521544
-0.089806706 0.07755186 0.027010277 -0.16892809 0.046050403 0.008914108 0.17880502 0.14179613
0.100985855 0.04161334 0.0012538832 0.017779065 -0.041463368 -0.03082208 -0.083284 0.14062826
0.09835383 0.18153475 0.16876848 -0.010888994 -0.035222016 0.045190006 0.02313368 -0.03216265
-0.31164724 -0.14511545 -0.23454599 -0.16295938 0.2553473 0.007761301 0.07659186 0.19991398
0.07397902 0.02017945 0.054384343 0.088915326 0.14572974 0.05985158 -0.12020065 -0.18894354
-0.15845211 0.24601547 0.06577567 5.5767752e-05 -0.15987931 -0.033760715 0.01572298 -0.11245705
-0.13114102 -0.0043661753 -0.13260557 -0.16186392 -0.109810196 0.0923922 0.07379644 0.059458528
0.4734639 0.07856045 -0.2043409 0.11087283 0.046758723 0.05610704 0.041630577 0.09252159
-0.1376071 0.08725302 -0.15324278 -0.07034614 0.09180984 -0.1602206 -0.20911847 -0.102586046
-0.01161776 0.073385745 0.016887572 -0.036192358 0.021009568 0.08564907 -0.18979406 0.05236192
-0.1670474 0.066734724 -0.01523799 -0.15254372 0.2157226 -0.07072999 0.18927412 -0.008073725
-0.053096566 0.08825492 0.08211025 0.12152684 -0.12788948 0.04929245 0.013828254 0.053035833
-0.13606897 0.015789999 0.14772476 0.12714016 0.028080314 -0.08206983 0.12774353 -0.06924042
0.08628292 -0.1276904 0.058467794 -0.14075011 -0.029830318 -0.08232265 0.016239144 -0.0827895
0.010568029 0.11580534 -0.09518958 0.17609127 -0.38596258 -0.04637978 0.09133069 0.0883184
0.022762055 -0.017043939 0.095890865 -0.18438639 0.076991014 0.030790763 0.22281338 -0.020203099
-0.10039688 -0.17899856 0.1823101 -0.015176719 0.07428634 0.17281152 0.12233412 0.118899785
-0.021826746 -0.08189228 -0.099353805 -0.09709616 0.10321777 0.11142071 -0.08374263 -0.13006029
-0.16477379 -0.0035732745 -0.45894033 0.16340317 0.13843156 -0.040746007 0.026349684 -0.130022
-0.015754914 0.026414908 0.027579622 -0.10730674 0.1776624 0.035898313 -0.12863097 -0.14536299
0.19344258 0.19054246 -0.09335967 -0.11481543 0.0004866554 -0.07832043 0.04266043 -0.11765347
0.04060237 0.012100416 -0.05264706 0.05703659 -0.12864217 -0.19728251 0.19143176 -0.07401362
0.23021145 0.03381321 -0.24730906 0.005560204 0.03407565 -0.08554674 -0.079968184 -0.06166928
0.093679085 -0.10360264 -0.1379053 -0.17426467 -0.0074239164 0.061797906 0.023556909 -0.19308928
-0.036685552 -0.12243929 0.16895375 0.05093663 0.017118927 -0.010583723 -0.13749379 0.13208465
-0.14470132 0.006649118 -0.115498655 0.1624351 0.26490673 -0.018674124 0.33633825 -0.024660835
-0.107510835 -0.12531984 0.06695028 0.14120822 -0.06352174 0.16124642 0.086477935 -0.18161419
0.053272087 -0.024017641 0.11255416 -0.082050145 -0.22003117 -0.17766812 0.031045724 -0.14633586
-0.021872856 -0.028927283 -0.06163555 -0.13456064 0.14311361 0.08143976 0.23030214 0.14658383
0.03903388 -0.09316255 -0.18483321 0.00518308 -0.52866155 0.036093667 -0.057501286 0.19067876
00000000: 29f4 e5bd fe4e eabd 0730 a33d 4230 953d
00000010: 1f0b ff3d 13e8 eabd fc36 a03d d246 1b3e
00000020: 1650 0b3b 2f3c 243e ff8a 58be 07c6 343e
00000030: 6e46 08be 692c 5bbd 7c6d 443d 317b d73d
00000040: 94ec b7bd 82d3 9e3d a844 dd3c 7cfb 2cbe
00000050: 599f 3c3d 7b0c 123c aa18 373e 0133 113e
00000060: acd1 ce3d c072 2a3d 5759 a43a 67a5 913c
00000070: 7ed5 29bd 967e fcbc cd90 aabd db00 103e
00000080: bc6d c93d 3fe4 393e a5d1 2c3e c067 32bc
00000090: f644 10bd 2819 393d d882 bd3c fcbc 03bd
000000a0: 3a90 9fbe 2599 14be d32c 70be d3de 26be
000000b0: e2bc 823e 8352 fe3b 31dc 9c3d 40b6 4c3e
000000c0: 5082 973d 604f a53c 1ec2 5e3d 3d19 b63d
000000d0: 2d3a 153e ee26 753d c22b f6bd 6a7a 41be
000000e0: 4541 22be 7beb 7b3e 65b5 863d 2be8 6938
000000f0: 67b7 23be ad48 0abd 7bcd 803c e24f e6bd
00000100: d549 06be 2212 8fbb c1c9 07be a8bf 25be
00000110: 2be4 e0bd 1f38 bd3d 9722 973d c98a 733d
00000120: dc69 f23e 4de4 a03d be3e 51be 4b11 e33d
00000130: 1386 3f3d 7fd0 653d d384 2a3d f67b bd3d
00000140: e0e8 0cbe b6b1 b23d adeb 1cbe a311 90bd
00000150: cc06 bc3d de10 24be 2723 56be a218 d2bd
00000160: 6b58 3ebc 444b 963d ce57 8a3c 703e 14bd
00000170: 421c ac3c c868 af3d 6059 42be 7479 563d
00000180: 790e 2bbe 37ac 883d c3a8 79bc 6c34 1cbe
00000190: 63e6 5c3e e3da 90bd 13d1 413e a847 04bc
000001a0: c97b 59bd ffbe b43d 6b29 a83d 10e3 f83d
000001b0: 76f5 02be e1e6 493d e78f 623c 1a3c 593d
000001c0: aa55 0bbe 075a 813c 2945 173e 0831 023e
000001d0: b008 e63c 3a14 a8bd 33cf 023e eccd 8dbd
000001e0: 19b5 b03d 46c1 02be ed7b 6f3d cc20 10be
000001f0: b65e f4bc c798 a8bd f407 853c 8b8d a9bd
00000200: 8725 2d3c 5a2b ed3d c1f2 c2bd 4551 343e
00000210: e39c c5be b9f8 3dbd 960b bb3d 47e0 b43d
00000220: 7d77 ba3c bb9f 8bbc 6e62 c43d c9cf 3cbe
00000230: 77ad 9d3d e93c fc3c 3129 643e f880 a5bc
00000240: e19c cdbd 664b 37be 80af 3a3e c6a7 78bc
00000250: 7023 983d 81f5 303e 508a fa3d bb81 f33d
00000260: 01ce b2bc 24b7 a7bd 027a cbbd 5ada c6bd
00000270: d763 d33d 8b30 e43d 4281 abbd 862e 05be
00000280: 76ba 28be 992d 6abb 3afa eabe 2953 273e
00000290: 01c1 0d3e 49e5 26bd 4bdb d73c 7d24 05be
000002a0: 7310 81bc 1464 d83c a9ee e13c a3c3 dbbd
000002b0: 22ed 353e 1c0a 133d d6b7 03be 09da 14be
000002c0: d015 463e 901d 433e 5b33 bfbd 5a24 ebbd
000002d0: c825 ff39 7666 a0bd b4bc 2e3d 4df4 f0bd
000002e0: ac4e 263d d340 463c 72a4 57bd 339f 693d
000002f0: c6ba 03be 6d04 4abe b006 443e 7494 97bd
00000300: 8dbc 6b3e b87f 0a3d 963e 7dbe 5f32 b63b
00000310: e992 0b3d 2133 afbd 5cc6 a3bd ed98 7cbd
00000320: d2da bf3d 9f2d d4bd 0c37 0dbe 7072 32be
00000330: 5344 f3bb cd1f 7d3d 6bfa c03c 32b9 45be
00000340: 9743 16bd 73c1 fabd 3602 2d3e eea2 503d
00000350: fe3c 8c3c 5a67 2dbc 2ccb 0cbe 3341 073e
00000360: 952c 14be d8e0 d93b 8f8a ecbd 6355 263e
00000370: dba1 873e 7afa 98bc 8734 ac3e 8505 cabc
00000380: a42e dcbd d853 00be 3a1d 893d e398 103e
00000390: b017 82bd c81d 253e 581b b13d 12f9 39be
000003a0: d533 5a3d a5c0 c4bc cc82 e63d e809 a8bd
000003b0: da4f 61be a2ee 35be 9a53 fe3c 11d9 15be
000003c0: b42e b3bc e9f8 ecbc 8f75 7cbd 44ca 09be
000003d0: 608c 123e e4c9 a63d 53d4 6b3e 121a 163e
000003e0: fde1 1f3d 02cc bebd eb44 3dbe d4d6 a93b
000003f0: 5d56 07bf f4d6 133d 7886 6bbd 4b41 433e

g.2.bias f4 [30]
-0.011093438 -0.103431754 -0.04961513 -0.0073365876 -0.13496199 0.04459449 0.03349711 0.0813059
-0.046254113 -0.10943045 -0.07141771 0.0580495 -0.107191995 0.09916432 -0.04215046 -0.0776955
0.032282475 -0.15925342 0.14279939 0.16709843 -0.096779406 -0.14991392 0.17490512 -0.09412845
-0.051900644 -0.03291771 -0.10420602 0.05732783 0.06451199 0.08102026
00000000: 40c1 35bc 07d4 d3bd 3c39 4bbd c267 f0bb
00000010: 7a33 0abe b6a8 363d 4434 093d b583 a63d
00000020: f474 3dbd 121d e0bd 7343 92bd 50c5 6d3d
00000030: 7a87 dbbd aa16 cb3d f6a5 2cbd d11e 9fbd
00000040: a13a 043d 5413 23be 013a 123e da1b 2b3e
00000050: 4834 c6bd 0983 19be 541a 333e 6bc6 c0bd
00000060: c595 54bd b8d4 06bd f769 d5bd 96d0 6a3d
00000070: dd1e 843d f3ed a53d

g.4.weight f4 [1, 30]
0.018062854 0.14812979 -0.12587354 -0.01085049 0.07276835 0.03223317 -0.02506208 -0.128072
0.08339594 0.09503753 -0.15328749 -0.1664843 -0.112701625 -0.060011856 0.056420192 -0.112698115
-0.16123788 -0.09309719 0.047269665 -0.096985854 -0.009667918 0.16094385 -0.22452338 -0.0769181
0.18526345 -0.071780905 -0.16824158 0.05595056 -0.028267432 -0.10712669
00000000: 8df8 933c 56af 173e fee4 00be 41c6 31bc
00000010: 9307 953d ee06 043d fe4e cdbc 4e25 03be
00000020: 7ecb aa3d 09a3 c23d 65f7 1cbe dc7a 2abe
00000030: 1cd0 e6bd fece 75bd dc18 673d 45ce e6bd
00000040: 8b1b 25be bda9 bebd d69d 413d 85a0 c6bd
00000050: 3066 1ebc 77ce 243e 75e9 65be 3d87 9dbd
00000060: b4b5 3d3e de01 93bd 8547 2cbe 6a2c 653d
00000070: 1a91 e7bc 3d65 dbbd

nn_fun1.0.weight f4 [30, 1]
0.33224508 0.19949417 -0.9744 -0.27770847 -0.02738602 0.24338327 0.48967254 -0.8576372
0.23550604 -0.38815483 0.85896593 0.1733305 -0.18410566 -0.03078059 -1.1992732 0.1464091
-0.151068 0.8106826 0.82413834 -0.820288 -0.7203956 0.6116874 0.13748583 0.5204087
0.5070995 0.46692744 -0.049388472 -0.5449564 0.7840551 0.41566283
00000000: 071c aa3e 3348 4c3e 4772 79bf ce2f 8ebe
00000010: a658 e0bc 7739 793e 5cb6 fa3e 1d8e 5bbf
00000020: 7f28 713e 3bbc c6be 31e5 5b3f 8d7d 313e
00000030: 3286 3cbe 9327 fcbc c981 99bf 44ec 153e
00000040: 92b1 1abe e588 4f3f bbfa 523f 65fe 51bf
00000050: d96b 38bf 8c97 1c3f 16c9 0c3e 8139 053f
00000060: 46d1 013f 1d11 ef3e 914b 4abd 4382 0bbf
00000070: d6b7 483f c2d1 d43e

nn_fun1.0.bias f4 [30]
-0.46170047 -0.749576 0.37689334 0.23478188 -0.700687 -0.42954785 0.7159346 0.13643236
0.29918242 -0.59943694 -0.19147846 0.066951536 -0.73257387 -0.8637711 0.6920478 0.79104865
0.88758856 -0.74088377 -0.066277884 -0.057026282 -0.2749474 -0.84878737 -0.840759 -0.60608333
0.55768853 0.06637429 0.45042804 0.4893654 -0.7454845 0.6174607
00000000: 0164 ecbe 36e4 3fbf 2af8 c03e a96a 703e
00000010: 3960 33bf b2ed dbbe 7d47 373f edb4 0b3e
00000020: 702e 993e b374 19bf ee12 44be e31d 893d
00000030: f689 3bbf 1a20 5dbf 0b2a 313f 2a82 4a3f
00000040: 0139 633f 8faa 3dbf b3bc 87bd 6494 69bd
00000050: e8c5 8cbe 214a 59bf fb3b 57bf 4728 1bbf
00000060: adc4 0e3f 3eef 873d 819e e63e 1a8e fa3e
00000070: 12d8 3ebf e811 1e3f

nn_fun1.2.weight f4 [30, 30]
0.13149856 -0.14883214 0.10927894 -0.023008015 -0.15221943 0.06329114 0.06286363 0.138966
0.10025688 -0.051001567 -0.018441092 0.03281087 0.1305131 0.027080236 -0.11968221 0.16563311
0.02220333 0.083258785 -0.0022708718 0.0972989 0.036542952 -0.16662975 0.107000545 0.12926568
-0.056489784 0.027329478 -0.1645533 0.05882456 0.030696807 -0.047459785 0.08271311 0.012465109
0.13202657 0.13012381 -0.080853276 0.06959166 -0.041022122 0.051746342 -0.060027212 0.112668626
-0.106254786 0.073199324 0.1404287 0.038576353 -0.09421677 0.03629913 -0.056103174 0.12316964
-0.025074586 0.0033006256 -0.080232546 -0.015862826 -0.057175443 -0.145724 -0.13563612 0.017001089
0.139517 0.13760912 -0.01404942 0.104722165 -0.02819573 0.16870278 -0.12751195 0.13688347
-0.08338803 0.05355921 -0.049504064 0.14029066 -0.031693954 -0.12563163 0.07477576 -0.15044229
-0.10902967 0.12653291 0.16208303 0.09306818 0.10341079 0.022797596 -0.16467832 0.13256662
0.050442424 0.060953237 -0.05951798 -0.044607136 -0.05160329 -0.082401216 -0.14087568 0.06025772
0.14467256 -0.06953058 -0.004523477 -0.0032829845 0.01770179 -0.008595193 0.03190642 -0.0022583243
0.029997861 -0.0016801304 0.00404729 0.02861503 -0.001280616 -0.00015200174 -0.039492402 0.06362206
-0.032437094 -0.053439587 0.051900268 0.01925152 3.5766552e-05 0.00022482732 0.009204599 -0.04583123
-0.05369644 0.013836619 -0.024684727 -0.0006403161 0.0010453933 -0.027242519 0.0011327473 0.005043444
0.06238841 -0.06980309 -0.15913078 0.10469925 0.07384091 0.043697033 0.107619576 -0.042913422
-0.03344481 0.15220384 0.12474136 0.15643822 -0.06700935 0.13915734 0.026640728 -0.12874748
0.0675345 -0.1677578 -0.0006613609 0.05954927 -0.11774278 -0.13145189 0.10436022 0.05691287
0.023743723 -0.06728308 0.09999228 0.127334 0.07632251 -0.13924219 0.033795156 -0.021822132
0.13375342 -0.0882914 -0.07953219 -0.057813637 -0.1111351 -0.008049235 -0.018381162 -0.011122418
0.088771135 0.092874795 -0.03767549 0.1412094 0.16680507 0.06828061 0.14038324 0.14182176
-0.0012346512 0.04602107 0.049771626 -0.12206665 -0.016657948 -0.077821426 -0.10656168 -0.10565535
-0.10056919 0.044496942 -0.049473688 -0.13205053 -0.034124553 -0.07726806 -0.018733036 -0.05649791
-0.0073388373 -0.082516655 -0.049590636 0.04247898 -0.026815854 -0.092777304 -0.007973988 0.004430687
-0.060471594 0.018679675 -0.07525928 0.01998152 0.061089035 0.10211494 0.004852077 -0.0068255914
-0.08602588 0.06912499 0.10041457 -0.015891477 -0.057918213 0.016788324 0.08079629 -0.054759935
-0.012082909 -0.11832985 0.040424652 -0.15460785 0.04977114 -0.052292768 0.097840294 0.111747816
-0.08491622 0.05830941 0.16189149 -0.05819052 0.02302584 0.003020102 0.122362755 0.08787124
0.07514801 0.10324809 0.09157478 0.12066602 -0.15018946 0.018792598 0.11947884 -0.076294236
-0.022137884 0.057846118 0.15664211 -0.00086402043 0.13852325 -0.16481431 -0.05575505 0.044262454
-0.020802435 -0.13431503 -0.10504396 -0.013228868 -0.026182372 0.051412668 0.025457175 -0.11715564
0.052523073 -0.031775646 0.09071349 -0.0035734912 -0.13680975 0.049852528 0.13547876 0.10980093
00000000: 8fa7 063e 7467 18be a3cd df3d 4e7b bcbc
00000010: 69df 1bbe c99e 813d a6be 803d 1a4d 0e3e
00000020: 7b53 cd3d 05e7 50bd c611 97bc b164 063d
00000030: 3aa5 053e 5fd7 dd3c f21b f5bd ba9b 293e
00000040: c2e3 b53c 9583 aa3d e8d2 14bb a544 c73d
00000050: 10ae 153d fda0 2abe 1a23 db3d 395e 043e
00000060: d561 67bd 12e2 df3c a980 28be 06f2 703d
00000070: df77 fb3c 3165 42bd 7e65 a93d 753a 4c3c
00000080: f931 073e 2d3f 053e 6796 a5bd 1286 8e3d
00000090: d006 28bd f9f3 533d 18df 75bd cfbe e63d
000000a0: 1c9c d9bd 87e9 953d 8bcc 0f3e 3d02 1e3d
000000b0: b9f4 c0bd 66ae 143d 71cc 65bd 5d40 fc3d
000000c0: 3869 cdbc 4f4f 583b f650 a4bd c2f2 81bc
000000d0: cc30 6abd ac38 15be 32e4 0abe de45 8b3c
000000e0: 8bdd 0e3e 68e9 0c3e 8a2f 66bc 9378 d63d
000000f0: bbfa e6bc 6cc0 2c3e 7e92 02be 2e2b 0c3e
00000100: 58c7 aabd e760 5b3d c6c4 4abd 5ba8 0f3e
00000110: 85d1 01bd 94a5 00be 0924 993d 8b0d 1abe
00000120: f34a dfbd d891 013e 18f9 253e 889a be3d
00000130: 09c9 d33d 06c2 ba3c 6fa1 28be 8bbf 073e
00000140: b79c 4e3d 1aaa 793d 20c9 73bd f9b5 36bd
00000150: f95d 53bd f8c1 a8bd b741 10be cdd0 763d
00000160: 0b25 143e 0c66 8ebd ad39 94bb 5727 57bb
00000170: 5803 913c dad2 0cbc 4eb0 023d 6500 14bb
00000180: 13be f53c d237 dcba 219f 843b 116a ea3c
00000190: 58da a7ba a862 1fb9 c9c2 21bd 484c 823d
000001a0: c2dc 04bd 78e3 5abd 6095 543d 5db5 9d3c
000001b0: 0b04 1638 a0bf 6b39 e3ce 163c 87b9 3bbd
000001c0: ccf0 5bbd fdb2 623c a037 cabc e3da 27ba
000001d0: 9405 893a b42b dfbc b178 943a 7a43 a53b
000001e0: fd8a 7f3d ecf4 8ebd 2ef3 22be 8f6c d63d
000001f0: e739 973d a9fb 323d a767 dc3d fcc5 2fbd
00000200: 6dfd 08bd 53db 1b3e 6678 ff3d 5731 203e
00000210: 333c 89bd 437f 0e3e a83d da3c 61d6 03be
00000220: 874f 8a3d b3c8 2bbe 2e5f 2dba efe9 733d
00000230: 2023 f1bd 539b 06be d0ba d53d 781d 693d
00000240: 3282 c23c b6cb 89bd c1c8 cc3d d863 023e
00000250: fa4e 9c3d 8195 0ebe ca6c 0a3d 54c4 b2bc
00000260: a8f6 083e 1fd2 b4bd c6e1 a2bd fecd 6cbd
00000270: cd9a e3bd f0e0 03bc 1794 96bc cd3a 36bc
00000280: a4cd b53d 2435 be3d 9d51 1abd 3299 103e
00000290: f3ce 2a3e b4d6 8b3d a0c0 0f3e b939 113e
000002a0: 05d4 a1ba 9780 3c3d 55dd 4b3d 14fe f9bd
000002b0: 4076 88bc d760 9fbd 033d dabd d561 d8bd
000002c0: 38f7 cdbd 6d42 363d eca4 4abd 4138 07be
000002d0: 30c6 0bbd b73e 9ebd 0676 99bc 5a6a 67bd
000002e0: a17a f0bb 7efe a8bd 8d1f 4bbd 70fe 2d3d
000002f0: ecac dbbc 0702 bebd 54a5 02bc 4c2f 913b
00000300: 10b1 77bd 1e06 993c 8a21 9abd 49b0 a33c
00000310: 7f38 7a3d a321 d13d 2cfe 9e3b 36a9 dfbb
00000320: 562e b0bd 6791 8d3d 27a6 cd3d d82e 82bc
00000330: a63b 6dbd ab87 893c 8678 a53d f44b 60bd
00000340: 65f7 45bc ec56 f2bd 5294 253d 8551 1ebe
00000350: d3dc 4b3d f130 56bd 7e60 c83d 0adc e43d
00000360: 8ee8 adbd d9d5 6e3d e2c6 253e 2f59 6ebd
00000370: b0a0 bc3c e7ec 453b 5399 fa3d d6f5 b33d
00000380: 33e7 993d bc73 d33d 8f8b bb3d bf1f f73d
00000390: 44cb 19be eff2 993c 52b1 f43d 2740 9cbd
000003a0: 825a b5bc 0df0 6c3d ca66 203e 6e7f 62ba
000003b0: 0ad9 0d3e 15c5 28be 685f 64bd 8c4c 353d
000003c0: de69 aabc e189 09be 4a21 d7bd e5bd 58bc
000003d0: 6a7c d6bc 1796 523d 918b d03c 4cef efbd
000003e0: 6f22 573d 2e27 02bd ffc7 b93d 3c31 6abb
000003f0: db17 0cbe 2a32 4c3d f2ba 0a3e 4fdf e03d

nn_fun1.2.bias f4 [30]
0.0070135305 -0.02447878 0.03894893 0.022598928 0.08793683 -0.08406249 0.08845102 -0.11242448
0.028700458 -0.15355305 0.062385328 0.04694353 0.037067376 -0.07704276 0.012426301 -0.060146302
-0.050300192 0.12968192 0.15884648 0.14141925 0.10985345 -0.0043400475 -0.0151880095 -0.085747205
0.1327887 -0.045886416 -0.09828012 0.002776159 0.057331298 -0.13896063
00000000: c2d1 e53b b987 c8bc ea88 1f3d 6321 b93c
00000010: 3a18 b43d f428 acbd cf25 b53d ce3e e6bd
00000020: 391d eb3c 033d 1dbe c287 7f3d dc47 403d
00000030: f6d3 173d 98c8 9dbd af97 4b3c f85b 76bd
00000040: 9307 4ebd 56cb 043e a7a8 223e 35d0 103e
00000050: d8fa e03d f536 8ebb 21d7 78bc 3b9c afbd
00000060: c3f9 073e 65f3 3bbd 1647 c9bd 38f0 353b
00000070: 39d4 6a3d b24b 0ebe

nn_fun2.0.weight f4 [30, 1]
-0.41826123 0.09911564 0.8252571 -0.24001001 -0.12263863 0.89731014 0.39826474 0.30425352
0.052737307 0.14591914 -0.1276093 0.11360089 0.0905683 -0.024908604 -0.17162073 0.075722076
0.14285326 -0.45750272 0.080152184 0.06239745 -0.16596305 0.43437982 0.11646107 0.029475417
-0.03691391 0.08058394 0.15520588 -0.28759316 -0.48794043 -1.2365996
00000000: 5626 d6be 24fd ca3d 0d44 533f 2fc5 75be
00000010: f629 fbbd 1eb6 653f 5be9 cb3e 1ec7 9b3e
00000020: 1303 583d d46b 153e 03ac 02be 95a7 e83d
00000030: df7b b93d 210d ccbc 58bd 2fbe 2d14 9b3d
00000040: 2048 123e cc3d eabe d426 a43d 7894 7f3d
00000050: 38f2 29be 0867 de3e 2483 ee3d 6e76 f13c
00000060: 0a33 17bd 3109 a53d 4aee 1e3e 693f 93be
00000070: 54d3 f9be e548 9ebf

nn_fun2.0.bias f4 [30]
-0.35441288 0.09767232 -0.6811429 -0.052317668 -0.5094494 -0.43323457 -0.6296682 0.5296078
0.78037685 0.8636311 -0.43693078 0.38452226 0.609963 0.22116672 0.17389934 0.67515105
0.5011682 -0.15410264 0.22889385 0.20109619 -0.46030235 0.08042189 0.6802969 -0.70321053
0.47776926 -0.30640164 0.8704957 0.006203295 0.027965415 0.8910685
00000000: 9b75 b5be 6d08 c83d 625f 2ebf 0d4b 56bd
00000010: 476b 02bf ecd0 ddbe ef31 21bf 6094 073f
00000020: c7c6 473f ee16 5d3f 64b5 dfbe 1ae0 c43e
00000030: 8926 1c3f 8779 623e ab12 323e b3d6 2c3f
00000040: 8f4c 003f 15cd 1dbe 2663 6a3e 29ec 4d3e
00000050: c0ac ebbe 3bb4 a43d f027 2e3f 9b05 34bf
00000060: 2c9e f43e ade0 9cbe ced8 5e3f 0345 cb3b
00000070: ba17 e53c 111d 643f

nn_fun2.2.weight f4 [30, 30]
0.083498634 0.09144574 0.06882376 0.0046935757 -0.023739738 0.085795656 -0.07025268 0.068430826
0.114015795 -0.07881564 0.044947498 0.015233409 -0.15561014 -0.07457869 -0.071300216 -0.04094219
0.15783355 0.09055797 -0.10427489 -0.10671954 -0.02654696 -0.011372089 -0.06595518 -0.007998428
0.09329067 0.04028172 -0.11864754 0.00025877668 0.030372942 0.0712938 -0.02340519 -0.0857925
-0.019298261 0.008067662 0.054553997 -0.09979296 -0.13056792 -0.08880517 -0.0010504035 0.015036468
-0.012973532 -0.088766076 0.13801312 -0.06862947 0.022707064 -0.018141221 -0.029178862 -0.049381565
-0.00260164 -0.03205588 0.15218179 -0.13490982 -0.09679994 -0.1434239 0.029490367 -0.03068257
0.13309467 0.009376028 0.010194223 0.046027847 0.14557846 0.04617878 0.08125887 -0.042592485
-0.12587276 0.10745759 -0.09443959 -0.1272861 -0.09694406 -0.117460616 -0.04895463 0.12291136
-0.1264113 0.105769016 0.0881523 0.07417977 0.14848082 -0.03555792 -0.07484927 -0.10297297
0.06466891 -0.0610404 -0.0042171953 -0.12593248 0.14596254 0.013638382 -0.03680428 0.018576834
0.05829924 -0.19710241 0.0045903386 -0.0020131597 -0.04590971 4.5875408e-05 0.024737878 -0.019107865
0.020925984 0.011231848 0.0439934 0.022712125 0.02401586 0.0012109873 -0.058389038 -0.0054784287
-0.0006359632 -0.0512517 -0.034113765 -0.0011116869 0.0009326658 0.0026024724 -0.00951632 -0.0004216525
0.029445957 -0.0027338695 0.03475834 0.02344197 -0.00047158403 9.4129945e-07 -1.36992885e-05 -0.038977735
-0.021475328 0.02643695 -0.04847436 0.0023257933 0.04742947 0.0056292885 -0.076063685 0.051977303
-0.0012168392 -0.06976725 -0.08121464 -0.002726249 -0.024795024 -0.023757592 -0.010593114 -0.14685747
-0.04096631 0.044163134 -0.013253936 0.010433314 0.029700296 -0.007073516 0.0996571 0.036844697
0.09036534 0.041945092 0.013513002 0.002982864 0.0050497786 0.03699112 0.1199592 0.04370724
-0.12757254 0.04311683 0.15815824 0.10786035 0.00088176364 0.010149797 0.158055 0.13420093
-0.13803825 -0.022392774 -0.1355986 -0.018578725 -0.11847476 -0.0176334 -0.16349377 -0.115348056
-0.00824495 0.067145124 -0.024102727 -0.031355 0.12155513 0.029472642 -0.09334122 -0.05262914
0.0888926 -0.025019849 -0.048327588 0.028882567 -0.023488553 -0.0013750445 0.06702185 0.0017736017
0.012673225 0.008934445 -0.010886334 -0.060673352 -0.048870627 0.044105314 0.01568684 0.01490935
-0.040291723 0.017384073 0.010852351 0.02912833 0.02825957 0.020125356 0.003362104 -0.017968288
-0.07261424 -0.005219492 0.003493421 0.043183368 -0.03203212 0.010036936 0.04818023 0.0052003176
0.005321227 -0.021826958 -0.090131685 -0.018067874 0.17682235 0.0040029795 0.058412857 0.026526792
-0.028091108 -0.038655866 0.11556829 -0.12550315 0.04286757 -0.106157474 -0.029896857 -0.02107484
-0.051697172 0.10475596 -0.018146733 -0.0138436025 -0.065093905 0.06320889 0.049987875 -0.04142865
0.10257042 -0.06545768 0.028888404 -0.0040154182 -0.039212685 0.010314298 0.008370976 -0.02579929
0.011201723 0.09593409 -0.051918853 0.18208662 -0.013604999 -0.03087875 -0.16359648 -0.0009046365
0.042688053 -0.14076905 0.13638593 0.09000865 0.15419361 0.12047285 -0.14745829 -0.118042514
00000000: 5501 ab3d e747 bb3d 79f3 8c3d 91cc 993b
00000010: d779 c2bc a2b5 af3d a3e0 8fbd 7625 8c3d
00000020: 1d81 e93d 186a a1bd de1a 383d 8c95 793c
00000030: 4458 1fbe b6bc 98bd d905 92bd ffb2 27bd
00000040: 1e9f 213e 7576 b93d 138e d5bd c68f dabd
00000050: 0379 d9bc 0052 3abc 8213 87bd d70b 03bc
00000060: 2e0f bf3d 72fe 243d 7bfd f2bd 6bac 8739
00000070: add0 f83c 7c02 923d 3ebc bfbc fab3 afbd
00000080: 6317 9ebc 3a2e 043c 0374 5f3d 4060 ccbd
00000090: 99b3 05be 7cdf b5bd b1ad 89ba 855b 763c
000000a0: f08e 54bc fdca b5bd 5053 0d3e 9c8d 8cbd
000000b0: 2a04 ba3c e69c 94bc 8208 efbc 5344 4abd
000000c0: 4780 2abb 074d 03bd 8bd5 1b3e cd25 0abe
000000d0: 0c3f c6bd b7dd 12be c895 f13c 035a fbbc
000000e0: f849 083e e99d 193c ac05 273c b287 3c3d
000000f0: 8512 153e f625 3d3d 0d6b a63d 7575 2ebd
00000100: cae4 00be ba12 dc3d 8b69 c1bd 4a57 02be
00000110: 9b8a c6bd 318f f0bd a684 48bd f3b8 fb3d
00000120: f771 01be 6d9d d83d 3189 b43d 90eb 973d
00000130: 5b0b 183e 2ea5 11bd 934a 99bd 7ee3 d2bd
00000140: 2271 843d 8005 7abd 6630 8abb 72f4 00be
00000150: 3477 153e 8573 5f3c 16c0 16bd 722e 983c
00000160: 2fcb 6e3d 37d5 49be 8d6a 963b 37ef 03bb
00000170: d20b 3cbd 586a 4038 17a7 ca3c 1988 9cbc
00000180: f86c ab3c c905 383c 6c32 343d c70e ba3c
00000190: e9bc c43c feb9 9e3a 5829 6fbd 6484 b3bb
000001a0: c5b6 26ba 4ded 51bd e0ba 0bbd 06b6 91ba
000001b0: 247e 743a 3e8e 2a3b 57ea 1bbc 3e11 ddb9
000001c0: a638 f13c b82a 33bb c35e 0e3d 6009 c03c
000001d0: f03e f7b9 9bad 7c35 ffd5 65b7 1ea7 1fbd
000001e0: 07ed afbc 4d92 d83c 0d8d 46bd 566c 183b
000001f0: 6745 423d e575 b83b 47c7 9bbd 27e6 543d
00000200: 597e 9fba 22e2 8ebd dc53 a6bd deaa 32bb
00000210: ef1e cbbc 489f c2bc be8e 2dbc ce61 16be
00000220: 4acc 27bd 67e4 343d 0927 59bc 7ef0 2a3c
00000230: 094e f33c f4c8 e7bb 0619 cc3d 77ea 163d
00000240: 7711 b93d 9ece 2b3d a365 5d3c 277c 433b
00000250: 9d78 a53b 0084 173d 2bad f53d 5d06 333d
00000260: 60a2 02be 469b 303d 3cf4 213e e3e5 dc3d
00000270: 2826 673a 564b 263c 2bd9 213e f86b 093e
00000280: e659 0dbe 0d71 b7bc 5cda 0abe 6932 98bc
00000290: e5a2 f2bd ec73 90bc e96a 27be 9a3b ecbd
000002a0: d415 07bc 6283 893d 1573 c5bc 1a6e 00bd
000002b0: e5f1 f83d 9c70 f13c ae29 bfbd a791 57bd
000002c0: 530d b63d 6df6 ccbc 26f3 45bd 229b ec3c
000002d0: 116b c0bc d63a b4ba c042 893d 3378 e83a
000002e0: 5ca3 4f3c c761 123c 985c 32bc 9f84 78bd
000002f0: 912c 48bd c6a7 343d b081 803c 5946 743c
00000300: ef08 25bd 0b69 8e3c 0fce 313c 899e ee3c
00000310: 9d80 e73c eedd a43c bf56 5c3b 3b32 93bc
00000320: c6b6 94bd 4608 abbb e1f1 643b 0be1 303d
00000330: 1d34 03bd f671 243c a258 453d 6d67 aa3b
00000340: b05d ae3b 73ce b2bc f696 b8bd 1403 94bc
00000350: eb10 353e 6d2b 833b 5242 6f3d b74e d93c
00000360: 531f e6bc 9d55 1ebd 11af ec3d e683 00be
00000370: e895 2f3d 1769 d9bd 41ea f4bc 25a5 acbc
00000380: 6ac0 53bd 4b8a d63d 75a8 94bc 47d0 62bc
00000390: f44f 85bd aa73 813d 16c0 4c3d 17b1 29bd
000003a0: 7110 d23d ad0e 86bd 60a7 ec3c c593 83bb
000003b0: 7b9d 20bd 4dfd 283c 6b26 093c 0859 d3bc
000003c0: 6e87 373c 1879 c43d dda8 54bd ea74 3a3e
000003d0: 80e7 5ebc 6ff5 fcbc d685 27be 2125 6dba
000003e0: abd9 2e3d c325 10be c1a8 0b3e 7556 b83d
000003f0: eee4 1d3e 78ba f63d 4eff 16be 46c0 f1bd

nn_fun2.2.bias f4 [30]
0.16136701 -0.16081983 0.1589032 0.036692653 -0.016823677 -0.12536302 0.030890381 0.10927812
-0.08575187 0.19759943 -0.00399749 -0.096322834 0.15704115 0.035762567 0.0150349345 -0.15424906
-0.006607991 0.14824915 0.11390742 0.029165955 -0.09484861 0.013364439 0.050623797 -0.0525633
0.03825421 -0.08013582 0.21703734 0.064386845 -0.0032941876 -0.07526348
00000000: 653d 253e f4ad 24be 85b7 223e 094b 163d
00000010: cfd1 89bc 2a5f 00be d30d fd3c 35cd df3d
00000020: ad9e afbd 8157 4a3e 60fd 82bb e844 c5bd
00000030: 65cf 203e c57b 123d 1655 763c 77f3 1dbe
00000040: d987 d8bb a0ce 173e 4b48 e93d 71ed ee3c
00000050: fd3f c2bd 85f6 5a3c e65a 4f3d 9d4c 57bd
00000060: 72b0 1c3d 401e a4bd 093f 5e3e 40dd 833d
00000070: 4ce3 57bb bd23 9abd

agg.0.weight f4 [1, 30]
0.061025243 -0.012999838 0.031709284 0.00011724192 -0.015507419 -0.043498304 -0.0042116023 0.029415304
0.11167801 -0.011258561 0.17246167 -0.0012223944 -0.08868043 -0.006575377 -0.004713428 0.028817093
-0.0025253657 0.093521185 0.071396865 0.07210167 0.09118038 -0.059684746 -0.061482362 0.004745054
-0.08592306 -0.07107732 0.056878768 0.01087541 0.0016903202 0.021524653
00000000: 9bf5 793d 46fd 54bc 98e1 013d c7df f538
00000010: d412 7ebc 472b 32bd 7b01 8abb 5df8 f03c
00000020: 71b7 e43d d475 38bc cb99 303e c038 a0ba
00000030: 169e b5bd 4376 d7bb 1a73 9abb d311 ec3c
00000040: 9b80 25bb 0988 bf3d 8538 923d 0aaa 933d
00000050: c7bc ba3d fe77 74bd eed4 7bbd 667c 9b3b
00000060: 6ef8 afbd fc90 91bd b6f9 683d c72e 323c
00000070: bc8d dd3a 7854 b03c
