multiple_model_analysis/results/er_experiment_MAK_size_10_4_alpha_0_scale_100_dynwght_False_std_reg_1.0_equiv_reg_0.0/neural_network.pth (torch, 16627 bytes, 14 tensors)

g.0.weight f4 [30, 1]
00000000: fbfe 49bf c2c1 4a3e ed14 9cbe d834 123f
00000010: 5625 8f3e 99de e3be 5054 7abd b670 f93e
00000020: b125 44be a33d 073a 5840 b7be 69c7 533f
00000030: 4a1f 00bd 500f 1dbf 279d bebe 6b11 d4be
00000040: 258e 16bf 7aa2 8c3e c5d0 423f 192c 2dbe
00000050: fdc4 8d3e 8fcf 093f c5d3 1dbf e1e7 e43d
00000060: b2e2 be3e f842 4b3e 45cc 02bf fe7e fc3b
00000070: d691 f5be 7bca ce3e
-0.78904694 0.19800475 -0.30484715 0.57111883 0.27958173 -0.44505766 -0.061115563 0.48718804
-0.19155003 0.0005159026 -0.35791278 0.8272615 -0.03127984 -0.6135149 -0.37229273 -0.4141954
-0.58810645 0.2746771 0.7609981 -0.16911353 0.27689353 0.53832334 -0.6165126 0.1117704
0.3728233 0.19849765 -0.5109294 0.0077055683 -0.47962826 0.40388855

g.0.bias f4 [30]
00000000: 50e0 aabe 4af1 92bd ec69 f13d e600 15bf
00000010: 7632 d6be ecf6 f0be 2749 123e cc1c fbbe
00000020: 5a67 32bf 322c 00bf a22c f4bd c9e7 9fbe
00000030: 63fd 15be 0959 813e 815a b93d 2e37 32bf
00000040: 1336 e43e 50c3 373e 1578 c43d 5c5e 203f
00000050: 603e dcbd 42b4 f43e f7ff 91be 3fc6 c6be
00000060: b185 4c3e 35eb eabe 712e b63e c96e 1cbf
00000070: aaf9 afbe 4b67 253f
-0.33374262 -0.071749285 0.11787781 -0.58204496 -0.41835374 -0.47063386 0.14285718 -0.49045408
-0.6968895 -0.50067437 -0.119225755 -0.31231526 -0.1464744 0.2526324 0.090504654 -0.6961545
0.44572505 0.179456 0.09593216 0.6264398 -0.107540846 0.47793776 -0.28515598 -0.38823125
0.19972874 -0.45882574 0.35582307 -0.61106545 -0.34370166 0.6461074

g.2.weight f4 [30, 30]
00000000: 0625 66bc b11c d93a f79e f83a e8d0 cebc
00000010: 4383 bebc 1e35 c3bc 71a0 cdbb 1fdd cdbb
00000020: 46df 153d c167 733d 7b5e 2e3d 2876 a23a
00000030: 4126 5fbd 6494 5e39 4b0a 46bd 7c50 423d
00000040: 3e8c 473c a964 abbb f04a 7c3d dcd4 78bd
00000050: 3cd0 0839 a5e3 ed3b f735 e03c 0092 393d
00000060: f885 ccbc 3f13 633d 5ba0 b53c 5167 8b3c
00000070: b39a 6bbd b37b 3c3d 8f32 3b3d 3595 b5bc
00000080: 44c6 c23d f053 ddbd c877 2dbd 09e1 3ebd
00000090: 18b3 25bd ba13 e93d 206c ca3b 198e 0c3d
000000a0: 42c6 f8bd 566b d5bc 490f e13d 711c ecbb
000000b0: f2f4 773d ad6f dabd 4c10 9abd cc80 583d
000000c0: 002b b73d 4a3c feba f80f efbc f20b e5bd
000000d0: b883 36bd b9de 9c3d 685c 01be 8e88 a4bd
000000e0: 5f0d fdbd d6ea cbbd 965e f83d 0d86 96bd
000000f0: b79f 9abc f320 b5ba 29e1 c23a 0461 d1bc
00000100: 1da0 89b9 1d7f 45bd 8bc8 493c ad87 2dbb
00000110: 3297 453d e2a1 3e3c f80d 813d 9851 d0bb
00000120: 56b6 3dbd daa5 813b 3bd1 683c c02b 0cbd
00000130: 0d4a a0bc 3cd5 273d a14a 303d bc6e 5abd
00000140: 1275 fbba 2bd1 8d3d 4188 5ebd 2041 24bc
00000150: 6df5 56bd ffbe 78bd 7f8a bf3c ad42 233d
00000160: b541 4dbd a1a4 41bc c712 e1bd bc35 23bd
00000170: d763 9dbc 6d1e 093c 2570 913b 65d5 1abe
00000180: 0286 c93d d726 e5bc 3d84 f4bd 1e83 03be
00000190: 1075 e6bc a09a 81bd 91eb 44be d92d e43d
000001a0: 4147 f2bd 876a 47be ed48 1a3e 90b1 0cbd
000001b0: cce5 12be f2fc 9ebc f4d9 c4bd 2b37 f93d
000001c0: 5498 51bd 45ee 12be e8e8 79bd c5cd a5bd
000001d0: 4d34 373e b233 49bc 0ab1 25be 70ab 9bbc
000001e0: b830 1e3e 2e74 e1bd f81d 37bd a1d5 0d3e
000001f0: b671 94bd a8fc 013e 99fd bdbd c404 f03d
00000200: 02ac dd3d bfb5 14bd 27c7 20be befa 2bbd
00000210: 20c2 263d 7a4f 3fbc f1ad 03be b325 20be
00000220: e2bc a23d f1fe f33d cc24 7abd d6be 383c
00000230: a900 76bd 0647 d33d b38c ecbd a8c7 cabd
00000240: 2d0c 82bd 464f 15bd fcfe c53c 9666 2bbe
00000250: ba87 84bd ddec 90bd 893d 3ebd e08f 23bc
00000260: 83f2 1d3b 7da7 713d 0c24 d1bd 4e28 47bc
00000270: 4e2c e53d b8dd da3a c1c1 09be bf1b b83d
00000280: 8c23 18be 86a7 773c 9d9a f33d 2e3b 1c3c
00000290: d0df 8a3d 426c e33d 91e6 933d 9c97 e1bc
000002a0: b062 3a3d f2bd 153e 37e5 e33b dae6 e4bd
000002b0: 92c1 fd3d 88e5 003e d7c1 c13d c4ef 7f3d
000002c0: d017 a53d 5c02 eabd f4dd 72bd 5b0c b23d
000002d0: 7e7a 2b3d 7b49 9c3d 49a2 29bd 653d 18be
000002e0: ddb7 b63d c285 e8bd 34bc 08be 65b5 483e
000002f0: e4a3 9d3d 2f37 b13d 9c1e a8bd 040e 683e
00000300: 6bea 8d3c 87b5 cdbd 3b85 0fbc a381 223e
00000310: f841 9dbd 6230 2c3e 0aad 3b3e 8a33 753c
00000320: 97bf 51bd 1687 913b 56e9 0d3e 375f eabd
00000330: 9c74 42bd 1f9c a23d 31b9 223c f63f 303e
00000340: 3d3a 9f3c f6c1 e9ba b0f1 3c3d 024f dabc
00000350: 58dd 1fbe 7691 bfbc b9af 0dbe 8e97 1f3e
00000360: 590c dd39 1ddc 5c3d 50b7 213c 5483 8fbd
00000370: 11a2 d8bd 27f2 243d 83e3 983d 745f 03be
00000380: ddf6 e0bd 0a7a 0e3e 823d d1bd cf66 983d
00000390: 7554 143e c994 103e 2dec 9dbd 1315 09bc
000003a0: 8744 f4bd de2a 163d ed64 433c 9c65 2dbd
000003b0: 6682 903c c399 00bd 2da3 f13d 3aae babc
000003c0: b3a5 003e 0236 aa3d 4994 283d 1fba 083d
000003d0: 66f3 8bbd 7ef2 d4bd 2c45 ac3d cc57 de3d
000003e0: 6fb2 0d3d cf85 153e 8586 c33d fca0 0c3d
000003f0: 04ba c7bc 59b3 843c 2f59 05be f65c 15be
-0.014046913 0.0016564337 0.0018968274 -0.025246099 -0.02325595 -0.02382904 -0.0062752296 -0.006282463
0.036589883 0.05942512 0.042570572 0.0012394832 -0.05447984 0.0002122685 -0.04834966 0.047440037
0.012179432 -0.0052305055 0.061594903 -0.060749874 0.00013047544 0.0072598034 0.027369482 0.045305252
-0.024966225 0.055438276 0.02217119 0.017017039 -0.05752058 0.046016406 0.045702513 -0.022165874
0.095104724 -0.108070254 -0.04235056 -0.04660133 -0.040454 0.11380716 0.0061774403 0.034315202
-0.1214719 -0.026052158 0.109892435 -0.007205539 0.060536332 -0.10665832 -0.0752264 0.052857205
0.089437485 -0.001939663 -0.02918242 -0.11183919 -0.04455921 0.076596685 -0.12632906 -0.08033858
-0.12356066 -0.09956901 0.12127416 -0.07349787 -0.018874986 -0.0013819024 0.0014868128 -0.025558956
-0.0002624997 -0.048216928 0.01231588 -0.0026478574 0.048239894 0.011635276 0.063014925 -0.006357383
-0.046316467 0.0039565386 0.014210041 -0.03422141 -0.01956656 0.04097484 0.04303992 -0.05332826
-0.001918467 0.06924661 -0.05432916 -0.010025293 -0.05248015 -0.060729023 0.02338147 0.03985851
-0.05011149 -0.011819036 -0.109899096 -0.039846167 -0.019212646 0.0083690705 0.0044384175 -0.15120466
0.09840013 -0.027972622 -0.11939285 -0.12842986 -0.028131992 -0.063283205 -0.19230486 0.11141557
-0.11829997 -0.1947423 0.15066881 -0.034349024 -0.14345473 -0.019407723 -0.09611884 0.121687256
-0.051170662 -0.14348705 -0.061013132 -0.08095888 0.17891045 -0.0122803915 -0.16180816 -0.019002646
0.15448272 -0.11008488 -0.044706315 0.13851024 -0.07248251 0.12694037 -0.092768855 0.11719659
0.108238235 -0.03630614 -0.1570097 -0.041987173 0.040712476 -0.0116766635 -0.12859322 -0.15639381
0.07946183 0.119138606 -0.06107025 0.011275968 -0.060059223 0.10316281 -0.11550274 -0.09901363
-0.063499786 -0.036452554 0.024169438 -0.16738352 -0.064712 -0.07076428 -0.046445403 -0.009983033
0.0024100847 0.05899762 -0.102119535 -0.0121556055 0.11190091 0.0016698157 -0.13452817 0.08989667
-0.1485731 0.015115624 0.118947245 0.009535594 0.0678097 0.11104633 0.072217114 -0.027538113
0.045504272 0.1462324 0.006954815 -0.11176844 0.12390436 0.12587559 0.094608 0.062484518
0.080611825 -0.11426231 -0.059293702 0.08693763 0.041864865 0.07631203 -0.041414533 -0.1486717
0.08921788 -0.11353637 -0.13353044 0.19600447 0.07697275 0.086531036 -0.08208963 0.22661597
0.017323693 -0.10044389 -0.008759792 0.15869765 -0.07678598 0.16815332 0.18327728 0.014965901
-0.051208105 0.0044411523 0.13858542 -0.11443942 -0.04747449 0.07939934 0.009931848 0.17211899
0.01943695 -0.0017834294 0.04612893 -0.026649002 -0.1561178 -0.02338479 -0.13836564 0.15585157
0.00042161605 0.053920854 0.009870365 -0.07007471 -0.10577787 0.040269997 0.074652694 -0.12829381
-0.109845854 0.13913742 -0.1021681 0.07441484 0.14485343 0.14119257 -0.077110626 -0.008366841
-0.11927133 0.036661975 0.011925918 -0.04233323 0.017640304 -0.03139664 0.117987014 -0.022788156
0.12563209 0.083110824 0.04115704 0.033380624 -0.06833534 -0.10397814 0.08411631 0.1085659
0.034593996 0.14601825 0.09547142 0.034333214 -0.024380691 0.0161988 -0.13022302 -0.14586243

g.2.bias f4 [30]
00000000: 652b 563d e32e 473d e632 e8bd 30d2 5dbd
00000010: 28d2 f5bd 338b 0fbe b57b 9a3d 5067 773c
00000020: e6c0 203e 1640 71bd b43f eebd e0ad 28be
00000030: 88ef 52bc 1956 a6bd e2e9 723d dd82 0f3e
00000040: 98bf e73d f7ff abbc 2ead d0bd e8b9 b0bd
00000050: 5b9f cf3d ffa1 b73c 857b 893c b773 2abe
00000060: fa88 523d 1685 be3d bee9 dd3c 6f5a 6ebb
00000070: e3da 83bd 4d8e 12bc
0.052287478 0.0486287 -0.11337833 -0.05415553 -0.12002975 -0.14017944 0.075431265 0.015100315
0.15698585 -0.058899008 -0.11633244 -0.16472578 -0.0128744915 -0.081218906 0.05930508 0.14014764
0.113158405 -0.020996077 -0.101892814 -0.08629209 0.101378165 0.022416113 0.016782532 -0.16645704
0.051400162 0.09302728 0.027088996 -0.003636982 -0.06438234 -0.00894506

g.4.weight f4 [1, 30]
00000000: ed92 00b9 d5c4 c4b9 0247 b4ba 5bf9 0f3e
00000010: 0891 60bb f66e 4c3a 5515 7ebd 27c4 05bc
00000020: 3f16 e1b8 0436 8ebd 2bfd aaba 0d67 403a
00000030: 21b2 a4bc 5705 12bb 3398 5039 6bfc d33d
00000040: b598 933a a322 a73d ba65 5e3d 087d a9ba
00000050: bf24 66ba b32e eb3a 66ee 0eba 7bbf f13a
00000060: b602 b5ba a631 ab3b 071c 10bb b907 c6bb
00000070: 828f 7e3a cb4a a3bd
-0.00012261765 -0.00037530684 -0.0013754072 0.14059965 -0.0034266133 0.0007798517 -0.062032063 -0.008164442
-0.0001073298 -0.069438964 -0.0013045421 0.00073395745 -0.02010447 -0.0022281015 0.00019893124 0.10350879
0.001126072 0.08160903 0.054296233 -0.0012930939 -0.00087792793 0.0017942995 -0.0005452394 0.0018443906
-0.0013810012 0.0052244244 -0.0021989362 -0.006043401 0.00097107154 -0.0797325

nn_fun1.0.weight f4 [30, 1]
00000000: 7bb1 213e f0b3 803f 9878 a0be 687b b33c
00000010: abf3 7fbe af85 19bd 168e 03bf 8ec4 013f
00000020: bc3f 293f e50c 993e 9a41 023f 865b d63e
00000030: 055b 053c 4cd2 37bf 70ac b63e 4574 c4be
00000040: 293c 943e d406 4cbf cf42 6abe d4e0 0ebf
00000050: e62a 63bf c31b 69bf ffa6 473f c80a 273d
00000060: d180 6bbf cc02 4cbd da98 10bd 2f05 3f3f
00000070: e9ef 863f 3c97 66be
0.1579036 1.0054913 -0.31342006 0.02190943 -0.24995296 -0.037481006 -0.5138868 0.50690544
0.66112876 0.2989265 0.5088135 0.41866702 0.0081393765 -0.7180526 0.35678434 -0.38369957
0.2895215 -0.7969792 -0.22877048 -0.5581181 -0.8873733 -0.91057986 0.7798919 0.040781766
-0.91993433 -0.049807355 -0.03530202 0.74617285 1.0541965 -0.22518629

nn_fun1.0.bias f4 [30]
00000000: 573d d8be 4ca1 07bf b373 5dbe 51a1 fabe
00000010: 6629 4c3f 8ebf 68bd 82be d63e 3c8e 8b3e
00000020: 22f8 1e3d b57a dd3e e9c8 3d3f dd97 a53e
00000030: 8c4d bc3e 4e84 45bf 8bfe c4bd 8d20 3e3d
00000040: af90 203f 96f1 bf3e 3339 393f 3f70 2a3f
00000050: 3ecf c6be 7696 713e 29c2 4e3f 05c7 9b3e
00000060: abed 033f 4278 0d3e 7cf1 5abe a06f ce3d
00000070: 23d2 28bf 9bd0 593f
-0.422343 -0.52980494 -0.21626167 -0.489512 0.7975067 -0.056823306 0.4194222 0.27256954
0.038810857 0.4325768 0.7413469 0.32342425 0.36777914 -0.77155006 -0.09618863 0.04641776
0.6272077 0.37489003 0.72352904 0.66577524 -0.38829988 0.23592553 0.80765015 0.30425277
0.5153453 0.13815406 -0.21381181 0.100798845 -0.65945643 0.8508393

nn_fun1.2.weight f4 [30, 30]
00000000: b939 e73b a905 e43d 3e8c c5bd c5aa 01be
00000010: b502 903c bd91 f5bc d9e9 65bd 0b79 b63d
00000020: 73f0 85bd fc40 063e 400f 10be 2f72 223d
00000030: de2b 97bd e236 c93c 1ac5 0eba c7ed 87bc
00000040: 04ae 2e3d 6159 62bd 8515 92bd 90ce fdbd
00000050: 0fa9 903d e290 f2bc 8421 7e3d 1edd bbbd
00000060: 51d0 f5bd e044 e0bd 9ff9 92bd c007 813b
00000070: 7400 343c 10d2 873d 0e58 a7bd 5889 793e
00000080: 59bf bfbd 6d0a 2abe d9f7 063e c8b7 00be
00000090: fc1c da39 76bb 80bb 7680 53bc 80ae dd3b
000000a0: 5a03 31be 6644 303e 5a6b f2bd 5fa3 d53d
000000b0: bd92 1f3e 7b04 d1bd ef8a 413a 030c 14be
000000c0: fc4a 9fbd a9a8 26be 5fb4 0cbe 9132 0abe
000000d0: 150d 42bd 532a e0bc 0156 64bc 51ce 93bc
000000e0: 0c86 2ebe 3888 2dbd f207 d83d 3760 7a3d
000000f0: d7ef 773d f8da 5dbd 3005 ce3d 47fb 04be
00000100: 52fb f6bd b714 40bd fab7 e73c be0d 003e
00000110: bb20 c9bd 5b29 d6bd 9508 f43b bf76 473d
00000120: c177 04be e83b a4bd babf 36bc bfcb 383d
00000130: 133f e43c efe1 6bbd 7920 c3bd d0c8 003d
00000140: ca52 4abd 235c dfbc 7590 23bd e0f7 00be
00000150: dff4 293d 0084 18bc 0c2c bbbb d2d0 183c
00000160: ef0f a2bd ce12 1e3e 0105 4abc 2461 c43d
00000170: 7f7c 843d c0ae 933c e7c7 13be a8dc a7bd
00000180: 3b86 b2bb c6cb 983c 8319 833d 4082 b4bd
00000190: 5abe b43d efe3 dc3d e178 51bd 10c1 dcbc
000001a0: 7430 473a 5ae5 f0bc 5fc8 573d b334 09bd
000001b0: 48d1 ff3c f82e 413d ef58 14bd 006a 98bc
000001c0: a6e6 b83d 9e9a f2bd 9a9f 023d 4e7e 1c3d
000001d0: 3df6 0bbc 1daa eabd f3f3 ef3d 3b5b ff3c
000001e0: 2ec0 a6bd 4d9c af3d bb0a 373d c243 2b3e
000001f0: 4c29 be3d e167 b73c be97 2bbe 5b17 173e
00000200: 5214 1f3e f94d 31bd 7788 17bc 8f4d daba
00000210: c1fa d6bb 3c7c bb3d cba2 b23a f82f 04be
00000220: 6cca 793d 327c d3bd 509c 5c3d 4fbd 9f3d
00000230: 5920 b7bd b3d9 bc3d edbd 133c bff0 a6bd
00000240: a040 0d3e de0d ea3d de39 f53d c749 e7bd
00000250: 433f 00be ac16 1bbe 24b7 e73d 3dfe 2e3e
00000260: fc4d 05be ea0e 873d adbd 213d df5b c6bd
00000270: 80c0 27bb 961e b0bd 37ff 8ebc 10a8 b13d
00000280: 1a66 223d 25df ebbd d161 553d f6a2 51bd
00000290: cee9 0f3e 6017 68be 3b66 b13c dd45 50be
000002a0: adb9 cfbd 70ae 263d d25d 3bbc 9de7 63be
000002b0: 1793 2e3d 1895 c53d 2ff9 fbbd 1f09 4bbd
000002c0: da74 b43c 7731 a03d e02d db3d e181 023e
000002d0: ba02 99bc cd01 48bd fd13 aabd 1d65 d0bc
000002e0: 2164 0e3e 57e9 22be 265d c6bd fe5a 38be
000002f0: e620 dd3d eb37 09bd 989a 1e3e a278 ecbd
00000300: 0378 49bd fce8 043e 33de f2be d85c a6bd
00000310: 9d58 07be e3e7 fb3d 8594 2fbe e54d 3f3d
00000320: 4121 353e bba0 2d3e 35dc 34bd 5ed6 21be
00000330: fb04 513d 2fde 0d3c f0db 273d 5660 cbbd
00000340: 1825 3dbe f02d bdbd 2322 e83d 3c4c 62be
00000350: faf6 063d 9136 20bd 98f0 80bd 9f4c b03b
00000360: 84e8 293e d7b8 ed3d 97a6 a4bd f471 3ebd
00000370: c3a0 e0bd 5494 ccbd 4064 dabc 42d1 133e
00000380: 1e80 b7be 2a22 4fbd d644 5cbd c0dc 98bc
00000390: b3d9 2b3e 3560 163d 6b7a cbbc b817 a13e
000003a0: 874d 37be 020e 60bd 7525 f33d 2a6c 023e
000003b0: f410 173e 6a2b 3dbd 7442 89be 9994 293d
000003c0: e213 40bd fc22 3f3d b909 4dbc 28e6 94bc
000003d0: 87ad c8bc b2df bd3d b77b ed3c 9910 a8bd
000003e0: 78e6 da3b 2291 bb3c bb20 27bd 974f be3c
000003f0: 5f48 a5bd 27c3 57bd 3e52 043a bfe3 d63b
0.0070564416 0.11133892 -0.0964589 -0.126628 0.017579416 -0.02997672 -0.056131218 0.08909806
-0.06540003 0.13110727 -0.14068317 0.039659675 -0.07381414 0.024562303 -0.00054462405 -0.016592873
0.042646423 -0.05526102 -0.07133011 -0.12392914 0.07063495 -0.029610101 0.06204368 -0.09173034
-0.12002624 -0.10950637 -0.07176518 0.0039376915 0.010986436 0.06631863 -0.08171092 0.24368799
-0.093626685 -0.1660554 0.13180484 -0.12570107 0.00041601795 -0.003928597 -0.012909045 0.006765187
-0.17286435 0.17213592 -0.11836882 0.10431551 0.1558332 -0.10205933 0.00073830684 -0.14457707
-0.07777974 -0.16275276 -0.13740681 -0.13495852 -0.047375757 -0.027363932 -0.013936521 -0.018042715
-0.17043322 -0.042366236 0.105483904 0.061126914 0.060531463 -0.054163903 0.10059583 -0.1298648
-0.12059654 -0.046894755 0.028285969 0.12505242 -0.09820696 -0.10457107 0.007447312 0.04869723
-0.12936307 -0.08019239 -0.01115411 0.045116182 0.027862107 -0.057588514 -0.09527678 0.03144151
-0.04939536 -0.027265614 -0.039932687 -0.12594557 0.041493293 -0.009308815 -0.005712038 0.00932713
-0.07913195 0.15436861 -0.012330295 0.095888406 0.06469058 0.018027663 -0.14431725 -0.08196384
-0.0054481304 0.018651854 0.0640135 -0.08813906 0.08825369 0.107856624 -0.05114067 -0.026947528
0.00075984676 -0.029406238 0.052681323 -0.033497524 0.031227723 0.047163934 -0.036217626 -0.018605232
0.09028368 -0.11845897 0.03189049 0.03820639 -0.0085425945 -0.11458228 0.117164515 0.031171432
-0.08142124 0.08574734 0.044687968 0.16725066 0.092852205 0.0223884 -0.16757104 0.14755003
0.15535095 -0.04328725 -0.009248844 -0.0016655194 -0.006560654 0.09154555 0.0013628838 -0.12908924
0.06098406 -0.10326423 0.05386001 0.077997796 -0.08941717 0.0922121 0.00901745 -0.081513874
0.13794184 0.11428426 0.11973928 -0.11293369 -0.12524132 -0.15145367 0.11314228 0.17089172
-0.1301803 0.065946415 0.03948753 -0.09685492 -0.0025596917 -0.08599584 -0.01745568 0.086746335
0.039648153 -0.11517171 0.052095238 -0.051180802 0.14054033 -0.22665167 0.021655193 -0.2033915
-0.10142837 0.0406937 -0.011435943 -0.22256322 0.042620745 0.09647578 -0.123033874 -0.049569245
0.022028375 0.07821935 0.10702109 0.12744857 -0.018678058 -0.048829842 -0.08304594 -0.02543884
0.13905384 -0.15909325 -0.096857354 -0.18003461 0.107972905 -0.033500593 0.1548866 -0.115464464
-0.049186718 0.12979501 -0.4743515 -0.08123177 -0.13217397 0.12300088 -0.171465 0.046705145
0.17688467 0.16955845 -0.04415532 -0.15804431 0.05103014 0.00865893 0.040981233 -0.09930484
-0.18471181 -0.092372775 0.11334636 -0.22099394 0.03295038 -0.03911454 -0.062958896 0.0053802277
0.16592604 0.11607521 -0.08039587 -0.046495393 -0.10968163 -0.09989229 -0.026659131 0.14435294
-0.35839933 -0.05056969 -0.053776585 -0.01865995 0.16782264 0.036712844 -0.024838647 0.31463408
-0.17900668 -0.05470086 0.11872379 0.12736574 0.14752561 -0.04618398 -0.26808512 0.04140148
-0.04689396 0.046664223 -0.012514525 -0.018176153 -0.024496807 0.09271182 0.028989656 -0.08206291
0.006680306 0.022896353 -0.0408027 0.02323131 -0.08070444 -0.052676346 0.00050476554 0.006557911

nn_fun1.2.bias f4 [30]
00000000: 55f5 6f3d 706d 6c3d 2a30 6cbd cb3c 31bd
00000010: a92a 093c 5e9a b9bd 43b2 96bd ef75 97bd
00000020: b110 01bd b3dc 47bd dd1e e03d 6baf 003d
00000030: 7f6c ba3d 5152 dbbd bb61 833d d32a a0bd
00000040: c0d2 c73d f2ea babd 93cd abbd 504a d13c
00000050: 5bf0 a2bd c5bf dd3d 63be b5bc 58ec b03d
00000060: 8f6c 68bd 3402 35bd cd61 23be 5882 323d
00000070: 903c 853c d3f1 8e3d
0.058583576 0.057721555 -0.05766312 -0.043270867 0.008371987 -0.09062646 -0.073582195 -0.07395541
-0.03151006 -0.04879446 0.10943387 0.03141729 0.09102725 -0.1070906 0.06415125 -0.07820668
0.09756994 -0.091268435 -0.083888195 0.02554813 -0.079560004 0.10827593 -0.02218551 0.08638829
-0.056744155 -0.044191554 -0.15955277 0.043581337 0.01626423 0.06979718

nn_fun2.0.weight f4 [30, 1]
00000000: 0a69 523e 554c 4cbe 9892 18be 96f7 ed3e
00000010: 0be6 843f 000e 283e 187d 3cbf 5789 47bf
00000020: e97b 933e 3214 483f e0fe 1bbf b9d3 f23e
00000030: 0a1f 583f bf1e 683f b21d 9c3e ee25 07bf
00000040: a5fc b23e d164 933c dbdb febe 5630 69bf
00000050: abc3 74be 01ab 383f 6435 423f c964 0f3f
00000060: efcf 3fbf ca18 333f a076 e43e 2e1e 493f
00000070: 5c64 b2be 388c 293f
0.20547882 -0.19950993 -0.14899671 0.46477956 1.0382704 0.1641159 -0.7362838 -0.7794394
0.28805473 0.78155816 -0.60935783 0.47427157 0.8442236 0.90671915 0.30491406 -0.5279225
0.34958377 0.017992409 -0.4977711 -0.9108938 -0.23902766 0.7213593 0.7586272 0.5601316
-0.74926656 0.699597 0.44621754 0.78561676 -0.34842193 0.6622958

nn_fun2.0.bias f4 [30]
00000000: 50c6 8fbd 5034 9f3e 7246 54bf dff8 12be
00000010: 4f88 10bf 3260 6dbe 376b cfbc d3a0 9fbe
00000020: 1963 be3e 5d28 663f 0cb0 4d3e baa5 c8be
00000030: 80f3 71be 59ed 9cbe 9658 cebd c31b 09bc
00000040: 8b89 a73e 015f ac3c c28a 54bf 9107 acbe
00000050: 65a8 a9be e7bb 963e c5bb 4e3f 3aa6 393f
00000060: 9aee 693e d43b f5be 828d 08be cf70 9e3d
00000070: 73fe f33d 40f0 e53e
-0.07020247 0.310946 -0.8291999 -0.1435275 -0.5645799 -0.23181227 -0.025319679 -0.31177387
0.3718498 0.8990534 0.20086688 -0.3918894 -0.23628044 -0.30649832 -0.1007549 -0.008368435
0.32722124 0.021041395 -0.8302423 -0.33599523 -0.33136287 0.29440233 0.80755264 0.72519267
0.22844926 -0.47897208 -0.13335231 0.0773636 0.11913767 0.4490986

nn_fun2.2.weight f4 [30, 30]
00000000: 3817 cd38 e505 f5bc 632f 5fbc 7001 86ba
00000010: 1390 e83c 2267 163c af7e 10bd 8147 7fbd
00000020: 5633 5b3d 1383 a63d 9dd3 2839 3022 2abc
00000030: c31b 7aba 2edd 373a 4cfd a3bc 6ed3 5f3c
00000040: 3559 9ebd d5cb 25ba 1957 36bd 4501 5a3c
00000050: 747f 0abc 2840 fabc e614 92bd c20b e1bd
00000060: 9ab8 7c3a 9de2 8b3c d5ca 1dba 4ff4 293d
00000070: a2e2 08ba 3cce 29bd 476c 1b3c b904 c03c
00000080: 2262 093c 84d5 a73c 726a 96bc c40d b13d
00000090: 40db 853d 17bb c6bd b679 373c 492c 323b
000000a0: 5c1e 2f3e 35e3 04be 0d2b 873c e523 26be
000000b0: 22f6 fe3d e78e 523d ff28 fe3d 54fd 46bd
000000c0: 070a 24bd 97af 023e d4d7 2bbe b060 ccbb
000000d0: 1ca9 0dbe 0b50 03be 7d14 0c3e 56cd 1cbe
000000e0: 7d14 823c 6f73 f0bd 3a01 51bd 2a21 443e
000000f0: 730e 3d3c 5174 95bd 40f4 653a 157d ce39
00000100: a896 0d3e db21 ec3d b776 1b3e 5c0c 2c3d
00000110: baa8 57bc 427d 09bd d1b6 76bb 0f4d 74bd
00000120: f20e 333d 721b 243c c530 ffba 2519 9cbc
00000130: 457f ca3d 0218 21bd a5d1 143d 55fa 5fbc
00000140: e6cf 50bd adb8 1cbe 254e ec3d e2c3 ca3d
00000150: 043d 7fbb 137c fabb e572 86bc 516e 523d
00000160: 0c17 563d 9670 ef3d 5dad d53b cd18 87bd
00000170: 1201 06bd 4ab5 93ba d503 0cbd 6895 6ebd
00000180: 2ef6 c23b 8037 093b 5e7a 283d 7859 07be
00000190: 1491 b6b8 34a8 34bd ccf3 273c b2ba f0b9
000001a0: b513 4cbd 5cee 3bbc c345 803d 24a5 383c
000001b0: e712 d8bd bc96 59bd f70c 433d 63fd 0d3c
000001c0: 0042 00be 423c d73c 0cbd feb8 327a 11bd
000001d0: a916 73bc f6b5 abbc 176e 3b3c da15 163d
000001e0: 713b 72bb a8d9 093e e8b9 c93d 63f9 b3bc
000001f0: 2afc bbbd fad6 0cbe 6440 9d3d 2f90 3cbe
00000200: 6d33 07bd 721d d4bd e66d d13c 2255 b6bd
00000210: 11fc 223c a024 54bd 5e01 bd3d 408f 96bd
00000220: 3670 8e3d 09df a9bc 0e6c c23a 5d0a a93d
00000230: b798 463c 93dd a93d cfc4 de39 3333 dfbd
00000240: 001d 073d e4c5 763d 7baa de3c c97a 1c3e
00000250: e0e3 48bd cf39 043e 4f01 b03d f0cb e13d
00000260: 9601 9dbd 9b81 f03d ad7b a1bd 1527 9ebd
00000270: fc78 be3d 283b 143e 37da de3d fed7 78bd
00000280: b7a6 35be 9879 183e c19b a0bc 14c7 453e
00000290: 00b2 f83b a73e 873d 9c0d c73c 2c89 34bd
000002a0: 4f65 7dbd 6795 aebc ecf5 0cbd 4a16 1ebe
000002b0: c804 393d 22d6 643d 1f27 36be 862d 4abd
000002c0: d4fa 96bd d784 50bc 34f1 babd 04f0 003e
000002d0: 3910 f8bd 8ada 66bd a889 1d3e cfc7 afbd
000002e0: 118c 9d3d 91fd a4bd 5c48 233e f913 f4bd
000002f0: a7d1 a0bd 6521 1dbe fade 803e c457 913c
00000300: 6e7e 22be f35c 81be 01e9 c0bc 4cb7 fabd
00000310: 4ac6 fabd 1902 dc3d 2086 013e bd5c 2fbb
00000320: 1c48 2e3e 7c1b 01bc e016 ec3d 3a86 993d
00000330: c03f c13e 8fa1 443d d1ff 03be 7e0d ef3d
00000340: 2c92 40bc 032c 0fbe 09ff 03be 1cc4 243e
00000350: c434 783d 5c1b 4ebd 88e8 f9bd dd86 f3bd
00000360: eaa0 a23d 3ee1 f8bd e01d 013c c70a 2bbd
00000370: 8fc2 1d3e 3bd8 b13d db19 9cbe 9245 6abe
00000380: 1bb8 f2bd b028 1cbb 8bb5 f4bd 8dc1 25bd
00000390: cc0b b43d fdb9 dc3d 3612 01be a617 1f3c
000003a0: e168 90bc f3c0 d03d 13b3 883e eb46 253e
000003b0: b439 a93d e0c7 3fbe de7d 5d3e 7441 bcbb
000003c0: 02a1 dcba a5a4 91bd 5bbe adbd b16a e9b7
000003d0: ca9f 17bd eaa3 123d d7ed 11bc 986a dabc
000003e0: 5c8c 983d 19b4 e5bd 316b 0fba 5394 893d
000003f0: 33ba ca3b 7529 073a ae8f 8b3d 4793 83bd
9.7794866e-05 -0.029910037 -0.013622138 -0.0010223817 0.028389012 0.009179862 -0.035277065 -0.06232405
0.053515755 0.08130469 0.0001610056 -0.0103841275 -0.000954088 0.00070138543 -0.020018242 0.013661249
-0.07731859 -0.0006324624 -0.044516657 0.013305967 -0.008453239 -0.03054817 -0.07132892 -0.10988571
0.0009640545 0.017075831 -0.0006019299 0.041492756 -0.0005221759 -0.041456446 0.009486265 0.023439752
0.008385213 0.020487554 -0.018361304 0.08645204 0.06535959 -0.09703653 0.011198452 0.002718704
0.17101425 -0.12977298 0.01650002 -0.1622463 0.1244929 0.051405814 0.12410163 -0.048581436
-0.040048625 0.12762295 -0.1678155 -0.006237112 -0.13834041 -0.12823503 0.1367969 -0.15312704
0.01587891 -0.11740767 -0.05102656 0.19153276 0.0115390895 -0.07297576 0.0008772053 0.00039384575
0.13827002 0.11529895 0.15182005 0.042003974 -0.013162786 -0.03356672 -0.0037645588 -0.0596438
0.043715425 0.010016309 -0.001946949 -0.019054959 0.09887556 -0.039329536 0.036332745 -0.013670524
-0.050979517 -0.15304823 0.115383424 0.09900643 -0.003894628 -0.0076441853 -0.016412208 0.051374737
0.052268073 0.11691396 0.0065209107 -0.06596527 -0.032715864 -0.0011269238 -0.034183342 -0.058247954
0.005949757 0.0020937622 0.041132323 -0.13217723 -8.705459e-05 -0.044105724 0.010250997 -0.00045915466
-0.04982348 -0.0114704035 0.06263306 0.011269841 -0.1055048 -0.053122267 0.047619786 0.008666369
-0.12525177 0.02627385 -0.000121468765 -0.035516925 -0.014836946 -0.02096079 0.011439822 0.036641933
-0.00369617 0.13461936 0.09849912 -0.021969503 -0.09178956 -0.13753882 0.07678297 -0.18414377
-0.033008028 -0.10357179 0.025565099 -0.089029565 0.009947793 -0.05179274 0.092287764 -0.073515415
0.06954996 -0.020736234 0.0014833228 0.0825393 0.012121371 0.08294215 0.00042489773 -0.10898437
0.03298664 0.060247317 0.0271809 0.15281214 -0.049045444 0.12912677 0.085939996 0.11025226
-0.07666318 0.1174347 -0.078849174 -0.07722298 0.0930042 0.14475691 0.10881465 -0.06075286
-0.17739378 0.14890134 -0.01960552 0.19314224 0.0075895786 0.06603747 0.024298482 -0.04407613
-0.061864194 -0.021311475 -0.034414217 -0.1543819 0.045170575 0.055868275 -0.17788361 -0.04935982
-0.073720604 -0.012726984 -0.09128037 0.12591559 -0.12112469 -0.05636076 0.15384543 -0.08583032
0.07692731 -0.080561765 0.15945572 -0.11917872 -0.07852488 -0.1534477 0.25170118 0.017742045
-0.15868542 -0.25266227 -0.023548605 -0.12241992 -0.12244852 0.107425876 0.12648821 -0.0026758157
0.17019695 -0.007880088 0.115278006 0.07496305 0.3774395 0.048005637 -0.12890555 0.11672495
-0.0117536 -0.13981633 -0.12890257 0.16090435 0.060597196 -0.05031906 -0.12202555 -0.118909575
0.07940848 -0.121523365 0.007880658 -0.041758325 0.1540625 0.08683821 -0.30488476 -0.22878101
-0.118515216 -0.0023827963 -0.11948689 -0.040467788 0.087913126 0.10777662 -0.12604603 0.009710228
-0.017628135 0.10193052 0.26699123 0.16140334 0.08262959 -0.1872859 0.21630046 -0.0057451073
-0.0016832652 -0.071114816 -0.08483573 -2.7825447e-05 -0.03701762 0.035800852 -0.008906803 -0.026662156
0.074486464 -0.112159915 -0.000547099 0.06717744 0.0061867475 0.0005156019 0.06814514 -0.06424575

nn_fun2.2.bias f4 [30]
00000000: ba4b a23d 7bfe dfbd 64c8 15bc c8f4 ca3c
00000010: 3801 91bd 53ff d3bc f882 29be 21aa 4cbe
00000020: b42a d83d 66f3 61bc f642 edbc 12e7 0ebe
00000030: 61cc a03d 3774 d1bd 7f06 b23d f68a 14be
00000040: ce95 7d3d db74 cdbd aff0 d23d 71f2 13bd
00000050: 48f8 f9bc 19c7 b9bd d106 8ebd 445d be3d
00000060: 365c a9ba 09b9 2dbe d481 813b 04fd a6bb
00000070: 7c40 d23d 6cd4 a5bd
0.079246 -0.1093721 -0.009142015 0.024774924 -0.070803106 -0.025878584 -0.16553867 -0.19986774
0.1055502 -0.013790941 -0.028962594 -0.13955334 0.07851482 -0.10227244 0.08692645 -0.14506134
0.061910443 -0.10032054 0.10299813 -0.036119882 -0.030513898 -0.09071178 -0.06934894 0.09295133
-0.0012921158 -0.16965117 0.0039522443 -0.00509608 0.10266206 -0.08097157

agg.0.weight f4 [1, 30]
00000000: 7d6c ddba dd9c 283d 251b 3c3b 909b 15bb
00000010: a61c bcbd d5c2 2fbd 8271 60bd e6d4 f1bd
00000020: c264 563b 2774 bb3a f638 b1bd 99ba c03d
00000030: 7690 3db8 2d5f 903d ff34 01bd 56a9 113e
00000040: 491a 3e3d 6ac2 2cbe 0a17 73bb 4e74 90bc
00000050: 8034 3c3b edfd 51bd 71ca a3bb e43f 583c
00000060: 0f91 db3c 27cf ba3c 7d04 0e3d 2581 21bb
00000070: 2555 91ba ecf9 6739
-0.0016893294 0.04116522 0.0028702703 -0.0022828318 -0.09185152 -0.042910416 -0.05479575 -0.11808185
0.0032713865 0.0014301584 -0.086534426 0.09410591 -4.519565e-05 0.07049403 -0.03154468 0.14224753
0.046411786 -0.16871038 -0.003709259 -0.017633583 0.0028717816 -0.051267553 -0.004998498 0.013198826
0.026802568 0.022803856 0.03467225 -0.0024643627 -0.0011087997 0.0002212298
