multiple_model_analysis/results/er_experiment_MM_size_10_11_alpha_0_scale_100_dynwght_False_std_reg_1.0_equiv_reg_0.0/neural_network.pth (torch, 16501 bytes, 14 tensors)

g.0.weight f4 [30, 1]
00000000: be2e 523c 0937 913f 7882 bcbe 9faa a23c
00000010: a5f4 3abf 926e 143f 2ab0 60bf ded7 96be
00000020: 82c6 8fbf dc37 47bf 0c51 6bbf 859c 5fbf
00000030: 3bc2 09be 849b 90bf ab8a bc3e 2f91 873d
00000040: 6c06 843f 2763 64bf e7a1 c9bc c4a2 38bf
00000050: e65e 2bbf 5925 8e3e 1576 883f 3bd7 353f
00000060: 8134 23bf b9f7 213f 9637 803f 54d6 383e
00000070: f081 283f 4f42 643c
0.012828527 1.134492 -0.3681829 0.01985675 -0.7302955 0.57981217 -0.87768805 -0.2946157
-1.1232455 -0.7781961 -0.9192054 -0.87348205 -0.13453 -1.129746 0.36824545 0.066194884
1.031446 -0.89213794 -0.024613334 -0.7212336 -0.6694168 0.2776287 1.0661036 0.7103154
-0.6375199 0.6326862 1.0016963 0.1805051 0.6582327 0.013931825

g.0.bias f4 [30]
00000000: c7f6 9ebe 4497 d6be 8f34 05bf b313 12be
00000010: b25b 263f d8e6 89be dedd 65be c9ac 40bf
00000020: 8b33 213f 9e18 9cbd 1eb9 3e3f 736d 2c3f
00000030: 7d9d 9dbe 7983 473d 632b b53e 0a01 2b3f
00000040: 4ad5 00be 1beb 88be be69 d93d d229 f83e
00000050: 8d0b d9be b80b 583e 8435 3cbf 636b 633e
00000060: 5d5b 733e 3a8d 5ebe 2bf4 c3be 2f33 543d
00000070: 35af 623c 5576 41bf
-0.3104765 -0.41912282 -0.52033323 -0.14265327 0.64983666 -0.26933932 -0.22447917 -0.7526365
0.62969273 -0.07621883 0.74501216 0.67354506 -0.30784217 0.048709366 0.35384664 0.6679846
-0.12581363 -0.2674187 0.10615872 0.48469406 -0.42391625 0.2109822 -0.7351916 0.22208934
0.23765321 -0.21733561 -0.38272223 0.051806625 0.013835718 -0.75571185

g.2.weight f4 [30, 30]
00000000: db4d a53d e10d 043e 1ad0 b0bd c6e0 1a3e
00000010: 874c 1ebe 4257 983d 7102 12be 542f 1dbe
00000020: b2e2 a33d 7c3d 8a3d c800 3abe 1284 1bbe
00000030: e06b 92bd da68 aebe e41c df3b 9941 133e
00000040: 005b 2e3e 6811 ebbd 7857 8fbd 8284 ff3b
00000050: e733 ffbd d3d8 17be e635 fe3c 1d2c b23c
00000060: 386a 04be b4c8 cdbd 6a32 623e d90e 233b
00000070: d3ad b63d 288c 7abd 8754 243d 5ed7 c8bd
00000080: edba 7c3d 9b22 b3bd 27a0 52bc 7a09 59bc
00000090: ff8e a7bc 7d1b 9c3d f430 ab3d 675f 543d
000000a0: 939d bf3a a704 4abd 0322 ccbd e4ff 423d
000000b0: fb43 8fbd a9d0 c03c 1599 bebd c3bd fa3c
000000c0: 0b1d b0bd 535a 0b3d 32ed cbbc 66e0 ed3c
000000d0: 5ee7 f7bd 4a44 b83d 03b4 4e3d ab77 ca3c
000000e0: e650 5f3a bfdc dd3d ea6b 0cbd 9739 8e3d
000000f0: 9e2a 2bbe d32e 93bd c578 bc3c 7f40 5cbd
00000100: de1b abbd 8d72 e5bd 8de9 26bd 2a9c e33d
00000110: 87f0 a8bd 4ea7 8ebd 0130 903d 8117 21bc
00000120: 311b fdbd 6d37 abbe b691 e13d 21af 3abd
00000130: b88b 9d3e 7f08 5c3d 5155 a4bd 139c 1fbe
00000140: 9bec 353c 4ff8 1d3e e8e5 bdbb 165f 683e
00000150: 3523 21bd 9633 fe3b a784 2e3e 0ae3 89bc
00000160: 8b40 bb3e e94d 633c ac89 5a3d 7f61 123d
00000170: d765 a3bc 8b9a a13d dfb3 02be b567 18bd
00000180: 1e37 1ebd cf85 51bd 0ea0 e3bd fb50 74be
00000190: f679 7abd f8a9 153e f3bb cbbd 65d2 adbe
000001a0: 8275 2a3e 2cb8 103e 9e4b 2a3e c2cd ccbd
000001b0: 4bab 223e 8c28 193d 9dec 40be 64a4 84bd
000001c0: 0b04 0dbd 7523 9b3c eb7e e5bd 1ff6 663d
000001d0: 3f94 063e 17be 16be b998 b13d fe1f b33d
000001e0: 7dbc 3fbe ef89 f33d e0cc 083d fe27 23be
000001f0: b2e3 82bc e337 363e c6a4 8bbd a2e3 20bd
00000200: 3ee5 21be 9f55 dabd 9868 45be d4a0 d93d
00000210: 706a 21be d5b5 b4be 67fc a73d 8b16 1ebc
00000220: d562 3a3e 4990 e9bc c53c 01bd d491 90bd
00000230: 7bcd fa3d c888 833d b5f8 eb3c 4df6 c63d
00000240: 16c8 263d 0f80 b63d 7d6a 3b3d c155 94bc
00000250: 3e8b 203e f3ac 02be 7cff 10bc 038a 3dbe
00000260: b0fa f23d ea37 ac3d 5968 403d 33f4 56be
00000270: 4272 5c3d 7868 dc3c 5630 923d 262d 753e
00000280: e440 1c3e 0488 af3d 1bb0 233e f175 cc3d
00000290: 629d ef3d 6081 553c 6d78 83bd 5e17 a03d
000002a0: 45bc 09bd c420 3a3e 0c25 263e a268 cdbd
000002b0: 8630 1fbe f1d9 0b3e e77c aa3d 6d01 a9bd
000002c0: 1608 5fbe d575 4bb9 44a1 0ebd 75c7 1a3e
000002d0: d08e 903d 5ead fc3d 50f0 1a3e 6a6c 853d
000002e0: cbee 013d 7482 3e3d 18cf a13d c088 903d
000002f0: ac8d 9fbd db60 dfbd 4485 18be 1f82 56be
00000300: 9427 303e fa81 02bf 8f7c 7c3d 99fa febd
00000310: 6572 dc3e 8963 b3bd 8d5d 263d 95ff 13be
00000320: 3bd8 91bd bfbd 973d 1bd7 f0bc 00c6 a83d
00000330: 5d84 35be 832e 15bd 01c8 4cbd 2e5c 123e
00000340: 1cba a43e 011b 243d f736 a63d 2074 c23d
00000350: 15ef cc3d b86e 973d f40c ccbb 0ccf 053d
00000360: 880b 483d a428 9a3d ba84 c8bd 9526 d5bc
00000370: b5fe 03be d2b7 be3d b363 bf3d c2f3 3d3b
00000380: f09a b53c d22f 123c 8c2b 91bc 682f c53d
00000390: ec6b bd3d 226a 3a3c e135 e4bd f011 aa3d
000003a0: d265 9abd 2458 12bd 0880 8c3d a0aa 4bbd
000003b0: c59d 763d 1c7b 753d 0aa1 0abb 2262 06be
000003c0: d767 88bd 8c37 9dbd 96d7 41be aca1 2d3e
000003d0: b29c 8bbd 16c3 a0bc 29e1 183d 09fb 4fbd
000003e0: e979 5dbd 0bdf 85be fb25 14bd b2fc 24be
000003f0: 3146 b73d 14cf 05bf 2c0a 993d 25e4 21be
0.080714904 0.1289592 -0.08633442 0.15124807 -0.1545888 0.07438518 -0.14258744 -0.15350085
0.08002223 0.067500085 -0.1816436 -0.151871 -0.07149482 -0.3406437 0.006808864 0.14380492
0.17026901 -0.11477929 -0.06999105 0.0077977786 -0.124610715 -0.14828806 0.03103156 0.02174955
-0.12931144 -0.10048047 0.22089544 0.0024880676 0.08919873 -0.06116882 0.040119674 -0.09806703
0.061701704 -0.08746835 -0.012855566 -0.013246888 -0.020453928 0.076224305 0.083589464 0.051848795
0.0014619104 -0.049320843 -0.09967425 0.047607318 -0.06995388 0.023536997 -0.09306542 0.030608064
-0.085992895 0.034021687 -0.024893377 0.029037666 -0.12104677 0.089974 0.05046464 0.024715265
0.00085188297 0.108331196 -0.034282602 0.06944578 -0.16715476 -0.071866654 0.023006806 -0.053772446
-0.083549246 -0.112034895 -0.040750075 0.1111377 -0.08249002 -0.069655046 0.07040406 -0.009832264
-0.12358702 -0.33440724 0.1101412 -0.045577172 0.3077066 0.05371904 -0.08024085 -0.15586881
0.011103774 0.15426753 -0.005795229 0.22692522 -0.039340217 0.0077576144 0.1704279 -0.016831893
0.3657268 0.013873556 0.05335395 0.03573751 -0.019946022 0.07890805 -0.12763928 -0.037208278
-0.038626783 -0.051153 -0.111145124 -0.23859017 -0.061151467 0.14615619 -0.09947958 -0.3394958
0.16646388 0.14132756 0.16630408 -0.10000183 0.15885656 0.037392184 -0.18840261 -0.064766675
-0.034427684 0.018937806 -0.11205848 0.056387063 0.13142489 -0.14720951 0.08671708 0.087463364
-0.18724246 0.11891543 0.03339851 -0.15933225 -0.015977714 0.17794757 -0.068185374 -0.039279588
-0.15810105 -0.10660862 -0.1927818 0.10626379 -0.15763259 -0.35294977 0.08202439 -0.009648929
0.18201764 -0.028511183 -0.031552095 -0.070590645 0.122462235 0.06422573 0.028805116 0.09714947
0.04071816 0.08911144 0.045755852 -0.018107297 0.15678117 -0.12761287 -0.008849975 -0.18509679
0.11864221 0.08409102 0.046974514 -0.20991592 0.053819902 0.026905283 0.071381256 0.23943004
0.15259129 0.08570865 0.15985148 0.09983433 0.1169994 0.013031334 -0.06419454 0.07816957
-0.033626813 0.18176562 0.1622507 -0.10029723 -0.15545854 0.13657357 0.083246045 -0.08252225
-0.21780428 -0.00019403484 -0.034821764 0.1511515 0.07058489 0.12337755 0.15130734 0.06514819
0.03172187 0.04651113 0.07900828 0.07057333 -0.07790694 -0.109071456 -0.14894587 -0.20948075
0.17202598 -0.5097958 0.061642226 -0.124501415 0.43056026 -0.08759219 0.04061656 -0.14452966
-0.07121321 0.07409238 -0.029399445 0.082408905 -0.17726274 -0.03642131 -0.049995426 0.14292976
0.3217324 0.040064815 0.081159525 0.09494805 0.10006539 0.07394165 -0.00622713 0.03266816
0.048839122 0.07527283 -0.097909406 -0.026019374 -0.12890132 0.09312405 0.09345188 0.0028984402
0.022168607 0.008922534 -0.01772096 0.09628183 0.092491 0.011377843 -0.11143089 0.083042026
-0.07538952 -0.03572859 0.068603575 -0.049723268 0.060209054 0.05993186 -0.0021153116 -0.13123372
-0.06660431 -0.0767661 -0.18929896 0.16956204 -0.06816997 -0.019624274 0.037324104 -0.050776515
-0.05407134 -0.2614673 -0.036169033 -0.1611202 0.08948935 -0.522691 0.07472643 -0.15809686

g.2.bias f4 [30]
00000000: f74d 023e b54e 9ebd b27f dc3b 3bbe 293d
00000010: d5b8 b3bc a05e c6bd 1433 48bd c5d6 cb3d
00000020: efe9 d8bb 5290 6dbd 72a8 85bd 14e7 cebd
00000030: 4039 153e e94e 2abe 8f15 65bd b973 023d
00000040: 775f 3b3e 6dc6 2ebe d72e 993c a8dc 86bd
00000050: 7f67 193e dba0 0f3e 4f61 023e c7f6 9abd
00000060: 151c f0bd 6ed5 babd 60e1 9bbd a25e ab3d
00000070: b5fa a5bc b60a 153e
0.12725054 -0.07729856 0.0067290897 0.041441184 -0.02193872 -0.09686017 -0.048876837 0.099530734
-0.006619684 -0.057998963 -0.06526269 -0.101026684 0.1457262 -0.16631664 -0.055928763 0.031848643
0.18298136 -0.17067881 0.018699093 -0.065850556 0.14980887 0.14026205 0.12732433 -0.075666
-0.11724106 -0.0912274 -0.07611346 0.08367659 -0.020261148 0.14554867

g.4.weight f4 [1, 30]
00000000: 19f8 92be fa1d 243b f3ad f2bd 04ef 31be
00000010: f026 28be 36cf 3d3e 5d0e 2ebe 0e5e 46ba
00000020: 4455 25be b691 96bd 4d77 273e 3b0e 90bc
00000030: 76fe 2fbe c0b3 063e 2cba 9abd 3c59 94bd
00000040: 297d f0bd a583 853d bd0c 013e b8f3 9cbc
00000050: 7be7 b5bd a121 1abe f0f8 18be 760f c2bc
00000060: e663 c0bd 02c0 da3a 80da 743d 5cc4 31be
00000070: 4be0 8e3c 7364 03bd
-0.28704908 0.0025042281 -0.118495844 -0.17376333 -0.16421103 0.18536076 -0.16997667 -0.0007567116
-0.16145808 -0.07352011 0.16354103 -0.01758491 -0.17186913 0.13154507 -0.07555041 -0.072435826
-0.117426224 0.0651925 0.12602516 -0.019159183 -0.08882042 -0.15051891 -0.14938712 -0.023689013
-0.09394054 0.0016689303 0.05977869 -0.17360061 0.017440936 -0.032078218

nn_fun1.0.weight f4 [30, 1]
00000000: 7a53 113e 4c1c 183d 5ea1 943e edce f6be
00000010: 66bf d83e 46e4 8cbd bc99 4a3c b073 c6bd
00000020: ece1 053f 9138 553e 8eca f13e 4a3c a2be
00000030: d9e6 7f3e 8792 66bf 637c 6c3d 4894 7fbe
00000040: 3638 e2be 56de 47bd c626 243e 3be5 22bf
00000050: 9cfb 953d 92cb 083e 16b2 243f 5d8f 62bf
00000060: 9460 303f d9a1 c73d ba41 9d3f 2031 8cbf
00000070: 830c f03e f255 4abe
0.14192 0.03713636 0.29029363 -0.48204747 0.42333525 -0.06879477 0.012365755 -0.096900344
0.52297854 0.2082236 0.4722485 -0.31686622 0.24990405 -0.90067333 0.057735812 -0.24958909
-0.4418351 -0.04879602 0.16030416 -0.6363103 0.07323381 0.13358906 0.6433424 -0.88500005
0.68897367 0.09747667 1.2285683 -1.0952492 0.46884546 -0.19759348

nn_fun1.0.bias f4 [30]
00000000: bb88 a93e b9b0 09bf 52c5 09bf 6c1c 8d3e
00000010: 6164 19bd 870b 1cbf dce7 19bf 2343 0cbf
00000020: bba5 473e 529e 8f3e a881 dbbe ed71 043f
00000030: d363 003f aca8 df3d 6554 0ebf 7ee3 25bf
00000040: 5b3e 85be c546 f4be c3ab 413e 337f 083f
00000050: 7e2e 273f a8dc e8be 2bcf d3be bd8a ea3d
00000060: 6781 2abe a569 0c3f fd95 4dbf d0dd d93e
00000070: 39ca d23c 24f2 3b3f
0.3311213 -0.5378528 -0.5381671 0.27560747 -0.037449244 -0.6095509 -0.60119414 -0.5478994
0.19496815 0.28050476 -0.42872357 0.51736337 0.5015232 0.109208435 -0.55597526 -0.6480025
-0.26024136 -0.47710243 0.18913178 0.5331909 0.65305316 -0.45480847 -0.41368994 0.114522435
-0.16650926 0.548487 -0.8030699 0.42552042 0.025731193 0.7341635

nn_fun1.2.weight f4 [30, 30]
00000000: 3987 0dbd 91a0 303d b29b 933c 98f7 99bd
00000010: 33d0 a7bd 2ff0 b33d 18d8 c3bd 72fb da3d
00000020: a71c 063d ab07 093d 578a a23d 3538 06bd
00000030: e55c 01bd 3aae aa3d 51ea 6f3c cea5 853d
00000040: ee17 c33d fa1e 023e 13d6 df3d ffad 8b3c
00000050: d1b7 02be 0c28 a5bd b643 26bd 30b0 343d
00000060: 3e93 eabd 0571 3bbd 71e3 cb3d ddfd 85bd
00000070: 7b1c f2bb 861d 643d e8c5 463b 76f3 133c
00000080: b475 a23d 1184 e33c c8c3 be39 a194 e2bc
00000090: 7858 7bbd c776 7b3d 3004 35bc dd17 dfbc
000000a0: e586 f7bc 2274 73bb 48f1 893c a71d 163b
000000b0: f159 723c f82c 8abd 603e 603c 5fae 26bd
000000c0: 5db6 2a3c ed74 82bd 8d05 3f3c 7144 77bd
000000d0: 14b5 3b3d a0af e33a 8698 65ba d642 5cbb
000000e0: b65f 01bb 1fed 2fbd aed0 0f3a 2741 d2ba
000000f0: 9305 593d 8d70 903d e1f8 c93d 4cfe 783d
00000100: bccc a4ba 44fc 81bd 0af1 4d3d 6a80 39bd
00000110: 47dc f4bc 6051 9cbd 261f 893d 984a a7bd
00000120: faba 4b3d f46a b83c 4acf 9b3d c840 cc3d
00000130: 1cfc 1c3d 7499 0abd 9f26 7d3c f7a2 a93d
00000140: 11ec 8a3d c6f9 69bd b138 493d 8908 423b
00000150: 5497 203d 92d7 86bd eb2a 12bc 7c5a 023d
00000160: e9ef e4ba a098 103c 1ca8 9a3d 6d6f 09bc
00000170: d9db 17be 33e9 59be 26ff f23b baae 18be
00000180: 03f0 a43d 87f8 4abd b18f 2d3c 7ebd f43d
00000190: c007 3c3d 42b2 14be 4004 4e3d 0a5e a2bd
000001a0: 9e9b 82bd 82b7 c73c 71e6 d3bd bee9 0fbe
000001b0: d133 acbd 2d91 e4bd 00d2 d53d 3ea2 1d3e
000001c0: ffaa b2bd a6c7 64bd ff36 663c 7cf5 12bd
000001d0: 5975 2c3d 70b2 a4bc 8da6 ee3d 0f4e 34be
000001e0: 9844 6c3d aaec 47be c219 143e e002 543e
000001f0: 9cc0 03be f8ea 8d3d 1ebc d93d 80e5 e3bd
00000200: b082 ea3a 4269 8abd bd5e 0bbe 70b6 3cbd
00000210: 48cc 9cbd 5a8e 1d3d 8e77 fbbc dd9c 283e
00000220: a182 5e3d 5057 c6bc 19c8 14be 6454 c63d
00000230: a645 263e 3442 09bd d6a2 f83d b19d 793e
00000240: 4e28 a9bc 1f09 08be 294a 9abd fa73 b23c
00000250: f1df 2ebd ec65 4abd 7378 19bb 2122 8bbc
00000260: 61c9 24bc a7c8 dbbb 83b0 023b 7ffc 133b
00000270: 6d61 b83c 8475 de3c 0683 4f3b 3b6f 22bc
00000280: 1ee5 84bb 2c91 07bc a80c a23c ce1b 89bb
00000290: 576b 6e3c 3a87 873c b9f6 0fbc 28d8 993c
000002a0: c9fa bfba 7a0c 9cbc 0b4c ed3c b915 5b3c
000002b0: 6e06 183c 2d1c 88bb 61a5 783b 6fa9 9bbb
000002c0: 36ca c73b c3c8 24bc 7e16 0c3b 0f9e 88bb
000002d0: baeb c7bc 00d5 de3d 5922 90bd c53a c9bd
000002e0: c8e0 b13d b078 58bd ba56 e4bd 4e1f b63c
000002f0: 27a1 883d b5f1 27bd d865 e03c dc93 0e3e
00000300: 9077 673d c82a 8abc 72ba 193e 01bc 8dbc
00000310: f262 9cbd f09a b63d 28c2 17be 6867 0c3d
00000320: 7f2d 703d 455e ef3d 53f4 533d f18b a93d
00000330: 615b 093e 7402 9a3d ba5e e7bd 83ec 183c
00000340: 7bb2 653d 60ec 003e 5302 c83c d4e5 5bbd
00000350: 8c6f 7b3d 1b52 6b3b 120f 1d39 03e5 51bd
00000360: 406f e83c 37c8 6a3d 0809 a83b 9c3e 8e3c
00000370: 6e68 f6bc ee8a 6ebd d374 8bbc e135 38ba
00000380: f68b 00bd 2706 64bd cb96 5d3c 1253 9e3c
00000390: 3b4b a33b 8bd5 12bd cf47 4fbd 13f5 9d3b
000003a0: 376d d63c 2ecb a4b9 21a0 103b f1b8 9abc
000003b0: 53cf a23c 977c 81bc e726 dd38 22e8 423d
000003c0: ce44 1a3c 2a7f a3bc 264b 133e fa50 8bbd
000003d0: b21b 96bc 5ff3 0e3d 88bf 37bd 2560 e43b
000003e0: 9483 e1bd f799 7bbb 9e96 a13d 480a e33d
000003f0: 86fe c63d 7092 be3d 676d 123e 44df c13d
-0.034552786 0.043121878 0.018018577 -0.07517928 -0.08194008 0.08786046 -0.09562701 0.10692491
0.03274217 0.03345458 0.079365425 -0.032768447 -0.03158273 0.08334012 0.014643268 0.06525765
0.095260486 0.12707129 0.10929503 0.017050741 -0.12765433 -0.08064279 -0.040591918 0.044113338
-0.114538655 -0.04576208 0.099554904 -0.06542561 -0.007388649 0.05569222 0.0030330364 0.009030214
0.07932606 0.027772935 0.00036385492 -0.027658762 -0.061363667 0.06139257 -0.011048362 -0.027233059
-0.03021569 -0.0037148078 0.016838685 0.0022905858 0.0147919515 -0.06746858 0.013686746 -0.040693637
0.010419455 -0.06369958 0.011659038 -0.060368005 0.045826986 0.0017371066 -0.00087583845 -0.0033609173
-0.0019740886 -0.042950746 0.0005486113 -0.0016041145 0.05298383 0.07052717 0.09861923 0.06078939
-0.0012573223 -0.06346944 0.0502787 -0.04528848 -0.029890193 -0.076327085 0.06695394 -0.081685245
0.04973886 0.022511937 0.076078966 0.099732935 0.038326368 -0.03383775 0.0154511025 0.08283036
0.06783307 -0.057122968 0.04912633 0.0029607138 0.039206818 -0.065840855 -0.008921365 0.031824574
-0.0017466518 0.008825451 0.075515956 -0.008388382 -0.14829959 -0.21280365 0.00741567 -0.14910403
0.08053591 -0.04955342 0.010593341 0.11950205 0.04590583 -0.14521125 0.050297022 -0.07928093
-0.06377338 0.024379496 -0.103466876 -0.1405401 -0.08408321 -0.111605026 0.10440445 0.15393922
-0.08724021 -0.055854462 0.014051198 -0.035878643 0.0421041 -0.020104617 0.11652861 -0.17607902
0.057682604 -0.19523874 0.14462951 0.20704222 -0.12866443 0.06929582 0.10631584 -0.11127758
0.0017891731 -0.067583576 -0.13610359 -0.046072423 -0.07656151 0.038465835 -0.030696657 0.16466089
0.054323796 -0.024211556 -0.14529456 0.09684065 0.16237506 -0.0335104 0.121404335 0.24376561
-0.020649102 -0.1328473 -0.07533676 0.021783818 -0.042694036 -0.049413607 -0.002341774 -0.016984047
-0.010057778 -0.006707269 0.0019941635 0.002258092 0.022507394 0.027155645 0.003166379 -0.009914215
-0.004055633 -0.008274358 0.019781426 -0.004184223 0.014551959 0.016543973 -0.008786851 0.01877983
-0.0014646883 -0.019048918 0.028966924 0.013371878 0.009278877 -0.0041537494 0.003794037 -0.0047504227
0.0060971035 -0.010057631 0.002137571 -0.0041692327 -0.024404395 0.1088047 -0.07037801 -0.098256625
0.08685452 -0.05284947 -0.11149354 0.022231724 0.06671362 -0.041001994 0.027392313 0.13923591
0.056510508 -0.016866103 0.1501253 -0.017301561 -0.0763606 0.08916271 -0.14820158 0.034278303
0.05863714 0.11687902 0.051746678 0.08278645 0.13413765 0.07519999 -0.112973645 0.009333733
0.056078415 0.1259017 0.02441517 -0.053685978 0.061385676 0.0035907093 0.00014978301 -0.051243793
0.02837336 0.057319846 0.0051280297 0.017363839 -0.030079093 -0.058237962 -0.01702348 -0.00070270716
-0.031383477 -0.05566993 0.013524721 0.01932672 0.0049833334 -0.03584818 -0.05060559 0.004820475
0.026175125 -0.00031431898 0.00220681 -0.018887015 0.01987425 -0.01580648 0.00010545347 0.04758466
0.009415818 -0.019958097 0.14384136 -0.068025544 -0.018323753 0.034900066 -0.044860393 0.006969469
-0.11011425 -0.003839133 0.07890056 0.11085945 0.09716515 0.093052745 0.14299546 0.09466413

nn_fun1.2.bias f4 [30]
00000000: fd97 073e 87bb 29bc bfdc 9b3d e718 893d
00000010: ce29 09be 352f 593d a88d ddbd 5d24 4c3d
00000020: 429a 203e 6802 27be 61e6 e13c 94de b8bc
00000030: 6f96 ea3d 0e9a 80bc f9a6 bfbc 3a4f 4e3e
00000040: a04f 943b 3d97 ea3b e7b1 abbd 7f46 2c3d
00000050: 9d12 403d 682c d73d 597e f93d 07f9 2abd
00000060: 049a 22bd 8af1 073e 6b0a dd3d a8a4 083e
00000070: c282 b7bd 50ee 113e
0.13241573 -0.010359651 0.07610463 0.06694203 -0.13394853 0.053023536 -0.108180344 0.049839366
0.15683845 -0.16309512 0.027575674 -0.022567071 0.11454474 -0.015698459 -0.023395048 0.2014741
0.0045260936 0.0071591423 -0.083835416 0.042059418 0.04689275 0.10506517 0.12182302 -0.041741397
-0.039697662 0.13275734 0.10793003 0.13344061 -0.08960487 0.14251065

nn_fun2.0.weight f4 [30, 1]
00000000: 0e56 043e eb50 ee3d 701e f13d b0f8 83bc
00000010: 3c11 c93b 0981 f5bd 456e 7abd 143a 67bf
00000020: 8fa5 febd 5629 33bf 032a 323f 0d4a e6be
00000030: 2daa 0c3d 7543 e93e e145 ae3e 89ba 20bf
00000040: 261f 803e 2dbf c9bd d07c d93c ade8 9f3d
00000050: 72ce e93d 6b57 213e 60cb 323f 3e6f 46bf
00000060: 152e 38bf 92b4 6dbe 8810 53be 3c50 8e3d
00000070: 299d f53d 1a0f 4f3f
0.12923452 0.11636528 0.117733836 -0.016109794 0.0061360877 -0.11987502 -0.061140317 -0.90322995
-0.124339215 -0.6998495 0.69595355 -0.4497837 0.03434198 0.45559278 0.34037688 -0.6278463
0.25023764 -0.09850917 0.026548773 0.07808051 0.114163294 0.15756004 0.69841576 -0.7751349
-0.71945316 -0.23213413 -0.20611775 0.06948897 0.119928665 0.8088242

nn_fun2.0.bias f4 [30]
00000000: 6f29 673f 5cf6 323f 7095 b23e 63d5 64be
00000010: 1447 423f f9e4 183f a1a1 493f f5cb 433f
00000020: 589c 703f cb1f bf3e 0a7b 43be a003 ea3d
00000030: da4b 4dbf d863 b2be 2455 a8be f27c 193f
00000040: 8316 703d 0cf9 083f 15f4 0bbf 1ee2 53be
00000050: 0a38 0abf 49c9 503f 4b14 16bf e7b8 cdbe
00000060: 052f 623e 0320 e23e 52e0 5ebe 8d69 4d3f
00000070: 7072 71be 0403 36bf
0.902976 0.69907165 0.34879637 -0.22347026 0.75889707 0.59724385 0.7876225 0.7648309
0.9398856 0.37328944 -0.19089904 0.11426473 -0.80193865 -0.348418 -0.32877457 0.59956276
0.05861522 0.53505015 -0.54669315 -0.20691726 -0.5399176 0.81557137 -0.58624715 -0.40180132
0.22088249 0.44165048 -0.21765259 0.8023918 -0.2357881 -0.7109835

nn_fun2.2.weight f4 [30, 30]
00000000: 61ea febd d020 8dbd 25a3 23bd cf7c e3bc
00000010: ff50 a1bd e66d 153e 845f b5bd d527 133e
00000020: 928d f4bc 0625 f13d 27f7 59be 3924 db3d
00000030: beb4 b63c 5046 e2bd 116a 023e 8df6 eb3d
00000040: 2c73 02be c609 c3bc ef05 eabd 8315 453d
00000050: 2c39 4c3e d52d 623d ab1d 213d 9a4f 063e
00000060: 1f02 1e3e 2730 003e 019a 92bd 9563 f5bd
00000070: 48c5 793d da85 edbc 5b02 43bd 4b48 573d
00000080: b46a 16bc 2327 903b 3b48 55bd 3f7c c3bc
00000090: 539d 8c3c 1e36 583d 43d3 0a3c d043 26bc
000000a0: b492 18bb 56e6 5eba a597 31bc 336c 913c
000000b0: 3448 5a3c 066e 42bb af94 6a39 cae7 093d
000000c0: df46 a2bc 574a 543c 360d ecba 8b32 203b
000000d0: e460 bf3c 38d6 f9bb 168d 38bb ceaf a93c
000000e0: 20e1 35bc fe0a 1ebd cdd5 f53b 21d9 5d3d
000000f0: 6644 4cbc 56bb 8cbd 8706 c13b 013e 22bd
00000100: 7936 c9bb 6178 ac3d 0f34 21bd 6a03 ad3d
00000110: b095 b0bd 6886 db3c 0e8e 0bbd f462 313a
00000120: 4ff2 31bd 7e79 bbbc 6ed9 79bd d49b 463d
00000130: cb50 113c 204e b3bd 64d1 06be 8ee1 25bd
00000140: 70c0 bebd 9e09 97bd bf86 9a3d ae4c 30bd
00000150: 4a33 17bd 86c6 7fbd e69c 033d d207 023d
00000160: f7b3 173b ac81 cc38 ff52 30be 166b 7d3d
00000170: 0e10 793c 7eda 753d 0cb6 213e 0703 d03d
00000180: e8ac 0bbd aa96 4fbe a809 c4bc 84c0 03be
00000190: 455b 4d3d 2b96 12bd 6ea5 f5bc 6914 09bc
000001a0: 7088 483e 0508 2f3d 843f 873d 957c 7f3d
000001b0: c347 24be e93f adbd 1020 113d 8d5d 843d
000001c0: ed8a 0c3e 3789 8b3d 4b5c 8abd 0158 063e
000001d0: 07b1 e6bd 08b3 60bd 95ed 4bbd 5665 c2bd
000001e0: 7424 8ebb a0ba d9bd 39b2 a23c 6a7f 80bd
000001f0: 657f d7bd b1d9 fa3d 3dca 6cbd 4293 183d
00000200: 00c7 043e 92e9 fcbc c0b7 373e c5c9 dcbd
00000210: a28e 48b9 bc97 d33d 7ede 0d3e 9cc0 ffbd
00000220: 8016 bd3d c13d 303e dbe8 5f3d c419 a8bd
00000230: 417f 5f3d e56b 1c3e df00 193d c6db 11bd
00000240: aa06 00be a0f5 17bd 208f 44be f501 323e
00000250: dd49 5a3d 5019 5c3d 6bfb 73bd 9d70 1f3d
00000260: 9ff6 b3bb d677 b5bd d4b6 f93d 845d 01be
00000270: 033c 893d 7bbc e33d e53d c3bd 4bc6 8d3b
00000280: 4d4f ba3c cefd 0cbc c1e7 103d 6dd4 febc
00000290: 2557 303d 7513 ac3d d69a 4f3c 7fd9 0ebd
000002a0: 9ff9 ba3d 67d7 553d 9b28 f5bd ea17 3ebd
000002b0: ce09 dc3d 1864 623c b396 19bd d68d 453d
000002c0: 9e7f 943c b824 423d d07f c53d f166 733c
000002d0: 4ebf 3e3d a5be 00be df93 5c3c 85a9 0c3e
000002e0: 7641 f93d 04d8 d2bd d1bd e23d b1c4 bb3c
000002f0: ea7a 5abd 1484 b03c 0a6a 42bc 4be0 8f3e
00000300: 0152 c0bd 398b 3a3d a4f2 963d 5b60 a83c
00000310: d76b 24be 4604 dcbd 9a91 00bd ec50 a0bc
00000320: 4826 dabd f0a4 3c3c 227c efbd fbee 183e
00000330: 1a5f fd3d 7d08 0c3c 7157 c83d 3bb4 c33c
00000340: 3612 1dbe 4965 033d a85e 54bc 8d67 ec3a
00000350: 6778 a33a 9d54 6fba 0778 cd3b fe24 133c
00000360: 9a5a 01bb 0f7b adbb 0268 d3ba 6385 05b9
00000370: e969 3c39 8513 8ab9 761f 18bc 3176 95ba
00000380: 35b9 57ba 5fe4 d8ba e102 aa39 b11e 0f3c
00000390: cf55 08bb 9356 c1b8 63e0 af3b b43c 38bc
000003a0: 3dbf 513b b0e7 1e3a e099 c6b8 2897 3fbb
000003b0: 5941 fcb9 8960 533c 34e6 dbb9 da94 7ebc
000003c0: a61b 923d c18c 2f3b a2b4 2abd 3701 513d
000003d0: 60f4 4fbc 8e75 5b3d b36e 89bd 3633 e03d
000003e0: 0517 eabd 6834 453d 80a1 51bc 85f0 813b
000003f0: 5f4f e4bd 5f20 503d 456a 313d 16a9 b1bd
-0.12447048 -0.06891024 -0.03995051 -0.027769474 -0.07876777 0.14592704 -0.08856109 0.14370663
-0.029852662 0.1177464 -0.21285687 0.10700268 0.022302981 -0.11048567 0.12735774 0.11521635
-0.12739247 -0.023808371 -0.11426913 0.04811622 0.19943684 0.05521949 0.039334934 0.13116303
0.15430497 0.12518369 -0.0715828 -0.119818844 0.060979158 -0.02899449 -0.04760967 0.05255918
-0.009180713 0.0043991967 -0.052070837 -0.023862956 0.017164862 0.052785985 0.00847322 -0.010148004
-0.0023280801 -0.00085029507 -0.0108393775 0.017751789 0.013322879 -0.002966763 0.00022371368 0.033668317
-0.019809185 0.012957177 -0.0018009308 0.0024444188 0.02336163 -0.007624414 -0.0028160266 0.020713713
-0.011101037 -0.0385847 0.0075022937 0.05416215 -0.012467479 -0.06871669 0.0058906707 -0.039609913
-0.006140527 0.08421398 -0.039356288 0.08447917 -0.086223006 0.026797488 -0.03407102 0.00067667593
-0.043443974 -0.02288508 -0.060998373 0.048488453 0.00886936 -0.087551355 -0.13165814 -0.04049831
-0.09314048 -0.07374881 0.07545232 -0.043041877 -0.036914147 -0.062445186 0.032132052 0.03174574
0.002314804 9.751631e-05 -0.1721916 0.061869703 0.015201582 0.060022824 0.15792102 0.101568274
-0.034100443 -0.20272318 -0.023930386 -0.12866408 0.05013587 -0.035787743 -0.02998611 -0.008366683
0.19583297 0.042732257 0.066039115 0.06237467 -0.16043 -0.084594555 0.035430968 0.06463156
0.13724871 0.06813281 -0.06755885 0.13119508 -0.11264234 -0.054858238 -0.049787123 -0.094919845
-0.0043378416 -0.10631299 0.019860374 -0.06274302 -0.105223455 0.122485526 -0.057810057 0.03724981
0.12966537 -0.030873094 0.17941189 -0.10780672 -0.00019126621 0.103316754 0.13854405 -0.12487909
0.09232807 0.17211057 0.054665428 -0.082080394 0.05456472 0.15275533 0.037354346 -0.035609983
-0.12502542 -0.03709948 -0.19195223 0.17383559 0.053293098 0.053735077 -0.059565943 0.038925756
-0.005492046 -0.088607475 0.12193075 -0.1263333 0.067008995 0.11119934 -0.0953329 0.004326617
0.022742892 -0.008605434 0.035377268 -0.031107152 0.043051858 0.08402149 0.012671193 -0.03487539
0.09129643 0.052207377 -0.119706355 -0.046409525 0.107440576 0.0138178095 -0.037497234 0.04823097
0.018127259 0.0473983 0.09643519 0.014856086 0.04656916 -0.12572725 0.01346299 0.13736542
0.12170689 -0.10295108 0.11071361 0.022920938 -0.053339876 0.021547355 -0.011866102 0.2810081
-0.09390641 0.04554293 0.07370499 0.020553758 -0.16056763 -0.107430026 -0.031388856 -0.019569837
-0.10651833 0.011513934 -0.11693598 0.14934914 0.12371655 0.008546946 0.09782303 0.023889652
-0.15338978 0.032079015 -0.012962021 0.0018036232 0.0012471796 -0.0009129735 0.006270412 0.008980988
-0.001973784 -0.0052942107 -0.0016129019 -0.00012733559 0.00017968532 -0.00026335954 -0.009284845 -0.0011403022
-0.0008229197 -0.0016547552 0.00032427072 0.008735345 -0.00208031 -9.219083e-05 0.005367325 -0.0112449415
0.0032004856 0.0006061746 -9.470037e-05 -0.0029234383 -0.00048113873 0.012901434 -0.0004194245 -0.015538419
0.0713418 0.0026786777 -0.04167617 0.05102655 -0.012692541 0.053578906 -0.06710567 0.10947268
-0.11430172 0.04814568 -0.012794852 0.0039654397 -0.11147951 0.05081212 0.043314237 -0.08674829

nn_fun2.2.bias f4 [30]
00000000: 1837 8e3d 6bee 693d 3167 44bd e604 f33a
00000010: a849 e9bd a04d 023d acfc 06be 3726 873a
00000020: dcce 5c3d 8299 f03d 95b5 23bd 40be 6e3d
00000030: 96e0 353d 83df 203e f05b 3b3e e7ff ce3d
00000040: a0bc 66bd b8e0 4f3c 2fdb 08be 153f 933d
00000050: b929 c23d 0aa9 7e3d f593 d93c 8285 17be
00000060: 86ea 11bd 396f 4f3d 3af7 fb3d f93d 57bd
00000070: bbea a1bc 4efd 403d
0.06944102 0.05711214 -0.047949973 0.0018540889 -0.11391002 0.03181231 -0.13182324 0.0010311072
0.053908214 0.11748029 -0.039968092 0.058286905 0.044403635 0.15710263 0.1829679 0.10107403
-0.05633223 0.0126878545 -0.13364862 0.07189766 0.09480614 0.062172927 0.02655981 -0.14797023
-0.03562405 0.05064318 0.12303014 -0.052549336 -0.019765249 0.04711657

agg.0.weight f4 [1, 30]
00000000: 8cd3 bdbc 060a b63a dbed b2ba 18e4 cbbd
00000010: 0ceb e43c 6b21 733b e7af db3d d551 873a
00000020: 9a91 f0bb 3b31 2b3d f171 64bd 9fbf 753c
00000030: e328 993d d292 fe3c ca92 b9bd 1371 58bd
00000040: 0aeb 13bc b0c7 0d3d b974 8cba 4e67 cb3c
00000050: b427 313b ceb6 e5bb 527f 4f3d e841 06be
00000060: 65c8 f5b8 3b2b 233d d683 3b3c febe 95bd
00000070: 3c98 8c3c 2580 eb3c
-0.023172162 0.0013888485 -0.0013651209 -0.09955615 0.02794411 0.0037098776 0.1072691 0.001032407
-0.007341576 0.041794997 -0.055772725 0.014999299 0.07478502 0.031075869 -0.09061201 -0.05284221
-0.009028206 0.034614265 -0.0010715938 0.024829533 0.0027031722 -0.0070103174 0.05065853 -0.13111079
-0.00011719837 0.03983615 0.011445006 -0.073118195 0.017162435 0.028747628
