multiple_model_analysis/results/er_experiment_PD_size_10_46_alpha_0_scale_100_dynwght_False_std_reg_1.0_equiv_reg_0.0/neural_network.pth (torch, 16501 bytes, 14 tensors)

g.0.weight f4 [30, 1]
0	0xbf5a4aef	-0.8527059
1	0xbf3c6cf1	-0.7360373
2	0x3eb18a84	0.34675992
3	0xbea67c9b	-0.3251694
4	0x3f22f319	0.6365219
5	0xbf8f820f	-1.1211566
6	0xbf274a0e	-0.65347373
7	0x3f3ab501	0.7293244
8	0xbf483b69	-0.7821565
9	0x3ea52eb5	0.32262197
10	0xbf4b2a7a	-0.7936169
11	0x3eb23f41	0.34813884
12	0x3f3a691a	0.7281662
13	0x3f069da0	0.52584267
14	0xbf5f5efa	-0.872543
15	0x3eb561b3	0.354261
16	0x3f63aa26	0.889315
17	0x3f23e129	0.6401544
18	0x3f40bc8e	0.7528771
19	0x3ed263c1	0.4109173
20	0x3e5883b3	0.2114399
21	0xbe9c19b7	-0.3048837
22	0x3ef728f0	0.4827342
23	0x3ec9d4c9	0.39420155
24	0xbcd78799	-0.026309775
25	0xbedd3639	-0.4320543
26	0xbde4e8ad	-0.11177192
27	0x3e7090e8	0.23492777
28	0xbb7b0850	-0.0038304515
29	0xbeb9447c	-0.36185062

g.0.bias f4 [30]
0	0x3f2165bc	0.6304586
1	0x3f242c38	0.6412997
2	0xbea58c06	-0.32333392
3	0x3e815197	0.2525756
4	0x3f200825	0.6251243
5	0x3f6136e2	0.8797437
6	0x3f3f6bc6	0.74773824
7	0x3e75a84c	0.23989981
8	0x3ec1ad68	0.3782761
9	0x3f3b1b27	0.73088306
10	0x3ed95ce9	0.42453697
11	0xbe9453c0	-0.28970146
12	0xbf0f48e0	-0.55970573
13	0x3f16f319	0.5896469
14	0x3ebff752	0.37493378
15	0x3f358bcf	0.70916456
16	0xbedc5108	-0.43030572
17	0x3d45de27	0.048307564
18	0x3eb2066a	0.3477052
19	0x3f039e75	0.5141366
20	0x3cf23727	0.029567314
21	0x3f24d847	0.64392513
22	0xbebcd0c5	-0.3687803
23	0xbf6f1728	-0.9339471
24	0xbd71efb8	-0.059066504
25	0x3f040bea	0.5158068
26	0xbeafbbdf	-0.34323022
27	0x3e4436e7	0.19161569
28	0x3e297a6a	0.16550604
29	0x3e9d0850	0.30670404

g.2.weight f4 [30, 30]
0	0x3d6a8bd5	0.05726226
1	0xbd2b1e43	-0.041776907
2	0x3c9878c7	0.018612279
3	0x3deea8c5	0.11653284
4	0x3cacace2	0.02107853
5	0xbda7f230	-0.082004905
6	0x3c8502c8	0.016236678
7	0x3cc51165	0.024056146
8	0x3e4508a1	0.19241573
9	0x3e16735c	0.14692444
10	0xbdb1a728	-0.08674461
11	0x3d852bbc	0.06502482
12	0xbd80acc7	-0.06282955
13	0x3de63f27	0.11242514
14	0x3e346682	0.17617229
15	0xbc8dabd9	-0.017293857
16	0x3d1ab6ae	0.037771873
17	0x3da5d225	0.080967225
18	0xbdae1b06	-0.08501248
19	0x3ddb7c7e	0.107171044
20	0xbdb895a0	-0.09012914
21	0xbe1727b0	-0.14761233
22	0x3dc0bb28	0.09410697
23	0xbd9c2c19	-0.076255985
24	0xbd7dbff4	-0.06195064
25	0xbd83e492	-0.06440081
26	0x3e04bf76	0.12963662
27	0x3c1b7e39	0.009490543
28	0xbda67c03	-0.08129122
29	0xbdccafcd	-0.09994469
30	0xbd9cb95f	-0.07652544
31	0x3e2a91c7	0.16657172
32	0xbda7ae6b	-0.081875645
33	0xbda86c22	-0.0822375
34	0x3c27ce68	0.010242082
35	0x3d88174e	0.0664507
36	0x3d463e34	0.048399165
37	0xbcf91a1d	-0.03040796
38	0xbc88624a	-0.01664843
39	0x3d61cd10	0.055127203
40	0x3e72877c	0.23684496
41	0xbdda9685	-0.106732406
42	0xbd06c584	-0.03290321
43	0xbe38446b	-0.1799485
44	0xbccdc4ac	-0.025118195
45	0x3b7f89fd	0.003899216
46	0x3d8d383a	0.0689549
47	0xbabdb4e0	-0.0014473461
48	0xbe422ba4	-0.1896196
49	0x3e012894	0.12613136
50	0xbd8b94bf	-0.068154804
51	0xbde19c9c	-0.11016199
52	0x3d4a2a4e	0.04935675
53	0x3c68d18d	0.014210117
54	0x3ddca509	0.107736655
55	0x3ceeed06	0.029165756
56	0x3c0ce0fd	0.008598563
57	0x3dceaedf	0.10091948
58	0xbd42179f	-0.047385808
59	0xbc4d5206	-0.012531763
60	0x3e0aa6c3	0.13540177
61	0xbdfd7a7c	-0.12376878
62	0xbde60737	-0.11231845
63	0xbcad6aa1	-0.021169009
64	0xbe33a186	-0.17542085
65	0xbbcc3467	-0.006231833
66	0x3e12d4bd	0.14338966
67	0xbd530450	-0.051517785
68	0x3e5d7f48	0.21630585
69	0x3d2d172f	0.042258438
70	0x3b9653e4	0.0045876373
71	0x3db4a921	0.08821321
72	0xbe55773f	-0.2084627
73	0x3da21dd7	0.07915848
74	0x3daa3a1a	0.08311863
75	0x3d98baa1	0.07457472
76	0xbcf814e6	-0.030283403
77	0xbca95383	-0.020669704
78	0x3d52b723	0.051444184
79	0xbd7809e5	-0.06055631
80	0xbdee6019	-0.11639423
81	0x3e0b8c1b	0.13627665
82	0xbcf998c9	-0.030468361
83	0x3d92e27e	0.07172106
84	0x3d576af9	0.05259225
85	0x3e2160ad	0.15759535
86	0x3de7b9d5	0.113147415
87	0x3cc8364f	0.024439959
88	0x3de24e3e	0.1105008
89	0x3cf3fee7	0.029784633
90	0xbdaee1d7	-0.08539169
91	0xbd3fe567	-0.046849634
92	0xbd305631	-0.04305095
93	0xbe272be4	-0.16325337
94	0xbe521680	-0.20516396
95	0xbe16d9c7	-0.14731513
96	0xbe0234fb	-0.12715523
97	0xbe354ed4	-0.17705852
98	0x3d9ce3cd	0.07660637
99	0xbe528d95	-0.20561822
100	0x3d4ae5e5	0.04953565
101	0x3e453502	0.19258502
102	0xbce32246	-0.027726304
103	0x3d80f9cb	0.06297644
104	0x3d5e2d0d	0.054242183
105	0xbe058600	-0.13039398
106	0x3d34368e	0.04399734
107	0xbce41faa	-0.02784713
108	0xbe1ac308	-0.15113461
109	0xbe3d5cc6	-0.18492422
110	0xbd86a721	-0.06574846
111	0xbda5596f	-0.08073699
112	0x3e3400ad	0.17578383
113	0x3d819092	0.06326403
114	0x3ca91d6f	0.020643918
115	0xbe314bc8	-0.17314065
116	0xbc53c740	-0.012925923
117	0xbc6b55b7	-0.014363698
118	0xbd0c931e	-0.03431999
119	0x3da3377b	0.079695664
120	0x3dce7d81	0.10082532
121	0x3dea70a9	0.114472695
122	0xbdaa5104	-0.08316234
123	0xbd2fe13b	-0.042939406
124	0x3cace3a5	0.021104643
125	0x3d4d0ec6	0.050062917
126	0x3c5ed309	0.013600119
127	0xbd93e1c9	-0.072207995
128	0xbdaa3577	-0.08310979
129	0xbd4344da	-0.047673084
130	0x3db5e785	0.088820495
131	0xbd5a7d45	-0.053342123
132	0xbdafd0ee	-0.08584772
133	0xbd9b8170	-0.075930476
134	0x3df9ef27	0.12203818
135	0xbcd48d63	-0.025946325
136	0x3d1c7b17	0.038203325
137	0xbcbb073a	-0.022830594
138	0x3d99f305	0.075170554
139	0x3dd1d683	0.10245993
140	0x3e2e1102	0.16998675
141	0xbde514c0	-0.111855984
142	0x3df85cd6	0.12127082
143	0x3dd5fb03	0.10448267
144	0xbd8a8fc1	-0.067657
145	0xbe0acb9a	-0.1355423
146	0xbe12397a	-0.14279738
147	0x3c81d8c8	0.01585044
148	0xbd3efa78	-0.046625584
149	0xbdcdf55e	-0.10056566
150	0xbd18d1a0	-0.03730929
151	0x3dbfc0cc	0.09362945
152	0xbdcff0f5	-0.10153381
153	0xbda104d8	-0.07862252
154	0xbe113c64	-0.14183193
155	0x3c9b690e	0.018970992
156	0xbdcb2ea7	-0.099210076
157	0x3d95e3b2	0.0731882
158	0xbe041d13	-0.12901716
159	0x3e3c8732	0.18410948
160	0x3d3c8eb4	0.04603453
161	0xbdb380e8	-0.08764821
162	0x3d86646c	0.06562123
163	0xbdd6786f	-0.1047219
164	0xbdca8ffe	-0.098907456
165	0xbdcbbfe4	-0.099487096
166	0x3e2bbd22	0.16771367
167	0x3e358bd1	0.17729117
168	0xbddef5e5	-0.108867444
169	0xbe041193	-0.12897329
170	0xbd964e46	-0.07339148
171	0x3df84c73	0.121239565
172	0x3d919887	0.071091704
173	0x3d9ae173	0.07562532
174	0x3de556ea	0.11198218
175	0x3dd182c6	0.10230021
176	0x3de154e2	0.11002518
177	0x3c85fd20	0.016356051
178	0xbdb84202	-0.08996965
179	0x3d8ba021	0.068176515
180	0x3dd7a763	0.10529973
181	0x3de3616b	0.111025654
182	0xbcf664ef	-0.030077426
183	0x3d34d6dd	0.044150222
184	0x3d2016ba	0.039084174
185	0xbc285d60	-0.010276169
186	0x3e290289	0.16504873
187	0x3d1c9462	0.038227446
188	0xbdac0a13	-0.08400359
189	0xbdc85150	-0.09781134
190	0xbd401837	-0.046898093
191	0x3cd423b5	0.025895933
192	0xbd90f75e	-0.070784315
193	0xbdc29a03	-0.09502032
194	0xbd79b27c	-0.06096123
195	0xbd3f1d7f	-0.04665899
196	0xbd270c9d	-0.040783513
197	0xbd8ae1b7	-0.06781333
198	0xbd7a34c0	-0.061085463
199	0xbcf63092	-0.030052457
200	0x3d9e2877	0.07722562
201	0x3dbf42ab	0.09338888
202	0xbd7c8fbe	-0.06166052
203	0xbcffea47	-0.031239642
204	0x3d0ca006	0.034332298
205	0xbd8d086f	-0.06886374
206	0xbd660ebc	-0.056166396
207	0x3d802f34	0.06259003
208	0xbd8b2107	-0.06793409
209	0x3d4118f9	0.047142956
210	0xbe0b8156	-0.13623556
211	0x3c97e41c	0.018541388
212	0x3d1a8bee	0.037731104
213	0x3dcaf084	0.09909156
214	0x3e1bade4	0.15203053
215	0xbdf1e6c1	-0.11811591
216	0xbdc0e7f8	-0.094192445
217	0x3d9f203e	0.077698216
218	0xbdd99a58	-0.10625142
219	0xbb290e5a	-0.0025795908
220	0x3c30e133	0.010795879
221	0xbc3c1436	-0.011479428
222	0xbd7d0355	-0.061770756
223	0xbb9d95d4	-0.0048091207
224	0xbda1c82b	-0.07899507
225	0xbd45a487	-0.04825261
226	0x3da184b8	0.07886642
227	0xbdf788d7	-0.12086647
228	0xbc8fa725	-0.017535755
229	0xbb7ea092	-0.0038853032
230	0xbb72bf27	-0.0037040205
231	0x3e2ec847	0.17068587
232	0xbd4f82dc	-0.050661907
233	0xbd7302f6	-0.059328996
234	0x3daf5aa3	0.085622095
235	0xbdf71954	-0.12065378
236	0xbc1b56db	-0.009481157
237	0xbe038d00	-0.12846756
238	0x3dbc4e27	0.09194594
239	0x3d4d4d9c	0.050122842
240	0x3d18a188	0.037263423
241	0x3d402367	0.046908762
242	0x3e4c65e7	0.19960748
243	0x3b8a4e11	0.004220732
244	0xbe0b63a3	-0.13612227
245	0x3e5d4d34	0.21611482
246	0xbda00e80	-0.07815266
247	0xbdddd8ae	-0.10832344
248	0xbdf9d599	-0.12198944
249	0xbd4d1fde	-0.05007922
250	0x3e2a20d6	0.16614088
251	0xbdadc7f2	-0.08485402
252	0xbc89d324	-0.016824313
253	0x3e056516	0.13026842
254	0xbd02d341	-0.03193975
255	0xbdeca3d6	-0.11554687

g.2.bias f4 [30]
0	0xbe0f89ce	-0.14017412
1	0x3dccaa81	0.099934585
2	0xbcafbb46	-0.021451604
3	0xbcadd57c	-0.021219961
4	0x3e1bcbfe	0.15214536
5	0x3e31a1e4	0.17346913
6	0xbbbfb107	-0.0058499607
7	0xbda2032b	-0.079107605
8	0x3e0cb66f	0.13741468
9	0xbdcfe242	-0.10150577
10	0x3e1011b5	0.14069255
11	0x3dc648a8	0.09681827
12	0x3dab6432	0.0836872
13	0x3da62ee9	0.08114416
14	0x3dda1740	0.10648966
15	0xbd13ab0d	-0.0360518
16	0xbd334a74	-0.043772176
17	0x3e0baab3	0.13639335
18	0xbcb307ad	-0.021854246
19	0xbd924f93	-0.07144084
20	0xbe0228be	-0.12710854
21	0x3e18039e	0.1484513
22	0x3d626f42	0.055281885
23	0xbde6b896	-0.11265676
24	0xbc53a84d	-0.012918544
25	0xbd88b880	-0.066758156
26	0x3cada5d8	0.021197245
27	0x3d811975	0.06303684
28	0x3d3db917	0.046319094
29	0xbd985ad5	-0.074392

g.4.weight f4 [1, 30]
0	0x3ce03987	0.027371181
1	0x3c1d978e	0.009618653
2	0x3d4a45c3	0.049382936
3	0x3de9fe84	0.11425498
4	0xbc5ed53e	-0.013600646
5	0xba38f85c	-0.00070560514
6	0x39fc8a50	0.00048168236
7	0xbb04067e	-0.0020145471
8	0x3d75f464	0.060047522
9	0x3daa815b	0.08325454
10	0x37c958e3	2.4002458e-05
11	0xbdcb9efa	-0.09942432
12	0xbdc7c443	-0.09754231
13	0xbdff1231	-0.124546416
14	0xb8e9be0a	-0.00011145703
15	0xbe63e7f7	-0.22256456
16	0x3a7ad7d2	0.0009568903
17	0x3eabad63	0.3353072
18	0xbd087e6b	-0.033323687
19	0xbe137fc1	-0.14404203
20	0xbb94b72d	-0.004538438
21	0xbe46c9fd	-0.1941299
22	0x3abeb99e	0.0014551168
23	0x3de5c838	0.11219829
24	0xbd5fe385	-0.05466034
25	0x3dacbfa4	0.0843499
26	0xb93ced90	-0.00018017576
27	0xbceb3d38	-0.028715715
28	0xba8d5e5c	-0.0010785568
29	0xb9f9cb2f	-0.00047644365

nn_fun1.0.weight f4 [30, 1]
0	0x3e82be90	0.25536013
1	0xbf4239dd	-0.7586954
2	0x3f44f9c1	0.76943594
3	0xbe352fbf	-0.17693995
4	0x3daa9183	0.083285354
5	0x3f431ef5	0.7621911
6	0xbf606ec8	-0.8766904
7	0x3f03b7f9	0.51452595
8	0x3e1d7635	0.15377124
9	0xbd2b353f	-0.041798826
10	0x3f306011	0.68896586
11	0xbdfd6db4	-0.1237444
12	0x3d780ebc	0.060560927
13	0xbeee3c98	-0.46530604
14	0x3d67e7b6	0.05661746
15	0xbf703f75	-0.9384683
16	0x3ddcbbf7	0.10778039
17	0xbef3b200	-0.4759674
18	0x3f1c7496	0.61115396
19	0xbe271cb0	-0.16319537
20	0x3e828eb2	0.25499493
21	0xbe36b66d	-0.17843027
22	0xbf4624b2	-0.7739974
23	0xbee7d261	-0.45277694
24	0x3ef5568b	0.4791759
25	0x3e473cd3	0.19456796
26	0xbcbf5d4e	-0.02335992
27	0xbf33d8b4	-0.7025254
28	0xbe847369	-0.258693
29	0xbd96bd7a	-0.073603585

nn_fun1.0.bias f4 [30]
0	0x3f027732	0.5096313
1	0xbebe1deb	-0.371322
2	0xbda4dc5c	-0.08049843
3	0xbec2a4d3	-0.38016376
4	0xbdaac947	-0.08339172
5	0x3ea8d7c9	0.3297713
6	0x3f4299fe	0.76016223
7	0xbe8a457f	-0.27006146
8	0xbd953db7	-0.07287162
9	0x3f40b8a4	0.7528174
10	0xbed7d64a	-0.42155677
11	0xbebb1971	-0.36542848
12	0x3f1ab984	0.60439324
13	0x3e313024	0.1730352
14	0xbd0737c3	-0.033012163
15	0x3ecab154	0.39588416
16	0xbdebe39a	-0.11518021
17	0x3ec07f9e	0.37597364
18	0x3e71d684	0.23616987
19	0x3d47e80e	0.04880529
20	0xbdf35650	-0.11881697
21	0x3ddbb4b0	0.10727823
22	0xbe80d250	-0.25160456
23	0x3d970d45	0.07375578
24	0x3e955827	0.29168817
25	0x3f03e0fc	0.51515174
26	0x3c01b22c	0.007916015
27	0xbcd854db	-0.02640765
28	0x3e8ecc53	0.27890262
29	0xbe1d7489	-0.15376486

nn_fun1.2.weight f4 [30, 30]
0	0x3dfc3a5a	0.12315817
1	0xbd20d763	-0.03926791
2	0x3da84c1c	0.08217642
3	0x3df1fc4e	0.118157014
4	0xbdb2a958	-0.08723706
5	0x3b46efc5	0.0030355316
6	0xbda65aff	-0.08122825
7	0x3e08a703	0.1334496
8	0x3d6b8436	0.057499133
9	0xbccb7150	-0.024834305
10	0x3e376549	0.17909731
11	0x3e267ed7	0.16259323
12	0x3dfee8bd	0.12446735
13	0xbe025a83	-0.1272984
14	0x3b556756	0.0032562814
15	0xbe10915f	-0.14117955
16	0xbd3a4bfa	-0.045482613
17	0x3d23de74	0.04000707
18	0x3da3f36d	0.08005414
19	0x3d43a147	0.047761228
20	0x3d4724f5	0.04861923
21	0xbc4b5803	-0.01241112
22	0x3dec0a54	0.115254074
23	0xbe0a8a9c	-0.13529438
24	0xbd2b52f6	-0.041827165
25	0xbd4f7458	-0.050648063
26	0x3d89ccbf	0.06728505
27	0x3dcbba84	0.099476844
28	0x3c83b32d	0.016076649
29	0x3d0ceac1	0.034403566
30	0x3d72d18d	0.059281874
31	0xbdcde4dd	-0.10053418
32	0x3d56b6e7	0.052420523
33	0x3db39b40	0.08769846
34	0xbdc137e0	-0.094344854
35	0xbd88bc67	-0.0667656
36	0x3d8a130e	0.06741916
37	0xbcc53c6c	-0.024076663
38	0xbd60d140	-0.054887056
39	0x3da5ecc6	0.081018016
40	0xbcce9160	-0.025215805
41	0x3d88574a	0.06657274
42	0xbe3323ad	-0.17494078
43	0xbd922e31	-0.071377166
44	0xbca34430	-0.019929975
45	0x3d0006f3	0.031256627
46	0xbd19df79	-0.037566636
47	0xbca6fad0	-0.020383269
48	0xbdc69ddd	-0.09698079
49	0x3dc474e5	0.09592608
50	0x3cc3901e	0.023872431
51	0x3c671d08	0.014106043
52	0xbde46d9c	-0.11153719
53	0xbdb10070	-0.086426616
54	0xbd6bc66b	-0.057562273
55	0xbdf6f99d	-0.12059329
56	0xbd74f088	-0.0597997
57	0xbe0197d6	-0.12655577
58	0xbca72e7a	-0.020407904
59	0xbde9c90a	-0.11415298
60	0x3c8491ad	0.016182745
61	0xbe171af8	-0.14756382
62	0xbd1609cc	-0.036630437
63	0xbbfbc5bf	-0.0076834853
64	0x3b3d744c	0.002890843
65	0xbd3ed90e	-0.04659372
66	0xbdfae4b5	-0.12250654
67	0xbb543492	-0.0032379967
68	0x3ac137c0	0.0014741346
69	0x3df7d3e6	0.12100963
70	0xbd89e94b	-0.0673395
71	0x3d4702fd	0.048586834
72	0x3e08b3fd	0.1334991
73	0xbd4c9f37	-0.049956527
74	0x3ac84ec1	0.001528226
75	0x3d80b095	0.0628368
76	0x3cf06496	0.029344838
77	0xbdd7fb9e	-0.10546039
78	0x3d21bd3c	0.03948711
79	0xbd4abee1	-0.049498443
80	0x3bd1906d	0.0063953907
81	0xbbceec1b	-0.006314767
82	0x3c3432f4	0.010998476
83	0x3dfee609	0.124462195
84	0xbdf9ab6d	-0.121909
85	0x3d01dcf0	0.031704843
86	0x3d2b89bb	0.041879397
87	0x3e064a59	0.13114299
88	0x3d20836b	0.03918783
89	0xbc4ab480	-0.012372136
90	0xbd34d388	-0.044147044
91	0x3e372f07	0.17889033
92	0xbd197550	-0.037465394
93	0x3dbf6f10	0.09347355
94	0x3e1bb33a	0.15205088
95	0x3cd528aa	0.026020367
96	0x3dea819a	0.11450501
97	0xbe15c614	-0.14626342
98	0x3c9f0286	0.019410383
99	0xbd902f27	-0.070402436
100	0xbd01f693	-0.031729292
101	0x3d9334e9	0.07187826
102	0x3e1872c6	0.14887533
103	0x3e1f1688	0.15535939
104	0xbbfc82aa	-0.007706006
105	0x3dfe9ad0	0.12431872
106	0xbc3bc0d3	-0.011459547
107	0x3c4a3ca6	0.012343561
108	0xbd9ccaf9	-0.076559015
109	0x3d04aeee	0.03239339
110	0xbd57e26c	-0.052706167
111	0x3dbfe1f4	0.09369269
112	0xbce3a909	-0.027790563
113	0xbe0b0409	-0.13575758
114	0x3dbe51f6	0.092929766
115	0x3e21b88d	0.15793057
116	0xbd99d888	-0.07512003
117	0x3dd92cc0	0.106042385
118	0xbd8ed161	-0.069735296
119	0xbd89647a	-0.067086175
120	0xbdc160ea	-0.09442313
121	0xbde0e57b	-0.1098127
122	0x3dac44cc	0.084115595
123	0xbdc9ef84	-0.09860137
124	0xbce11953	-0.027477896
125	0x3e2017e4	0.15634114
126	0xbe400bcc	-0.187545
127	0x3e6e878f	0.23293899
128	0xbd419304	-0.047259346
129	0x3d240144	0.04004027
130	0x3dcf6102	0.10125925
131	0xbdfcb0cc	-0.12338409
132	0xbd9de0dd	-0.07708905
133	0x3e1a50e6	0.15069923
134	0x3d1a5d7e	0.037686817
135	0xbb91d50b	-0.0044504455
136	0x3e2cdaef	0.16880392
137	0xbe2f1102	-0.17096332
138	0x3d3c6c85	0.04600193
139	0x3da4c391	0.08045114
140	0x3db0f8fb	0.08641239
141	0xbbc609e3	-0.006043659
142	0x3dcc8cc7	0.09987789
143	0xbb94c935	-0.0045405873
144	0x3d8e71ff	0.06955337
145	0x3c6f3922	0.014601024
146	0x3d1d1f30	0.03835982
147	0xbd91e9b0	-0.071246505
148	0xbe376fbe	-0.1791372
149	0xbde9c904	-0.11415294
150	0x3e308537	0.17238317
151	0xbdbd15b5	-0.09232656
152	0xbd541d2d	-0.051785637
153	0xbc8c893e	-0.017155286
154	0xbdcdf22c	-0.10055956
155	0x3db86014	0.090027004
156	0xbd829d7f	-0.06377696
157	0x3eb04b69	0.34432533
158	0xbca75892	-0.020427976
159	0xbe0dc9db	-0.13846533
160	0x3e844e10	0.25840807
161	0xbd792d27	-0.060834076
162	0xbcb3cc37	-0.021947963
163	0xbba4dc2c	-0.0050311293
164	0xbd5c69ba	-0.053811766
165	0xbe8af9b3	-0.2714363
166	0x3de24135	0.110475935
167	0x3d92b8cc	0.071641535
168	0x3a486645	0.0007644634
169	0x3d905e42	0.07049228
170	0x3e751640	0.23934269
171	0xbd97a6dd	-0.074048735
172	0x3dc81dde	0.09771322
173	0xbe508ea5	-0.20366915
174	0xbdabc000	-0.083862305
175	0x3b806431	0.0039181937
176	0xba2959fd	-0.00064602477
177	0xbe215850	-0.15756345
178	0x3c12e95d	0.008966771
179	0xbd505041	-0.050857786
180	0xbd382ab0	-0.044962585
181	0x3d1ba09c	0.037994966
182	0x3d03d93c	0.032189593
183	0x3dedbbdf	0.11608099
184	0xbd98fa79	-0.07469649
185	0x3d2340c5	0.03985669
186	0x3d9c8693	0.076428555
187	0x3c82e716	0.015979331
188	0x3c1e6a47	0.009668893
189	0xbd96c1a3	-0.07361152
190	0xbd32720c	-0.043565795
191	0x3dbc3abb	0.091908894
192	0x3e24241f	0.16029404
193	0xbdd124c1	-0.102120884
194	0x3ad88cf5	0.0016521501
195	0xbd0563a2	-0.03256572
196	0xba7e4fec	-0.00097012403
197	0x3db589c4	0.08864167
198	0x3db511b7	0.088412695
199	0x397f9769	0.000243751
200	0x3c4abb06	0.012373691
201	0x3ba7adf1	0.005117171
202	0x3e035805	0.12826546
203	0xbdf5478e	-0.119765386
204	0x3de43729	0.111433335
205	0x3dfb61ce	0.12274514
206	0x3bbb91f0	0.005724184
207	0x3d6706ef	0.056403097
208	0xbd1f6680	-0.03891611
209	0x3c103dfe	0.008803843
210	0xbe2702ec	-0.16309708
211	0x3dc775cc	0.09739265
212	0x3e04beae	0.12963364
213	0x3df47ff3	0.11938467
214	0x3dd1e142	0.10248043
215	0x3e1c0b79	0.15238751
216	0xbd6e43cb	-0.05817012
217	0x3eccfba0	0.40035725
218	0x3de242fc	0.110479325
219	0xbd2f5aae	-0.04281109
220	0x3e89ae49	0.26890782
221	0xbda0d841	-0.07853747
222	0x3dac2874	0.08406153
223	0x3d907260	0.07053065
224	0x3dafe857	0.08589237
225	0xbe0dabe9	-0.1383511
226	0x3dcf7939	0.10130543
227	0xbd2bc11f	-0.04193222
228	0x3db8cce8	0.09023458
229	0x3bc50ad9	0.006013256
230	0x3e582324	0.21107155
231	0xbd622e63	-0.05522002
232	0xbe333686	-0.17501268
233	0x3c744518	0.014909051
234	0x3e2db6bd	0.1696424
235	0xbe052e40	-0.13005924
236	0xbc5bc125	-0.013412748
237	0xbe1914db	-0.14949362
238	0xbbbead3d	-0.0058189915
239	0xbe3f7979	-0.18698682
240	0xbd65f578	-0.0561423
241	0xbd041ca9	-0.032253895
242	0xbc8a00f6	-0.016846161
243	0x3caeddd4	0.02134601
244	0x3a47ee77	0.00076267816
245	0x3ccc4530	0.024935335
246	0xbacc657d	-0.0015594211
247	0xb98709da	-0.00025756547
248	0xb898b877	-7.282284e-05
249	0xbd119279	-0.035540078
250	0xb991aa56	-0.00027783465
251	0xbbc6dc0f	-0.0060687135
252	0x3c842d92	0.01613501
253	0x39cedcc1	0.00039455856
254	0xb7930f51	-1.7530898e-05
255	0x3b154c22	0.0022780974

nn_fun1.2.bias f4 [30]
0	0xbbafc7b6	-0.0053643836
1	0x3c826f41	0.01592219
2	0xbcdb71aa	-0.026787598
3	0x3dd7bef9	0.10534472
4	0xbe36f3d4	-0.1786645
5	0x3e203488	0.15645039
6	0xbdf9d086	-0.12197976
7	0x3dadce52	0.08486618
8	0x3a29722c	0.00064638513
9	0x3d09a5c6	0.03360536
10	0x3b1d6e11	0.0024021904
11	0xbca9d7ba	-0.02073275
12	0x3d055c51	0.032558743
13	0x3e2c3cf4	0.16820127
14	0x3e1dba78	0.15403163
15	0x3e063d80	0.13109398
16	0xbe15aca3	-0.14616637
17	0x3d58639b	0.052829366
18	0xbded9ae1	-0.116018064
19	0x3d33f4dc	0.043934688
20	0xbde2c42b	-0.11072572
21	0x3df32a74	0.11873332
22	0x3c6de1c8	0.0145191625
23	0x3ce1621c	0.027512603
24	0xbe5afb84	-0.21385008
25	0xbd545027	-0.05183425
26	0xbe225516	-0.1585277
27	0x3dbc27c9	0.09187276
28	0xbc887224	-0.016655989
29	0xbdf5b5a9	-0.119975396

nn_fun2.0.weight f4 [30, 1]
0	0xbf3174dd	-0.69318944
1	0x3f4964d0	0.7866945
2	0xbdfb7390	-0.12277901
3	0xbf47802a	-0.7792994
4	0xbf32b368	-0.69805
5	0xbefaa111	-0.4895101
6	0x3f71edfe	0.9450377
7	0xbf2768d3	-0.65394324
8	0x3ebe3c5c	0.37155426
9	0xbddd8be0	-0.10817695
10	0xbf494160	-0.7861538
11	0x3e96cc3b	0.2945269
12	0x3e545b3d	0.2073793
13	0x3f40c28b	0.7529685
14	0xbf24a705	-0.6431735
15	0x3e8115b4	0.2521187
16	0xbf6f564e	-0.93491066
17	0xbedef7f1	-0.4354854
18	0xbe961afb	-0.2931746
19	0x3e36c2f3	0.17847805
20	0xbedd0ad9	-0.4317234
21	0xbe5c46bb	-0.21511357
22	0x3f2e8c1f	0.6818256
23	0x3efc73bb	0.49307045
24	0xbf5a2344	-0.8521006
25	0x3f5ee083	0.8706133
26	0x3f0a38e1	0.5399304
27	0x3f45457d	0.77059156
28	0x3eae385d	0.34027377
29	0x3e9b93a1	0.3038607

nn_fun2.0.bias f4 [30]
0	0x3f4eae70	0.8073492
1	0xbe76b7c5	-0.2409354
2	0xbeb0e4b2	-0.3454948
3	0xbe8f0643	-0.27934465
4	0x3e156097	0.14587627
5	0x3e3cb19f	0.18427132
6	0xbf3159a4	-0.69277406
7	0x3f01fb9e	0.5077456
8	0xbe848a2f	-0.25886676
9	0xbcefeaaf	-0.02928671
10	0x3ee999fb	0.4562529
11	0xbf557e20	-0.83395576
12	0x3e83e906	0.2576372
13	0x3f22001f	0.63281435
14	0xbef003a8	-0.4687779
15	0x3ea5ffc9	0.3242171
16	0xbf1005db	-0.56258935
17	0xbf035179	-0.5129619
18	0x3eac889c	0.33697975
19	0xbf09b7e1	-0.537962
20	0x3e1d5a22	0.15366414
21	0x3e1694bf	0.1470518
22	0xbf435028	-0.76294184
23	0xbe9fb3b7	-0.311918
24	0xbf33cfe8	-0.70239115
25	0x3f4825d9	0.7818275
26	0xbf1cc6ea	-0.6124102
27	0xbf1b3477	-0.6062693
28	0x3e1e2ffa	0.15447989
29	0xbf25c2bb	-0.6475026

nn_fun2.2.weight f4 [30, 30]
0	0x3dd12801	0.10212708
1	0x3d22cdca	0.039747037
2	0xbda40117	-0.0800802
3	0x3c19d1f9	0.00938844
4	0x3de372dc	0.11105892
5	0xbcf7165c	-0.030162029
6	0xbe1c5882	-0.15268138
7	0x3df51720	0.11967301
8	0xbd28cad3	-0.041209053
9	0x3da1610e	0.0787984
10	0x3e18836a	0.1489388
11	0x3dbd4a4d	0.092426874
12	0xbe0a3b3f	-0.13499163
13	0x3cba042a	0.022707064
14	0xbd572a0a	-0.052530326
15	0x3da67dba	0.08129449
16	0xbc016dd5	-0.007899721
17	0xbd21ebe3	-0.0395316
18	0xbdeefd0e	-0.1166936
19	0xbbd99aae	-0.0066407537
20	0xbac84df8	-0.0015282026
21	0x3cd9fedb	0.026610782
22	0x3d81725f	0.06320643
23	0xbdbc820b	-0.09204491
24	0x3dcc5a7e	0.099781975
25	0x3d86564e	0.0655943
26	0xbe03e48e	-0.12880155
27	0xbe2771d0	-0.1635201
28	0xbd9d83ae	-0.076911315
29	0x3e08a7d8	0.13345277
30	0x3d38bb3b	0.045100432
31	0x3e04d7de	0.12972972
32	0x3dcda562	0.1004131
33	0xbe048b25	-0.12943704
34	0x3c586eef	0.013210042
35	0xbd2cb964	-0.04216899
36	0xbd24ee5a	-0.040266372
37	0x3b7ad38b	0.0038273062
38	0xbc581cc3	-0.013190451
39	0x3c452b54	0.012034256
40	0xbce7021b	-0.028199246
41	0x3e01de7c	0.12682527
42	0x3e1afdff	0.15135954
43	0x3e12a4b9	0.14320649
44	0x3cf6d4a2	0.030130688
45	0x3d8cdb40	0.06877756
46	0x3df66a3a	0.1203198
47	0x3e09fdae	0.13475677
48	0x3e2fb36c	0.17158288
49	0x3e08e7d8	0.13369691
50	0xbd9c5322	-0.07633044
51	0x3cf9f2a0	0.0305112
52	0x3cbc2272	0.022965644
53	0xbd23feb1	-0.040037815
54	0xbd94c253	-0.07263627
55	0x3d36ae47	0.044599798
56	0xbc302ac5	-0.010752385
57	0xbd8aae59	-0.067715354
58	0x3daea68b	0.08527859
59	0xbc37e6bc	-0.011224445
60	0xbca7254c	-0.020403527
61	0xbc2612ed	-0.010136348
62	0xbd2de029	-0.042450104
63	0x3d8c3f19	0.068479724
64	0xbb95bb1c	-0.0045694243
65	0x3b3846ff	0.002811849
66	0x3a5e84df	0.0008488427
67	0x3a269226	0.0006354175
68	0xb94e0694	-0.00019648141
69	0x3b31f730	0.0027155392
70	0xba1d70b1	-0.0006005867
71	0xbb8c7752	-0.004286685
72	0x3c448038	0.01199346
73	0xbcf26b16	-0.029592078
74	0xba6a0fb1	-0.000892873
75	0x3d115ca5	0.035488743
76	0xbd6f7943	-0.058465254
77	0xbb65fdc9	-0.0035093895
78	0xbaf10b72	-0.0018390252
79	0xbd2abfa6	-0.041686676
80	0x39614202	0.00021482262
81	0x39834435	0.00025037085
82	0x3c4ad316	0.012379428
83	0xb9f9a675	-0.00047617
84	0x3d176748	0.03696373
85	0x3d85ec14	0.06539169
86	0x3c527118	0.012844346
87	0x3b1d5b90	0.0024010874
88	0x3bce1459	0.0062890467
89	0xbb0f4c6a	-0.0021865615
90	0x3e1fe789	0.15615667
91	0x3d503952	0.050835915
92	0xbd8fd120	-0.07022309
93	0xbd8f0a0c	-0.06984338
94	0xbde093c7	-0.10965686
95	0xbb6b0214	-0.0035859393
96	0xbe14856c	-0.14504021
97	0x3e17ed51	0.14836623
98	0xbd2b20bf	-0.041779276
99	0x3d546a34	0.051859096
100	0x3e0fc6a7	0.14040624
101	0x3d875e84	0.06609824
102	0xbe3a09b1	-0.1816776
103	0xbd45bc1e	-0.048275106
104	0xbe003dff	-0.1252365
105	0x3c7f6788	0.015588649
106	0xbd73a22f	-0.059480842
107	0xbb085b94	-0.0020806538
108	0x3d9a15a1	0.07523657
109	0x3d81af18	0.063322246
110	0x3e2ee0c2	0.17077926
111	0x3e13def8	0.14440525
112	0x3db904ea	0.090341404
113	0xbe6acef7	-0.22930513
114	0x3d877925	0.06614903
115	0xbdfa8fc8	-0.12234455
116	0xbd4913f2	-0.049091287
117	0xbe0276ad	-0.12740584
118	0x3d9522b3	0.07282009
119	0x3dbe7d32	0.09301223
120	0x3cbe3cf6	0.023222428
121	0x3d5fa077	0.05459639
122	0xbc34ae76	-0.011027923
123	0x3d4c6e6a	0.049909987
124	0xbe3e1f4c	-0.18566626
125	0xbdbda81f	-0.09260582
126	0x3e29b86e	0.1657426
127	0xbcd490e5	-0.025947997
128	0x3cb43613	0.02199844
129	0x3deae6e6	0.11469822
130	0x3d6b5faa	0.05746428
131	0x3dc3d924	0.09562901
132	0x3d27bb97	0.040950384
133	0xbde9f7ea	-0.11424239
134	0xbe3cee74	-0.18450338
135	0xbbcff3e7	-0.006346214
136	0x3dcbaa6a	0.09944613
137	0xbe3260d9	-0.17419757
138	0xbdc821d6	-0.09772079
139	0x3dc698d3	0.09697118
140	0xbddc935b	-0.10770293
141	0xbdbc8bdf	-0.09206366
142	0xbdc16b9e	-0.094443545
143	0x3d86f20a	0.06589134
144	0x3d73a0a5	0.059479374
145	0x3e3731b5	0.17890055
146	0x3cf5c12e	0.029999342
147	0x3e28a424	0.16468865
148	0xbd94f90b	-0.07274064
149	0x3cb287b2	0.02179322
150	0xbdea8635	-0.11451379
151	0xbc0e63b7	-0.008690766
152	0x3dddd356	0.10831325
153	0x3e2f43d1	0.17115714
154	0x3da9afd6	0.08285491
155	0xbde40e93	-0.11135592
156	0x3e99a170	0.3000598
157	0xbe8be051	-0.27319577
158	0x3d8d188d	0.06889448
159	0xbcb1fa2a	-0.021725733
160	0xbd0efcf2	-0.034909196
161	0x3d596a90	0.05308014
162	0x3c84ae66	0.01619644
163	0xbe27f219	-0.16400947
164	0x3e083141	0.13300039
165	0x3ca8a886	0.02058817
166	0xbda9e589	-0.082957335
167	0xbe051f5f	-0.13000248
168	0x3dc65d02	0.096857086
169	0xbe24c593	-0.16090994
170	0x3dd0b1b4	0.10190144
171	0xbd8ee9b7	-0.06978171
172	0x3d929971	0.07158173
173	0xbe1e9a2d	-0.15488501
174	0x3e05d973	0.13071232
175	0xbb30db89	-0.0026986322
176	0x3e477cf5	0.19481261
177	0x3e0cd8ba	0.1375455
178	0xbe1f5c3e	-0.15562531
179	0xbddda021	-0.10821558
180	0x3d48b880	0.049004078
181	0x3b9e4057	0.0048294473
182	0x3c098889	0.008394369
183	0xbc967231	-0.018364998
184	0xbdf4d554	-0.119547516
185	0xbdbc3234	-0.09189263
186	0xbd219aa2	-0.03945411
187	0x3b8afe1e	0.004241719
188	0xbbd2da44	-0.0064347107
189	0xbcfac840	-0.030613065
190	0x3cdab3c1	0.026697041
191	0xbb867109	-0.0041028303
192	0xb9aea165	-0.00033308115
193	0xbdfaa5a9	-0.122386284
194	0x3dd3ea53	0.10347428
195	0x3dab188d	0.08354292
196	0xbbb06d78	-0.0053841434
197	0xbd413b00	-0.047175407
198	0xbbc5d3a4	-0.0060371924
199	0x3d3f8af4	0.046763375
200	0xbb812ff2	-0.003942483
201	0x3a11f369	0.0005567582
202	0xbde5579a	-0.11198349
203	0x3a90ea5c	0.0011056173
204	0xbd07d4a4	-0.033161774
205	0x3d07b191	0.033128325
206	0xbdad0dd6	-0.084499046
207	0xbd8ab33a	-0.06772466
208	0xbda558df	-0.080735914
209	0xbcaca854	-0.021076359
210	0x3e43f2fe	0.19135663
211	0x3dfb8ae6	0.12282352
212	0xbcb54e37	-0.022132022
213	0x3baa6659	0.005200189
214	0x3d263077	0.040573563
215	0x3e04f531	0.12984158
216	0x3d233dfc	0.039854035
217	0x3db915ab	0.09037336
218	0x3e3ea1c0	0.1861639
219	0xbad75b26	-0.0016430363
220	0x3d076351	0.0330537
221	0xbe16d761	-0.14730598
222	0x3dbde4c7	0.092721514
223	0x3d8392a0	0.06424451
224	0xbd685dd7	-0.056730118
225	0xbdafd94b	-0.08586367
226	0xbd42bc1f	-0.047542688
227	0xbcb15e39	-0.021651374
228	0xbe2e096c	-0.16995782
229	0x3e0d30a4	0.13788086
230	0x3d8f2720	0.069898844
231	0xbd9a9341	-0.07547618
232	0xbdfc05c6	-0.12305789
233	0xbd69ae84	-0.057051197
234	0xbcea54ec	-0.028604947
235	0x3bb7e687	0.005612198
236	0xbce7186e	-0.028209891
237	0xbd6a2e0b	-0.057172816
238	0xbdd6cc8f	-0.10488235
239	0xbc5152df	-0.012776106
240	0xbbd3ce8c	-0.0064638313
241	0x3aba8523	0.0014230352
242	0xbd4ce5eb	-0.050023954
243	0xbd5bb325	-0.053637642
244	0x3c58b415	0.013226529
245	0x3b3ba9f9	0.0028635247
246	0xb896104a	-7.1555914e-05
247	0x37f53dd7	2.9235072e-05
248	0xb7bc5bbc	-2.2454064e-05
249	0xbc2402d6	-0.010010442
250	0x3a55e587	0.00081595074
251	0x3ca90146	0.02063049
252	0x3ca9501b	0.02066808
253	0x3c6ba8f6	0.014383545
254	0xbcb10d1a	-0.021612693
255	0x3ccbcaa2	0.024876896

nn_fun2.2.bias f4 [30]
0	0xbd828827	-0.06373625
1	0xbdfbfb77	-0.123038225
2	0xbd4e54fb	-0.050374012
3	0xbd6139fd	-0.054986943
4	0x3d9f9fb9	0.077941366
5	0xbdfacbf9	-0.12245936
6	0xbd5e964a	-0.054342546
7	0x3e3b380d	0.182831
8	0x3c2753ce	0.010212852
9	0x3b863aa5	0.0040963464
10	0x3e24ce1b	0.16094248
11	0x3d1dbcf3	0.038510274
12	0x3c11cf20	0.00889948
13	0xbdf04783	-0.1173239
14	0x3d9958ab	0.07487615
15	0xbd1f9822	-0.038963445
16	0xbddcda8d	-0.10783873
17	0x3e3479e6	0.17624626
18	0x3cc7397b	0.024319401
19	0xbd970afe	-0.073751435
20	0xb98a6844	-0.00026399095
21	0xbd8df938	-0.069323
22	0xbd367be2	-0.044551738
23	0xbb882fc0	-0.004156083
24	0xbb94ef77	-0.004545148
25	0xbd0cf897	-0.03441676
26	0x3e2c1235	0.1680382
27	0xbcf4a84b	-0.029865405
28	0xbce8d1f1	-0.02842042
29	0x3df6852c	0.12037119

agg.0.weight f4 [1, 30]
0	0xbccb190b	-0.024792215
1	0x3caf904a	0.021431107
2	0xb908b8f7	-0.00013038875
3	0x3df6f3fd	0.12058256
4	0x3da5db90	0.08098519
5	0xbda54e53	-0.0807158
6	0xbb0cd26c	-0.0021487726
7	0x3dda8485	0.10669807
8	0xb7fc0a2a	-3.0045474e-05
9	0xbdfca9cf	-0.12337076
10	0xbc46b6a3	-0.012128505
11	0xbe019f20	-0.12658358
12	0xbd8b7b5e	-0.0681064
13	0xbdddbb4f	-0.10826742
14	0xbdf64fd6	-0.12026946
15	0x3cd6c83b	0.026218524
16	0x3c93c757	0.018039389
17	0xbd4800fb	-0.04882906
18	0xbbfe7158	-0.0077649765
19	0xbb9a6d56	-0.004712741
20	0x3d315aa0	0.043299317
21	0xbc853a38	-0.016263112
22	0x3bcf365d	0.0063236193
23	0x3c5738a5	0.013136064
24	0xbdb333ff	-0.08750152
25	0x3d9f4952	0.077776566
26	0x3d19e276	0.037569486
27	0x3ccf56e1	0.025309982
28	0x39b8dcaf	0.00035259637
29	0x3da633ca	0.08115347
