multiple_model_analysis/results/er_experiment_SIS_size_10_2_alpha_0_scale_100_dynwght_False_std_reg_1.0_equiv_reg_0.0/neural_network.pth (torch, 16501 bytes, 14 tensors)

g.0.weight f4 [30, 1]
000000 3e 68 51 bf dc d7 35 3e 01 a3 43 3f e0 fc 8d 3e
       -0.81799686 0.17758125 0.764206 0.2773199
000010 62 6c 80 bf 26 4c ca 3d db 29 c4 3e 35 89 7c 3f
       -1.0033076 0.098778054 0.38313183 0.9864686
000020 a0 41 d8 3e db 79 62 bf 17 cb 2d 3f a8 8e 8e 3f
       0.42237568 -0.88467187 0.67888016 1.1137285
000030 16 9f 3d bf 13 9e 52 bf 5d 2e 6c 3f 0d dd 7a bf
       -0.7407087 -0.8227245 0.92258245 -0.97993547
000040 b7 e0 7a 3e ee 2c e4 bd 6b cb 7e be 05 59 3f bf
       0.24499784 -0.11141382 -0.24882285 -0.7474521
000050 03 9b 94 bf 76 0b 2b 3f 6e dd 05 bf c8 65 7c bf
       -1.1609806 0.66814363 -0.52291 -0.98592806
000060 a9 59 3b 3f 98 5d 09 3f f6 ea 9c bc 59 45 17 bf
       0.73183686 0.5365844 -0.019155007 -0.5909019
000070 fe 7a 2c bf b2 40 0f 3e
       -0.6737517 0.13989523

g.0.bias f4 [30]
000000 2a 03 78 3e 88 7e df bd 9a b7 eb 3e 3f 4d 5c 3f
       0.24219957 -0.10912806 0.46038514 0.8605537
000010 7b 30 90 3e 47 47 2c be 83 12 8b 3d 22 0a 9c be
       0.28161988 -0.16824065 0.0679064 -0.3047648
000020 ce 0b 90 3e 91 0d 12 3c 84 6b 9a 3e b4 58 b2 bd
       0.28134006 0.008914367 0.30160153 -0.08708325
000030 7b 72 18 3e e3 a4 97 3e 0a c6 15 bf 0f 41 15 3e
       0.14887421 0.29617986 -0.5850531 0.14575599
000040 aa b2 1c 3f 61 e2 79 3d 87 bb 98 3c 16 8d f1 bd
       0.6121012 0.061006907 0.018644108 -0.11794488
000050 dd 53 a4 3e 33 a0 d4 be 49 10 7a be 81 ad 44 3f
       0.32095233 -0.41528472 -0.24420275 0.76827246
000060 61 8a 8f 3d f2 f2 64 bc 2a a6 07 bf 87 c1 ee be
       0.070088156 -0.013973938 -0.5298792 -0.46632025
000070 e1 62 b9 3d 10 6f 11 be
       0.09052063 -0.14202523

g.2.weight f4 [30, 30]
000000 fc 61 b8 bd 3d 29 90 bd 42 d6 81 3d 45 11 a7 3c
       -0.09003064 -0.070391156 0.063396946 0.020393977
000010 4e f8 73 be 6e a2 7b 3d b5 c3 83 3c 4e f5 d7 bc
       -0.2382519 0.061434202 0.016084531 -0.026362088
000020 07 b2 08 3e 54 1a 88 be 4c af 18 be 8e c5 93 3e
       0.13349162 -0.26582587 -0.1491062 0.2886166
000030 5b 9b 26 be 61 ae ec bd d2 bb 04 be 25 99 27 be
       -0.16270201 -0.11556698 -0.12962273 -0.16367014
000040 74 f5 10 3e d9 69 2a be 58 4a 49 bd c6 32 a1 bd
       0.14156133 -0.1664194 -0.049143165 -0.078710124
000050 57 a2 55 be 18 df 46 3d 51 81 3d bd 12 b1 e5 3d
       -0.20862709 0.048552603 -0.046265904 0.11215414
000060 ab 9f e5 bd 36 4d 69 3e b1 35 b2 3d 1f 0e 93 3c
       -0.11212095 0.2278336 0.08701647 0.01795107
000070 55 8a 0e be be fd 2f 3e f0 59 26 be f8 e5 32 3e
       -0.13919957 0.17186639 -0.16245246 0.17470539
000080 77 eb 83 3d 4e 00 b1 3d e6 33 64 3d c0 a8 48 3c
       0.06441396 0.08642636 0.055713557 0.012247264
000090 6d dc 6a 3d 47 52 8d 3c aa 7e 0f be 56 a2 ee bd
       0.05733912 0.017251147 -0.14013162 -0.11652057
0000a0 b6 1f 1b 3e 33 c2 69 3e 19 16 ad bd ad f7 3e be
       0.15148816 0.22827987 -0.084514804 -0.18649168
0000b0 31 c2 95 3c f1 88 86 bd f8 21 05 be e2 37 15 3e
       0.018281074 -0.06569088 -0.1300124 0.14572099
0000c0 48 7d 09 bc f1 21 e7 bb e6 64 b1 3d b5 2c ac 3d
       -0.008391686 -0.0070536067 0.08661823 0.08406965
0000d0 ef 35 e5 bd c8 32 42 3d 0a eb 25 3e 7c 79 36 3e
       -0.11191928 0.04741171 0.16202942 0.1781978
0000e0 0d 1f ab bd b3 3f 4d 3b 98 07 2e be 26 d2 bc bc
       -0.08355532 0.0031318485 -0.16995084 -0.023049425
0000f0 91 87 6e bd 1a 96 a3 3d 2d 40 20 3e 49 f8 2c be
       -0.058234755 0.07987614 0.15649481 -0.16891588
000100 9b aa ac 3c 1a 32 9c bd 22 e9 30 be 7f 50 92 3d
       0.021077445 -0.076267436 -0.17276433 0.0714426
000110 22 fa 17 be a5 ec 27 3e b1 f9 31 be a4 df c8 be
       -0.14841512 0.16398866 -0.17380406 -0.39233124
000120 2f 9e d9 bb 37 e3 4e bd e1 04 0d 3e df 83 85 3e
       -0.0066411714 -0.050509658 0.13771392 0.26077172
000130 9f c6 96 3d 57 78 08 3e ef a4 db 3d 25 bb c8 3d
       0.07362103 0.13327156 0.10724818 0.0980132
000140 2b 1a ed bc 29 ba d9 3c 28 65 e4 bd 15 21 05 3d
       -0.028943142 0.026578026 -0.111521065 0.032502253
000150 7d 9e 3f be d3 48 be be 34 ee e1 bd 5b da 94 bd
       -0.18712802 -0.37164935 -0.11031762 -0.072682105
000160 23 43 86 3d 80 7e cb bd a3 70 d0 bd 09 43 12 be
       0.06555774 -0.09936237 -0.10177734 -0.14283384
000170 e3 89 17 3e e2 f9 52 3d b4 79 71 be 8b e2 30 be
       0.14798693 0.051507838 -0.23581582 -0.1727392
000180 bc 32 79 bd 28 2d fb 3d 91 4f 25 3e 0b ae 30 be
       -0.0608394 0.12264472 0.16143633 -0.17253892
000190 cf 15 ed 3d 07 20 2a 3e 4c 4e ca bd a9 69 8b bd
       0.11576425 0.1661378 -0.09878215 -0.068072625
0001a0 9e 61 17 be 08 91 da bd fd 53 30 3d 12 c1 c8 3d
       -0.14783332 -0.10672194 0.043048847 0.0980245
0001b0 e7 ee 8d bd 1d ec ae bd 4b b6 61 bd 4f a7 13 3d
       -0.06930333 -0.08541129 -0.05510549 0.03604823
0001c0 a4 03 bf 3c e0 56 21 be d6 a3 3d 3e 67 d2 a1 3d
       0.023317166 -0.15755796 0.1851953 0.07901459
0001d0 36 85 56 bd ad 4b b3 3d 7f 4e 02 be 39 6d 9e bd
       -0.052373134 0.087546684 -0.12725256 -0.07735676
0001e0 9c a3 b1 bd e8 a9 9a 3d 8f a7 12 3b 1f 8a df 3d
       -0.08673784 0.07551938 0.0022377705 0.109150164
0001f0 39 70 00 3e d0 43 1b be 3d 29 99 bd 9a 9c bd 3c
       0.1254281 -0.15162587 -0.07478569 0.023145963
000200 73 1c 8e bd 59 f6 d3 3d df 26 b6 3d 17 60 80 be
       -0.0693902 0.103497215 0.08894133 -0.2507331
000210 09 89 fc 3d c7 be 74 bb fc 4d 02 bb e4 a0 26 3e
       0.12330825 -0.0037345157 -0.0019882908 0.16272312
000220 ef 99 f1 bd 59 6e c7 bd 52 b3 15 3d 4d 47 50 bc
       -0.11796939 -0.09737844 0.036547966 -0.012712312
000230 31 7e 41 3e 32 4b 00 bd 72 2a 61 bd 45 37 a2 3c
       0.18895794 -0.03132171 -0.05497212 0.019801745
000240 c8 f9 fc bd 65 c1 e0 bd 79 e7 e0 3d b0 a1 6f bc
       -0.123523295 -0.10974387 0.1098165 -0.014625952
000250 be 05 44 3d 58 9d c8 3d 77 93 ea 3d d3 aa 00 3e
       0.04785704 0.09795636 0.11453908 0.12565164
000260 a1 cb 07 3d 6a 4f 80 3d ad a0 5a bd 33 44 b0 bd
       0.03315318 0.06265147 -0.05337589 -0.08606758
000270 fc 1a d4 bd dd eb f0 3c e4 a1 de 3d 0f 73 0a be
       -0.10356709 0.029409343 0.10870722 -0.13520454
000280 b0 d0 af 3d 2a 3f cc 3e fb a6 0f 3d 08 5e 89 bd
       0.08584726 0.3989194 0.035071354 -0.06707388
000290 2e 03 03 3e fa 19 0f be dc e1 24 bd b2 f0 7a bd
       0.12794182 -0.13974753 -0.04025446 -0.0612647
0002a0 2a 91 e3 bd 20 f0 5a be e1 97 b3 bc 36 cf 27 3e
       -0.11111672 -0.21380663 -0.021923007 0.16387638
0002b0 11 91 86 bc 9d 2a 9d 3c f2 8f 13 3d 46 f5 84 3e
       -0.016426595 0.019185359 0.03602595 0.2596838
0002c0 be 53 95 bd 1c 62 f1 3c aa 35 a5 bd 88 b9 a6 bd
       -0.07291363 0.029465728 -0.08066876 -0.08140856
0002d0 98 d3 06 3c a6 fc e1 bc 11 43 be 3c b2 cf 14 3e
       0.008229159 -0.027586292 0.02322534 0.14532354
0002e0 28 5d 09 be 28 f0 19 3e e9 dc f3 bc c1 18 5b 3e
       -0.13414443 0.15033019 -0.029768424 0.21396162
0002f0 12 38 c6 3d fa 7d 18 be 52 68 a6 3a 3b bc 73 3e
       0.09678663 -0.14891806 0.0012695885 0.23802273
000300 82 91 42 be 4b ab 4d be 2a 49 0b 3e 5f 71 11 3d
       -0.1900082 -0.20084874 0.13602129 0.03550851
000310 d2 78 99 3d 26 39 76 bd f0 e5 84 3c e6 6f a9 bd
       0.07493748 -0.060113095 0.016222924 -0.08273296
000320 1c 97 5a be a1 54 17 be f0 5d b0 3c 00 43 6d bd
       -0.21346706 -0.14778377 0.021529168 -0.057925224
000330 3e 2d 67 3d 15 e7 50 3e 25 ca 81 3d b5 63 fb bd
       0.05643963 0.20400651 0.06337384 -0.12274877
000340 4e a4 16 be a3 4c a4 3d 81 e2 49 3e 99 0c 25 3e
       -0.14711115 0.0802243 0.1971531 0.16118087
000350 2b fe c8 3c b7 69 ad bc e9 49 45 3e 27 b5 3a 3e
       0.02453526 -0.021168573 0.19266476 0.18233167
000360 9c 69 96 ba de 2d 8b 3b 65 74 35 3a d0 99 8b 3e
       -0.0011475566 0.004247411 0.0006921946 0.27265787
000370 40 e7 84 3d 40 bc a5 be d2 72 92 bd 63 58 9b bd
       0.0648942 -0.32370186 -0.071508065 -0.07585218
000380 70 fc 2b be 10 64 bb 3d dd 5a be bc 1f 65 b0 bd
       -0.16795516 0.09149945 -0.023236686 -0.08613037
000390 48 ce 6b bc 90 17 b3 bc 0e 03 0b 3e 33 5c a2 bb
       -0.014392443 -0.021861821 0.13575384 -0.0049548387
0003a0 be 3f ba 3c 62 39 e2 3c 80 77 1b be b8 f4 da be
       0.022735473 0.027615253 -0.15182304 -0.4276483
0003b0 3b ce 6b bd 66 4f fe bc dc 4f 1c bd 72 9f 14 be
       -0.057569724 -0.03104372 -0.038162097 -0.14513949
0003c0 f7 54 02 be f6 07 c4 3d 55 0c 34 3e db ce ae bc
       -0.12727724 0.09571831 0.1758283 -0.02133887
0003d0 b8 f7 9a 3c 37 a5 8e 3d 98 82 ba bd 4f 19 53 ba
       0.01891695 0.06965106 -0.0910694 -0.00080527825
0003e0 cb a4 49 bd 27 09 9d be 81 7e 13 3d 39 b5 b2 3e
       -0.049229424 -0.30671045 0.036009315 0.34903887
0003f0 f8 0e 68 be 01 e4 d2 bd 19 32 e3 bd 9f cd 55 bc
       -0.2266196 -0.102973945 -0.1109354 -0.013049512

g.2.bias f4 [30]
000000 0b f9 76 3d 15 d7 3b bd d5 de f7 bd ad 7b 87 bd
       0.0602961 -0.045859415 -0.12103049 -0.06615386
000010 79 99 75 bd 37 fc 3d bd 40 a7 f8 bd 59 b9 a5 bd
       -0.059960816 -0.04638311 -0.121412754 -0.08091993
000020 cd 8d ad 3d 43 f3 9f bd 23 75 2a 3d 1e c3 0b be
       0.08474312 -0.0781007 0.041615617 -0.1364865
000030 f5 c0 c0 bd 78 d2 ff 3c 04 c3 23 3e 22 ab 1d be
       -0.09411804 0.031228289 0.15992361 -0.15397313
000040 8f 74 aa 3d 3e 6a 07 3d d8 d4 35 be 8b 85 0c be
       0.08323013 0.033060305 -0.17756975 -0.13722818
000050 f5 25 a6 3d af c0 81 bd e0 78 fe 3d 16 86 a5 bd
       0.081127085 -0.063355796 0.12425399 -0.080822155
000060 45 8f 19 3e 2d 69 9d bd b0 ab 74 3d b3 b4 67 3d
       0.14996059 -0.07686076 0.059734046 0.056568813
000070 7e 50 16 be 2a 03 ef bd
       -0.14679143 -0.11670525

g.4.weight f4 [1, 30]
000000 d5 11 c4 bd cd fc ef bc cf 51 61 3d 04 bd b2 bd
       -0.09573714 -0.02929535 0.05500966 -0.08727458
000010 f8 a0 81 3c 12 e4 ac bd eb b8 cc bd 52 40 b5 3d
       0.015823826 -0.084419385 -0.09996208 0.08850159
000020 8d da 46 bd 57 95 02 be a9 e9 ef b8 6e 22 ff b9
       -0.04854827 -0.12752281 -0.00011439931 -0.00048663042
000030 70 51 67 3d 68 0a c1 bd f0 3b 52 bd df c8 0f be
       0.05647415 -0.09425813 -0.051326692 -0.1404147
000040 4e 8c 03 be 3c 96 ec 3d 27 32 57 3d f9 a1 04 3e
       -0.1284649 0.115520924 0.052538063 0.12952413
000050 f1 1a 27 3e df f1 84 3c 7e ee 1f 3e 27 d4 f2 bc
       0.16318871 0.016228614 0.15618321 -0.029642178
000060 bb 4e 3b be 19 26 b1 3d 19 b2 19 3e 13 4e c4 bd
       -0.18291752 0.08649845 0.15009345 -0.09585204
000070 fb 3e 5e be 2c 19 36 3e
       -0.21703713 0.1778304

nn_fun1.0.weight f4 [30, 1]
000000 73 40 e4 3d b7 d6 95 3e ce 63 74 be c6 ee 10 bf
       0.11145105 0.29265377 -0.23866197 -0.5661434
000010 77 a4 96 3d 02 19 3c 3f 70 e8 c5 3d 7a 45 60 bf
       0.07355588 0.7347566 0.096634746 -0.8760601
000020 01 02 7c be a9 65 a5 bf f2 de 87 be f0 29 67 be
       -0.2461014 -1.2921649 -0.2653728 -0.22574592
000030 f5 e4 5e 3f 73 59 ae be e5 52 a2 bf ef ed 06 3f
       0.8706811 -0.3405262 -1.2681547 0.5270681
000040 22 50 31 3f 51 49 99 be 74 6c 17 3e 71 23 f1 3d
       0.692629 -0.29938748 0.14787465 0.11774338
000050 1e 41 1b 3f 63 2e 2a be ac 9f 53 3e 89 13 4e 3f
       0.60646236 -0.16619258 0.20666379 0.8049856
000060 15 09 77 3f a8 3e bf 3e c8 be 1a 3f 04 24 9f bf
       0.96498233 0.3735249 0.6044736 -1.2432866
000070 82 11 83 3e da 94 76 3f
       0.25599295 0.9632088

nn_fun1.0.bias f4 [30]
000000 67 6f 29 bf 5e d2 0e bf f8 1b 3d bf 23 1b 8e 3e
       -0.6618561 -0.55789745 -0.738708 0.2775508
000010 b6 6a 38 3f 0e a7 c2 bd d0 1c 83 be aa 79 88 3d
       0.7203783 -0.095045194 -0.2560792 0.066638306
000020 e2 8a 36 bf 08 88 d6 3d 20 0f 0d bf a2 57 0f bf
       -0.7130567 0.10475165 -0.55101204 -0.5599309
000030 e9 08 18 bf 27 ac 2b be 0a 65 12 3f 94 59 0e 3e
       -0.59388596 -0.1676489 0.57185423 0.13901359
000040 05 86 0f 3f ae 63 50 bf 7a 67 29 bf 21 36 f4 3e
       0.5606387 -0.814021 -0.6617352 0.47697547
000050 5c e3 39 3f 05 9c 3f 3f a1 11 35 bf 8d e0 ce 3e
       0.7261255 0.7484744 -0.70730025 0.40405694
000060 8e 52 69 bf 3e f4 0b be b3 b3 d8 bc fc 9a e1 3e
       -0.91141593 -0.1366739 -0.026452875 0.44063556
000070 2f 72 43 be fd e9 40 bf
       -0.19086526 -0.7535704

nn_fun1.2.weight f4 [30, 30]
000000 a6 00 bb bd e3 08 30 bd b4 e6 83 3d 69 8b 8f 3c
       -0.09130983 -0.042977225 0.064404875 0.01752253
000010 66 59 65 3d ef d2 45 3a e9 2a 5c bd 42 16 8b b9
       0.05599346 0.0007546385 -0.05375186 -0.0002652873
000020 53 e7 66 3d 1b af 2d ba cd 01 9c 3a 48 5d 67 3d
       0.05637295 -0.0006625519 0.0011902392 0.056485444
000030 b5 9d 96 3d 3b 43 13 bd b0 d0 17 bd 4f 57 60 3c
       0.07354299 -0.035952788 -0.037064254 0.013692691
000040 6f 25 99 3d 51 1f 33 3c f9 2a 47 bc 78 40 17 3c
       0.07477843 0.010932759 -0.012156242 0.009231679
000050 db 31 bf 3d 1e 92 8c bd df 85 1f 3d be 47 36 bd
       0.09335681 -0.06863807 0.03894603 -0.044502012
000060 a0 24 a8 3b c5 06 dc bc 55 5d 5b 3a 1a 19 00 bd
       0.005131319 -0.026858697 0.00083680946 -0.03127394
000070 a0 18 c7 39 a6 f0 7e bd 20 fe 96 3b 38 62 df bc
       0.00037974585 -0.06224122 0.004607931 -0.027268514
000080 66 b2 eb bc 50 84 9e bb d3 c9 21 3d 13 2a 04 3a
       -0.02877159 -0.00483755 0.039499115 0.000504167
000090 ab 08 bc bb cc c7 13 ba 0a 00 12 3c e1 00 81 ba
       -0.005738338 -0.0005637377 0.008911142 -0.0009842181
0000a0 35 de 87 bb 1b 6f a3 bc 1b e7 8c bc 02 6c 93 bb
       -0.004146362 -0.01995044 -0.017200043 -0.0044989595
0000b0 0d a7 ed 3b 94 d4 72 bb 46 cf 10 bd a0 ec 23 3d
       0.00725258 -0.0037052976 -0.03535392 0.040020585
0000c0 bf ac 67 bc 4f 91 e2 38 df 78 b3 3c 31 b3 c2 bc
       -0.014140307 0.000108035856 0.021908222 -0.023767086
0000d0 47 6e 26 3d b0 a6 8d bb 19 a6 5c 3b 5d dc 71 bb
       0.040632512 -0.004322849 0.0033668338 -0.0036905028
0000e0 9e 70 cb 39 2e 95 98 bc 82 6d d2 3b 90 05 f0 bb
       0.00038803084 -0.018625822 0.0064217458 -0.007324882
0000f0 2b 55 76 bd 08 e2 62 bd 52 23 39 3d ca fb d1 3d
       -0.060139816 -0.05539134 0.0451997 0.10253103
000100 73 6e 3e 3d c8 fc da 3b 86 76 d2 bd 08 7d ad ba
       0.04649205 0.006682966 -0.10276513 -0.0013236115
000110 b9 67 b3 bd d3 cb b8 bc b6 be 8b 3c 5f 78 4b bd
       -0.08760018 -0.022558128 0.017058711 -0.04967534
000120 79 ca ae 3c ed cb 33 bd ea aa de bd 61 38 2d bd
       0.02133678 -0.04389565 -0.10872443 -0.042290095
000130 c0 81 02 be 1e 7e c6 3c 5c f8 e7 bd e0 56 e0 3d
       -0.12744808 0.02423006 -0.11326668 0.1095407
000140 fd 86 8b 3d 7e 92 91 bd bf e6 4a bd 52 92 dc bd
       0.06812856 -0.07108019 -0.049536463 -0.10770096
000150 f9 c1 c2 3d 49 84 42 bd fb 36 3e bb 83 56 99 3c
       0.095096536 -0.04748944 -0.002902447 0.01871801
000160 36 af 26 3d 9c fd 50 bd 30 23 bf 3d 08 82 c6 3d
       0.040694438 -0.05102311 0.09332883 0.0969277
000170 9b 1d 6c bc d4 57 df 3d 4b f1 26 be 2f 26 a1 bd
       -0.014411355 0.10905424 -0.16302983 -0.07868611
000180 5d b0 d5 bb d0 d3 7a bc 65 21 8f 3d de e7 d9 3d
       -0.0065212683 -0.015309289 0.069887914 0.10639928
000190 c4 f3 f8 bd be e9 cb 3d 42 c1 3a 3d 71 91 17 3e
       -0.121558696 0.09956692 0.04559446 0.14801575
0001a0 f5 d0 be 3d a5 57 2e bd 2c 54 f8 bc 7f 6f e5 bd
       0.09317199 -0.042564053 -0.030313574 -0.11202907
0001b0 ef 45 3f 3d cd 2b 06 3e 0e 64 61 3d 77 d4 0b 3e
       0.046697553 0.13102646 0.05502706 0.13655268
0001c0 1f 5c 9e 3d 0e 4e ed 3c f0 ac 0d bd 2f 34 12 be
       0.077324145 0.028967883 -0.034588754 -0.14277719
0001d0 ec d1 c3 bc fc 70 16 3e dc b7 1f 3e 3b 16 69 bd
       -0.02390381 0.14691538 0.1559748 -0.056905966
0001e0 41 4e 09 3e 2a e5 09 3e 8c 01 15 be 3f bf 11 be
       0.13408758 0.13466325 -0.14551371 -0.14233111
0001f0 51 93 a9 bd 4c c0 d6 bc b0 4d 70 3d c4 52 36 3d
       -0.082800515 -0.026214741 0.05866784 0.044512525
000200 84 9b d8 3d b8 85 2b bd 83 0d e2 3d 0e 82 16 3d
       0.10576537 -0.04187557 0.110377334 0.036745124
000210 f3 0e 02 be cc b0 e4 bd 7a 23 91 3d 03 86 09 3e
       -0.12701015 -0.11166534 0.07086845 0.13430028
000220 91 7e df bd 70 41 95 3c 3e 5b 25 be c8 90 e0 3d
       -0.109128125 0.01821968 -0.16148087 0.10965115
000230 b3 e6 53 3d 9d 35 28 bd 5d 01 b0 3d 89 d8 8d 3d
       0.051733684 -0.041066755 0.0859401 0.069260664
000240 17 fe dc 3d cf 7c e0 3b 48 a6 80 bc ee 51 b6 3d
       0.10790651 0.006850816 -0.01570429 0.089023456
000250 7c 89 3d 3d a0 02 1b be 80 43 04 bd dd db d1 3c
       0.046273693 -0.1513772 -0.032290936 0.025617534
000260 0b ba 2a bd 8d 25 65 3c 6b c0 c2 ba f9 b9 2b ba
       -0.04168133 0.013986004 -0.001485837 -0.00065508444
000270 9b 66 9e bc e4 49 70 39 1a 47 20 bd e7 d0 49 3a
       -0.019336035 0.0002291571 -0.039130308 0.00076986704
000280 7b c5 ae 3c 7a 45 55 3c 8e 68 16 3b a5 e9 04 3c
       0.0213344 0.013017053 0.0022950503 0.008112346
000290 6e 75 83 bb 99 b6 34 bb e5 41 be 3c 5f 6b 7e bd
       -0.0040118014 -0.0027574657 0.02322478 -0.062114116
0002a0 18 1d e7 bb 92 59 ef 3c a9 7f 46 bd 78 54 05 3c
       -0.007053029 0.029217515 -0.04846159 0.008137815
0002b0 d4 79 13 bc b0 9e d3 bc d2 ab 1f 3d 14 8c 27 bb
       -0.009001214 -0.025832504 0.03898222 -0.002556567
0002c0 46 7b dd b9 0e ee 90 3a fa 24 59 ba cf b6 f7 3c
       -0.0004224425 0.0011057274 -0.0008283403 0.030238537
0002d0 72 62 6b bd 3e c4 1d 3e 8b c0 c0 bd 75 28 23 be
       -0.05746693 0.15406892 -0.09411725 -0.15933402
0002e0 71 de ef bc cb a5 3e 3d f0 84 1a 3d 36 60 b2 be
       -0.029280873 0.04654483 0.037724435 -0.34839028
0002f0 b1 03 37 be 83 8e 11 bf 23 d8 97 3d 22 ac 77 bd
       -0.17872502 -0.5685808 0.07414272 -0.060466893
000300 a6 80 3a 3e af 2d db 3d f1 09 22 be f4 a3 33 3e
       0.18213138 0.10702073 -0.15824105 0.17543012
000310 da 95 0e be de 3c 3c 3d 54 53 fa bd 22 cf d9 3c
       -0.13924351 0.045956485 -0.12222925 0.026588026
000320 1c 12 51 3e 68 e9 20 3d ee 49 d6 bd 21 fe 03 3e
       0.20417064 0.039285094 -0.1046332 0.12889911
000330 40 4e ee bc 87 2d 50 3e 75 46 44 3e 84 91 b5 bd
       -0.029090047 0.20329867 0.19167502 -0.088656455
000340 14 3f 1b be 99 7a bf bd aa d9 5f bd d9 ad f0 bd
       -0.15160781 -0.093495555 -0.05465094 -0.11751909
000350 84 be f5 bd d2 e5 1a bd ba b4 d2 bd f1 37 bc bd
       -0.119992286 -0.03781683 -0.10288377 -0.091903575
000360 ea 58 46 3c 5f db d4 bc b3 af d6 3d 7d a9 fc 3d
       0.01210616 -0.02598351 0.10482731 0.12337015
000370 86 f5 28 3e db 21 66 3d e2 68 b2 bc 88 33 a0 bc
       0.1649991 0.05618463 -0.021778528 -0.019555822
000380 d4 5c 99 bd 6d af cb 3d 91 2a bc 3d c1 0b 06 3e
       -0.07488409 0.09945569 0.091878064 0.13090421
000390 49 fa 07 bd d6 29 fe bd 03 17 62 3d 4d 59 1e 3e
       -0.033197675 -0.12410323 0.055197727 0.15463753
0003a0 ca 18 f0 bc 5b 85 07 3e 59 c1 fc 3d 91 3b 3f 3d
       -0.029308695 0.13234465 0.12341566 0.046687666
0003b0 4e 59 60 bd 12 83 3c bd ee 8c 03 bd 3d e8 86 bc
       -0.054772668 -0.046023436 -0.032116823 -0.016468162
0003c0 a4 1b 3b bc f7 7b 0a be c3 5e bc bd b0 02 93 bd
       -0.011420164 -0.13523851 -0.09197762 -0.07178247
0003d0 03 0d d8 3d 22 6f 71 3d 74 f4 ee bd 0e 9f 58 bd
       0.10549357 0.058943875 -0.116677195 -0.05288606
0003e0 fe 8c 9c bd 74 24 a4 3c c3 fb 73 3d 14 61 18 3e
       -0.076440796 0.020036913 0.05956627 0.14880782
0003f0 b2 d5 d0 bd 86 7e 12 3e 3c 20 c8 3d c6 2e 52 3b
       -0.10197009 0.14306077 0.09771773 0.0032071336

nn_fun1.2.bias f4 [30]
000000 f5 92 b4 bc 84 3b 1b bb 98 a2 da bd 0d a2 99 bd
       -0.02204273 -0.0023686597 -0.106755435 -0.07501612
000010 94 9e 77 3d f9 e5 8a bd f7 7c 1b be 40 0c 3a 3d
       0.060453966 -0.06782145 -0.15184389 0.04542184
000020 5e e1 24 3c 53 b4 b7 bd c1 c5 29 be 23 17 1c 3e
       0.010063497 -0.08969941 -0.16579343 0.15243201
000030 ce 4b fb 3d 5d 1d 6e bd 8e d1 11 3e 50 8d f2 3d
       0.12270318 -0.05813347 0.14240095 0.118433595
000040 49 04 2d 3e 1b 76 6b bd 65 ee 2e bd 56 df 79 3d
       0.16896166 -0.05748568 -0.04270782 0.061004005
000050 fc bc 98 3d 02 8c 55 bd de dc 71 3d 04 76 a2 3d
       0.07457921 -0.052135475 0.059048526 0.07932666
000060 56 4e df bd 0c 81 1f be 07 90 1d be 51 87 93 bd
       -0.10903613 -0.15576571 -0.15386973 -0.07203544
000070 40 bb 5e bd 77 ac eb bd
       -0.054377794 -0.115075044

nn_fun2.0.weight f4 [30, 1]
000000 fc b6 b3 be 4d ab 27 3f 1d 32 2f 3f be 29 02 3f
       -0.35100543 0.6549576 0.6843584 0.50844944
000010 b0 77 21 3f 88 aa 2a 3f f6 ca 18 ba a7 4b 1f bf
       0.63073254 0.6666646 -0.00058285834 -0.6222481
000020 a8 be 8e bf a6 67 15 3f 76 7d bd 3d 1d 80 d9 bd
       -1.1151934 0.5836128 0.092524454 -0.10620139
000030 d5 7f 0e bf 5a 9c 73 bf 8b 8d ac bd c0 72 8e 3d
       -0.55663806 -0.9516045 -0.08425435 0.069554806
000040 ef 37 07 bf d7 6f 5b bd 5e 1d 51 bf f4 36 dc be
       -0.5281972 -0.053573456 -0.81685436 -0.43010676
000050 eb 23 1b bf 5e 0c ff 3d d4 21 59 be dc 7d 10 3e
       -0.6060168 0.12453531 -0.2120431 0.14110512
000060 9d aa 98 bf 78 29 b1 be 65 3b 52 3f e0 4e e1 3c
       -1.1927067 -0.3460195 0.8212188 0.02750343
000070 3e 5f 0b be e1 17 ce 3e
       -0.13610551 0.40252593

nn_fun2.0.bias f4 [30]
000000 b8 a2 2e bf 99 fa 49 be db 95 d1 bd 0a 54 2c 3d
       -0.6821704 -0.19724502 -0.10233661 0.042072333
000010 3b 2f 45 be 1c bf 1c bf 36 d5 46 bf 44 38 a4 3d
       -0.19256298 -0.6122911 -0.77669084 0.08018544
000020 dc 32 4c 3f cd 08 d4 be 8f b9 9a bc 8e 16 e0 3e
       0.79765105 -0.41412964 -0.01888731 0.43767208
000030 5c 9b 58 bf 28 a6 54 3f 2a 2e 06 3f ac 73 b1 be
       -0.8461206 0.83066034 0.5241419 -0.34658563
000040 d8 1b 56 3f 12 42 29 3f 0f 8a 48 3f 9b ea 49 3f
       0.83636236 0.6611644 0.7833566 0.78873605
000050 90 a4 60 3e 89 d8 be 3e 0a c3 a3 be 40 6f d7 3d
       0.21937776 0.37274578 -0.3198474 0.10519266
000060 9a cc 62 3f 74 55 8b be 36 e1 1b 3e fe dd a8 be
       0.8859345 -0.27213633 0.1522263 -0.32981867
000070 ae 8a 65 3e 3a 6d 8b 3e
       0.22416183 0.2723177

nn_fun2.2.weight f4 [30, 30]
000000 b8 33 8f 3d 9b be 10 3b 4f 92 3f 3b f0 36 8b 3b
       0.069922864 0.0022086266 0.0029231494 0.0042484924
000010 de 61 15 3b b2 47 53 bd 65 ed 8c 3d 6a a5 2e bb
       0.002279393 -0.051582046 0.06881217 -0.0026648887
000020 3f 02 d0 3c 71 d6 be bc 72 d6 0a 3a 5f 58 a7 bc
       0.025391696 -0.023295613 0.0005296237 -0.02042788
000030 52 58 7f bd f5 61 cf 3c 52 0e d8 bc f3 ec 31 bc
       -0.06234009 0.025315264 -0.026374016 -0.010859716
000040 93 d3 0b bd f9 85 0f 3d c6 93 09 3d 97 30 20 3c
       -0.03413732 0.035039876 0.033588193 0.00977721
000050 ed 9b 02 3a eb e9 a5 3c e2 c9 fe 3c 64 60 8c 3b
       0.0004982341 0.020253142 0.031102125 0.0042839516
000060 ff b4 22 3d 28 d5 4c bc 52 3b 6c bb 99 36 fb 3c
       0.039723393 -0.012501992 -0.00360461 0.030665683
000070 8d 50 a7 3c 40 b6 f5 bc b5 04 b6 bc 2b 01 37 ba
       0.020424152 -0.02999413 -0.022219041 -0.000698107
000080 6d d6 fa b5 d7 67 15 39 d4 48 52 b9 fc d5 29 bc
       -1.8688858e-06 0.0001424843 -0.00020054291 -0.010365959
000090 40 83 22 3b 26 5e 32 b4 14 18 75 bc 31 e9 56 bc
       0.002479747 -1.6611793e-07 -0.014959354 -0.013117121
0000a0 dd b5 06 b7 94 08 82 bb fe f9 f5 3b bb 3d 21 38
       -8.029366e-06 -0.0039683077 0.007506608 3.8442882e-05
0000b0 bc 18 36 bd 40 11 8b 3c 37 cf f1 bc dd aa 2b bc
       -0.044457182 0.016975999 -0.029517753 -0.010477749
0000c0 ea e5 28 3d 98 cb b4 ba 37 81 fc ba e9 c0 7f 3c
       0.041234888 -0.0013793586 -0.0019264583 0.015609958
0000d0 c8 56 16 bc 9b a2 1a 3a 9f c3 8d bc bd 34 06 bc
       -0.009175964 0.0005898864 -0.017305193 -0.008191285
0000e0 7f d8 08 bb 52 9a 75 3a 04 3f 21 bb be d4 f0 3b
       -0.0020880995 0.0009369004 -0.002460421 0.0073495796
0000f0 cc d8 66 3c c7 61 63 ba e7 f6 6e 39 50 04 80 39
       0.014089774 -0.0008673933 0.00022789427 0.00024417276
000100 e3 16 21 39 dc d8 ac 3c d2 51 2d bd 96 8c 7d b9
       0.00015362682 0.0210995 -0.042314358 -0.00024180333
000110 f4 7d 19 bd 69 19 4d bb 69 b7 cd b6 07 1f 0d 3c
       -0.037473634 -0.0031295663 -6.130828e-06 0.0086133545
000120 48 9b 10 bd 25 52 88 3c ac 7a 43 bd f2 ee c9 3c
       -0.035304338 0.016640732 -0.04772441 0.02465007
000130 54 bb 2c bd 40 f6 2c bd 50 63 d8 3c 6b a1 06 3d
       -0.042170838 -0.04222703 0.026414543 0.032868784
000140 5d 6d dd ba a7 0a c1 3c 69 88 1f 3c 7a db 10 3a
       -0.0016893555 0.02356465 0.009737113 0.00055258686
000150 a6 6e 84 bc 0d ed f4 ba 0e 4e fb ba 05 61 a2 bc
       -0.016166043 -0.0018686369 -0.0019173042 -0.019821653
000160 cc eb 0a 3c f8 b9 a7 3b 9c 5a 36 3e be 36 5c bd
       0.00847907 0.0051186047 0.17808002 -0.053763144
000170 aa e9 41 3d 7f b8 18 3d f0 9a df 3c 9e 9f 1d bd
       0.04734198 0.037285324 0.02729556 -0.0384823
000180 01 5f 1d 3e b8 6e 70 3d df 6d f1 3d 34 66 ae bd
       0.15368272 0.05869934 0.117885344 -0.085155874
000190 a7 2d 8c bb ea d4 fb 3b 60 50 e1 bd 53 71 f3 3d
       -0.004277903 0.0076852934 -0.110016584 0.11886849
0001a0 8e aa 6c 3d 07 4f 82 bd f8 ac 2a be 86 80 21 bd
       0.05777984 -0.063627295 -0.16667545 -0.03942921
0001b0 9f bb bf 3d ce 64 46 3b 36 79 b2 ba bd e2 50 bd
       0.09361958 0.0030272487 -0.0013616446 -0.050997484
0001c0 03 1f d0 bd c2 1f c6 3c 71 67 be 3d a4 4f 59 bd
       -0.10162165 0.024185065 0.09297074 -0.053054467
0001d0 69 9e 42 bd 07 d7 33 3e cb 78 99 bd 8f 1b 00 be
       -0.047514353 0.17562495 -0.074937426 -0.12510513
0001e0 7e 79 a6 3d 14 21 62 3d d5 1a 4f 3d 21 0e bd bc
       0.081286415 0.055207327 0.0505627 -0.023078026
0001f0 01 49 11 3d 30 c6 02 3d f2 bd fb 3d 61 d4 1e bc
       0.035470013 0.031927288 0.122920886 -0.00969419
000200 0b fe 35 3d 6a ba ab bc 59 e8 ea 38 43 1b 99 bd
       0.044431727 -0.020962913 0.000112012676 -0.07475903
000210 bc 44 6f 3d c2 20 11 3e 4c fc 94 bd c6 7a d1 bd
       0.05841516 0.14172652 -0.07274684 -0.10228495
000220 dd 86 fb 3d fe 4d d4 3c 3c 40 89 bd 1f 01 dc 3d
       0.122815825 0.025916096 -0.06701705 0.10742401
000230 e0 5e be bd 40 59 86 bd 5a 4e 6e bd 23 9f af 3b
       -0.0929544 -0.06559992 -0.05818019 0.0053595467
000240 22 2d 31 3d d5 38 5e 3d 29 ec a9 bc 8a 28 b2 bc
       0.043255933 0.054253418 -0.020742493 -0.021747846
000250 09 67 84 bd 35 f6 9c bd 48 7a bb 3c 46 bb cc 3c
       -0.06464965 -0.07664148 0.022885457 0.024991643
000260 e9 f0 e7 3b 5b 71 f0 bc f3 e6 1a 3c fb 9d 16 bd
       0.0070782793 -0.029350927 0.009454477 -0.036771756
000270 c4 d1 1c bc a9 10 f4 ba f9 71 d8 3d 3c c4 97 3d
       -0.009571496 -0.0018620688 0.105686136 0.074104756
000280 79 19 86 bc 12 27 e1 3c 4b 7c 92 3d f6 e4 0f 3d
       -0.016369568 0.02748445 0.07152613 0.035130464
000290 54 5f ff 38 a3 c3 42 bd 50 b8 ac bd c8 a2 e4 bd
       0.00012177104 -0.047549855 -0.08433592 -0.111638606
0002a0 3b 5a 5b 38 5a b6 37 bd c2 81 ba 3b 71 48 2c bd
       5.2297702e-05 -0.04485164 0.005691738 -0.042061273
0002b0 a3 5f af 3d 25 f0 d8 bc 6c 73 e3 3d 41 08 1e bd
       0.08563163 -0.026481697 0.11105999 -0.03858209
0002c0 fd 3c 8b 3c 31 27 29 bd da 0c 0f 3d 04 32 8f 3d
       0.016996855 -0.04129714 0.034924366 0.069919616
0002d0 ff eb 19 3e c3 b5 f8 bd bc c3 0c 3e f0 11 11 3e
       0.15031432 -0.12144043 0.13746542 0.14166999
0002e0 7b f5 18 be c1 6c 1c 3d 13 61 ee 3c e0 46 87 3d
       -0.14937393 0.038189653 0.029099023 0.06605315
0002f0 43 e8 5f 3e a9 3b ee bc ea be e6 bc 24 ef 9a bd
       0.21865945 -0.029081183 -0.028167207 -0.07565144
000300 d0 1b 47 3c f9 cc 6e 3c 4d a6 e7 bd 18 b3 8b 3b
       0.012152627 0.0145752365 -0.11311016 0.004263293
000310 6f 19 f0 3d 9c 61 fd 3b 66 8e 15 3e f9 79 6a bd
       0.11723601 0.007732583 0.14605102 -0.05724523
000320 83 da 1a 3e c5 ba 59 3d 4f 49 9e bd 8c 37 af 3d
       0.15122418 0.053156633 -0.07728826 0.085555166
000330 a6 d7 1e 3e 7a 82 b8 bd 88 0d 37 3c 56 8c ac 3d
       0.15511951 -0.090092614 0.01117266 0.084252045
000340 96 ea 0c be 66 30 ab 3d ed 7a ec 3a 93 a0 17 bd
       -0.13761362 0.08358841 0.0018042006 -0.03701837
000350 c9 98 74 3c ba 1c 44 3d c5 39 e6 3c c5 5a 90 3d
       0.014929005 0.04787896 0.028103719 0.07048563
000360 d3 c6 f1 bd ad b2 1b bd 0a 8c c1 3d b8 14 b7 3d
       -0.11805501 -0.038012195 0.094505385 0.08939499
000370 ca 1d 27 3d 14 65 9a 3d cc 61 e1 3d ff 49 17 bd
       0.040799893 0.0753881 0.110049814 -0.036935803
000380 cf ea c4 3c 02 a4 ef bd c5 b1 7a bd 8d 32 8c bd
       0.024037747 -0.11701204 -0.06120469 -0.06845579
000390 ed 01 cc bd 87 39 84 3d 50 a6 ae 3c b2 f9 9c 3d
       -0.09961305 0.06456285 0.021319538 0.07664813
0003a0 99 fe 6d 3d f0 e2 2a bd 3a 29 0c bc d5 73 88 3d
       0.05810413 -0.04172033 -0.008554751 0.06662718
0003b0 0d 74 6c bd 92 fa 85 3d e4 79 58 3d f6 1d 89 bd
       -0.057727862 0.06541933 0.05285062 -0.06695168
0003c0 75 0b db 3c 92 7b df bb c1 0c f1 3c 76 18 fb bc
       0.026738862 -0.0068201507 0.029425027 -0.030651312
0003d0 59 89 51 3d a0 e7 f5 3d 03 b5 e3 3d 71 1b 88 bc
       0.051156376 0.120070696 0.111185096 -0.016614648
0003e0 f8 5a 11 be 48 b0 19 3e b9 28 32 3d e9 d0 24 3e
       -0.14194858 0.15008652 0.043495867 0.16095318
0003f0 9d 03 56 3d 7e fe 8e 3c a9 0e d2 3d 1f e9 ab 3d
       0.05224954 0.017455336 0.102567025 0.08394074

nn_fun2.2.bias f4 [30]
000000 9e 03 22 bd 0a bf 1d bd 43 ba 2b bc 0d 5b 2c 3d
       -0.03955423 -0.038512267 -0.01048142 0.04207902
000010 78 4b 1c 3d 06 58 dd 3c f6 4c f6 bd be 93 cf 3d
       0.03815791 0.027019512 -0.12026398 0.101356015
000020 50 e1 e4 3c 09 bc ee bd ee 34 23 3e 20 69 aa 3d
       0.027939469 -0.116569586 0.1593816 0.08320832
000030 e5 19 32 3c da 0a e5 bc 22 5f 01 3e 66 ce 41 3e
       0.010870432 -0.027959276 0.12633947 0.18926391
000040 76 71 3b 3d 3f e8 dc 3d 90 36 92 3d 8a 73 94 3d
       0.0457625 0.10786485 0.07139313 0.072486
000050 ef 08 2e bd f0 97 86 3a 2e 1b f7 3d 19 eb 1c bd
       -0.04248899 0.001026867 0.12065731 -0.038310144
000060 b2 0d c0 bd ba c5 ba 3d e1 82 08 bd 29 36 a6 3d
       -0.09377612 0.091197446 -0.03332794 0.08115799
000070 23 73 68 bd 84 d4 e0 bd
       -0.056750428 -0.10978034

agg.0.weight f4 [1, 30]
000000 e7 64 24 3b 78 6a 89 37 a4 ac ed b9 12 6b 3a bc
       0.0025084557 1.6381251e-05 -0.0004533279 -0.011378067
000010 43 55 39 bd c1 d9 a8 b9 16 5a 9a 3d 08 7d 1a bd
       -0.045247328 -0.00032205696 0.07536714 -0.037716895
000020 d9 18 64 bd 6d fc 8d 39 86 27 ae 3c 35 d6 b7 3c
       -0.05568776 0.00027081688 0.02125908 0.022441009
000030 48 a7 44 bc 69 10 fd b8 6d 7d d6 bd 90 85 9e 3d
       -0.012002774 -0.00012067037 -0.10473142 0.07740319
000040 2c a3 a6 3d 7a 28 68 3b 63 25 ee bd 04 55 71 3d
       0.08136591 0.0035424517 -0.11628225 0.058918968
000050 5b 2c 32 bd 1b 38 6f b7 e3 14 86 3d b5 0e c8 b8
       -0.043499332 -1.4258573e-05 0.065469526 -9.5394826e-05
000060 14 42 1b b8 96 8f 09 3e 99 13 44 3b 32 3d 07 b8
       -3.701642e-05 0.1343368 0.0029918908 -3.22435e-05
000070 0b 3a 93 bd 8a 53 da ba
       -0.07188805 -0.0016656977
