multiple_model_analysis/results/er_experiment_MAK_size_10_49_alpha_0_scale_100_dynwght_False_std_reg_1.0_equiv_reg_0.0/neural_network.pth (torch, 16627 bytes, 14 tensors)

g.0.weight f4 [30, 1]
00000000: 5e8e 80bf 2e65 cfbe 9687 3ebf 3f34 063f
00000010: 8b78 bc3e f143 0f3f daf3 2ebf 535c 233f
00000020: 0b3a 21bf 3e60 27bb 9519 0ebf dd08 c23e
00000030: 1ef7 27be 9637 37bf eba8 31bd a332 393f
00000040: 6e02 363f 83b5 1ebf ce15 8fbd 4da5 1c3e
00000050: e406 30bf 06d9 e83e 3875 90be 52f2 363f
00000060: 5912 4d3f e3fd ef3e e9f4 1d3e 9083 823e
00000070: bcc4 51be 2c53 89be
-1.0043447 -0.4050688 -0.7442564 0.5242347 0.36810717 0.55963045 -0.6834084 0.6381275
-0.6297919 -0.0025539543 -0.55507785 0.37897387 -0.16402861 -0.7156919 -0.043373983 0.7234289
0.7109746 -0.61995715 -0.06986581 0.15297432 -0.68760514 0.45478076 -0.2821443 0.714635
0.8010612 0.46873388 0.15425457 0.25491 -0.20485204 -0.26821268

g.0.bias f4 [30]
00000000: af40 513f 0d51 05bf fbfb 0c3e 9c7d f93d
00000010: ef65 bd3e 6032 6fbe 39a8 2bbf fe98 1cbf
00000020: 0b95 ef3e 34da 53bf 2720 633e 12db d9be
00000030: 7025 6ebf 1651 0dbd 2f2f 393f e757 063f
00000040: 5a27 a33e 7098 b03e df44 19bc 0404 fb3e
00000050: 242b 943e ec44 a13e f7cf 11bf 6a1a b13e
00000060: 066a 6bbf a8e4 21bb 8ad1 34be 02ce 663f
00000070: 6a56 dc3d ca1a 59bf
0.81739324 -0.520768 0.13767998 0.12182161 0.36991832 -0.2335906 -0.6705356 -0.6117095
0.46793398 -0.82754827 0.22180234 -0.4254995 -0.93025875 -0.034501158 0.7233762 0.5247788
0.3186596 0.344913 -0.009354799 0.490265 0.28939164 0.31497896 -0.56957954 0.34590465
-0.91958654 -0.002470294 -0.17658058 0.9015809 0.1075867 -0.848065

g.2.weight f4 [30, 30]
00000000: 8ea2 cb3d 3229 18be 683c 8cbd 15bb c13d
00000010: 5a94 ee3d 274c 933d 5efe 253e a0d8 4a3d
00000020: f0ea 9cbd 1c47 2ebe 4f0e 78bd 5695 80bd
00000030: 8a9c fa3d 5261 093e dbdd 863d 6792 0b3d
00000040: e5ac 083e b488 f63d 9682 c13d bc0e 22be
00000050: 3b6a b13b cc8f bfbd 9008 46bd 7022 163d
00000060: a84f 3a3b f641 a7bd 7dd1 133c 19b1 1fbe
00000070: 8989 25bd db2d f33d d16a 2c3e bb89 cfbd
00000080: dae2 e63a ff73 60bd 64fa 353e a279 78be
00000090: a05a bebd c1b1 40be d5d6 cabc 57c3 fc3d
000000a0: aeb4 a43d f558 14be 7128 58bd cf15 1a3e
000000b0: e9a9 8c3d 63d4 453e b60e 9ebd 50a4 573e
000000c0: 2a5b 143e 7928 33bd a7f8 ca3e 1106 cdbd
000000d0: 0d0e db3d 4c5d e93d 1dae 44be 1442 473d
000000e0: e65d 34be 2409 e33d 54d1 1fbd ea76 ee3c
000000f0: 85ff 0c3d cbcb 253d 19ce 8f3c b556 a3bd
00000100: 6a53 813d bf57 833b dcc6 973d 1f68 173d
00000110: 292f ab3c fbc0 a83d 8964 76bb d6e6 4dbb
00000120: 1c2d d5bd 290a 5bbd 23a7 e8bc 525b a6bd
00000130: e68e c73d ff2b 5ebc 6290 94bc 22db a53d
00000140: 3fc9 43bb a22c 3dbd 21aa 6f3d 8e73 84bd
00000150: d6c2 82bd 420c 87bc a572 3fba a102 a13d
00000160: 03bf fcba c6fe e6bd 2784 e43b be26 5abd
00000170: 6895 82bb 13fb 07bb 74a8 c53c 642d 73ba
00000180: 413c 0bbd 1821 cf3c 21eb 033b 3863 9f3d
00000190: 40c1 353a 1ae9 bb3c 954b 42bc ec90 053d
000001a0: 89d4 733d 13e3 1abd f8fb d1bc 0070 bbba
000001b0: ff43 b63b 93ec 58bb 3405 c039 0585 2a3d
000001c0: 7da0 01bd 6716 593d 85a6 37bc a852 3b3c
000001d0: 9b2b d9bc fe91 4abd 274f 133c 79be 0b3d
000001e0: 03cd cdbd 5076 1abe f6d6 4eb8 a85e 4cbd
000001f0: b74b 103d 43f9 933d 9970 293e 2c06 82bd
00000200: 3030 a13d 995c f3bd e73e 34bd 4ae4 943d
00000210: 6fa2 08be a6cb c3bc 649e 13be d4eb 34be
00000220: 9fd7 27be f22a b3bd b604 a33d 0d30 723d
00000230: bb0a 6ebd e971 30be 6699 1e3e afd2 e9bd
00000240: 2606 d1bd aa59 303d 8c66 14bd 6db0 bd3d
00000250: 8f9f 003e b0df b4bd 770c da3d 72c6 723d
00000260: 3551 01be 59f5 3dbd c1a8 f5bd 52ab b7bd
00000270: c3fd 22be 535d 4fbe c508 0fbe 28a5 433c
00000280: 189c 473e 9378 35be 8983 12bd 9472 1a3e
00000290: 3eb0 dcbb 62b1 18be 86eb 153e 42cd 1a3d
000002a0: 6583 67bd 8dda c13d 5f37 8d3e deda cb3c
000002b0: a0ad 1cbe 9fbf 48bd 069d c43d 58cb dfbd
000002c0: f26b 33be 6072 4b3e e70a ffbd 27e6 6dbd
000002d0: 38d8 223c bda9 023c d137 80bc 99d4 e9bc
000002e0: 13de 06be 0ef8 bdbd 3376 a23c 84fb 95bc
000002f0: dd6a ed3d 9c8a 5cbd ce3c 3c3c 5e7b e8bc
00000300: fff3 d83d 236c 10be b2e0 eb3b 0384 fabd
00000310: e299 433d 0698 13be 3ca4 2bbe 1d30 27be
00000320: 74f1 1e3d e7cd 553c 61ca 753d 87ec 313e
00000330: 6190 113e 8f97 0b3e 1d12 b5bb 3bdd 40bd
00000340: 27e6 c1bc 4a72 48bd 8683 7d3c 814f ef3c
00000350: 8f23 9ebb b43d dabc 5331 c13c 01f7 ce39
00000360: 0cf0 473d f81c d5bc 622b 66bb 46c3 8cbc
00000370: 5a6a 6eb9 9205 f4bb 9422 463d ed2e e1bc
00000380: b22a 9ebc d3d0 9f3a a6cd 463d 7a8c f9b9
00000390: 4843 80bb a502 41bd 145f 39b9 87bb 843b
000003a0: 9317 5c3c e715 f7bc ce74 833c 66ca fcbb
000003b0: cea9 1aba 0c9a 5dbc 2e1a 9eba 12ae f6bc
000003c0: 51a2 d33d 8ff2 9b3d 7394 bc3c b0e6 ea3c
000003d0: f3ed 97bd 0c16 bc3b fab5 f33d 4374 5d3d
000003e0: d026 acbc 4214 e93c 0a0c bdbb fb72 e83c
000003f0: cfa3 65bb 1eae 9ebd 6476 243d 6fea da3d
0.09943114 -0.14859465 -0.06847459 0.09459511 0.116493896 0.07192259 0.16210315 0.049522996
-0.07661998 -0.17019314 -0.06056052 -0.062784836 0.12236889 0.13416031 0.06585284 0.034075167
0.13347204 0.12037793 0.094487354 -0.15825933 0.005414275 -0.09353599 -0.04834801 0.036653936
0.0028428826 -0.08166878 0.009022114 -0.15594901 -0.040414367 0.118739806 0.16837622 -0.10133692
0.0017615214 -0.054798122 0.17771298 -0.24265149 -0.09294629 -0.18817808 -0.024760643 0.123419456
0.080422744 -0.1448706 -0.052772943 0.15047382 0.06868345 0.193193 -0.0771765 0.21058774
0.14487901 -0.04373977 0.39642832 -0.10010923 0.10696039 0.11394748 -0.19207044 0.048647
-0.17613944 0.11085728 -0.03901799 0.029109437 0.03442337 0.040477555 0.01755433 -0.079755224
0.06314738 0.004008263 0.07410976 0.036964532 0.020896511 0.08239933 -0.0037596545 -0.0031418107
-0.104089946 -0.053476486 -0.02840001 -0.08122887 0.097440526 -0.013560294 -0.018135253 0.08098437
-0.002987459 -0.046185143 0.058511857 -0.06467353 -0.06384818 -0.016485337 -0.0007303155 0.078618295
-0.0019283 -0.11279063 0.0069737616 -0.053259604 -0.003985096 -0.0020749017 0.024128176 -0.0009276478
-0.03399301 0.025284335 0.0020129161 0.07782596 0.00069333985 0.0229383 -0.0118588405 0.03260891
0.05952886 -0.03781421 -0.025632843 -0.0014300346 0.005562305 -0.0033099994 0.0003662497 0.041630764
-0.031647194 0.05299988 -0.011209135 0.011433281 -0.02651005 -0.049455635 0.008991039 0.034117196
-0.100488685 -0.15084195 -4.9314425e-05 -0.04989496 0.035228457 0.07225277 0.16546859 -0.063488334
0.07870519 -0.11882896 -0.0440053 0.07270105 -0.13343213 -0.023900818 -0.1441589 -0.17668086
-0.16390847 -0.087484255 0.07959883 0.059127856 -0.058115702 -0.17230953 0.15488204 -0.11417138
-0.10206251 0.04305426 -0.03623061 0.09262166 0.12560867 -0.088317275 0.10646909 0.059271283
-0.12628634 -0.04637656 -0.11995078 -0.08968224 -0.15917115 -0.20250444 -0.13968189 0.011941232
0.19493139 -0.17721777 -0.035769973 0.1508277 -0.006734877 -0.14911416 0.14640626 0.037793405
-0.056521792 0.094655134 0.27581307 0.024884637 -0.15300608 -0.04901087 0.09600262 -0.109274566
-0.17521647 0.1986785 -0.12453251 -0.05808082 0.009939246 0.007975039 -0.015651615 -0.028543757
-0.13170652 -0.09275828 0.019831752 -0.018308409 0.11592648 -0.053843126 0.011489106 -0.028379139
0.105934136 -0.14103751 0.0071984166 -0.122322105 0.047754176 -0.14413461 -0.16761869 -0.16326948
0.038804486 0.013049579 0.060007457 0.17375384 0.14215232 0.13632034 -0.005525841 -0.04708598
-0.023669316 -0.04893712 0.015473252 0.029212715 -0.0048260163 -0.02664075 0.02358309 0.00039475414
0.04881291 -0.02601479 -0.0035121073 -0.017182957 -0.00022737068 -0.007446953 0.04837282 -0.027488196
-0.019307468 0.0012192972 0.048535965 -0.00047597644 -0.0039142706 -0.047121663 -0.00017678394 0.0040506753
0.013433355 -0.030161811 0.016046908 -0.0077145575 -0.00058999367 -0.013525497 -0.0012062246 -0.0301123
0.10333694 0.07614624 0.023020005 0.028674453 -0.07418432 0.005739933 0.11899944 0.054065954
-0.021014601 0.028452042 -0.0057692574 0.02837514 -0.0035040264 -0.07748054 0.04015197 0.10689246

g.2.bias f4 [30]
00000000: a804 b53d d6fa 013e c121 96bd eed8 4fbc
00000010: b9c0 babd 1907 403e b5f6 2e3e 7050 a23d
00000020: 0b8a e8bd 0ba7 993d ce11 263d ae23 373e
00000030: 6dff 7a3c a81b 5cbd fd95 983d 0f92 c3bd
00000040: 12eb 8cbd 664f cabd df48 13be 5809 0a3e
00000050: e571 053d 4713 6dbb 265e 163e 19de 24be
00000060: 262f f1bd 3762 00bc 833b ee3c 9483 283d
00000070: 4777 dd3d a7fd 323e
0.08838779 0.12693343 -0.07330657 -0.012685997 -0.0911879 0.18752708 0.17086299 0.079254985
-0.113544546 0.07502564 0.040544324 0.17884704 0.015319687 -0.053737313 0.07450483 -0.09549343
-0.068807736 -0.09878425 -0.14383267 0.13480127 0.03257932 -0.003617482 0.14684352 -0.16100349
-0.11776571 -0.007835916 0.029081112 0.041141108 0.10813766 0.17479573

g.4.weight f4 [1, 30]
00000000: ea5c ec3a c6a1 c43d 15e0 e439 9eee c8b7
00000010: aa93 8dbd 291d fc3d 7928 80ba 45e1 7038
00000020: d4ad 8e3a 3a7e ae3d d206 0cb9 f590 183e
00000030: fba1 02b8 cbd9 5fb9 0e2e 9eb9 4eea b3b9
00000040: a440 2bbd f9a5 8ab8 b3b1 e03a a5d3 81ba
00000050: 5a5d a7bc f5a0 ea39 5664 b53a 3429 0a3b
00000060: e099 02bb ea0e 09be 0370 8abc f4fc da3a
00000070: 35c9 34bb e6fa 5dba
0.0018033062 0.09601168 0.00043654503 -2.3952973e-05 -0.0691293 0.12310249 -0.0009777687 5.7430258e-05
0.0010885545 0.085201696 -0.00013353981 0.14899047 -3.114527e-05 -0.00021348071 -0.00030170422 -0.0003431611
-0.041809693 -6.6112676e-05 0.0017142802 -0.0009904994 -0.020430256 0.0004475188 0.0013839107 0.0021081688
-0.0019928142 -0.13384596 -0.016899114 0.0016707466 -0.002758575 -0.0008467868

nn_fun1.0.weight f4 [30, 1]
00000000: 2ef6 4cbf e49e 553f b282 8b3f dfa4 13be
00000010: 409c 38bf 0e7c 68be e918 3abe 5a05 12bf
00000020: 71f0 cabe 91aa 29bf 99f0 603d bb86 22bf
00000030: b76f 043e 8529 b83d 7854 223f 2441 d1be
00000040: 0957 36be 720a dd3e 1d20 02be 6c79 cc3d
00000050: 7294 23bf 033f 263f 2787 353e 342c cfbe
00000060: fa1f b6be 79f4 66bf b8dc 17be 19a9 503f
00000070: 952e 47bf 5666 97be
-0.8006314 0.8344557 1.089926 -0.14418362 -0.7211342 -0.22703573 -0.18173565 -0.57039416
-0.39636567 -0.6627589 0.05491695 -0.6348683 0.12933241 0.08992294 0.6341014 -0.4087001
-0.17806639 0.43172032 -0.12707563 0.09984097 -0.63898385 0.649399 0.17727338 -0.40463412
-0.3557127 -0.90216786 -0.14830291 0.8150802 -0.77805454 -0.29570264

nn_fun1.0.bias f4 [30]
00000000: 026d 21bf b2d0 12bf 6e17 17bf 5aaa a63e
00000010: a592 19bf 1185 803e 5b14 4abf 9478 f63e
00000020: 2854 733d ee69 1cbf 7bfe 0f3f 98d1 f33d
00000030: 683a 873c 2489 babc e01a ee3e 3189 f2be
00000040: 5910 913e 31d6 9abd d609 debe d231 5c3f
00000050: 2264 0a3e abbe 403e 632e 6bbd dfd5 34bf
00000060: 2bba 38be af73 94bb 6321 123f ffeb 96be
00000070: 68bb b63e 3826 193f
-0.6305696 -0.57349694 -0.59020126 0.32551843 -0.59989387 0.25101522 -0.7893731 0.4813887
0.05940643 -0.61099136 0.5624768 0.11905211 0.016507342 -0.022770472 0.4650488 -0.47370294
0.28332785 -0.07560385 -0.4336688 0.8601352 0.1351476 0.18822734 -0.057417285 -0.7063884
-0.18039767 -0.004530392 0.57082194 -0.29476926 0.35689855 0.5982394

nn_fun1.2.weight f4 [30, 30]
00000000: 61eb 2b3e ba76 0c3e b5d4 093e 5474 5f3d
00000010: b6e5 6a3c ce40 d53d 80c1 0cbc 6df3 35bb
00000020: 7ff4 b53d 1358 9f3d e7b0 c83d 63e4 bebd
00000030: 7250 fbbd 0d75 a2bd c83f b33d 5d17 823d
00000040: a3d1 193d 8c21 cfba 14f7 623c dfcc 08bd
00000050: 0f90 b5bd e70a 27bc 8aed 6f3a 0105 37bd
00000060: dc94 2ebe 2fb4 873d 2d4b 38be 4acf 783d
00000070: 2bf1 53be 85d1 203e dd53 81bd 4491 40bd
00000080: 4caf da3d 7abb 27be a015 68bd d405 5c38
00000090: 4a1b fb3c 04fa 12bd b789 b23b e0bb ee3d
000000a0: 1e0b 31bc 7e0f 87bc ff6f 8c3c 965f 5bbb
000000b0: de3e 683d 1d05 cfbd 4f36 1a3d bc48 c73b
000000c0: 1b43 043d 021e 19be faea 563b b875 b83d
000000d0: fa2b b6ba 32d8 b7bd 59bf 32bd 9d8b 58bd
000000e0: 7864 393d 4ae6 7c3b 3187 6a3c fbb5 46bd
000000f0: 7794 abbd 9309 0bbd cb73 b6bd 3b00 583d
00000100: cdc1 92bc d43a 39be cf09 6bbd e93a 4fbd
00000110: 2819 74bd 287f 083e 371d 3ebe b5f1 51bd
00000120: c426 0d3c c915 c3bb 8051 9c3d 60d1 d3bd
00000130: 6867 91bd 0845 2e3c 3951 3d3c 6e6a 733d
00000140: b1fd 653e bcce a1bd 72fe 343d 61b5 26bd
00000150: 3ddd 95bd c96c b33d 5214 653d b4eb 18bd
00000160: ab63 7b3d 0e24 853c 9cb0 48be 968e 713e
00000170: 2998 423d 4d49 623d a75b adbd 3659 ae3d
00000180: 8481 c939 8eed cc3c e0b1 75be 8e7f c93c
00000190: cfb8 843d 72d0 6dbe 8251 94bd 58d2 45bd
000001a0: c370 993d 91ed 23bd d2d5 d23c 7a5e 143d
000001b0: a379 57bc aca6 813d 30e8 77be c7f2 a83d
000001c0: 2d5c f43d 592c 15be 47a8 2ebe 2d22 12be
000001d0: 08cc cebd 7b0c c73e aed9 a0bd 5232 a8bc
000001e0: 05cc 083e 2c16 febd e96d 8fbc c2bb a4bd
000001f0: d58d d23d 6188 003e 8999 113e 1d95 a2bd
00000200: 761c 6dbc d997 f73a dadf 1ebc 0a11 21bd
00000210: 0dd7 58bc f59f 8a3b 1735 6f3c c95a 5ebd
00000220: 3250 a03d c554 efbc 70ba 5a3c 00bd d03a
00000230: 1f0a 173d 2ff1 dcbb 5d99 f3b9 c0e4 23bd
00000240: 6d72 e93c 6b53 803d 7dc5 0a3e 5da8 adbb
00000250: 7e75 353d 8a21 1b3c 70d7 2e3d e48c d1bc
00000260: 79c7 4abc 6830 3b3d ec7a 9ebd 36dc 923c
00000270: 47ca 673d 90d2 38bc 357d d2ba ae5e 603d
00000280: a21b 31bc 8e08 123a 1d72 883a 25ff 36b5
00000290: 2d3e 193b 5bed 41bd 3971 7c3c b9cb 1a39
000002a0: 560b f23b 1479 58bd fd10 c3b9 e669 013c
000002b0: add6 5438 4201 30bd 58cb 88bc dfc2 343c
000002c0: 7061 973c 4229 af38 6018 5a3a 7ebf 51bb
000002d0: 3bc7 423e a619 15be 0896 17be 0bf7 e0bd
000002e0: 2c3c 343e 7806 9f3c ad66 0fbe fc71 97bd
000002f0: db01 d83d 32f7 303c 088b 1b3e 2ea9 813e
00000300: 020a e43b cd76 b0bd dbac 133d 3b8f 343d
00000310: 133e db3c 9607 1abe 6871 4e3d 535e 5e3d
00000320: f24a 803e cd55 eb3d 6843 c1bc dcc9 1bbe
00000330: ddc6 1b3e a5f7 623e 22c8 81bd 8942 24be
00000340: 0e86 7c3e cad9 d0bd 17d0 35bc e1b3 5a3e
00000350: e13a 1d3e 4555 873d cf84 b03d d1bf 11bd
00000360: 8e88 abbd c29d 893c 992a 793c 724e 0b3e
00000370: a3aa ff3d 7fda 64be 12ad a53d 4484 c13d
00000380: f476 a63d 4008 28be 2e19 c4bc 82b5 553e
00000390: 25d6 b13c 089a 163e 428c 6fbe 6250 22bd
000003a0: 5666 363e cf7d 55be cb68 d73d 44fb 52be
000003b0: 6e07 b33d 5a5b a73e 224d a3be 68f8 8fbd
000003c0: 9526 d33c ef33 6abd d7d8 f33a 9709 f0bd
000003d0: 9846 f1bd 26da ecbd 00cd 893d 991a fbbb
000003e0: 18ff 933d 0659 45bd df6f 053d 3119 fc3c
000003f0: 2709 35bd d845 a6bb 27de 41bd 0e0f 7a3c
0.16789009 0.13717166 0.13460048 0.0545543 0.014336994 0.10412751 -0.008591056 -0.0027763501
0.088845246 0.07780471 0.097993664 -0.09320905 -0.12271203 -0.07932482 0.087524 0.063521124
0.03755344 -0.0015802844 0.013852853 -0.033398505 -0.088653676 -0.01019547 0.00091525225 -0.044682506
-0.17048973 0.06626164 -0.17997427 0.06074456 -0.20697467 0.15704925 -0.06314824 -0.047013536
0.106779665 -0.1638011 -0.05666125 5.2457515e-05 0.03065266 -0.035882965 0.005448546 0.11656928
-0.010805873 -0.01648688 0.017143248 -0.0033473722 0.05670058 -0.10108397 0.03764945 0.0060816687
0.03229056 -0.14952853 0.0032793866 0.09006828 -0.0013898604 -0.08976783 -0.043639515 -0.05286752
0.04526183 0.0038589411 0.014314459 -0.048513394 -0.08377927 -0.033944678 -0.089088045 0.052734595
-0.017914677 -0.18088847 -0.0573824 -0.05059329 -0.059594303 0.13329756 -0.18565832 -0.0512559
0.0086151995 -0.0059535247 0.076327324 -0.103426695 -0.07099801 0.0106365755 0.0115550095 0.05942767
0.22460057 -0.079007596 0.04418797 -0.04070032 -0.073175885 0.087609835 0.055927582 -0.03733416
0.061374348 0.016252544 -0.19598621 0.23589548 0.047508392 0.055245686 -0.08464747 0.085131094
0.00038434204 0.025015619 -0.23993635 0.024596956 0.06480562 -0.23224047 -0.07242109 -0.048296303
0.07492211 -0.040021483 0.025736723 0.036222912 -0.013151559 0.06330618 -0.24209666 0.08249431
0.11931644 -0.14567699 -0.1705638 -0.1427085 -0.100975096 0.3887671 -0.07854019 -0.020531807
0.13359077 -0.12406573 -0.017508464 -0.080436245 0.102809586 0.12552024 0.14218725 -0.07938597
-0.014472118 0.0018889859 -0.009696925 -0.03932289 -0.013234866 0.004230494 0.01460006 -0.0542858
0.07827796 -0.029215226 0.013350114 0.0015925467 0.036874887 -0.0067426185 -0.00046462836 -0.040013075
0.028496945 0.06265911 0.13551898 -0.0052996115 0.044301502 0.009468446 0.042685926 -0.025579877
-0.01237666 0.04570046 -0.07738289 0.01792727 0.05658939 -0.011280671 -0.0016059043 0.054777794
-0.010809811 0.0005570733 0.0010409985 -6.817157e-07 0.0023383007 -0.0473455 0.015407854 0.00014762477
0.0073866053 -0.052849844 -0.00037205956 0.007898783 5.074467e-05 -0.04296995 -0.016698524 0.011032789
0.018479079 8.352335e-05 0.0008319672 -0.0032005007 0.19021313 -0.14560565 -0.14803326 -0.1098462
0.17601079 0.019412264 -0.14004011 -0.07394788 0.10547229 0.010801123 0.15189755 0.25324386
0.006959201 -0.086164095 0.03605352 0.044081908 0.026762998 -0.15041956 0.05040112 0.054289173
0.2505718 0.114909746 -0.023591712 -0.15213722 0.15212579 0.22164781 -0.063370004 -0.16041006
0.24660513 -0.1019779 -0.011096976 0.21357681 0.15354492 0.06608061 0.08619081 -0.03558332
-0.08375655 0.016798858 0.01520791 0.13604143 0.12483718 -0.22348975 0.08089651 0.09449056
0.08128157 -0.16409397 -0.023937788 0.20870021 0.021708557 0.14707196 -0.23393348 -0.03962744
0.17812476 -0.20848773 0.105180345 -0.20603663 0.087416515 0.32686883 -0.31894785 -0.070298016
0.025775233 -0.057178434 0.0018604052 -0.11720579 -0.11781043 -0.11565046 0.06728554 -0.007663083
0.0722639 -0.048180602 0.03257739 0.030773731 -0.04419818 -0.005074244 -0.047331 0.015262378

nn_fun1.2.bias f4 [30]
00000000: 3f83 223e 67be 2c3d c7c1 53bd 9ab2 e03c
00000010: 4532 0f3e 8055 fabc 35fe 013e d7b1 02be
00000020: fc06 55bd a5f4 c93d 0d7a 003d 8e53 17be
00000030: d6f2 093d a68c 3dbd 0572 de3b 6abc 95bd
00000040: 19a5 4e3d 22d6 093e 9a0f 9f3d b4cf db3d
00000050: 79d7 0ebe 6cfd ebbc 6a77 2e3e f26e 40bd
00000060: e042 01be 09e3 0fbd 71ab 103e 1cfc bdbc
00000070: a8ce 323e 333f eb3c
0.15870379 0.04217377 -0.051698472 0.027428914 0.1398402 -0.030558348 0.12694629 -0.12763153
-0.052008614 0.09861115 0.031366397 -0.14777967 0.033678852 -0.04627671 0.0067884945 -0.07311328
0.05045042 0.13460591 0.07766648 0.107329756 -0.13949384 -0.028807364 0.1703774 -0.046980806
-0.12623167 -0.035128627 0.141279 -0.023191504 0.17461646 0.02871666

nn_fun2.0.weight f4 [30, 1]
00000000: 1cf9 703c 75ba 063f 184c 9bbe 8614 293f
00000010: 0b04 31bf fadd 34bf 2cda f73e accd 073f
00000020: 9b04 393e eb72 0cbf 770c 203f 7df9 34bf
00000030: 1a90 52bf bfd4 c13d b478 433e 3400 4a3f
00000040: cb34 d8be 3b9a 05bf 66f8 1fbf 2284 a83e
00000050: 93f2 fa3e 16ca 9a3d e65e 033f 5bcc a3be
00000060: 9649 c3bd 88e4 d5bd 2205 5d3f aba9 093e
00000070: 1e69 a13e 72d9 393f
0.01470783 0.5262826 -0.30331492 0.6604694 -0.69146794 -0.7065121 0.4840864 0.53048205
0.18068163 -0.5486285 0.6251902 -0.7069319 -0.8225113 0.09464406 0.19089013 0.7890656
-0.42227778 -0.5218846 -0.624884 0.3291331 0.49013194 0.07558076 0.5131668 -0.31991848
-0.0953552 -0.104439795 0.8633596 0.1344363 0.3152551 0.7259742

nn_fun2.0.bias f4 [30]
00000000: a79b 27bd fd0a 29be 6547 18bf dbd0 27bf
00000010: 3c0b d23c fc30 613e 3730 a03c af90 06bf
00000020: e6ba 35bf fc1e ce3d d5d9 4e3f e51a 793f
00000030: 3b3f 873e a262 cbbe f9f6 42bf 3b72 053e
00000040: bfb2 213f f858 87bc 8f94 bd3e 38ab b7be
00000050: 8580 c23e 55e4 d0bc d5c2 44bf 0161 1e3f
00000060: eb2a e03c b058 00bf c9fc 37be 6a37 e13e
00000070: d2b9 b8be 1254 093f
-0.040919926 -0.16508098 -0.5948394 -0.65553063 0.025640123 0.21991342 0.01955424 -0.5256452
-0.7098831 0.100645036 0.80801135 0.9730666 0.2641543 -0.39723688 -0.761581 0.13031857
0.6316337 -0.016521916 0.37027404 -0.35872817 0.37988678 -0.025499502 -0.7685979 0.61866766
0.027364215 -0.50135326 -0.17967524 0.4398759 -0.3607927 0.53643906

nn_fun2.2.weight f4 [30, 30]
00000000: 34d8 9cbd 3813 003e 26f9 1b3e 6f2a 233e
00000010: 5f10 9dbc 82d1 14be b849 e23d b17e 393e
00000020: 17bb 94bd d251 353b b69b ca3d 4048 1bbe
00000030: 74da 42be 3010 41bd 81fa 953d 5430 f2bb
00000040: 28e0 183e 8767 e9bd 1a38 b93d 2033 02bd
00000050: 8091 323d cea2 fbbb a8fc ebbd 1569 c63d
00000060: 90c7 733d 1892 06be ce9c 73bc 0079 453c
00000070: e9af 91bd 7a0a 09be 743d b0bd c191 32bc
00000080: e52f 65bd 9e59 94bd 1663 473d 8be8 543c
00000090: a178 e53d 3ad7 c4bc ad7e ca3d 9f36 50bd
000000a0: 18e6 e0bd 5955 c73d be45 1e3d b627 173e
000000b0: ef34 cabc 91c1 b23d edaa 02be 445d cebc
000000c0: ddfa 60bd d99e f9bd 06fd 603d 3554 533c
000000d0: a3e4 79bd 8f1a 53bd 2fea 783d bf1d 12be
000000e0: 254b 1bbe fb60 c6bd 6fe8 b5bd 2e4d cfbd
000000f0: 2147 24bc 8fc8 3e3d 1c06 c73c 41e9 ac3d
00000100: fad9 053e fb6b 063e 1761 54be f0f1 63b9
00000110: a279 3fbd 7ad1 043e 8794 003d 7cd3 a93d
00000120: e329 bd3d b543 adbd a31e 07be 47c9 ebbd
00000130: eaac ec3b e1c5 37bd f5ae fdbc c8c0 f13d
00000140: 574d 60be e7fe fe3c e260 9ebd 3008 cb3b
00000150: 8e02 70bd 6b7b 713c 3c81 c33d b041 903d
00000160: bf61 5c3d a49e 0d3d 34d3 febd 9546 9c3e
00000170: 2d47 f63d 205e 943d e7c6 eabb 99d2 8bbe
00000180: bb4b 5c3e 7e43 273e 4723 c0bc d05d 5fbe
00000190: 3f47 3c3e 289e c93d 6cb2 d0be 1576 893c
000001a0: 2bbd 38be 452c 1a3e 01e1 e8bd 697e aa3c
000001b0: aaf5 e9bd d832 143e d6fe 113e 1d21 5e3d
000001c0: e285 a73d 10e8 f6bd 1ac1 14bc e494 ddbd
000001d0: 1b4f 4e3e d007 e5bd d008 0b3e d2f8 f73d
000001e0: 8958 85ba cb9f bcbb 9e68 a239 7b2a 0cbd
000001f0: 64a8 20bc 767a fa3b 4f92 0e3c 51af 49bd
00000200: 5f67 3b3d 82c9 8d3b 4646 f8bc b773 83bb
00000210: a05b 083c f080 7dbd 494c a5bd 565b 623d
00000220: cbcc e6bb 9369 dc3c 89f9 59bc 7671 15bd
00000230: 12ea 4ebc dd54 05bb 560a 77bd b68f 7bbc
00000240: 32a1 303b 9aa2 a73d c674 3dbc e39a 19bd
00000250: 8966 89bb 7803 30bd 9610 c6b9 9da4 b739
00000260: b010 793d 70de 94bd d45e 813c c135 c4b9
00000270: 93c1 673b 9aa3 68bd c2b9 8dbd 9196 cfb9
00000280: 568c 61bd 02bc 5dbc 728a e0b9 9e3a 7cbd
00000290: bac4 b03d 9b62 e0bc cbcc 91bd 3c11 bc3c
000002a0: 3544 193d cc78 68bd c09d 35bd 6952 2438
000002b0: feb8 c4bc b9b8 8dbd ab45 00bb 9990 e2bc
000002c0: ffee ea3b a167 873c d7cb 3dbd 032e 0c3d
000002d0: 5b90 ab3b 4564 4f3d 6785 9f3d 1e55 08be
000002e0: 2f3b 16b9 c7a6 e7bd e234 063e 7a6f a73d
000002f0: bff0 2dbe e436 58bc b709 13bd 62db 7c3d
00000300: cea9 19be 44d0 e73c 8467 d63d 4577 1fbd
00000310: 8667 023d d3df eb3c ae5d ef3d 5828 c7bc
00000320: d63b f23d 4e1c 2cbc 9f06 64bd 48a2 9ebd
00000330: f566 c63c 0b39 953d 8e6c d23b 3991 c3bd
00000340: 69b9 a8bd a863 5f3d 5575 a73d 34c6 37be
00000350: c8f1 12be 2987 3cbd effa 713e c5bf 443e
00000360: 1aca 1dbe 7e55 883c 5163 8d3d 3200 c13d
00000370: d9d9 adbd 386c 0d3e 5620 4b3e d56f 823d
00000380: 9c3f 0f3e bee7 25be 8013 d13d 9066 4a3d
00000390: bc02 093b fbe9 4ebd 567a 22be d8c1 163d
000003a0: eb0e d3bd 8333 cebd 93f2 c5bd 4f50 b63a
000003b0: c91b c83c af6b f5bd 4ee7 1ebe d116 7b3d
000003c0: 9101 a9bb 0e6f b9bb 6352 94bd 5ec9 26bd
000003d0: c6b7 8e3d 63a9 f53b e0a1 e5b9 4423 16bd
000003e0: e869 f8bd b86b 503b 64d3 a8bd 2290 cd3d
000003f0: b52f d53b c312 8c3d 4a0b ea3d 9527 d1bb
-0.07658425 0.12507331 0.15231761 0.15934156 -0.019172845 -0.14533046 0.11049217 0.18114735
-0.07262247 0.0027667177 0.09892981 -0.1516428 -0.19028646 -0.04713458 0.073231705 -0.007391015
0.14929259 -0.113966994 0.09043904 -0.031787038 0.04359579 -0.00767932 -0.115228 0.096880116
0.05951649 -0.13141668 -0.014868928 0.012052774 -0.0711363 -0.13382903 -0.08605471 -0.010899008
-0.05595388 -0.072436556 0.04867848 0.012994896 0.11204649 -0.02402841 0.09887443 -0.05083334
-0.10981387 0.09733076 0.03864073 0.14761242 -0.024683444 0.08728326 -0.12760516 -0.025190957
-0.054926742 -0.12188501 0.054928802 0.0128984945 -0.06100906 -0.051539 0.06077021 -0.1426916
-0.15165384 -0.09686466 -0.08882224 -0.10122143 -0.010026724 0.046577986 0.024294905 0.08442927
0.13071433 0.13127129 -0.20740162 -0.00021738536 -0.046746857 0.12970534 0.031391647 0.082922906
0.09236505 -0.0846018 -0.1319528 -0.11513 0.0072227614 -0.044866446 -0.030967215 0.11804348
-0.21904503 0.031127406 -0.07733323 0.0061960444 -0.058596186 0.014738898 0.09546134 0.07043779
0.053804155 0.03457512 -0.124426275 0.305226 0.120252945 0.072445154 -0.0071648243 -0.2730911
0.21513264 0.1633434 -0.023454322 -0.2181313 0.18386553 0.09844619 -0.40761125 0.016779939
-0.18040912 0.1505595 -0.11371041 0.02081223 -0.1142381 0.1447252 0.14257368 0.054230798
0.08179833 -0.12055981 -0.009079242 -0.10819414 0.20147364 -0.11183131 0.1357758 0.121080056
-0.001017348 -0.0057563535 0.00030976994 -0.0342202 -0.009805772 0.007643993 0.008701875 -0.04923946
0.04575288 0.004327 -0.030306946 -0.004011597 0.008322626 -0.061890543 -0.08071191 0.055262886
-0.007043456 0.02690581 -0.013304123 -0.036485158 -0.012629049 -0.0020344772 -0.06031259 -0.015354088
0.0026951549 0.08185311 -0.0115634855 -0.037501227 -0.0041931313 -0.042972058 -0.0003777786 0.00035027126
0.06080693 -0.07268989 0.015792288 -0.00037424083 0.0035363182 -0.056796648 -0.06920196 -0.00039594297
-0.055065475 -0.013533594 -0.0004282776 -0.06157934 0.086312726 -0.027390769 -0.07119139 0.022957437
0.037418563 -0.056755826 -0.044339895 3.9177397e-05 -0.024013992 -0.06919999 -0.0019572775 -0.02765684
0.007169604 0.016528906 -0.046336975 0.034223568 0.0052357144 0.050632734 0.07789116 -0.1331372
-0.00014327162 -0.11311107 0.1310611 0.08175559 -0.16986369 -0.013196681 -0.035897937 0.061732657
-0.15006182 0.028297551 0.10468963 -0.038932104 0.03183701 0.028793251 0.1168779 -0.02431123
0.11827819 -0.010504795 -0.055670377 -0.077457964 0.024219016 0.07286271 0.006421632 -0.095491834
-0.08238489 0.0545384 0.08176676 -0.17946702 -0.14350045 -0.046027336 0.2363088 0.1921378
-0.15409127 0.016642328 0.06903709 0.094238654 -0.08488817 0.13810813 0.19836554 0.063689865
0.13989109 -0.16201684 0.102087975 0.049414217 0.002090617 -0.05051611 -0.1586698 0.036805958
-0.1030558 -0.10068419 -0.09665408 0.0013909432 0.024427311 -0.1198343 -0.15517923 0.061301056
-0.0051576574 -0.0056589907 -0.072422765 -0.040719382 0.06968646 0.007496999 -0.0004379889 -0.036654726
-0.12129575 0.0031802487 -0.082434446 0.10037257 0.0065059313 0.06839516 0.114279345 -0.0063828924

nn_fun2.2.bias f4 [30]
00000000: 8189 0dbd 85a9 8f3c b802 303c aef9 163e
00000010: 0ce8 ae3c 049a 3d3d 256c 233e a284 3fbe
00000020: 342f 1ebd d064 f8bd e210 7e3d ceef 923d
00000030: bea0 573c 3fd2 e9bd db3d 8bbd b87e a73d
00000040: 2e82 e33d 0b51 4c3d f69f 88bd 8f4b e33d
00000050: 1e6c c43d d931 f33d 24a7 f6bd de5b acbd
00000060: 54fc dbbd 3b03 ee3d 5dd2 f9bc 697c a73d
00000070: 0c9b 5abd 92ee 9a3d
-0.034554962 0.017536888 0.010742836 0.14743683 0.021350883 0.04628946 0.15959223 -0.18702939
-0.038619235 -0.121286035 0.06202782 0.07174645 0.0131608825 -0.114170544 -0.06798907 0.081784666
0.11108814 0.049881976 -0.06671135 0.11098396 0.09590934 0.11874742 -0.12043598 -0.0841596
-0.10741487 0.1162171 -0.030495817 0.08178026 -0.05337052 0.07565035

agg.0.weight f4 [1, 30]
00000000: 458a bcbd 8df3 c23b cb04 523d 9044 bbbd
00000010: e871 ad3b 9d98 aab9 9cf3 803c 950d f63d
00000020: bd08 563c a62e c9bb 716b 46ba 3470 fbbd
00000030: 59df c93d 2e26 a63b b1b5 eb3d bff0 a039
00000040: 0b9e 8b3a 8c61 d93b c209 afba 3b01 7f3a
00000050: b669 ca3c 6495 6abd fa69 113e 8e9c e9bb
00000060: ab92 18bd 9df8 f33c 66e1 053c 8cfe 56b9
00000070: e24e f9bd 3b26 a338
-0.0920606 0.0059494437 0.051274102 -0.09143937 0.0052931197 -0.00032538633 0.015741162 0.12014309
0.013063607 -0.006139594 -0.00075691106 -0.122772604 0.09857053 0.0050704693 0.11509264 0.00030696948
0.0010651959 0.006633943 -0.0013354348 0.00097276614 0.02470861 -0.057271376 0.14200583 -0.0071292585
-0.03724925 0.029781634 0.008171415 -0.00020503456 -0.12173249 7.779567e-05
