multiple_model_analysis/results/er_experiment_PD_size_10_35_alpha_0_scale_100_dynwght_False_std_reg_1.0_equiv_reg_0.0/neural_network.pth (torch, 16501 bytes, 14 tensors)

g.0.weight f4 [30, 1]
0	0x3f87a35a	1.0596726
1	0x3f1c0f09	0.6096044
2	0x3f01ede7	0.50753635
3	0x3e8ff98c	0.28120077
4	0xbf8705fd	-1.0548702
5	0x3e94e2b8	0.29079223
6	0x3e54d599	0.20784606
7	0xbee569ab	-0.4480718
8	0xbeb63beb	-0.3559259
9	0x3f1c5c39	0.6107822
10	0x3f0894e5	0.53352195
11	0x3c60e3ee	0.013726218
12	0x3cd58020	0.026062071
13	0xbec10d7a	-0.37705594
14	0x3f201521	0.6253224
15	0xbf41f4d8	-0.75764227
16	0xbf13d467	-0.57745975
17	0x3b2582f8	0.0025255065
18	0xbe10ace0	-0.14128447
19	0xbf67c399	-0.90532833
20	0xbe1bebd0	-0.15226674
21	0xbf2c694a	-0.6734816
22	0x3ef7a5a9	0.48368576
23	0xbe6ce2b5	-0.23133357
24	0x3ec8db66	0.39229888
25	0xbecd75b9	-0.40128878
26	0xba726354	-0.00092463684
27	0xbebe168a	-0.3712657
28	0xbe85dbe8	-0.26144338
29	0x3e78684f	0.2425854

g.0.bias f4 [30]
0	0xbf46af5f	-0.77611345
1	0xbf1de700	-0.61680603
2	0xbeca5077	-0.39514515
3	0x3f44aa83	0.7682268
4	0x3f3b0af0	0.73063564
5	0x3ee42b12	0.4456411
6	0x3b6eb331	0.0036422724
7	0x3e047046	0.12933454
8	0xbef4bbb5	-0.4779946
9	0xbf2dbe86	-0.6786884
10	0xbe8a5b4a	-0.27022773
11	0x3f3084a7	0.6895241
12	0x3ed381a4	0.41309845
13	0xbf151883	-0.58240527
14	0xbe7e542e	-0.248368
15	0x3dfffe91	0.124997266
16	0x3e6ddc42	0.23228553
17	0x3f4b80fd	0.79493695
18	0x3dcd96c4	0.10038522
19	0x3f4fbf30	0.81151104
20	0x3d988d45	0.0744882
21	0xbd18b786	-0.037284397
22	0xbf1e8c1b	-0.61932534
23	0xbed68a40	-0.4190235
24	0x3e8394eb	0.25699553
25	0x3d6d5feb	0.057952803
26	0xbe8ee86e	-0.27911705
27	0x3f28b531	0.65901476
28	0xbf2f6488	-0.68512774
29	0x3eaf9e31	0.34300378

g.2.weight f4 [30, 30]
0	0xbf736494	-0.95075345
1	0xbed0044a	-0.40628272
2	0xbebacd0a	-0.36484557
3	0x3ca2c124	0.019867487
4	0x3fb64680	1.4240265
5	0x3daf50aa	0.08560307
6	0xbe04678a	-0.12930122
7	0x3c8008ed	0.015629256
8	0x3c745483	0.014912727
9	0xbe7ba6ec	-0.24575394
10	0xbf13f6d4	-0.57798505
11	0x3e74d3d2	0.23908928
12	0x3d50375b	0.05083404
13	0x3dd3c76e	0.103407726
14	0xbe6f666f	-0.23378919
15	0x3e2af6e2	0.16695741
16	0x3eb418a3	0.35175046
17	0x3e37d81d	0.17953534
18	0x3dfaa7cc	0.12239036
19	0x3f053a76	0.5204233
20	0xbd84a3b5	-0.06476537
21	0x3dac9e9e	0.08428691
22	0xbe74e16a	-0.23914114
23	0xbc58910d	-0.013218177
24	0xbdd2b3fe	-0.10288237
25	0x3e47caf5	0.19511016
26	0x3d728657	0.059210148
27	0x3e53de1b	0.20690195
28	0xbc6148c5	-0.01375026
29	0xbc946f0e	-0.018119361
30	0x3f06ce6a	0.5265871
31	0x3ca35ec6	0.019942652
32	0x3e722dac	0.23650235
33	0xbdd25be3	-0.10271432
34	0xbf732f3c	-0.9499395
35	0xbc802832	-0.015644167
36	0x3d1662d1	0.036715332
37	0xbe5b46fb	-0.21413796
38	0xbda4b65b	-0.08042594
39	0x3da29225	0.07938031
40	0x3eec9ce9	0.46213463
41	0x3da3a624	0.07990673
42	0xbd8e9ffb	-0.069641076
43	0x3df3fa1c	0.11912939
44	0x3dcf20de	0.10113691
45	0xbe0199d4	-0.12656337
46	0xbea88a46	-0.32917994
47	0xbdbf507b	-0.09341522
48	0xbd8602b3	-0.065434836
49	0xbe3adc49	-0.18248095
50	0xbdeae453	-0.11469331
51	0xbe524a32	-0.20536116
52	0xbd94273b	-0.07234045
53	0x3da39e49	0.07989175
54	0x3da453bb	0.08023783
55	0xbde7ec72	-0.11324395
56	0x3df0a22f	0.11749684
57	0x3c72bfe3	0.014816257
58	0x3e135b31	0.14390256
59	0x3d85575a	0.065108016
60	0x3ea1f509	0.3163226
61	0x3d6eb934	0.058282092
62	0x3cab7a07	0.02093221
63	0xbd52c778	-0.05145976
64	0xbec5ed6e	-0.38657707
65	0xbd1cea71	-0.03830952
66	0x3df2c2d9	0.118535705
67	0xbc10d604	-0.008840088
68	0x3d01aaa1	0.031656865
69	0x3e177e8a	0.14794365
70	0x3d47bfa4	0.048766747
71	0x3e037edb	0.1284136
72	0x3c47221b	0.0121541275
73	0xbdeda6a5	-0.116040505
74	0x3e0fb297	0.1403297
75	0xbca8a437	-0.020586116
76	0xbdc5465d	-0.09632561
77	0xbe0c6c72	-0.13713244
78	0xbc402735	-0.011728098
79	0xbe400ab2	-0.1875408
80	0x3d5d31c9	0.054002557
81	0x3db51792	0.08842386
82	0x3c576f98	0.013149165
83	0xbd52a9ae	-0.05143135
84	0xbe1051d5	-0.14093716
85	0x3cbf15ed	0.023325885
86	0x3d5c5f29	0.05380169
87	0x3c47045e	0.012147037
88	0xbde955f4	-0.113933474
89	0x3cc4444d	0.02395835
90	0x3e30c8bf	0.17264079
91	0x3e081f50	0.13293195
92	0xbc2685a1	-0.010163696
93	0xbc8aa252	-0.016923103
94	0xbd6240f1	-0.055237714
95	0x3d4727f9	0.048622105
96	0xbd55df1a	-0.05221472
97	0xbd2d75b0	-0.042348564
98	0x3cd92c4d	0.026510382
99	0xbd4c1867	-0.04982796
100	0xbcdc6bcc	-0.02690687
101	0x3cde179f	0.027110873
102	0x3ce144ef	0.02749869
103	0x3c6d2054	0.01447304
104	0xbdca883c	-0.09889266
105	0x3d2296f2	0.039694734
106	0x3d93f47d	0.07224367
107	0xbc1ee9a7	-0.009699262
108	0x3cb7f12d	0.022453869
109	0xbb15e41c	-0.002287156
110	0xbde1eca7	-0.11031466
111	0x3dd8410e	0.10559283
112	0xbe07ddf1	-0.13268258
113	0xbdfc8dc5	-0.12331728
114	0x3e11e6e5	0.14248236
115	0x3daf7639	0.08567471
116	0xbddc8874	-0.10768214
117	0xbdcc74c4	-0.09983209
118	0xbcd1140f	-0.02552226
119	0xbdc3c295	-0.09558598
120	0x3c866d7a	0.016409624
121	0x3b17f28b	0.0023185338
122	0xbd8b04a1	-0.06787992
123	0x3b8911b2	0.0041830176
124	0x3e09d7f1	0.13461281
125	0xbca2c218	-0.019867942
126	0x3d61ebf2	0.055156656
127	0x3dc9f0ef	0.098604076
128	0xbe12f313	-0.14350538
129	0x3d4f6265	0.050630946
130	0x3bab7f43	0.0052336766
131	0x3defadb4	0.11703053
132	0xbcd58dad	-0.026068533
133	0xbd64fcf0	-0.055905282
134	0xbcdb997f	-0.026806591
135	0x3dd2f60a	0.103008345
136	0x3dc1177a	0.09428306
137	0xbdb3808c	-0.08764753
138	0x3c99ce71	0.018775197
139	0x3dc82622	0.09772898
140	0xbda8069e	-0.08204387
141	0x3e04743f	0.1293497
142	0x3e12826d	0.14307566
143	0x3dc79b1f	0.09746384
144	0x3d824ff1	0.06362904
145	0x3cf53c1d	0.02993589
146	0xbd985d32	-0.074396506
147	0xbdf4cf96	-0.119536564
148	0x3daa695f	0.08320879
149	0x3cbba8f9	0.02290772
150	0xbe51eb02	-0.20499805
151	0x3cd16bda	0.025564123
152	0x3bff32b4	0.0077880267
153	0x3d0cae2a	0.034345783
154	0x3e5c3bb8	0.21507156
155	0x3c6ef4d6	0.014584741
156	0xbbb481db	-0.005508644
157	0x3dfd4845	0.123673
158	0x3e002013	0.12512235
159	0x3e2886d2	0.1645768
160	0x3d25974e	0.0404275
161	0x3dc03898	0.093857944
162	0xbe3f3922	-0.18674138
163	0x3e07e01e	0.13269088
164	0x3db6d4fe	0.08927344
165	0xbdd7a7bf	-0.10530042
166	0xbdaef5bb	-0.08542963
167	0xbd0c0e5f	-0.034193393
168	0x3bafdae4	0.00536667
169	0xbdf8bc52	-0.12145294
170	0xbdebc688	-0.11512476
171	0x3e2fa87a	0.17154112
172	0xbdfa8de7	-0.12234097
173	0xbd7ed475	-0.062214334
174	0xbe28ca79	-0.16483487
175	0xbdcc677c	-0.099806756
176	0xbdb60be1	-0.088889845
177	0x3dda5fc4	0.10662797
178	0x3d7a1596	0.061055742
179	0xbb00d430	-0.0019657724
180	0xbc2f5a4d	-0.010702682
181	0x3c2c9ccb	0.010535429
182	0xbe1f7e37	-0.15575491
183	0xbe002361	-0.12513496
184	0xbe5aa7a1	-0.21353008
185	0xbd8b31d3	-0.067966126
186	0x3d978917	0.07399195
187	0x3da45d4f	0.0802561
188	0xbd886894	-0.06660572
189	0x3dcf0281	0.101078995
190	0xbdea97c2	-0.11454727
191	0x3e398259	0.1811613
192	0x3dc8aec7	0.09798961
193	0xbd97776b	-0.07395824
194	0xbe1d9241	-0.15387823
195	0xbb2a1ed4	-0.0025958316
196	0xbd6b4a64	-0.05744399
197	0xbdf1ad16	-0.11800592
198	0x3d9022e5	0.070379056
199	0xbc90be44	-0.01766885
200	0x3d916883	0.07100012
201	0x3d0f5b78	0.03499934
202	0xbdc5e479	-0.09662718
203	0xbe397c4b	-0.1811382
204	0x3debacc0	0.11507559
205	0xbdd6d755	-0.1049029
206	0x3df1e4cb	0.11811217
207	0x3d6e3a29	0.058160935
208	0x3dbe15ac	0.09281477
209	0x3e370025	0.17871149
210	0xbef76fa7	-0.4832737
211	0xbe4273b7	-0.18989454
212	0xbe66234e	-0.22474405
213	0xb9ab34ee	-0.00032655097
214	0x3f41031f	0.7539539
215	0xbe26d92c	-0.16293782
216	0xbda35107	-0.07974439
217	0xbc411ad6	-0.011786183
218	0x3e3872d5	0.18012555
219	0x3cff9c08	0.031202331
220	0xbed7cb09	-0.4214709
221	0x3cf5ae58	0.02999036
222	0x3b0a7daf	0.0021132042
223	0xbd82c57e	-0.06385325
224	0xbe188ee7	-0.14898263
225	0x3da156b4	0.078778654
226	0x3eaa1186	0.33216494
227	0x3d68cf87	0.05683854
228	0x3e040e2a	0.12896028
229	0x3e97c959	0.29645804
230	0x3e41239d	0.18861242
231	0x3e1587d7	0.146026
232	0xbe4163b6	-0.18885693
233	0x3dcda7f3	0.100417994
234	0xbe43d8b7	-0.19125639
235	0x3d594a46	0.05304935
236	0xbd8a74d1	-0.06760562
237	0x3e3279bb	0.17429249
238	0x3d899800	0.06718445
239	0x3dd2656a	0.102732494
240	0xbd90cb1b	-0.07069989
241	0x3d602113	0.054719042
242	0x3e381958	0.17978418
243	0x3db27cc2	0.08715202
244	0x3e42bc1a	0.19017068
245	0xbe3f1de5	-0.18663748
246	0xbe0ff1bc	-0.14057058
247	0xbd2b615e	-0.041840903
248	0x3c94dd2b	0.018171867
249	0x3e54e108	0.20788968
250	0x3df4ef95	0.11959759
251	0xbd02a42e	-0.031894855
252	0xbe0b384c	-0.13595694
253	0xbdcf6e5c	-0.10128471
254	0x3e025a2b	0.12729709
255	0x3df60364	0.120123655

g.2.bias f4 [30]
0	0x3cc3241a	0.023820926
1	0xbd6741aa	-0.056459107
2	0x3e1bac9c	0.15202564
3	0xbb3a8430	-0.0028460138
4	0x3ddb77a4	0.10716179
5	0x3e095113	0.13409834
6	0x3de72679	0.11286635
7	0x3e1e8807	0.15481578
8	0xbe5f2ad7	-0.21793686
9	0xbdfc247c	-0.12311646
10	0xbe07edac	-0.13274258
11	0x3d5189ae	0.051156692
12	0xbdd0b208	-0.10190207
13	0x3e509e0a	0.20372787
14	0xbdb59c2a	-0.088676766
15	0xbddb1270	-0.10696876
16	0x3e5f44ee	0.21803638
17	0xbe1de9fb	-0.15421288
18	0x3d99d7df	0.07511877
19	0x3d851c92	0.0649959
20	0x3ccfe4a4	0.025377579
21	0xbdbb0a9f	-0.09132885
22	0xbd19aeab	-0.037520092
23	0xbd4d7ac1	-0.050165895
24	0xbcce50ad	-0.025184954
25	0x3d81869b	0.06324502
26	0xbe495d87	-0.19664584
27	0xbc43ed0c	-0.011958372
28	0xbd615fe3	-0.055023085
29	0x3e09a59f	0.13442086

g.4.weight f4 [1, 30]
0	0x3ec5e685	0.38652435
1	0xbe21a7ce	-0.15786669
2	0xbc40bba8	-0.011763491
3	0xbaf4e27c	-0.001868322
4	0x3a93b8ad	0.0011270248
5	0x3d0a446b	0.033756655
6	0xbd05aa6a	-0.032633223
7	0x3dd01252	0.10159744
8	0x3db75498	0.08951682
9	0x3cf74554	0.030184425
10	0xbb67b2eb	-0.0035354446
11	0xbbe9ba64	-0.007132815
12	0xbe0b285b	-0.13589613
13	0xbe4bb784	-0.19894224
14	0x3e0a780e	0.1352236
15	0x3df85ee7	0.12127476
16	0xbde70c60	-0.11281657
17	0x3b03374f	0.002002198
18	0x3de41c1a	0.111381724
19	0xbcf8a913	-0.030354058
20	0xb861e263	-5.385502e-05
21	0x3e00ea7a	0.12589446
22	0x39a8f98b	0.0003222938
23	0xba2b20d2	-0.0006528023
24	0xbad13f24	-0.0015964252
25	0x3cbe8c2e	0.023260202
26	0x3cc8be71	0.024504872
27	0x3d623495	0.055225927
28	0x3a00e336	0.00049166696
29	0x39800a6e	0.00024421833

nn_fun1.0.weight f4 [30, 1]
0	0x3f4ad975	0.79238063
1	0x3e00e383	0.12586789
2	0xbe7cee6a	-0.24700323
3	0x3f34e74b	0.70665425
4	0x3f025484	0.5091021
5	0xbedf5f16	-0.43627232
6	0x3dd6c918	0.10487574
7	0x3e15d3a5	0.14631517
8	0xbf85d3e8	-1.0455294
9	0xbf4997b9	-0.78747135
10	0x3ec54812	0.38531548
11	0xbf04b01e	-0.51831234
12	0x3f114f4c	0.5676162
13	0xbdaa02e1	-0.0830133
14	0xbf3571e5	-0.70876914
15	0x3ecbf662	0.39836413
16	0xbf6abac7	-0.9169125
17	0x3f242699	0.64121395
18	0x3ef5f9a9	0.48042038
19	0xbeb4d219	-0.35316542
20	0x3e738917	0.23782764
21	0x3f4b3eac	0.79392505
22	0xbef5401c	-0.47900474
23	0x3f3af29f	0.7302646
24	0x3d83b447	0.064308695
25	0x3e28322f	0.16425394
26	0xbf24f3bb	-0.64434403
27	0xbef41806	-0.47674578
28	0x3f72c8e0	0.9483776
29	0xbf022ddf	-0.50851244

nn_fun1.0.bias f4 [30]
0	0x3e42187e	0.18954656
1	0xbf12ba1d	-0.57315236
2	0xbf04393d	-0.5164984
3	0x3eacfd68	0.33787084
4	0x3e42dfa4	0.19030625
5	0xbef5550d	-0.4791645
6	0x3ee81805	0.45330825
7	0xbf425581	-0.7591172
8	0x3f62bf93	0.8857357
9	0x3d378cce	0.044812016
10	0xbf029ff8	-0.5102534
11	0x3e3c78fe	0.1840553
12	0xbee0666d	-0.43828145
13	0xbf0ae811	-0.54260355
14	0x3f03fef4	0.515609
15	0x3f0f4e43	0.5597879
16	0x3e60b30c	0.21943301
17	0xbe1b60d1	-0.15173651
18	0x3f14b0ec	0.5808246
19	0xbdcc61f9	-0.09979624
20	0x3edcc24a	0.4311698
21	0xbd2e5df2	-0.042570062
22	0xbf177663	-0.5916502
23	0xbf291a64	-0.66055894
24	0x3eb01d5b	0.34397396
25	0x3eca9e9b	0.3957413
26	0x3ef33282	0.47499472
27	0x3f119bac	0.5687816
28	0x3eb40faa	0.351682
29	0x3f04262d	0.5162075

nn_fun1.2.weight f4 [30, 30]
0	0x3dfe4524	0.12415531
1	0x3d9f5226	0.077793404
2	0xbbc66d96	-0.006055544
3	0x3e3550fd	0.17706676
4	0x3e0b1171	0.13580872
5	0xbdb1a2bf	-0.086736195
6	0xbd37fc83	-0.04491855
7	0xbe0e1afb	-0.1387748
8	0xbe405930	-0.18784022
9	0xbe43c834	-0.1911934
10	0x3d8796f1	0.06620587
11	0x3cca4c3f	0.02469456
12	0xbda37886	-0.079819724
13	0xbd6ea04b	-0.058258336
14	0xbe8a756b	-0.27042708
15	0xbd8ad35a	-0.06778593
16	0xbe1e92c9	-0.15485682
17	0x3e26ee6c	0.16301888
18	0x3e1b7f73	0.15185337
19	0xbd624318	-0.055239767
20	0x3d154049	0.03643826
21	0x3e35c8a4	0.1775232
22	0xbd5948d9	-0.05304799
23	0x3e351067	0.17682038
24	0xbd173dc1	-0.036924127
25	0x3db2f9d6	0.08739059
26	0xbca0fbc1	-0.019651296
27	0xbe080b2e	-0.13285515
28	0xbdca2974	-0.09871188
29	0xbd816820	-0.063186884
30	0xbcf2bab8	-0.02963005
31	0xbdf0aefa	-0.11752124
32	0xbcaef0b9	-0.02135502
33	0x3d2c9e68	0.042143255
34	0x3dc43b6f	0.095816486
35	0x3c973bd2	0.018461142
36	0xbe0c51b8	-0.13703048
37	0x3cd1e219	0.025620507
38	0xbe085ab1	-0.13315846
39	0x3e1e4550	0.15456128
40	0xbe097999	-0.13425292
41	0x3df3e08f	0.119080655
42	0x3d0a4a62	0.033762343
43	0x3d88fca4	0.066888124
44	0xbde3ba82	-0.11119558
45	0xbd9936c8	-0.07481152
46	0xbdf3b7e7	-0.11900311
47	0xbd1293e5	-0.035785574
48	0x3bd27d1f	0.006423607
49	0x3e1e93fe	0.15486142
50	0x3d813d69	0.06310541
51	0xbd64a4d6	-0.055821262
52	0xbdf525f5	-0.1197013
53	0x3e3238eb	0.17404525
54	0xbdac9eed	-0.0842875
55	0x3d1608e9	0.03662959
56	0x3df96ecd	0.12179337
57	0x3dfc90f0	0.12332332
58	0x3be9392a	0.00711741
59	0xbd8fc03b	-0.07019087
60	0x3e046612	0.12929562
61	0x3d590c21	0.052990083
62	0x3d7787cb	0.060432237
63	0x3ca7ef28	0.02049978
64	0x3d87e959	0.066363044
65	0x3d9604d5	0.073251404
66	0x3d113d41	0.035458807
67	0x3ddbee84	0.107388526
68	0xbc3a0f71	-0.011356221
69	0x3cc9ca40	0.024632573
70	0xbd5661ff	-0.05233955
71	0x3d4199cb	0.04726581
72	0xbd3f3653	-0.046682667
73	0x3b672710	0.0035271086
74	0x3dbe1cee	0.09282862
75	0xbd4f53ce	-0.05061703
76	0x3d7d761a	0.06188021
77	0x3d2bfcb4	0.041989043
78	0xbe0dfebe	-0.13866708
79	0xbd83f744	-0.064436466
80	0x3e14187a	0.14462462
81	0xbd6c9282	-0.05775691
82	0x3dda016b	0.10644802
83	0xbc3973ab	-0.011319081
84	0x3df6ab3d	0.1204438
85	0xbdf21bfe	-0.11821745
86	0x3dac0bc8	0.084006846
87	0x3d6136c9	0.054983888
88	0xbd959ad0	-0.07304919
89	0x3e038489	0.12843527
90	0xbd2db571	-0.042409364
91	0xbd19684e	-0.03745299
92	0x3d8c21e7	0.06842404
93	0xbd2f0dcf	-0.04273778
94	0xbaefc26e	-0.0018292197
95	0xbd7be17e	-0.061494343
96	0xbcfcf6f7	-0.03087948
97	0xbc8d87ef	-0.017276732
98	0xbc67295f	-0.014108985
99	0xbd52767d	-0.05138253
100	0xbd64d2db	-0.05586515
101	0x3cc40b09	0.023931043
102	0x3b28c4cc	0.0025752066
103	0x3d605899	0.054771993
104	0xbb8b4e53	-0.0042512803
105	0xbd50517f	-0.05085897
106	0xbcaf8894	-0.02142743
107	0x3c5c63a8	0.013451494
108	0x3db89049	0.09011895
109	0x3cd6c4e4	0.026216932
110	0xbd614d94	-0.055005625
111	0xbd04c1b9	-0.03241131
112	0xbd2c5210	-0.04207045
113	0x3c9b6df9	0.018973337
114	0x3d7d09fc	0.0617771
115	0xbd46498f	-0.048409995
116	0xbbc93e98	-0.006141495
117	0x3ca70756	0.02038924
118	0xbd887bd2	-0.06664242
119	0xbd0ed367	-0.034869578
120	0xbc913b7c	-0.01772856
121	0xbcd5ea56	-0.026112717
122	0xbb4ea7f4	-0.0031533213
123	0xbcfa7fd5	-0.030578533
124	0xbd387079	-0.045029137
125	0xbc452e7c	-0.0120350085
126	0x3d8924b7	0.06696456
127	0x3d1a9974	0.037744
128	0x3d757192	0.059922762
129	0x3d8c2180	0.06842327
130	0xbc969814	-0.018383063
131	0x3ce4279a	0.027850915
132	0xbd001fa6	-0.031280182
133	0xbd51fb61	-0.051265124
134	0x3d4080a5	0.046997685
135	0x3dab0c6d	0.083519794
136	0x3d8218b4	0.06352368
137	0xbd2ea6d3	-0.042639565
138	0xbde6e096	-0.11273305
139	0xbba3e47f	-0.005001604
140	0x3d3a22ba	0.045443274
141	0xbd432006	-0.04763796
142	0xbd5013ea	-0.05080024
143	0xbd5abcaf	-0.0534026
144	0x3d7c9335	0.061663825
145	0xbc4320ea	-0.011909703
146	0x3d376a3a	0.04477904
147	0x3c4391da	0.011936629
148	0x3d755814	0.05989845
149	0x3d0418ce	0.032250218
150	0x3cb50871	0.022098752
151	0x3dd853c5	0.10562853
152	0x3d9d9742	0.07694866
153	0xbe3c0ce4	-0.18364292
154	0xbdf4a213	-0.11944976
155	0x3cab5a60	0.020917118
156	0xbda34739	-0.07972569
157	0xbda6e601	-0.081493385
158	0x3e83a1ea	0.25709468
159	0x3df4156b	0.11918148
160	0x3b5453e4	0.0032398636
161	0x3d786626	0.06064429
162	0xbe867070	-0.26257658
163	0xbd4829a0	-0.04886782
164	0x3dd50dbe	0.10403012
165	0xbc14fe30	-0.009093806
166	0x3e76b1f4	0.24091321
167	0xbdaabd49	-0.083368845
168	0xbe068a6b	-0.1313874
169	0x3da9448e	0.08265029
170	0xbde7dac6	-0.113210246
171	0xbe35bdd6	-0.17748198
172	0x3cf81543	0.030283576
173	0x3d6e947b	0.05824707
174	0xbd9d1fee	-0.07672106
175	0x3bd34a90	0.0064480975
176	0x3dd73028	0.10507232
177	0x3e043129	0.12909378
178	0x3d67fb37	0.05663606
179	0xbda3b828	-0.079941094
180	0x3de25ff7	0.1105346
181	0xb9457cd0	-0.0001883388
182	0x3cebaffe	0.028770443
183	0x3cd8a70a	0.026446838
184	0xbcc1be99	-0.023650454
185	0xbe0e2e2b	-0.13884799
186	0x3e000cb0	0.1250484
187	0xbe0b729e	-0.13617942
188	0xbda154c0	-0.07877493
189	0xbdc3826a	-0.09546359
190	0xbce99011	-0.028511079
191	0x3d9e9f8e	0.077452764
192	0xbdc9dfe2	-0.098571554
193	0x3d8604b4	0.06543866
194	0x3e02b893	0.12765722
195	0xbe0da9d9	-0.13834323
196	0xbafcdd1d	-0.0019291971
197	0xbdfadc00	-0.12248993
198	0xbe15c980	-0.14627647
199	0x3db47627	0.08811598
200	0xbd9e975c	-0.07743713
201	0xbe056721	-0.13027622
202	0x3d88e32d	0.06683955
203	0xbdc5750c	-0.096414655
204	0xbe15b326	-0.14619121
205	0xbda7e4a6	-0.08197908
206	0x3ddb4429	0.1070636
207	0x3dff20c9	0.12457425
208	0x3c7a12cb	0.01526327
209	0x3c26c1e1	0.01017806
210	0xbdc271df	-0.094943754
211	0xbb8753c8	-0.0041298606
212	0xbda30a8d	-0.07960997
213	0x3dc78f4e	0.0974413
214	0xbc4591c6	-0.012058681
215	0x3d3f3940	0.046685457
216	0x3d081188	0.033219844
217	0xbd856b27	-0.06514578
218	0xbd1fa416	-0.038974844
219	0xbcc8c24b	-0.024506709
220	0x3ce62c31	0.028097244
221	0xbccc9ce5	-0.024977157
222	0xbca4bb5c	-0.020108871
223	0x3c58ab8f	0.0132244965
224	0xba3bc375	-0.0007162609
225	0xbce78d6a	-0.028265674
226	0x3ce3d25b	0.027810266
227	0x3d806300	0.06268883
228	0x3dad7fbb	0.08471628
229	0xbd579ee1	-0.052641753
230	0xbda043b5	-0.07825414
231	0xbd1e064b	-0.03858022
232	0xbdb354ac	-0.08756384
233	0xbd478411	-0.048709933
234	0xbde4d13c	-0.11172721
235	0xbce1534e	-0.027505543
236	0x3b896915	0.004193435
237	0xbd9eacde	-0.077478155
238	0x3dc64235	0.09680597
239	0xbdc0dcfa	-0.09417148
240	0xbd403849	-0.046928678
241	0xbc377060	-0.011196226
242	0xbd4c79cc	-0.049920842
243	0xbdbe730f	-0.092992894
244	0xbcc68023	-0.024231022
245	0x3dc59e87	0.09649377
246	0x3d3e228b	0.04641966
247	0x3c2da276	0.010597816
248	0x3ce60d9f	0.028082667
249	0xbd903ae8	-0.070424855
250	0xbd2c167d	-0.042013634
251	0x3c4e263c	0.012582358
252	0xbbc579fc	-0.0060265046
253	0xbac08537	-0.0014688139
254	0x39fb8f24	0.000479811
255	0x3d8df673	0.06931772

nn_fun1.2.bias f4 [30]
0	0x3d283db1	0.04107446
1	0x3d9fcdf4	0.07802954
2	0x3e04c486	0.12965593
3	0x3d9d40c2	0.07678367
4	0xbd850916	-0.06495874
5	0xbd6582f1	-0.05603308
6	0x3dcc1824	0.09965542
7	0xbdcc1636	-0.09965174
8	0xbd1652b7	-0.036699977
9	0x3e122933	0.14273529
10	0x3d375070	0.044754446
11	0xbdfed5e8	-0.12443143
12	0xbe223862	-0.15841821
13	0x3dc28c3a	0.09499402
14	0xbbd65cb4	-0.006541813
15	0xbd93eb51	-0.072226174
16	0x3d94153d	0.072306134
17	0xbbb40922	-0.005494253
18	0x3dd8a051	0.10577453
19	0xbdaf566e	-0.08561407
20	0xbde88473	-0.11353388
21	0x3cd31522	0.025766913
22	0x3dd65cdf	0.104669325
23	0xbd721190	-0.05909878
24	0xbd1bc41d	-0.038028825
25	0xbdb66a6d	-0.08907018
26	0xbe18060e	-0.1484606
27	0x3cb68333	0.022279358
28	0xbcf6a12c	-0.03010615
29	0x3d1803bd	0.03711294

nn_fun2.0.weight f4 [30, 1]
0	0xbf7664b1	-0.9624739
1	0xbe82440a	-0.25442535
2	0x3f116e04	0.56808496
3	0x3f20b6b2	0.6277877
4	0xbf0785f9	-0.529388
5	0xbf28e7b6	-0.6597856
6	0xbf510478	-0.81647444
7	0x3f35f5f8	0.71078444
8	0xbf1ddf59	-0.61668926
9	0x3e68c4a9	0.2273127
10	0xbecd39bb	-0.40083107
11	0x3f1febe6	0.6246933
12	0x3f4ee1b7	0.80813164
13	0xbf5cad8a	-0.862023
14	0xbf48a0f5	-0.783706
15	0xbd6055bb	-0.05476926
16	0xbc20b3d4	-0.009808499
17	0x3f2da908	0.67836046
18	0x3ec7fdcd	0.39060822
19	0x3e53b1c6	0.20673284
20	0xbec1c08b	-0.3784221
21	0xbeaa8506	-0.33304614
22	0x3ee1293f	0.4397678
23	0xbeeda9e5	-0.46418682
24	0xbeaaba12	-0.33345085
25	0xbe761173	-0.24030094
26	0x3e7e03e5	0.24806173
27	0xbed5909c	-0.4171189
28	0x3f74ded4	0.9565251
29	0x3f6936cf	0.91099256

nn_fun2.0.bias f4 [30]
0	0x3f4bafe5	0.7956527
1	0xbe291d65	-0.1651512
2	0xbf3d5dcf	-0.73971266
3	0x3e907d31	0.28220513
4	0x3f12b7ef	0.5731191
5	0x3ec72ac2	0.3889981
6	0xbda31240	-0.07962465
7	0x3ed4662b	0.41484198
8	0xbedfb1be	-0.43690294
9	0x3db72af9	0.08943743
10	0x3dbcbe3a	0.0921597
11	0xbf6e12ef	-0.9299764
12	0x3dfd577f	0.12370204
13	0x3bc1a81d	0.0059099332
14	0xbf0fa3a6	-0.5610908
15	0xbf49ec1b	-0.78875893
16	0x3b697968	0.0035625342
17	0x3f05112d	0.51979333
18	0xbf2a016a	-0.6640841
19	0x3f69dd0e	0.9135293
20	0xbed29c7d	-0.41135016
21	0xbe95c854	-0.292544
22	0xbed70940	-0.41999245
23	0x3f0cbdf4	0.54977345
24	0x3f27e3db	0.65582055
25	0x3e2149c2	0.15750793
26	0xbeecd47c	-0.46255863
27	0x3e41e541	0.1893511
28	0xbf316197	-0.69289535
29	0xbf252577	-0.6451029

nn_fun2.2.weight f4 [30, 30]
0	0x3d4b042a	0.049564518
1	0xbd660ee9	-0.056166563
2	0xbe3b254f	-0.18275951
3	0x3e14750f	0.1449778
4	0xbda5812e	-0.0808128
5	0xbd9c0a08	-0.07619101
6	0x3d1aebbd	0.037822474
7	0x3e3a9c38	0.18223655
8	0xbe4f6acb	-0.20255582
9	0xbbfb5c27	-0.0076708975
10	0xbe0aae45	-0.13543041
11	0x3c61ac42	0.01377398
12	0x3e03c538	0.12868202
13	0xbe401d21	-0.18761112
14	0x3dc2e171	0.09515656
15	0x3ddc9051	0.10769714
16	0xbc9aae06	-0.018881809
17	0x3e08997f	0.13339804
18	0xbe18bbd0	-0.14915395
19	0xbc0d22ce	-0.008614255
20	0xbdfe8860	-0.12428355
21	0xbdcaf944	-0.09910825
22	0x3d22c80a	0.039741553
23	0x3d262517	0.040562715
24	0x3e4bbc80	0.19896126
25	0x3d4d0644	0.050054803
26	0x3e178fac	0.148009
27	0x3de15edf	0.11004423
28	0xbe481d0b	-0.19542329
29	0xbd15da14	-0.03658493
30	0xbcc31560	-0.023813903
31	0x3db5fc0d	0.088859655
32	0x3de482e3	0.11157777
33	0x3e0fc400	0.14039612
34	0x3da61b49	0.08110673
35	0xbdf1f7fe	-0.11814879
36	0x3b7f2ea8	0.0038937721
37	0x3da3a382	0.07990171
38	0x3dce63fa	0.10077663
39	0x3c04ed44	0.008113209
40	0x3e1569e4	0.14591175
41	0x3d280048	0.041015893
42	0x3dd3b4fc	0.103372544
43	0x3c607f44	0.0137022175
44	0xbcec7ebd	-0.028869027
45	0x3e3fa9b0	0.18717074
46	0xbd67332b	-0.056445282
47	0xbe4b7948	-0.19870484
48	0xbdf2994a	-0.11845644
49	0x3b076157	0.0020657384
50	0xbda0371a	-0.0782301
51	0xbe0b4197	-0.1359924
52	0xbd9f730b	-0.077856146
53	0xbdea8820	-0.11451745
54	0x3cf9b752	0.030482922
55	0x3cccd3f0	0.025003403
56	0x3d6274b3	0.055287074
57	0x3dd0ed3c	0.10201499
58	0x3d96e2af	0.07367455
59	0xbd7c291c	-0.061562642
60	0xbd905071	-0.07046593
61	0xbc22054f	-0.009888961
62	0xbd0ec1cc	-0.034852788
63	0xbdb15f9d	-0.08660815
64	0x3d7bbe01	0.0614605
65	0xbd80b47e	-0.06284426
66	0xbd67031b	-0.056399446
67	0xbdb9c636	-0.09071009
68	0x3dbbbb4a	0.09166582
69	0x3e0a4d24	0.1350599
70	0x3d0ada41	0.03389955
71	0x3cc3fb8e	0.023923662
72	0x3e2c7c03	0.16844182
73	0xbe02de3e	-0.12780091
74	0x3dafa9c6	0.085773036
75	0xbcf999de	-0.030468877
76	0x3bef00f4	0.007293815
77	0x3e15c610	0.14626336
78	0xbbd0c1b9	-0.00637075
79	0xbc4e8909	-0.012605914
80	0xbbeb08df	-0.0071726884
81	0x3d9fddcd	0.07805977
82	0x3c657a4e	0.0140062105
83	0x3da559f0	0.08073795
84	0x3c0e7ad2	0.008696275
85	0x3a470ea9	0.0007593432
86	0xbd521587	-0.05129006
87	0xbae2c643	-0.0017301518
88	0xbc3a6e1b	-0.01137879
89	0x3c8a070a	0.01684906
90	0xbb6f3356	-0.0036499104
91	0xbc8705a8	-0.01648219
92	0x3c606d98	0.013698004
93	0x3b432dfc	0.0029782047
94	0x3af38b82	0.0018581005
95	0xb97eda55	-0.00024304663
96	0xbd0a9990	-0.033837855
97	0xbd83ee73	-0.06441965
98	0x3d85b957	0.065294914
99	0x3c8cf411	0.017206224
100	0xbbcfb05d	-0.006338163
101	0xbd0c9366	-0.034320258
102	0xbd6e3d55	-0.05816396
103	0xbd2b5648	-0.04183033
104	0x3ce1482b	0.027500233
105	0xbd8f481f	-0.06996178
106	0xb82889f6	-4.0182807e-05
107	0x3d8eeddb	0.06978961
108	0xbc882a48	-0.016621724
109	0xbd9daf9c	-0.076995105
110	0x3b83e04c	0.004024541
111	0x3d338c70	0.043835104
112	0xbcd25b75	-0.025678376
113	0x3d34a487	0.044102218
114	0x3bb6df11	0.005580791
115	0x3a046a44	0.0005051235
116	0xbbb3b5b2	-0.0054843063
117	0x3c2e7dd8	0.010650121
118	0xbb17c01c	-0.0023155278
119	0xbb09c735	-0.0021023278
120	0xbdd2d289	-0.10294063
121	0x3db3a775	0.08772174
122	0xbd99ea7a	-0.07515426
123	0xbe1a72da	-0.15082875
124	0xbdbd14d6	-0.0923249
125	0xbc43dde8	-0.011954762
126	0x3e0688a9	0.13138069
127	0xbd658c84	-0.05604221
128	0xbe187171	-0.14887024
129	0xbd60e8cf	-0.054909524
130	0xbdd2bd9f	-0.102900736
131	0x3b943e8a	0.004524057
132	0x3df6dec1	0.12054206
133	0x3dfeca5a	0.12440939
134	0x3decad34	0.115564734
135	0xbe2171da	-0.15766087
136	0x3c266db2	0.010157989
137	0x3db998ad	0.09062324
138	0x3d217696	0.039419733
139	0x3df321c6	0.11871676
140	0xbdd7731f	-0.105200045
141	0x3de364ca	0.11103208
142	0xbdb87dd9	-0.090083785
143	0x3c7d98e4	0.0154783465
144	0xbd8e35fb	-0.0694389
145	0xbab65a96	-0.0013912495
146	0xbdf7691f	-0.12080597
147	0xbdc299f6	-0.09502022
148	0x3d5463eb	0.0518531
149	0x3d7739d4	0.060357884
150	0x3e1d2815	0.15347321
151	0xbd985440	-0.074379444
152	0xbe093f19	-0.13402976
153	0x3dec193e	0.11528252
154	0x3e1d37a9	0.15353264
155	0x3db3c6cd	0.087781526
156	0xbdbf5bfe	-0.09343718
157	0xbe07faf4	-0.13279325
158	0xbe4bdcca	-0.19908443
159	0x3e1ff81a	0.15621987
160	0xbcaf8236	-0.021424394
161	0xbe3c8244	-0.18409067
162	0x3dc7e7e1	0.09761024
163	0xbe170b52	-0.14750412
164	0x3cdd4fe5	0.027015636
165	0x3ddaafee	0.10678087
166	0x3d3485f5	0.044073064
167	0x3e2b1145	0.16705807
168	0xbe1ce92d	-0.15323325
169	0xbde39358	-0.11112088
170	0x3d6bc57a	0.057561375
171	0x3d46277c	0.0483775
172	0x3cc37d5d	0.023863489
173	0xbdba5a91	-0.090993054
174	0x3e2c597f	0.16831015
175	0xbd0f44bb	-0.034977656
176	0x3cba6467	0.022752954
177	0xb9331f3b	-0.00017082405
178	0xbee24906	-0.44196337
179	0xbea1987d	-0.31561652
180	0x3dd4b501	0.10386086
181	0xbe131f47	-0.143674
182	0x3df3e5ef	0.11909091
183	0xbd0d7bce	-0.034541897
184	0xbe02f29a	-0.12787858
185	0x3d66d4dc	0.056355342
186	0xbc9f9a37	-0.019482715
187	0xbd9d9c4b	-0.07695826
188	0x3dc30a3e	0.09523438
189	0xbdcefc3b	-0.10106703
190	0x3e005ee2	0.12536195
191	0xbde6bf5e	-0.11266969
192	0x3d90b28f	0.07065307
193	0x3e180d65	0.1484886
194	0xbc96cfb6	-0.018409591
195	0xbe2221f8	-0.1583327
196	0x3d13c016	0.03607186
197	0x3df93705	0.12168697
198	0x3d92c024	0.07165554
199	0xbd892162	-0.066958204
200	0x3da05feb	0.07830795
201	0xbd890d0f	-0.06691944
202	0x3c7d2ef7	0.015453092
203	0x3e19c5b2	0.15016821
204	0x3dd71704	0.10502437
205	0xbbf31cab	-0.007419189
206	0xbd423fb3	-0.04742403
207	0xbd9bedad	-0.076136924
208	0x3d554498	0.05206737
209	0x3c69bf00	0.014266729
210	0xbc7078ef	-0.01467727
211	0xbd508e2f	-0.050916847
212	0xbd23434a	-0.039859094
213	0xbd9e14f4	-0.0771884
214	0x3d5ec654	0.05438836
215	0x3b3fa49c	0.0029242402
216	0xbd94b2f9	-0.07260699
217	0xbcb2a929	-0.021809177
218	0x3dbd81e6	0.09253292
219	0xbd810628	-0.06300002
220	0x3ceb22eb	0.028703174
221	0xbcbf56f4	-0.023356892
222	0xbc58ac1f	-0.013224631
223	0x3db131e7	0.08652096
224	0x3d162af1	0.036662046
225	0xbdb0946e	-0.08622061
226	0xb8db5d49	-0.000104601095
227	0xbd18764c	-0.03722219
228	0xbd019b98	-0.031642526
229	0x3d5ee19f	0.054414388
230	0xbd4a39fb	-0.0493717
231	0x3d754941	0.059884313
232	0xbbc15e5d	-0.0059011416
233	0x3c59ff38	0.013305478
234	0xbcfc0f52	-0.030769024
235	0xba26a96e	-0.00063576445
236	0x3d1cdd93	0.038297247
237	0x3bb3ad36	0.005483295
238	0xbae2ab58	-0.0017293496
239	0xbb17c3e6	-0.0023157536
240	0xb9b43e9b	-0.0003437892
241	0xbb708723	-0.0036701642
242	0x3c2e1849	0.010625907
243	0xbd1e6de3	-0.038679015
244	0xbb952cd9	-0.0045524654
245	0x39430ff0	0.00018602586
246	0x3c8dd522	0.017313544
247	0x3c84dbc2	0.01621807
248	0x3bf06d3a	0.0073372396
249	0x3ac040e1	0.0014667773
250	0xba87e67e	-0.0010368375
251	0x3ca40547	0.020022048
252	0x3b37afca	0.0028028362
253	0xbc5c4ee3	-0.013446542
254	0x3d1fe93f	0.0390408
255	0xbc93db45	-0.018048892

nn_fun2.2.bias f4 [30]
0	0x3e184ac8	0.14872277
1	0x3d9f54d8	0.077798545
2	0xbdefb5d0	-0.117046
3	0x3d2b7e69	0.0418686
4	0xbd1aaf41	-0.03776479
5	0x3e3af685	0.18258102
6	0x3c8ddcc0	0.017317176
7	0x3d9d3cf8	0.076776445
8	0x3d254dc0	0.04035735
9	0xbdd0df18	-0.10198802
10	0x3de0692e	0.109575614
11	0x3e3e1008	0.18560803
12	0xbdec7d6f	-0.11547362
13	0x3d80b5fa	0.06284709
14	0xbde7bb06	-0.11314969
15	0xbbc89a57	-0.0061219144
16	0x3df2863d	0.1184201
17	0xbd8deb2a	-0.069296196
18	0x3ce6cbce	0.028173354
19	0x3dc12fc4	0.09432939
20	0x3dd067f9	0.10176081
21	0xbd3e84c4	-0.046513334
22	0x3dac37de	0.08409093
23	0xbdd0ec26	-0.10201292
24	0xbc55bef6	-0.013046017
25	0x3e2f9875	0.17148001
26	0xbd8256f6	-0.06364243
27	0x3d8dfd2a	0.06933053
28	0x3d214319	0.03937063
29	0xbe1023ed	-0.14076205

agg.0.weight f4 [1, 30]
0	0x3e273aa5	0.16330965
1	0xbdedaf09	-0.11605651
2	0x3adc85ed	0.0016824581
3	0x3be0bff0	0.0068588182
4	0xbcb8eba4	-0.0225733
5	0xbdca81ec	-0.09888062
6	0xbbd0e604	-0.0063750762
7	0x39ec1d22	0.00045035133
8	0x37c517e6	2.3495359e-05
9	0xba4172e1	-0.0007379484
10	0x3df34da6	0.11880045
11	0xbdcdd391	-0.10050119
12	0x3dde3ba4	0.10851219
13	0xbba1ef03	-0.0049418225
14	0x3bace8c4	0.0052767713
15	0xbc437d67	-0.011931754
16	0xbc1153e0	-0.008870095
17	0x3be7cd3c	0.0070740264
18	0x3ba3cfa1	0.0049991165
19	0x3bd49cd7	0.0064884233
20	0xbc25f78d	-0.0101298215
21	0x3b99475e	0.004677697
22	0x3a147c0c	0.00056642364
23	0x3c88764c	0.01665797
24	0xbb9ec40f	-0.0048451493
25	0x3d74b314	0.059741095
26	0x3d99f640	0.075176716
27	0xbca7815f	-0.020447431
28	0x3908f889	0.00013062557
29	0xbe071140	-0.13190174
