single_model_analysis/results/er_experiment_SIS_size_100_std_reg_1.0/neural_network.pth (torch, 16627 bytes, 14 tensors)

g.0.weight f4 [30, 1]
0	0x3e007a34	0.12546617
1	0x3f7825cc	0.96932673
2	0xbf0fd561	-0.56184965
3	0x3f27e5b9	0.65584904
4	0xbe20f1b8	-0.15717208
5	0xbd30341a	-0.043018438
6	0xbf12223c	-0.5708349
7	0x3e5ce733	0.2157257
8	0x3f37c76b	0.7178866
9	0xbeefd94f	-0.4684548
10	0x3f389137	0.7209658
11	0x3e2d4489	0.16920675
12	0x3e3474a3	0.17622618
13	0x3e05bfee	0.13061497
14	0x3ea4245b	0.32058987
15	0xbd9483f8	-0.072517335
16	0x3f02ae49	0.5104719
17	0x3e902f19	0.28160933
18	0xbf30597c	-0.6888654
19	0x3f0a2051	0.5395556
20	0xbe4c5d68	-0.19957507
21	0x3d813483	0.06308844
22	0xbcc7f383	-0.024408108
23	0x3eb82fb0	0.35973883
24	0xbf4be23c	-0.7964208
25	0xbf204149	-0.6259962
26	0xbebbc837	-0.3667619
27	0xbf11d9c9	-0.5697294
28	0xbe3d508b	-0.18487756
29	0xbec92f6b	-0.3929399

g.0.bias f4 [30]
0	0x3ec7b49a	0.39004976
1	0xbf57a3dd	-0.8423441
2	0x3f0ae579	0.542564
3	0x3c6a6f38	0.014308743
4	0xbdac7f88	-0.08422762
5	0x3e5e989c	0.21737903
6	0x3e71b316	0.23603472
7	0x3eb96f09	0.36217526
8	0xbd35607a	-0.04428146
9	0xbe059ffc	-0.1304931
10	0x3e0496ae	0.12948105
11	0xbe013ec8	-0.12621605
12	0x3e06dcda	0.13170186
13	0x3f0d3193	0.5515377
14	0x3eabd15c	0.33558166
15	0xbdcc9da1	-0.09991003
16	0x3ea8ef0c	0.32994878
17	0x3dda25f6	0.10651772
18	0x3ee641fa	0.4497221
19	0xbf00bc4b	-0.5028731
20	0xbf161b05	-0.5863498
21	0xbe0979e1	-0.134254
22	0xbda43804	-0.08018497
23	0x3f01858a	0.5059439
24	0x3ece45c7	0.4028761
25	0x3ecc3bf2	0.39889485
26	0x3e71aa55	0.23600133
27	0x3dfbc130	0.12292707
28	0x3ed81d21	0.42209724
29	0xbeab3b5d	-0.33443728

g.2.weight f4 [30, 30]
0	0xbbdb4565	-0.006691622
1	0xbe36c701	-0.17849351
2	0x3d8eb736	0.069685385
3	0xbdb6a7a5	-0.089186944
4	0x3cf8f925	0.030392239
5	0xbc883ec2	-0.016631488
6	0x3d939379	0.072058626
7	0xbdafb1a6	-0.085788056
8	0xbdebe7b4	-0.11518803
9	0xbc07b557	-0.008282981
10	0x3d0c0410	0.03418356
11	0xbbb3db8f	-0.00548882
12	0x3d872eb8	0.06600708
13	0xbdde6ce9	-0.10860617
14	0xbe0586ea	-0.13039747
15	0xbd4a0954	-0.049325302
16	0xbddb0386	-0.106940314
17	0xbc31eca3	-0.010859641
18	0x3e01a1e9	0.1265942
19	0x3b96cae2	0.0046018222
20	0xbd3746db	-0.044745307
21	0xbc5c6ec6	-0.013454145
22	0x3d5b1b12	0.053492613
23	0xbd911a2b	-0.07085069
24	0x3df2d1b0	0.11856401
25	0x3dc35203	0.09537127
26	0x3d3c1266	0.045915984
27	0x3d61a7c0	0.05509162
28	0xbd83e0aa	-0.06439336
29	0x3d71c70e	0.059027724
30	0xbd8dacc6	-0.069177195
31	0xbd970eb8	-0.07375854
32	0x3d0d1e64	0.03445281
33	0xbdd06c36	-0.101768896
34	0x3cacba67	0.021084977
35	0xbdf0be79	-0.1175508
36	0x3e049a5c	0.12949508
37	0xbe17bf24	-0.14819008
38	0xbe520588	-0.20509923
39	0x3d1c206b	0.038116854
40	0xbe666254	-0.22498447
41	0xbc2190e9	-0.009861209
42	0xbddd3393	-0.108008526
43	0xbe467c64	-0.19383389
44	0xbdea2fdd	-0.114349104
45	0x3b16ef2e	0.0023030746
46	0xbe738af9	-0.23783483
47	0xbe1116e4	-0.14168888
48	0x3ca48f5c	0.02008789
49	0xbd3d9157	-0.046281185
50	0x3e755224	0.23957115
51	0x3cd495a1	0.025950255
52	0x3d9b0dac	0.07570967
53	0xbe75a102	-0.23987201
54	0x3e0fd770	0.14047027
55	0x3d6f8319	0.058474634
56	0x3ceda93c	0.029011361
57	0x3df4d744	0.11955121
58	0xbe0d4080	-0.13794136
59	0x3d2cdec2	0.042204626
60	0x3bcbd8bc	0.006220905
61	0x3b290003	0.002578736
62	0xba6bd7db	-0.00089967035
63	0x3b4793de	0.0030453126
64	0xbb23fbd9	-0.002502194
65	0xbabdbb77	-0.0014475425
66	0xbbc0f2f8	-0.005888339
67	0xbbdd051c	-0.006744994
68	0x3be17c6c	0.0068812873
69	0xbbcf3f47	-0.006324682
70	0x3c52628e	0.01284088
71	0x3a881cb1	0.0010384527
72	0xbb2bf6cd	-0.0026239634
73	0x3c966cae	0.01836237
74	0x3b53e233	0.003233087
75	0xbb483bca	-0.0030553215
76	0xbbaf0f44	-0.005342396
77	0x3b31ce0d	0.0027130872
78	0xbb6720d9	-0.0035267381
79	0x3a0d153b	0.0005381887
80	0x3a979caf	0.0011567081
81	0xba05ae03	-0.0005099477
82	0x3bb7e44c	0.005611932
83	0xbbef0efa	-0.0072954865
84	0xbbd08dc7	-0.0063645574
85	0xbb713489	-0.0036804995
86	0xbb031c6f	-0.0020005961
87	0xbb852235	-0.0040629157
88	0x3c6e487e	0.014543651
89	0xbcb75984	-0.022381552
90	0x3e02c231	0.1276939
91	0x3b849811	0.004046448
92	0x3c0e84d8	0.008698665
93	0x3da4604d	0.080261804
94	0x3cbc4d91	0.022986205
95	0xbd2111d1	-0.03932363
96	0xbe57556b	-0.21028678
97	0x3e1c8139	0.1528367
98	0x3e7108b0	0.2353847
99	0xbe5fde4d	-0.21862145
100	0x3e9761a4	0.2956668
101	0x3ceb2d2a	0.02870806
102	0x3df05b72	0.11736192
103	0xbd410197	-0.047120657
104	0x3e33e32e	0.17567131
105	0xbdb1a1b9	-0.08673424
106	0x3d637460	0.055530906
107	0x3e5d1298	0.21589124
108	0xbd994fc7	-0.074859194
109	0xbda991e7	-0.08279782
110	0xbe347666	-0.1762329
111	0xbd26a8c9	-0.04068831
112	0x3cad602a	0.021164019
113	0x3d8ad087	0.06778055
114	0xbe8bd98c	-0.27314413
115	0xbe0fd4a7	-0.14045964
116	0xbdd424e2	-0.10358597
117	0xbe33d948	-0.17563355
118	0x3e4af8e4	0.19821507
119	0xbe832c15	-0.2561957
120	0xbd4759ba	-0.048669554
121	0xbcb36d72	-0.021902774
122	0x3c257597	0.010098836
123	0xbe5832d1	-0.21113135
124	0x3e0a05e4	0.1347881
125	0x3c547ff1	0.012969957
126	0x3e30dc75	0.17271598
127	0xbdf3f578	-0.11912054
128	0xbe57d6f3	-0.2107809
129	0x3e18d25f	0.14924
130	0xbe36cd14	-0.17851669
131	0xbcbdbb84	-0.023160703
132	0xbc027039	-0.007961326
133	0x3d47fd42	0.04882551
134	0xbdf6b542	-0.12046291
135	0x3d0dfed6	0.03466686
136	0xbdebce4e	-0.11513959
137	0xbde81613	-0.11332335
138	0x3e0ef55a	0.13960782
139	0x3d054aec	0.032542154
140	0xbd504dd5	-0.050855476
141	0x3bb97752	0.005659976
142	0x3e25cb72	0.1619089
143	0xbd2626af	-0.040564235
144	0x3e5b95fb	0.21443932
145	0x3d81cd57	0.063379936
146	0xbca9f080	-0.020744562
147	0x3dd8329f	0.1055653
148	0xbdfef922	-0.12449862
149	0x3e1ef57f	0.15523337
150	0x3e2cee00	0.16887665
151	0x3df66684	0.12031272
152	0xbdbef23f	-0.093235485
153	0x3daeca43	0.08534672
154	0xbda9c0d4	-0.08288732
155	0x3e324eab	0.17412822
156	0xbe21511f	-0.15753601
157	0x3d4c37ee	0.049858026
158	0x3e5926f7	0.2120627
159	0xbe2feb25	-0.17179544
160	0x3d789a0f	0.060693797
161	0x3d37ceed	0.044875074
162	0x3cd9af80	0.026572943
163	0x3d4c3469	0.04985467
164	0xbd186e92	-0.037214823
165	0x3cb29b89	0.02180268
166	0x3e5f3b1b	0.2179989
167	0x3e054959	0.13016261
168	0xbe15333c	-0.14570326
169	0xbdfc6ca5	-0.1232541
170	0xbe528363	-0.20557933
171	0x3cde147d	0.027109379
172	0x3c5d51da	0.013508284
173	0x3e601c0f	0.21885704
174	0xbe1ff64f	-0.15621303
175	0xbd85da36	-0.06535761
176	0xbce1b040	-0.027549863
177	0xbe5c4015	-0.2150882
178	0xbd3cb68d	-0.04607253
179	0xbe6d96ba	-0.23202029
180	0x3d2cfaa0	0.042231202
181	0xbe3b4225	-0.18286951
182	0x3bf9532b	0.0076087913
183	0xbe034817	-0.12820469
184	0xbaf31943	-0.0018546957
185	0xbdbe3ebd	-0.0928931
186	0x3dbb9abd	0.09160373
187	0x3cd0dbf4	0.025495507
188	0xbdcf7f9a	-0.1013176
189	0x3dfd1a0a	0.12358482
190	0xbdb9bd9f	-0.090693705
191	0xbcdfb986	-0.027310144
192	0xbd4060bb	-0.04696725
193	0xbdb399ec	-0.08769593
194	0xbd93291f	-0.071855776
195	0xbdcb0fb5	-0.09915105
196	0x3d4767dc	0.048683032
197	0xbdde7c1e	-0.10863517
198	0x3e2c41e0	0.16822004
199	0x3b989b5b	0.0046571917
200	0x3e0143b0	0.12623477
201	0xbd1a8383	-0.037723076
202	0x3dd3a3ac	0.10333952
203	0xbdc1d8b2	-0.094651595
204	0x3e1d2bd9	0.15348758
205	0x3e38556e	0.18001339
206	0x3c840c49	0.01611914
207	0x3db54e12	0.08852781
208	0xbd54ea8d	-0.051981498
209	0xbdc6d707	-0.09708982
210	0x3e110cea	0.14165083
211	0xbf13a2d7	-0.5767035
212	0x3e9212e7	0.28530046
213	0x3da27dfc	0.07934186
214	0x3d753def	0.059873518
215	0x3d586926	0.052834652
216	0x3e76c4ea	0.24098554
217	0x3dcacc8e	0.09902297
218	0x3d254a29	0.040353928
219	0xbe118157	-0.14209495
220	0xbbf53f6e	-0.007484368
221	0xbda802e7	-0.082036786
222	0x3caa8a9d	0.02081805
223	0x3c907387	0.017633213
224	0xbb26fe48	-0.0025481153
225	0xbdbd4d65	-0.092432775
226	0xbd9f0d40	-0.07766199
227	0x3dcc7171	0.09982575
228	0x3eed42cf	0.46340033
229	0xbe865086	-0.2623331
230	0xbdc7715d	-0.09738419
231	0xbd6b91e3	-0.057512175
232	0xbe0c062d	-0.13674231
233	0xbd8dfa99	-0.06932563
234	0x3ed7a139	0.4211519
235	0x3ebf9578	0.37418723
236	0x3e1246bd	0.14284797
237	0x3dd3f4b6	0.10349409
238	0x3d24f2ed	0.040270735
239	0xbde4f0ad	-0.11178718
240	0xbd4166e1	-0.047217254
241	0x3e6e7410	0.23286462
242	0xbe209956	-0.15683493
243	0xbd0d93b1	-0.034564678
244	0xbd5e0553	-0.054204296
245	0x3d3d4930	0.046212375
246	0xbe112c38	-0.14177024
247	0xbc07979f	-0.008275895
248	0xbc0d7978	-0.008634917
249	0x3c2879e3	0.010282966
250	0x3df68b09	0.120382376
251	0x3ce5849a	0.02801733
252	0xbe09605a	-0.13415661
253	0xbac8b7c0	-0.0015313551
254	0x3dc7929d	0.09744761
255	0x3d9c6e8a	0.07638271

g.2.bias f4 [30]
0	0xbdee5e98	-0.11639136
1	0xbde45508	-0.11149031
2	0xbca38622	-0.01996142
3	0x3d774b83	0.060374748
4	0xbe081657	-0.13289772
5	0x3e64c89c	0.22342151
6	0x3ce9c31e	0.028535422
7	0x3d9601d8	0.073245704
8	0xbd190e50	-0.037367165
9	0xbd77bd48	-0.060483247
10	0x3d79be99	0.060972784
11	0x3df9fb40	0.12206125
12	0x3de3a94b	0.111162744
13	0xbe187697	-0.14888988
14	0x3e70924d	0.2349331
15	0x3d966be2	0.07344796
16	0xbe5fad7b	-0.21843521
17	0x3e362659	0.17788066
18	0x3db23a03	0.08702471
19	0x3e4ad7d5	0.19808896
20	0xbccf4650	-0.025302082
21	0xbbaf49e4	-0.0053493846
22	0x3dcfb991	0.10142816
23	0x3e037641	0.12838079
24	0xbe050530	-0.1299026
25	0xbdd6c52a	-0.10486825
26	0xbd5f2918	-0.05448255
27	0x3a9234c3	0.001115464
28	0x3cf5c152	0.029999409
29	0xbe115a81	-0.14194681

g.4.weight f4 [1, 30]
0	0x3db30249	0.0874067
1	0x3e5d1fdd	0.21594186
2	0xbb972c82	-0.00461346
3	0xbea06032	-0.3132339
4	0x3e637b2f	0.2221496
5	0xbe7c1fb3	-0.24621467
6	0x3e0b35c9	0.13594736
7	0x3e8d67a0	0.27618122
8	0xbe168211	-0.14698054
9	0xbe7b671f	-0.24551056
10	0x3e6024e9	0.2188908
11	0xbe4ae260	-0.19812918
12	0xbe321afe	-0.17393109
13	0x3e30d688	0.17269337
14	0xbe74379f	-0.23849343
15	0xbe25b3f0	-0.16181922
16	0xbec0f12c	-0.37684
17	0xbe5cb222	-0.21552327
18	0xbe853538	-0.26017165
19	0xbe0ec4fd	-0.13942333
20	0x3de571a9	0.112033196
21	0xbe8097c2	-0.25115782
22	0xbe573379	-0.21015729
23	0x3d5387f2	0.05164332
24	0x3e0310d6	0.12799391
25	0x3e722248	0.2364589
26	0xbdecd78d	-0.115645505
27	0xba8eb8fc	-0.001088887
28	0x3deb67fe	0.11494444
29	0x3e768ebc	0.24077886

nn_fun1.0.weight f4 [30, 1]
0	0xbe8c9c91	-0.274632
1	0xbeda7dab	-0.42674002
2	0xbf059b7c	-0.52190375
3	0xbda6b841	-0.081406124
4	0xbe414b90	-0.18876481
5	0x3ef1707f	0.4715614
6	0xbee5ce30	-0.4488387
7	0x3d9db875	0.07701198
8	0xbe5ea9d2	-0.21744469
9	0x3eddceea	0.43321925
10	0xbee43436	-0.44571084
11	0xbdd570e9	-0.104219265
12	0xbf2955c2	-0.6614648
13	0x3cfb82f8	0.0307021
14	0x3f350639	0.7071262
15	0x3f1d0e4f	0.6134996
16	0xbed2553d	-0.41080657
17	0xbe96c2cb	-0.2944549
18	0xbeb74dcf	-0.3580155
19	0xbf5f14dc	-0.87141204
20	0xbce421b4	-0.027848102
21	0xbab88925	-0.0014078958
22	0x3e46b2ab	0.19404094
23	0xbeb1b688	-0.34709573
24	0xbf1b7421	-0.60724074
25	0x3e17c5ce	0.1482155
26	0x3e9f4626	0.31108207
27	0x3e292ce0	0.16521025
28	0xbec70242	-0.3886891
29	0x3f84f51b	1.03873

nn_fun1.0.bias f4 [30]
0	0x3d29ae4b	0.041425984
1	0xbe70fe71	-0.23534562
2	0xbe93fbcf	-0.28903052
3	0x3dcff84a	0.10154779
4	0x3d61b36e	0.055102758
5	0xbe5faa32	-0.21842268
6	0xbe54e42a	-0.20790163
7	0xbd2b80b5	-0.04187079
8	0xbecc7072	-0.3992954
9	0xbe7e8c2c	-0.24858159
10	0x3e88efc1	0.26745418
11	0x3f4049b4	0.7511246
12	0x3efc9f28	0.49340177
13	0xbee9bdfc	-0.4565276
14	0x3ec136f4	0.37737238
15	0xbeed893e	-0.4639377
16	0x3ed5b9c8	0.41743302
17	0x3e649858	0.2232374
18	0x3eb89645	0.36052147
19	0x3f148243	0.58011264
20	0x3bc60a56	0.0060437126
21	0x3a25e698	0.00063286116
22	0x3ea416ca	0.32048637
23	0xbe5c8687	-0.21535693
24	0x3ea0293a	0.31281453
25	0xbe184988	-0.148718
26	0xbde0ab04	-0.10970119
27	0xbf300e63	-0.6877195
28	0xbdf640c7	-0.12024074
29	0xbf065aeb	-0.5248248

nn_fun1.2.weight f4 [30, 30]
0	0xbca6153a	-0.020273793
1	0xbd9c9c0d	-0.07646952
2	0xbde186d3	-0.11012044
3	0xbbbe165f	-0.0058010067
4	0x3c46f8de	0.0121442955
5	0x3ca3239b	0.019914439
6	0x3db52aa1	0.088460214
7	0xbcb50a72	-0.022099707
8	0xbe0325dc	-0.12807411
9	0x3d7ada06	0.06124308
10	0x3d0f80ea	0.03503505
11	0xbe0bd15a	-0.1365408
12	0x3cb72ef2	0.022361252
13	0x3e059d74	0.13048345
14	0xbb9344f1	-0.0044943024
15	0xbd380be3	-0.04493321
16	0x3d5e2cbb	0.054241877
17	0x3d32405d	0.043518413
18	0x3d936c9d	0.07198451
19	0xbdb0606e	-0.086121425
20	0x3d8a51a6	0.067538545
21	0xb8bf4c95	-9.121854e-05
22	0x3dd8d7d2	0.105880395
23	0xbd2683e6	-0.040653132
24	0x3bad903a	0.005296734
25	0x3d2b2e3b	0.041792136
26	0x3beb1c5d	0.007175012
27	0x3971b860	0.00023052236
28	0x3d7c6422	0.06161893
29	0x3d13bfea	0.036071695
30	0xbc54579c	-0.012960341
31	0xbd0663d7	-0.03281006
32	0x3cf67505	0.030085096
33	0xbbd26f91	-0.006421991
34	0x38373023	4.367543e-05
35	0xb8a2fcce	-7.7718505e-05
36	0x3cd0c527	0.025484635
37	0x3a6ef2d4	0.00091151637
38	0x3c457cf1	0.012053714
39	0xbcb40dcc	-0.021979235
40	0xbc24c16d	-0.010055882
41	0x3c09d174	0.008411754
42	0xbc3e0589	-0.011597999
43	0x3cf10264	0.029420085
44	0xbd427948	-0.047478944
45	0x3b87fe21	0.0041501676
46	0x3c2d3918	0.010572694
47	0x3d028f7e	0.031875126
48	0x3cc3abc6	0.023885619
49	0xbbf8435f	-0.0075763906
50	0x3d89532f	0.06705319
51	0x346abe7f	2.186225e-07
52	0xbcd15d64	-0.025557227
53	0x3cdf13c9	0.027231114
54	0xb94d8035	-0.00019598084
55	0xba9c9687	-0.0011946716
56	0x3ae5c542	0.0017530101
57	0xbd296a24	-0.04136099
58	0xbcd61769	-0.02613421
59	0xb92f2225	-0.0001670202
60	0xbd204e04	-0.0391369
61	0x3cc4f659	0.024043249
62	0xbe25f3fe	-0.16206357
63	0x3c0b003d	0.0084839435
64	0xbd7164ea	-0.05893413
65	0x3dcae922	0.09907748
66	0xbe2de6cb	-0.16982572
67	0x3db36793	0.087599896
68	0x3ce0f266	0.027459335
69	0xbdc7eb47	-0.097616725
70	0x3d7a58c9	0.06111983
71	0x3cf6f6b7	0.03014694
72	0xbd0768e3	-0.033059012
73	0xbd9e2f2d	-0.07723842
74	0x3d3a1764	0.045432463
75	0x3e569fe4	0.20959431
76	0x3bebd08b	0.007196491
77	0xbdee8f67	-0.116484456
78	0x3e13ca95	0.14432748
79	0xbdf4a366	-0.11945228
80	0x3dde91ba	0.10867639
81	0xb9ea7f52	-0.0004472682
82	0x3e0bb54d	0.1364338
83	0xbe11fc45	-0.1425639
84	0xbd428599	-0.04749069
85	0xbb1a54d7	-0.0023549104
86	0x3d36d4f3	0.044636678
87	0xbdbdce04	-0.0926781
88	0xbd666394	-0.05624731
89	0x3ea22a40	0.3167286
90	0xbb28f2da	-0.0025779516
91	0xbc4ef946	-0.012632674
92	0x3b63e15e	0.003477178
93	0x3da3b86f	0.07994162
94	0xb8d9561f	-0.00010363408
95	0x38f0ba06	0.00011478741
96	0x3caf87ee	0.021427121
97	0x3b8a7a17	0.00422598
98	0xbba53c07	-0.005042556
99	0x3b5ae09b	0.0033398035
100	0x3baf9fff	0.005359649
101	0xbd4b4497	-0.04962596
102	0xbd003461	-0.031299952
103	0x3bb32ea9	0.005468209
104	0xbcdef9f5	-0.027218798
105	0xbb104da4	-0.0022018934
106	0xbb2e487f	-0.0026593504
107	0x3c1c50bf	0.009540736
108	0x3d211233	0.039323997
109	0xbb8c697b	-0.004285035
110	0x3d68a9e3	0.05680264
111	0xb3ef63d6	-1.1147465e-07
112	0xbd0776ca	-0.03307227
113	0xbd145f6c	-0.036223814
114	0xbb007c02	-0.0019605164
115	0xbbb92079	-0.005649623
116	0xbac2e3a8	-0.0014868872
117	0xbbd2a047	-0.006427798
118	0xbc28f8eb	-0.010313253
119	0x397779c8	0.00023601123
120	0xbbd75528	-0.0065714307
121	0xbd1cfd4e	-0.038327508
122	0x3d66ec58	0.05637774
123	0xbcb4f6a9	-0.022090273
124	0xb8de940d	-0.000106133615
125	0x3a0951e6	0.0005238339
126	0xbc5156cb	-0.012777041
127	0x3ba06210	0.0048945025
128	0x3d2db5f3	0.04240985
129	0x3d36ed62	0.04465998
130	0xbca30ade	-0.019902643
131	0x3d423001	0.04740906
132	0x3d1a128e	0.03761535
133	0xbd095a44	-0.03353335
134	0x3db22bd3	0.08699765
135	0x3cb7585b	0.022380998
136	0xbc0f9565	-0.008763646
137	0x3d156cca	0.036480702
138	0xbc6e9e8f	-0.0145641705
139	0xbca25a33	-0.019818401
140	0x3d020cf0	0.03175062
141	0xb5eb2bf2	-1.7521654e-06
142	0xbce42fdf	-0.027854858
143	0x3c9216ff	0.017833231
144	0xba716de8	-0.0009209798
145	0x3c2ff2c0	0.010739028
146	0x3b266746	0.0025391146
147	0x3c9a7ddc	0.018858843
148	0xbd092aff	-0.03348827
149	0x3a291940	0.0006450601
150	0x3c8bd224	0.017067976
151	0x3d164374	0.036685422
152	0x3d30a672	0.043127485
153	0x3deb66f5	0.11494247
154	0xbc242612	-0.010018842
155	0xbbcf8d3a	-0.006333974
156	0x3d0a1893	0.033714842
157	0xbb14566f	-0.0022634526
158	0x3ddce3d6	0.10785644
159	0xbdafcd7d	-0.08584116
160	0x3cde5e10	0.027144462
161	0x3d59897a	0.053109623
162	0x3c3f4ea6	0.011676466
163	0x3d8aae38	0.06771511
164	0x3c87b750	0.016566902
165	0xbe00ca4b	-0.12577169
166	0x3d3840d6	0.044983707
167	0xbd5e4a8d	-0.054270316
168	0x3cc30f4c	0.023811005
169	0x3d4738d3	0.048638176
170	0xbe10b15e	-0.1413016
171	0x37db54a5	2.614625e-05
172	0x3b0292a5	0.0019923833
173	0xbd22da0c	-0.039758727
174	0x3d28941f	0.041156884
175	0xbd3b3ca6	-0.045712136
176	0x3c9f9428	0.019479826
177	0x3be60024	0.0070190597
178	0xbdc366c1	-0.09541083
179	0xbc699ba7	-0.014258302
180	0x3cdaf9c2	0.026730422
181	0xbc87f6c9	-0.016597169
182	0xbc753321	-0.014965803
183	0x3d36d6f3	0.044638585
184	0x3787e301	1.6198961e-05
185	0xb92c9a54	-0.0001646069
186	0x3d7575d3	0.05992682
187	0x3acc8126	0.0015602454
188	0xbd374cdd	-0.044751037
189	0x3cbcc2d7	0.023042126
190	0xbb0c208d	-0.0021381706
191	0xbd26597b	-0.04061268
192	0xba30a5bc	-0.00067385635
193	0xbcde0731	-0.027103039
194	0x3caaf0a5	0.020866701
195	0x3cfe7272	0.031060431
196	0x3ba421d0	0.0050089136
197	0xbc8ef596	-0.017451089
198	0xbbd4fb2a	-0.0064996677
199	0xbc97961b	-0.018504193
200	0xbd5d8f9c	-0.054092035
201	0x350da2b2	5.2763346e-07
202	0xbd395dee	-0.045255594
203	0xbc7fd37f	-0.015614389
204	0x3aa9d14e	0.0012956054
205	0x3c2f0b36	0.010683825
206	0xbb995fb4	-0.004680598
207	0x3d3739d3	0.04473288
208	0x3d0e9227	0.03480735
209	0xb9ab8d9b	-0.00032721166
210	0x3d721752	0.05910427
211	0x3e0998da	0.13437214
212	0xbd1f9db9	-0.038968775
213	0x3dc4b3d5	0.09604613
214	0x3c4d182e	0.012517972
215	0xba9c6bcb	-0.001193398
216	0xbdcbc51c	-0.09949705
217	0x3c72a8f4	0.014810789
218	0x3da6be60	0.0814178
219	0xbd7d2773	-0.0618052
220	0x3c85ed05	0.016348371
221	0x3b3e2012	0.0029010815
222	0x3d202d65	0.03910579
223	0xbd93a4a5	-0.07209138
224	0x3d96f16d	0.07370267
225	0x3d701a45	0.058618803
226	0xbd6ac080	-0.05731249
227	0xbb866292	-0.004101106
228	0x393c6774	0.00017967616
229	0x3d35c81f	0.044380303
230	0x3df489ac	0.11940321
231	0xb7a86651	-2.0074805e-05
232	0xbcee1336	-0.029061895
233	0x3deaf519	0.1147253
234	0xbbef982f	-0.007311843
235	0xbcd2af22	-0.025718275
236	0xbb8c0e26	-0.0042741476
237	0xbdd79359	-0.10526151
238	0x3ca36651	0.01994625
239	0xbc08bd3d	-0.008345899
240	0xbcc5e8cb	-0.024158856
241	0xbc828d6f	-0.015936581
242	0xbc211b29	-0.009833136
243	0xbded0122	-0.11572482
244	0xbd9ee6ac	-0.07758841
245	0x3d2f8cb7	0.042858806
246	0x3dccb13e	0.09994744
247	0xbd86fc71	-0.06591118
248	0x3d23e645	0.040014524
249	0xbda226a3	-0.079175256
250	0xbd18f4d4	-0.03734286
251	0x3e0c51a4	0.13703018
252	0x3d80fb2a	0.06297906
253	0xbdd822e4	-0.1055353
254	0x3e060a56	0.1308988
255	0x3de6fb54	0.11278406

nn_fun1.2.bias f4 [30]
0	0x3c86194a	0.01636948
1	0x3d86906c	0.06570515
2	0x3da5f537	0.08103412
3	0x3d0b0bea	0.03394691
4	0xbccb7c8a	-0.024839658
5	0xbdd93568	-0.106058896
6	0xbd67595d	-0.056481708
7	0xbcddef14	-0.02709154
8	0x3ca9e0a6	0.020737004
9	0xbdbfb059	-0.093598075
10	0x3db82b79	0.08992667
11	0x3cb29eb0	0.021804184
12	0xbd37a5c4	-0.04483582
13	0xbc6b601f	-0.014366179
14	0xbda13741	-0.07871867
15	0xbb1c24b7	-0.0023825595
16	0x3dc5145d	0.096230246
17	0xbd597f87	-0.053100135
18	0xbb835668	-0.004008103
19	0xbd3aff37	-0.045653548
20	0xbc7f139c	-0.01556864
21	0x3d30c1a0	0.043153405
22	0xbcccc37e	-0.024995562
23	0xbaeeb554	-0.0018211999
24	0xbcc539ec	-0.02407547
25	0xbce625af	-0.02809414
26	0x3b6cbd67	0.0036123635
27	0x3b805dd0	0.0039174333
28	0xbd3bbdea	-0.045835413
29	0x3d6aca31	0.05732173

nn_fun2.0.weight f4 [30, 1]
0	0x3dbb50e4	0.09146288
1	0xbeb00a35	-0.34382787
2	0xbee3865e	-0.44438452
3	0xbeab25b8	-0.33427215
4	0xbf202a15	-0.6256421
5	0x3edc8476	0.4306981
6	0xbf26f76a	-0.65221274
7	0xbedf6705	-0.43633285
8	0xbd8220ed	-0.06353936
9	0x3eafe095	0.3435103
10	0xbe85e0b5	-0.26148
11	0x3e8466c6	0.2585966
12	0x3da43bb1	0.08019198
13	0x3ee53287	0.44765112
14	0xbcabb378	-0.0209596
15	0xbf3e1167	-0.74245304
16	0xbef8a466	-0.48562926
17	0x3ee123f5	0.43972746
18	0x3eb86171	0.36011842
19	0x3ee6f9fb	0.45112595
20	0x3f0b87bf	0.5450401
21	0xbf121938	-0.5706973
22	0xbdc6fcf5	-0.097162165
23	0xbe62a5c8	-0.22133553
24	0xbf0ad667	-0.542334
25	0xbed05dcb	-0.40696558
26	0xbe427fd9	-0.18994083
27	0x3e0610f8	0.1309241
28	0x3e0e17d8	0.13876283
29	0x3e59a842	0.21255592

nn_fun2.0.bias f4 [30]
0	0xbe6bea37	-0.23038565
1	0xbf279e00	-0.65475464
2	0xbe76cff7	-0.2410277
3	0x3e766e14	0.24065429
4	0x3e44efaa	0.1923205
5	0xbd2db32f	-0.04240721
6	0x3f4e9915	0.80702335
7	0x3e9fb711	0.31194356
8	0x3cfe197a	0.031018008
9	0xbe6812b6	-0.22663388
10	0x3ec3f270	0.38270903
11	0x3dd24489	0.10266978
12	0xbd5652d0	-0.05232507
13	0xbefd29a6	-0.49445838
14	0x3c332edc	0.010936465
15	0x3ef1e3b6	0.47244042
16	0x3ecf0990	0.40436983
17	0xbeb78f0b	-0.3585132
18	0xbef69788	-0.48162484
19	0xbe35be1f	-0.17748307
20	0xbe7c41b4	-0.24634439
21	0x3ea552df	0.32289788
22	0xbd101406	-0.035175346
23	0x3f11f027	0.5700707
24	0x3e617f58	0.22021234
25	0x3f183735	0.5945924
26	0xbe48727c	-0.19574922
27	0x3dfb776c	0.12278637
28	0xbd72f32f	-0.05931395
29	0xbdfc71dc	-0.123264045

nn_fun2.2.weight f4 [30, 30]
0	0x3d8fc39d	0.07019732
1	0xbe2a110d	-0.16608067
2	0x3e0faa2f	0.14029764
3	0x3d2125b4	0.039342597
4	0x3d540a35	0.051767547
5	0x3d5cc5a6	0.05389943
6	0x3d6c98c6	0.057762884
7	0x3de0561d	0.10953925
8	0x3d9e34f2	0.07724942
9	0xbddbeaef	-0.107381694
10	0x3debdd72	0.11516847
11	0xbce19fe6	-0.027542066
12	0xbd524938	-0.051339358
13	0xbc3b76e2	-0.011441918
14	0x39c7413a	0.00038004835
15	0x3cefa646	0.02925409
16	0xbd1e08de	-0.038582675
17	0x3d61e328	0.055148274
18	0xbdcb1f6d	-0.09918103
19	0xbbba2160	-0.005680248
20	0xbd9b0826	-0.075699136
21	0x3dd3b2e8	0.10336858
22	0x3e03bcd2	0.12864998
23	0xbd591bd8	-0.05300507
24	0xbc23e700	-0.010003805
25	0x3ddc6e0f	0.107631795
26	0xbb293d0e	-0.0025823745
27	0xbc6233dc	-0.01380631
28	0xbe2380eb	-0.15967147
29	0x3dc398f7	0.0955066
30	0x3b8acb8a	0.0042356895
31	0xbb6b2f4d	-0.0035886348
32	0xbc4ddfa5	-0.012565528
33	0xbab5dcad	-0.0013874971
34	0x3b6c2917	0.0036035234
35	0xb9efadf6	-0.00045715243
36	0x3d0755e3	0.033040892
37	0xbb987d67	-0.004653621
38	0xba5abfdf	-0.0008344631
39	0x394141b1	0.00018430386
40	0xbb91d80f	-0.004450805
41	0xbc19e749	-0.009393522
42	0x3cdbd60d	0.026835466
43	0x3ce79734	0.028270341
44	0x358b8671	1.0395435e-06
45	0x3a6a2f9f	0.00089334877
46	0x3bc384d4	0.005966762
47	0x3c570a4e	0.013125015
48	0x3ceaf2f6	0.028680306
49	0x3ade43ca	0.0016957459
50	0x39b1f0db	0.00033939522
51	0x39cff97d	0.00039668
52	0x3cac4ddc	0.02103322
53	0x3c08b2da	0.008343423
54	0xba1d5939	-0.000600237
55	0x3cf253fd	0.029581064
56	0xbd1d52ca	-0.038409032
57	0x3c9946b1	0.018710466
58	0x3be0ce86	0.006860557
59	0x3ca4091f	0.02002388
60	0xbc890077	-0.016723854
61	0xbe06383e	-0.13107392
62	0x3dbd6f95	0.09249798
63	0xbe06b239	-0.13153924
64	0xbc709ce7	-0.014685846
65	0x3dfe64d6	0.12421577
66	0xbe73be21	-0.23802997
67	0xbdb345ae	-0.08753525
68	0xbd483aba	-0.04888413
69	0x3e684954	0.22684222
70	0xbe090e83	-0.13384442
71	0x3df3b90d	0.1190053
72	0x3df305f8	0.11866373
73	0x3e2512b6	0.16120419
74	0x3b0f952c	0.0021908982
75	0xbe32f330	-0.17475581
76	0xbe7c4166	-0.24634323
77	0x3e2f72ce	0.17133638
78	0x3d2f8dfa	0.04286001
79	0x3d9f7c19	0.077873416
80	0xbce84e2e	-0.028357591
81	0xbe5e4241	-0.21704961
82	0xbe043e22	-0.12914327
83	0x3e0e7e7c	0.13915437
84	0x3cb301b0	0.02185139
85	0x3da82fac	0.08212218
86	0x3e07d2e9	0.1326405
87	0xbdd77934	-0.105211645
88	0x3ce34569	0.027743058
89	0xbcb70de8	-0.022345498
90	0xbc5d3460	-0.013501257
91	0x3b5cefdc	0.0033712303
92	0xbb317618	-0.0027078446
93	0x39a5894c	0.00031573547
94	0xba53278b	-0.00080549036
95	0xba9f7ace	-0.0012167336
96	0x3ba5eb8b	0.0050634793
97	0x3afd71a9	0.0019336242
98	0x385e8919	5.3056607e-05
99	0xb923e683	-0.00015630764
100	0x3ae96360	0.0017806105
101	0xbb47de92	-0.0030497652
102	0xbca6db08	-0.020368114
103	0xbaa9dbe3	-0.0012959208
104	0x35a6609c	1.2396081e-06
105	0x3a0cb2de	0.00053672295
106	0x3acf5415	0.0015817905
107	0xbb8d50ff	-0.004312634
108	0x3acf112a	0.0015797962
109	0x3944cb4d	0.00018767752
110	0x3831d8eb	4.240211e-05
111	0x39214fe0	0.00015383912
112	0xbb9610ac	-0.004579624
113	0x3c2be283	0.010491016
114	0xb9257a50	-0.00015781191
115	0x3ae480ac	0.0017433367
116	0x3b24335c	0.0025055027
117	0xbabc7341	-0.001437761
118	0xba0b3166	-0.000530979
119	0xbb88d523	-0.0041757985
120	0xbcbc9617	-0.023020787
121	0xbc391d2f	-0.011298462
122	0xbc66cefa	-0.014087433
123	0x3953c873	0.00020197201
124	0xbce02b7e	-0.027364489
125	0x3bd1b25f	0.0063994373
126	0xbb9731fc	-0.004614113
127	0x3a68de77	0.00088832475
128	0x3b9479d8	0.0045311265
129	0x3948951b	0.00019129032
130	0xbc41bf4c	-0.011825394
131	0xbd2bbd65	-0.041928668
132	0xbc8bbc31	-0.01705751
133	0xbc21ea6a	-0.009882549
134	0xb7bcce95	-2.2507544e-05
135	0xba10ec30	-0.0005528359
136	0x3b550c7b	0.003250866
137	0x3c082c43	0.008311334
138	0xbc3e5c88	-0.011618741
139	0x3ada7ed5	0.0016669879
140	0x3b31e492	0.0027144295
141	0xba001977	-0.0004886607
142	0x3cd7888e	0.026310232
143	0xbd1c3c44	-0.03814341
144	0x3bb089fd	0.0053875432
145	0xbcda068f	-0.026614456
146	0xbd7311e4	-0.059343234
147	0xbbe73672	-0.007056051
148	0x3c494b88	0.012286074
149	0x3cac26ac	0.021014534
150	0x3d5f071d	0.054450143
151	0x3c4abe24	0.012374435
152	0x3ce2f4e1	0.027704658
153	0xbb3c02b7	-0.0028688142
154	0x3c9a9819	0.018871354
155	0xbcf72c46	-0.030172478
156	0x3dee9706	0.11649899
157	0x3d6870ac	0.056748077
158	0xbd0af426	-0.033924244
159	0xbc3472c4	-0.01101369
160	0xbd748cf9	-0.059704755
161	0xbd2aac12	-0.041668005
162	0xbd9de175	-0.07709018
163	0x3c04ba1b	0.008101012
164	0x3a0f131d	0.0005457865
165	0x3d75969b	0.05995808
166	0x3d84dd25	0.064874925
167	0xbd6617b8	-0.056174964
168	0xbdd58a95	-0.10426823
169	0xbcb72470	-0.022356242
170	0xbcb9d1bb	-0.022683015
171	0x3c934b90	0.017980367
172	0xbce48aab	-0.027898153
173	0x3d2fb5fe	0.04289817
174	0xbc4628b2	-0.012094663
175	0xbd5d4bc3	-0.05402733
176	0xbd4d9489	-0.050190482
177	0x3ced866f	0.028994767
178	0xbd063ccf	-0.032772835
179	0xbda88231	-0.08227957
180	0xbd841b13	-0.064504765
181	0xbd530923	-0.051522385
182	0xbdcc7810	-0.099838376
183	0x3c52c51f	0.01286438
184	0x3d857a96	0.06517522
185	0xbd3022c4	-0.043001905
186	0xbd306d7f	-0.043073174
187	0x3c55f072	0.013057815
188	0xbd666280	-0.05624628
189	0xbc879477	-0.016550286
190	0xbb034958	-0.002003273
191	0x3dbec145	0.09314207
192	0xbcfad9fb	-0.03062152
193	0x3d215b6d	0.03939383
194	0x37e8c792	2.7749487e-05
195	0x3c83f305	0.016107092
196	0xbd4e4e4d	-0.050367642
197	0x3d9e320f	0.07724392
198	0x3e055c7b	0.1302356
199	0xbcdf18a2	-0.027233426
200	0x3ca4da16	0.020123523
201	0x3d474774	0.048652127
202	0x3d8bc6cb	0.06825026
203	0x3d77d08d	0.060501624
204	0xbd5e6f59	-0.05430541
205	0xbdd73dd3	-0.10509839
206	0xbdb65541	-0.0890298
207	0x3cb0265b	0.021502664
208	0xbddc2ee4	-0.10751131
209	0xbd9d8b20	-0.076925516
210	0xbcbda349	-0.02314915
211	0xbd8e1718	-0.069379985
212	0x3cb57686	0.022151243
213	0xbb2579be	-0.0025249566
214	0xbd0a9d9b	-0.03384171
215	0x3d1d6640	0.03842759
216	0xbd9c5013	-0.076324604
217	0xbd0e065b	-0.03467403
218	0x3c919c2e	0.017774668
219	0x3b660df5	0.0035103534
220	0xbced08d3	-0.028934872
221	0xbdb6026d	-0.088871814
222	0xbce2a68a	-0.027667303
223	0x3d1aab76	0.037761174
224	0x39a93db1	0.00032280156
225	0xbb36cc97	-0.002789294
226	0xbd1d5155	-0.038407642
227	0xbd26c61d	-0.04071628
228	0xbd76b761	-0.060233478
229	0xbc370453	-0.011170465
230	0x3b632949	0.003466206
231	0xbc1bb24b	-0.009502958
232	0xbd422881	-0.04740191
233	0xbcc7183c	-0.024303548
234	0xbcfc75c8	-0.030817881
235	0xbdce7a18	-0.10081881
236	0xbd6d3a18	-0.05791673
237	0xbd2a77d4	-0.041618183
238	0x3d4a2fb3	0.049361896
239	0x3d508134	0.050904468
240	0xbc15ef2f	-0.009151264
241	0x3d4e6cf2	0.050396867
242	0x3d7ae938	0.06125757
243	0xbd30bd8f	-0.043149527
244	0xbe192322	-0.14954808
245	0xbdce3196	-0.100680515
246	0xbe36706f	-0.17816328
247	0xbd919125	-0.07107762
248	0xbe06e88a	-0.13174644
249	0x3d55f2ca	0.052233495
250	0xbdb256ff	-0.087079994
251	0x3e214feb	0.15753143
252	0x3e21c655	0.15798314
253	0x3e171abf	0.14756297
254	0xba63653f	-0.00086744496
255	0xbe328ddc	-0.17436928

nn_fun2.2.bias f4 [30]
0	0xbdde8f08	-0.10867125
1	0xbcc6a34e	-0.024247792
2	0xbdee3837	-0.11631816
3	0xbc4fa0d1	-0.012672619
4	0xbc8a5ab5	-0.016888956
5	0xbcb583f3	-0.022157645
6	0xbcfe90c9	-0.031074898
7	0x3d4f0154	0.050538376
8	0x3d25089f	0.040291425
9	0x3e3c7af7	0.18406282
10	0x3dcf3d68	0.10119134
11	0x3b9d9165	0.004808592
12	0x3d5dab0f	0.054118212
13	0xbd163e2a	-0.036680378
14	0x3d53c9b0	0.051706016
15	0x3bce2061	0.006290481
16	0xbda06970	-0.078326106
17	0x3c5a2906	0.013315445
18	0xbd3647c0	-0.04450202
19	0xbdd685c8	-0.104747355
20	0xbcd8b86d	-0.026455129
21	0x3c64c3d0	0.013962701
22	0xbd0ab346	-0.033862375
23	0x3d12d139	0.03584406
24	0x390d1659	0.00013455133
25	0xbd7932bc	-0.0608394
26	0x3c6cff8d	0.014465225
27	0xbe03d7a3	-0.12875228
28	0x3cbdc3c3	0.023164636
29	0x3dae03ce	0.084968194

agg.0.weight f4 [1, 30]
0	0x3d4e3e93	0.050352644
1	0x3ab968d6	0.0014145623
2	0xbde07a8f	-0.10960876
3	0x3bb4ef70	0.0055217072
4	0xbb9bdbb5	-0.0047564157
5	0xbc9c8342	-0.019105557
6	0x3a8e7310	0.0010868032
7	0xbce3cb59	-0.027806925
8	0xbd7c0fc6	-0.06153848
9	0xbe25a21a	-0.16175118
10	0x3db11270	0.08646095
11	0x39c30a1f	0.0003720084
12	0x3d9a5b47	0.07536941
13	0x394812e6	0.00019080527
14	0xbda3bda1	-0.07995153
15	0xb94f676e	-0.00019779589
16	0x3d2f516f	0.04280227
17	0x3cc86251	0.024460943
18	0x3886d8c5	6.4299944e-05
19	0xbd148297	-0.036257353
20	0xbb168009	-0.0022964498
21	0x3b78ead9	0.0037981777
22	0xbbb00476	-0.0053716255
23	0x3b9771f1	0.004621737
24	0xbb192fd9	-0.0023374467
25	0x3c231c77	0.009955517
26	0x3abd68b6	0.0014450762
27	0xbcb028f6	-0.021503907
28	0xbc904e0a	-0.017615337
29	0x3c644a8d	0.01393379
