multiple_model_analysis/results/er_experiment_MM_size_10_36_alpha_0_scale_100_dynwght_False_std_reg_1.0_equiv_reg_0.0/neural_network.pth (torch, 16501 bytes, 14 tensors)

g.0.weight f4 [30, 1]
0	0x3f9791a5	1.1841322
1	0xbf4d2fb1	-0.80150896
2	0xbf645778	-0.89195967
3	0xbe8e6160	-0.27808666
4	0xbf23a28c	-0.639199
5	0x3b954505	0.004555347
6	0xbe331187	-0.17487155
7	0xbf4cddb3	-0.80025786
8	0x3f1617ca	0.5863005
9	0xbf51f63d	-0.82016355
10	0xbf069a10	-0.5257883
11	0x3f4454ea	0.7669207
12	0x3f658ab2	0.8966476
13	0x3ec70d9e	0.38877577
14	0x3e3633e1	0.17793228
15	0x3ea755be	0.32682604
16	0x3f6feef9	0.9372402
17	0xbe18d358	-0.14924371
18	0x3f8053fd	1.0025631
19	0xbee077da	-0.4384144
20	0x3f54506f	0.8293523
21	0x3f6a19ae	0.91445434
22	0xbf54938f	-0.83037657
23	0x3f30c7d6	0.69054925
24	0xbf10ccb6	-0.56562364
25	0x3e60a1aa	0.2193667
26	0xbf416df1	-0.7555838
27	0x3e8a112b	0.26966223
28	0x3f9ccefe	1.2250669
29	0xbf891793	-1.0710319

g.0.bias f4 [30]
0	0xbf281eb4	-0.6567185
1	0x3cf28b1e	0.029607352
2	0x3dc3f3a9	0.09567959
3	0xbdbe378b	-0.09287938
4	0xbf0d37e8	-0.5516343
5	0xbade75e1	-0.0016972387
6	0x3f24201b	0.6411149
7	0x3f36f1b3	0.71462554
8	0x3ee78743	0.45220384
9	0xbe19bbef	-0.15013097
10	0xbf5decad	-0.86689264
11	0x3eb76a62	0.3582335
12	0xbe042aed	-0.12907
13	0xbc177bac	-0.009245794
14	0x3af54ea2	0.0018715451
15	0x3ec81dc9	0.39085224
16	0x3f0b56d3	0.5442936
17	0xbea31ebc	-0.31859386
18	0xbe160327	-0.1464964
19	0xbf22ceff	-0.635971
20	0xbe77ec9e	-0.24211356
21	0xbf278417	-0.6543593
22	0x3f057a87	0.52140087
23	0xbec1008c	-0.3769573
24	0xbe8e6495	-0.27811113
25	0x3f26a1ce	0.65090644
26	0xbbb14a4d	-0.0054104687
27	0x3c550179	0.013000839
28	0xbde604a0	-0.11231351
29	0x3ee533ab	0.44765982

g.2.weight f4 [30, 30]
0	0x3d57cc47	0.05268505
1	0xbe1eb713	-0.15499525
2	0xbda7c5db	-0.08192035
3	0xbdd4fc25	-0.10399655
4	0x3dca739f	0.09885334
5	0xbd040639	-0.032232497
6	0xbd982e89	-0.07430751
7	0xbdb542a1	-0.08850599
8	0x3e2894bd	0.16462989
9	0xbe3fd65e	-0.18734118
10	0xbd6962d1	-0.056979004
11	0x3d0942bc	0.03351091
12	0x3e43ab46	0.19108304
13	0x3da3b97d	0.079943635
14	0xbdc57adb	-0.096425734
15	0x3bf5d448	0.0075021125
16	0xbe25842c	-0.16163701
17	0xbd0c22e8	-0.034212977
18	0x3d2be025	0.041961808
19	0xbbcc542c	-0.00623562
20	0xbd881e07	-0.06646352
21	0xbd84f062	-0.06491162
22	0xbe42fd26	-0.19041881
23	0x3e34dfc4	0.17663485
24	0xbe20d4cd	-0.15706177
25	0x3dc03312	0.09384741
26	0xbe0d0a1f	-0.13773392
27	0xbb14eb71	-0.0022723342
28	0x3e1c4626	0.15261135
29	0x3d6dedaa	0.058087982
30	0x3d84a275	0.06476299
31	0xbed04253	-0.406756
32	0xbdd2581b	-0.10270711
33	0xbe164cfd	-0.14677806
34	0x3d350f0d	0.044203807
35	0xbd1962e7	-0.037447836
36	0x3b8c10f1	0.0042744805
37	0xbe3f47b9	-0.18679704
38	0x3d7a6819	0.06113443
39	0xbd17f8aa	-0.03710238
40	0x3d680c3f	0.056652304
41	0xbe12e96b	-0.14346854
42	0x3da821ea	0.082095936
43	0x3dd0807a	0.10180755
44	0x3d817f2a	0.06323083
45	0xbe1974e9	-0.14986004
46	0x3db3469f	0.08753704
47	0xbe3dd4a6	-0.1853815
48	0x3e257b6f	0.16160367
49	0xbe137fe5	-0.14404257
50	0x3c984ea7	0.018592192
51	0xbe011023	-0.12603812
52	0xbe22ac7c	-0.1588611
53	0xbdad4aa7	-0.084615044
54	0xbdff0447	-0.12451988
55	0x3de37d47	0.11107879
56	0xbeaad2fc	-0.33364093
57	0x3c9c5a58	0.019086048
58	0x3e060dc3	0.13091187
59	0x3d4f513b	0.050614577
60	0x3e114fed	0.14190646
61	0x3ec10533	0.3769928
62	0x3e36f546	0.17867002
63	0x3e0aa4b1	0.13539387
64	0x3e12ffbb	0.14355366
65	0x3de37392	0.11106028
66	0x3e2b97fa	0.16757193
67	0xbde2921d	-0.11063025
68	0x3ad38c8f	0.0016139912
69	0x3e376ed2	0.17913368
70	0xbe04872c	-0.12942189
71	0xbdaa0ea8	-0.08303577
72	0xbe6d5d53	-0.23180132
73	0xbd0a2735	-0.033728797
74	0xbdbebd05	-0.09313396
75	0xbde0bfb8	-0.109740674
76	0x3d895d28	0.06707221
77	0x3da5cd00	0.08095741
78	0xbdf0368f	-0.11729156
79	0xbd1ede65	-0.03878631
80	0xbe0385bb	-0.12843983
81	0xbd19c3d0	-0.037540257
82	0x3baa1b01	0.0051912074
83	0xbd796644	-0.060888544
84	0x3e1cf43a	0.1532754
85	0x3cea7d9a	0.028624345
86	0x3eabcca1	0.33554557
87	0x3d138f8c	0.03602557
88	0xbda84bfb	-0.08217617
89	0x3c15e40d	0.00914861
90	0x3e21ecbb	0.15812962
91	0xbeaa8bda	-0.33309823
92	0xbe66da69	-0.22544254
93	0xbd2e57e5	-0.04256429
94	0xbe1e8d1a	-0.15483513
95	0xbe1df469	-0.15425266
96	0xbd867f87	-0.06567293
97	0xbd6e23fe	-0.058139794
98	0xbd308b81	-0.04310179
99	0xbe66e00b	-0.22546403
100	0xbe0e2329	-0.138806
101	0xbdcec044	-0.100952655
102	0x3e3d939c	0.1851334
103	0x3e4521d0	0.1925118
104	0x3dc3d7d8	0.09562653
105	0x3d967e2d	0.07348285
106	0x3bce630a	0.0062984275
107	0x3e0c7760	0.13717413
108	0xbc84bcbc	-0.016203277
109	0xbd150a32	-0.036386676
110	0xbe0f4fcd	-0.13995285
111	0x3cfe8f70	0.031074256
112	0xbd55278a	-0.05203966
113	0xbdb41850	-0.087937
114	0x3da4e269	0.08050997
115	0x3e2a498e	0.16629621
116	0xbe8ea2b2	-0.27858502
117	0x3e0b47e2	0.1360164
118	0x3e9ec732	0.3101135
119	0x3db95e0f	0.090511434
120	0xbd9061a5	-0.07049874
121	0x3e4e8b66	0.20170364
122	0x3d15b789	0.036551986
123	0x3e0f6607	0.14003764
124	0xbd2c94a8	-0.042133957
125	0xbd8cca8e	-0.06874572
126	0x3e09fda1	0.13475658
127	0x3e00bb93	0.12571554
128	0xbd1f6907	-0.03891852
129	0x3e4c22ce	0.19935152
130	0x3cb3c38d	0.021943832
131	0x3cba4678	0.02273868
132	0xbe488c71	-0.19584824
133	0xbbd8c8ec	-0.0066157486
134	0x3cf24f1f	0.029578744
135	0x3dc83e20	0.097774744
136	0xbdff9b9f	-0.12480854
137	0xbcb0d5ab	-0.02158626
138	0x3c8fe3c2	0.017564658
139	0x3d3991c5	0.045305032
140	0xbd80d08f	-0.062897794
141	0x3de804c1	0.11329032
142	0xbde565ec	-0.11201081
143	0xbe047737	-0.12936102
144	0x3e4eebf0	0.2020719
145	0xbc908fb5	-0.01764665
146	0x3e8e79dc	0.27827346
147	0xbda72889	-0.08162028
148	0xbe0f334a	-0.13984409
149	0x3e0f0c58	0.13969553
150	0x3cbc1cc8	0.022962943
151	0xbe63f05c	-0.22259659
152	0xbd0cbda3	-0.03436054
153	0x3d93e139	0.07220692
154	0x3c992c3e	0.018697854
155	0x3d94dee6	0.07269077
156	0x3cef55d0	0.029215723
157	0xbd792c0c	-0.060833022
158	0x3e519ae5	0.20469244
159	0xbdf76172	-0.12079133
160	0x3dab25de	0.08356832
161	0x3df51f94	0.11968914
162	0x3df14b6e	0.11781965
163	0x3d15692c	0.036477253
164	0xbdc14232	-0.09436454
165	0xbdb44a6e	-0.08803259
166	0xbded88d4	-0.115983635
167	0xbd5d4828	-0.05402389
168	0x3e4a6818	0.19766271
169	0x3d149157	0.03627142
170	0x3d0cb2f0	0.034350336
171	0xbdd6eaf7	-0.10494035
172	0xbe0108e3	-0.12601046
173	0x3dad59ae	0.08464371
174	0x3b8c11bb	0.0042745746
175	0x3e3d616a	0.18494192
176	0xbde34802	-0.11097719
177	0x3d981d76	0.07427494
178	0x3dde7a4b	0.10863169
179	0x3da6d132	0.081453696
180	0xbcb68e13	-0.022284543
181	0x3dbb23a9	0.09137661
182	0x3d589e7f	0.05288553
183	0x3d8feabd	0.07027195
184	0xbb6697b7	-0.0035185644
185	0x3c1fa8c8	0.00974483
186	0xbd95257d	-0.07282541
187	0x3d581d55	0.05276235
188	0x3dd9f8d9	0.10643167
189	0x3e066cf4	0.131275
190	0xbaf8d090	-0.0018983055
191	0x3c6b37f9	0.014356607
192	0xbe109491	-0.14119174
193	0xbd289da6	-0.04116597
194	0xbddaf97e	-0.10692118
195	0x3d33ff99	0.04394493
196	0xbda1b6cf	-0.07896196
197	0x3e4107f6	0.18850693
198	0xbe4f831c	-0.20264858
199	0xbdbfff9f	-0.09374928
200	0xbbff96f4	-0.0077999774
201	0x3d8bf9d8	0.06834763
202	0x3cdb7707	0.026790155
203	0xbde8fdd4	-0.11376539
204	0x3c5ef26c	0.013607603
205	0xbce33604	-0.027735718
206	0x3e053292	0.13007572
207	0x3d33bd1b	0.043881517
208	0xbe42d792	-0.19027546
209	0xbdd87f2c	-0.10571131
210	0x3d8c2fdd	0.06845067
211	0x3e880bc8	0.26571488
212	0x3e2c4260	0.16822195
213	0x3e000b1e	0.12504241
214	0xbd238277	-0.039919343
215	0x3daddf92	0.08489908
216	0x3d888634	0.06666222
217	0x3d9577a7	0.072982125
218	0x3d0d8e8b	0.034559768
219	0x3d1bfd7d	0.038083542
220	0xbde4ac1b	-0.11165639
221	0x3cf3b1d6	0.029747885
222	0xbe37adb9	-0.17937364
223	0xbc2baa6e	-0.010477645
224	0x3dab4daf	0.08364426
225	0x3e1b2f10	0.15154672
226	0xbd6cff8b	-0.057860892
227	0x3cc3e68b	0.023913642
228	0xbc7214f3	-0.0147755025
229	0x3e2e33ab	0.17011897
230	0xbdbd586f	-0.09245383
231	0x3cefc886	0.029270422
232	0xbdfc7cb0	-0.1232847
233	0xbe05a5cb	-0.13051526
234	0xbbf98744	-0.007615002
235	0x3d59a8b3	0.0531394
236	0x3e42d4dc	0.19026512
237	0xbe0efafc	-0.1396293
238	0xbe4c38cf	-0.19943546
239	0x3deb5576	0.1149091
240	0x3c330dec	0.010928612
241	0x3bb60c8d	0.0055556954
242	0x3cc66c42	0.024221543
243	0x3d155c59	0.036465023
244	0xbc6ecf13	-0.0145757375
245	0x3978fdf8	0.00023745734
246	0xbd1c5e1a	-0.03817568
247	0xbda4d4e5	-0.08048419
248	0x3cf7bcb1	0.030241342
249	0x3d9fa0d6	0.07794349
250	0x3d9b6c4f	0.075890176
251	0xbd754556	-0.059880577
252	0xba656f17	-0.00087522104
253	0xbb4c57e4	-0.0031180317
254	0xbd99fbae	-0.07518707
255	0x3c81d914	0.015850581

g.2.bias f4 [30]
0	0x3da4d462	0.08048321
1	0xbd7d9a9b	-0.06191502
2	0x3d627b4d	0.05529337
3	0xbe236c45	-0.1595927
4	0xbcbfdd5b	-0.02342098
5	0xbc4402aa	-0.011963526
6	0x3a9bd81e	0.001188997
7	0xbe362156	-0.17786154
8	0xbdeb9019	-0.11502094
9	0x3dfbe10b	0.12298783
10	0x3e10d004	0.14141852
11	0xbd473133	-0.048630904
12	0x3c8b7185	0.017021904
13	0xbe16b51f	-0.1471753
14	0xbb633e88	-0.0034674723
15	0x3e17c711	0.14822032
16	0xbe0a4534	-0.13502961
17	0x3d1b9bff	0.037990566
18	0xbe120f72	-0.14263704
19	0xbd9f7a8b	-0.07787045
20	0xbdeb3e4e	-0.11486493
21	0x3df32164	0.11871603
22	0x3ab75894	0.001398819
23	0xbdda9a21	-0.10673929
24	0x3dc96043	0.098328136
25	0xbdc023d9	-0.093818374
26	0xbde0ef26	-0.10983114
27	0x3e1d64a4	0.15370423
28	0x3d10c02c	0.03533952
29	0x3e23dab6	0.160014

g.4.weight f4 [1, 30]
0	0xbcac52b3	-0.021035528
1	0xbdc0f13a	-0.0942101
2	0x3e1e64ad	0.15468092
3	0xbe326b70	-0.17423797
4	0x3d2dc677	0.0424256
5	0xbc7cc7a6	-0.015428459
6	0x3c332f0f	0.010936513
7	0x3d011e9b	0.03152333
8	0x3b7fed3b	0.0039051312
9	0x3e5f24ef	0.21791433
10	0x3dc02db4	0.09383717
11	0x3e924b85	0.28573242
12	0x3e2b4f78	0.16729534
13	0xbd8d71d9	-0.0690648
14	0x3a273bd1	0.0006379458
15	0x3da15bc2	0.078788295
16	0xbcac5f1d	-0.021041447
17	0x39729f5e	0.00023138287
18	0x3d7ce990	0.06174618
19	0xbdd5790f	-0.10423481
20	0xbdf745cb	-0.12073859
21	0x3c3bb4dc	0.011456694
22	0xbe27f8f0	-0.16403556
23	0x3e0e3f04	0.13891226
24	0xbe1027f8	-0.14077747
25	0x3e8d9e55	0.2765986
26	0xbd2603bb	-0.0405309
27	0xbdb19a7f	-0.08672046
28	0x3e26a7f8	0.16275012
29	0xbdcdd7ff	-0.100509636

nn_fun1.0.weight f4 [30, 1]
0	0x3da428f7	0.08015626
1	0x3e8eded6	0.27904385
2	0xbdfc599a	-0.12321778
3	0x3f3bcd0d	0.7335976
4	0xbf750c96	-0.9572233
5	0x3c73f3c6	0.014889663
6	0x3f4fcaf4	0.81169057
7	0x3d84d67d	0.06486223
8	0xbeacfa63	-0.3378478
9	0x3d1b0224	0.03784384
10	0xbe3ee74e	-0.18642923
11	0x3f1d9bd3	0.61565894
12	0xbd3ce6a4	-0.046118394
13	0xbf39ed44	-0.72627664
14	0x3e873964	0.26410973
15	0xbd7e546a	-0.062092222
16	0xbf442276	-0.76615083
17	0xbcaeee8b	-0.02135398
18	0x3f076838	0.528934
19	0x3f38befe	0.7216643
20	0x3e2de090	0.16980195
21	0xbf1eb989	-0.62001854
22	0xbf345b62	-0.7045194
23	0xbf0013a9	-0.5003
24	0xbdafd087	-0.08584695
25	0x3e3b11b6	0.18268475
26	0x3e73a35a	0.23792782
27	0x3eec5c30	0.46164083
28	0xbd29df98	-0.041473
29	0xbf2a794a	-0.6659132

nn_fun1.0.bias f4 [30]
0	0x3f3d83f3	0.74029464
1	0x3eb88fc5	0.36047187
2	0xbf1960dc	-0.5991342
3	0xbf459421	-0.7717915
4	0x3f49fe49	0.78903633
5	0x3f3475dc	0.7049234
6	0x3c5adb86	0.0133580025
7	0x3f0d3017	0.55151504
8	0xbebbe609	-0.3669894
9	0x3e3412ec	0.17585343
10	0x3f1f7e6b	0.62302274
11	0x3ec8a31d	0.39186946
12	0xbd90a2c3	-0.07062294
13	0x3f07504b	0.5285689
14	0x3e9069fd	0.28205863
15	0xbf24f98e	-0.6444329
16	0x3e1d3847	0.153535
17	0x3ef3750f	0.47550246
18	0xbd7be2fb	-0.061495762
19	0x3c9291df	0.017891822
20	0xbf33581d	-0.70056325
21	0xbcf1b6ab	-0.029506048
22	0x3e811d11	0.25217488
23	0xbeb87290	-0.36024904
24	0x3e1aa0a6	0.15100345
25	0xbf44e2ec	-0.76908755
26	0xbed8a0b0	-0.42310095
27	0x3bc68b43	0.0060590818
28	0x3e76731b	0.24067347
29	0x3e852776	0.2600667

nn_fun1.2.weight f4 [30, 30]
0	0xbd9faa39	-0.07796139
1	0xbcf22eae	-0.029563274
2	0x3b3f4607	0.0029186027
3	0x3dc45959	0.09587354
4	0xbe01c3a4	-0.12672287
5	0x3ddc4816	0.10755937
6	0x3c94b1e6	0.018151235
7	0xbd576375	-0.052585084
8	0x3d40b768	0.04704991
9	0xbd9078ee	-0.070543155
10	0x3d50a3e0	0.050937533
11	0xbd2be126	-0.041962765
12	0x3c80a14e	0.015701916
13	0x3dbbe090	0.09173691
14	0x3deab538	0.11460346
15	0x3de39ee0	0.111142874
16	0xbce3b93e	-0.027798291
17	0xbd37c9df	-0.044870254
18	0x3cf25b80	0.029584646
19	0xbab28d4d	-0.0013622433
20	0xbe0287cd	-0.12747116
21	0x3cde5392	0.027139459
22	0x3de2c055	0.11071841
23	0xbe13ab14	-0.1442073
24	0x3dd0b294	0.10190311
25	0xbd0a402c	-0.033752605
26	0xbd3fd212	-0.046831198
27	0x3b7d4ca7	0.0038650425
28	0xbdb6709d	-0.08908198
29	0x3db0759d	0.08616183
30	0xbdef5288	-0.116856635
31	0xbd550290	-0.052004397
32	0xbe2fdbbc	-0.17173666
33	0x3d315a52	0.043299027
34	0x3e318ca0	0.173388
35	0xbd089590	-0.03334576
36	0xbddc338c	-0.10752019
37	0x3b5b01e2	0.003341787
38	0xbd863187	-0.06552415
39	0x3debfe63	0.1152313
40	0xbc802dbb	-0.015646806
41	0xbd8b3d26	-0.067987725
42	0xbdcf8963	-0.10133626
43	0x3e53e3b2	0.20692328
44	0xbdac9ff6	-0.08428948
45	0x3e2541d0	0.16138387
46	0x3dba7379	0.09104056
47	0xbc0a0993	-0.008425134
48	0xbdddd5b6	-0.10831778
49	0xbe384d04	-0.17998129
50	0x3cdb9ec4	0.026809104
51	0x3e0a37eb	0.13497894
52	0xbd9d98b0	-0.076951385
53	0x3d12e493	0.035862517
54	0x3dbffdcf	0.09374582
55	0xbe0b3dc0	-0.13597775
56	0x3d789ea2	0.06069816
57	0xbdaac7dd	-0.08338902
58	0xbd4ae222	-0.049532063
59	0xbd2745e6	-0.040838145
60	0xbdc0d3cd	-0.09415398
61	0x3d40b92b	0.04705159
62	0xbd44b141	-0.048020605
63	0x3a18524b	0.00058106025
64	0xbc1b89e7	-0.009493328
65	0xbb901366	-0.0043968437
66	0x38f60590	0.0001173123
67	0x3d515481	0.05110598
68	0x3d987254	0.07443681
69	0xbcc9d05a	-0.024635483
70	0xbc1ec8ad	-0.0096913995
71	0xbc16c89e	-0.009203104
72	0x3c0e76cb	0.008695315
73	0xbd557b48	-0.052119523
74	0xbce0737a	-0.027398814
75	0xbdce6372	-0.100775614
76	0xbc2f2264	-0.010689352
77	0x3d0bd717	0.034140673
78	0x3be6883f	0.007035285
79	0x38f33ffc	0.00011599061
80	0x3e0037bc	0.12521261
81	0xba8126c0	-0.0009853467
82	0xbc868666	-0.016421508
83	0x3d669731	0.05629653
84	0x3cb477a7	0.022029711
85	0xbd4a359f	-0.049367543
86	0xbdb09c40	-0.08623552
87	0x38e07f8c	0.0001070491
88	0x3cfd4cb6	0.030920368
89	0xbc0ed451	-0.008717612
90	0xbe0069ac	-0.1254031
91	0xbdd16c36	-0.10225718
92	0xbd274ddc	-0.040845737
93	0xbe3d193a	-0.18466654
94	0xbd6b783f	-0.057487722
95	0xbd4121b1	-0.04715127
96	0xbdf7e024	-0.12103298
97	0xbe01d0b0	-0.12677264
98	0x3a1a0093	0.00058747194
99	0x3ac6bc18	0.0015162257
100	0x3d702963	0.05863322
101	0x3e111195	0.14166863
102	0xbdac2749	-0.084059305
103	0x3e310495	0.17286904
104	0x3d861edf	0.06548857
105	0x3d6c5a82	0.057703502
106	0x3da76d83	0.081751846
107	0xbd48b47b	-0.049000245
108	0xbcee2120	-0.02906853
109	0xbda2a115	-0.0794088
110	0xbd9dfaf5	-0.07713882
111	0x3cd13648	0.025538579
112	0xbda250c2	-0.079255596
113	0xbd955754	-0.07292047
114	0xbcbf4426	-0.023347925
115	0x3dd745e6	0.10511379
116	0xbdf62c07	-0.12020116
117	0xbce2fc5f	-0.02770823
118	0xbd6477be	-0.055778258
119	0x3d61946a	0.05507318
120	0xbb3fa833	-0.0029244542
121	0xbded02d4	-0.11572805
122	0x3daa9350	0.08328879
123	0x3e16ea4f	0.14737819
124	0x3e05faa7	0.13083898
125	0xbd380661	-0.04492796
126	0xbd4614cf	-0.04835969
127	0xbd67c08e	-0.05658012
128	0xbe195b9c	-0.14976352
129	0xbc951b9a	-0.018201638
130	0x3df063bf	0.11737775
131	0xbd9cb20e	-0.07651149
132	0xbd8c6ad4	-0.06856313
133	0x3dae7286	0.08517937
134	0x3e10e43f	0.14149569
135	0x3e0b003d	0.1357431
136	0x3e163938	0.14670265
137	0xbd8bdfad	-0.06829772
138	0x3d428bee	0.04749673
139	0xbe0b9ae3	-0.13633303
140	0x3dd40c80	0.10353947
141	0x3e054048	0.13012803
142	0x3d290132	0.041260906
143	0xbc8b4ac8	-0.017003432
144	0xbd168c8a	-0.036755122
145	0xba3525d0	-0.00069102366
146	0x3e11e0cb	0.14245908
147	0x3c7eb94f	0.015547111
148	0xbdc236bd	-0.09483097
149	0x3e1a5a5a	0.15073529
150	0xbd52fa55	-0.051508266
151	0xbd97ef33	-0.074186705
152	0x3e1d5638	0.15364921
153	0x3e2ea71c	0.17055935
154	0xbca4f23c	-0.020135038
155	0x3e2126a8	0.15737402
156	0x3e85d958	0.26142383
157	0x3c08ea15	0.008356591
158	0xbdcc4781	-0.09974576
159	0x3d36c257	0.04461893
160	0x3e18b382	0.14912227
161	0xbdb07009	-0.08615119
162	0x3d1e3f67	0.038634684
163	0xbe17f3b7	-0.14839064
164	0xbe07947a	-0.13240233
165	0xbd5fc79b	-0.054633718
166	0xbe5cac32	-0.21550062
167	0x3df9b8a1	0.12193418
168	0x3da0e58a	0.07856281
169	0x3ded3ea4	0.115842134
170	0xbde55289	-0.11197383
171	0x3d1ded0e	0.03855615
172	0xbc1d862e	-0.00961451
173	0xbd519cac	-0.051174805
174	0xbdf6280f	-0.12019359
175	0xbcbd0567	-0.023073865
176	0xbe09d7ed	-0.13461275
177	0x3dd6573f	0.104658596
178	0xbe1f55e9	-0.15560116
179	0x3d4dd537	0.050252166
180	0x3dddb28e	0.10825072
181	0x3db783d3	0.0896069
182	0xbe1eef5c	-0.15520996
183	0x3e103704	0.14083487
184	0xbc1ee787	-0.009698755
185	0xbd4eac63	-0.05045737
186	0x3d205776	0.03914591
187	0xbca6dd63	-0.020369237
188	0x3dd1fd1f	0.10253357
189	0x3c2d499f	0.010576635
190	0x3bd93f8c	0.00662989
191	0x3df57271	0.119847186
192	0xbcc85519	-0.02445464
193	0xbdab7d9a	-0.08373566
194	0x3de02647	0.10944801
195	0xbdd2573d	-0.10270546
196	0xbbd355cf	-0.006449438
197	0xbdd10004	-0.10205081
198	0x3cf37beb	0.029722175
199	0x3d72ca36	0.059274875
200	0xba378356	-0.00070004666
201	0xbc865c28	-0.016401365
202	0xbddd8657	-0.10816639
203	0xbc2edb77	-0.010672442
204	0xbda3dcc5	-0.08001093
205	0x3d85fae7	0.065419964
206	0xbd958b54	-0.07301965
207	0x3c616785	0.013757591
208	0x3ddd5256	0.1080672
209	0x3d93c83e	0.072159275
210	0x3d07a145	0.033112783
211	0xbd9aebe6	-0.07564525
212	0x3dbac91f	0.09120392
213	0xbba6ee92	-0.0050943578
214	0xbca8e2ee	-0.020616021
215	0x3ca5462e	0.020175066
216	0x3d8540bc	0.06506488
217	0xbdd5b88d	-0.10435591
218	0xbd7160c7	-0.058930185
219	0xbd53cfbf	-0.051711794
220	0xbde8aab9	-0.11360688
221	0xbc6c4ee9	-0.0144231105
222	0xbd7e1c84	-0.062038913
223	0xbdf674db	-0.12034007
224	0x3e141cff	0.14464186
225	0x3d903e0b	0.07043084
226	0xbd3fccff	-0.04682636
227	0x3d548f3e	0.05189442
228	0x3ce45a52	0.0278751
229	0xbcc0ffff	-0.023559568
230	0x3dd01b05	0.101614036
231	0xbdb83e96	-0.08996312
232	0x3d021480	0.03175783
233	0xbe03fdc4	-0.12889773
234	0x3d93827c	0.07202622
235	0x3e07b280	0.13251686
236	0xbe09b236	-0.13446888
237	0xbd436b55	-0.04770978
238	0x3e0a1c90	0.13487458
239	0x3d896d33	0.06710281
240	0x3dca8d4e	0.09890233
241	0x3e41e66f	0.1893556
242	0xbde7c369	-0.113165684
243	0x3da59954	0.08085886
244	0x3e2c42a5	0.16822298
245	0x3d82a6e3	0.06379487
246	0xbe02985f	-0.12753437
247	0xbdd45af0	-0.103689075
248	0x3dfc6dc1	0.123256214
249	0x3e0c7b34	0.13718873
250	0xbc1783d9	-0.0092477435
251	0xbdc787c3	-0.09742691
252	0xbd745a19	-0.059656236
253	0xbc7960cf	-0.015220835
254	0x3cfdfa21	0.03100306
255	0x3dcb8215	0.099369206

nn_fun1.2.bias f4 [30]
0	0x3da0ec98	0.07857627
1	0xbd929c50	-0.071587205
2	0x3c693586	0.014233952
3	0xbd7c6163	-0.061616313
4	0x3e334e59	0.17510356
5	0x3c31ac3c	0.0108442865
6	0xbd3d6ebf	-0.046248194
7	0x3e328f02	0.17437366
8	0xbdc221fe	-0.0947914
9	0x3ca2ec4e	0.01988807
10	0xbda8a995	-0.0823547
11	0x3ccee655	0.025256315
12	0x3e150a97	0.14554821
13	0xbd2ddb62	-0.042445548
14	0x3cb040fe	0.021515366
15	0x3db87220	0.090061426
16	0xbdfd2fea	-0.123626545
17	0x3dd7d719	0.105390735
18	0xbcd97879	-0.026546704
19	0xbd6c47b4	-0.05768557
20	0xbca8734f	-0.020562796
21	0x3bbae24b	0.0057032458
22	0xbe019c4b	-0.12657277
23	0xbcfd5922	-0.03092629
24	0xbc772b61	-0.015086026
25	0xbcfb5da8	-0.030684307
26	0x3e00987b	0.12558167
27	0xbd997ab1	-0.07494105
28	0xbd9df84f	-0.07713377
29	0x3db49fd6	0.08819549

nn_fun2.0.weight f4 [30, 1]
0	0x3e2ff23c	0.17182249
1	0x3f4bb2e6	0.7956985
2	0xbd905dc7	-0.070491366
3	0xbda2e58a	-0.07953937
4	0xbd9a27cf	-0.07527124
5	0xbc2be5c4	-0.010491792
6	0x3f589bd6	0.84612787
7	0xbd8421a9	-0.06451733
8	0xbf45586f	-0.77088064
9	0xbccaf11e	-0.024773177
10	0x3e541afe	0.20713422
11	0xbc62e946	-0.013849562
12	0x3ee5b44a	0.44864112
13	0x3da2d8d1	0.07951511
14	0xbec199ef	-0.37812755
15	0xbf038a07	-0.5138249
16	0x3ea75e22	0.32689005
17	0xbdfa8377	-0.12232106
18	0xbe608dfc	-0.21929163
19	0xbe6b0ec7	-0.22954856
20	0x3d1d2bc1	0.038371805
21	0xbbdd857c	-0.0067602973
22	0xbf877796	-1.058337
23	0x3eefdfb4	0.4685036
24	0xbf0eb2fd	-0.55741864
25	0xbe215195	-0.15753777
26	0x3ec35fff	0.38159177
27	0xbef328a7	-0.47491953
28	0xbdc07f15	-0.09399239
29	0xbd0e3635	-0.034719665

nn_fun2.0.bias f4 [30]
0	0xbe43dd88	-0.19127476
1	0xbef28719	-0.47368696
2	0x3f3d5632	0.7395965
3	0x3f0493a2	0.5178777
4	0xbe2b5382	-0.16731074
5	0xbf41648d	-0.75544053
6	0xbf55e0dd	-0.8354624
7	0x3f3c6f81	0.7360764
8	0x3e859fd2	0.26098496
9	0x3eb7d13e	0.35901827
10	0x3eb3539b	0.35024723
11	0xbf361c35	-0.7113679
12	0xbedf91de	-0.43665975
13	0xbe3ca477	-0.18422113
14	0x3f475cda	0.77876055
15	0x3e2a7b87	0.16648684
16	0xbe854ec0	-0.26036644
17	0x3f4b716b	0.7946994
18	0xbeb6a816	-0.35675114
19	0xbe995ffb	-0.2995604
20	0xbe995ad8	-0.2995212
21	0x3f2c0018	0.67187643
22	0x3f42cf91	0.7609797
23	0xbf23c758	-0.6397605
24	0xbefdaa48	-0.49543977
25	0x3f5e1b7e	0.867607
26	0x3f0809d7	0.53140014
27	0xbb20eff0	-0.0024557076
28	0xbf3240b6	-0.6962999
29	0xbf4da005	-0.80322295

nn_fun2.2.weight f4 [30, 30]
0	0x3dd49646	0.10380225
1	0xbe27a0ab	-0.16369884
2	0xbd5b70b2	-0.05357427
3	0x3e20cce8	0.15703166
4	0xbdbffb25	-0.09374074
5	0x3e354192	0.17700794
6	0xbdde6919	-0.108598895
7	0x3c2d0842	0.010561051
8	0x3da07b72	0.07836045
9	0xbd5b079b	-0.05347405
10	0xbe14a32a	-0.14515367
11	0x3dd3ddc7	0.10345035
12	0x3d969f38	0.07354587
13	0x3d48bae2	0.04900635
14	0x3d67cafc	0.056590065
15	0x3cf80598	0.030276105
16	0xbc82846e	-0.015932288
17	0xbd97fe5c	-0.07421562
18	0xbdb46af2	-0.08809461
19	0xbdf8a3ae	-0.121405944
20	0xbe15a099	-0.14612044
21	0x3cca2d4c	0.024679802
22	0x3e0bca69	0.13651432
23	0x3cbdd6eb	0.02317377
24	0x3da1b637	0.07896083
25	0xbd0be378	-0.034152478
26	0x3bbfba77	0.0058510858
27	0x3d61a848	0.055092126
28	0xbe12564b	-0.1429073
29	0x3e180be3	0.14848284
30	0x3d6c364e	0.057668976
31	0xbe200ba0	-0.15629435
32	0x3dec8bbe	0.11550091
33	0x3cf060ae	0.029342975
34	0x3da80773	0.08204546
35	0xbe239618	-0.15975225
36	0x3d27e13b	0.04098628
37	0x3e14bacc	0.14524382
38	0x3d6b1e80	0.057402134
39	0xbdb97dd7	-0.09057205
40	0x3dbf921c	0.0935404
41	0x3d473dd7	0.04864296
42	0x3cb59963	0.022167867
43	0x3cb44437	0.022005184
44	0xbd4ea1e5	-0.050447363
45	0x3dcdc36f	0.100470416
46	0x3da96dc2	0.08272888
47	0xbc20b6d2	-0.009809213
48	0xbb84eb8a	-0.0040563988
49	0xbd0af325	-0.033923287
50	0x3d7e5147	0.06208923
51	0x3c10eb0a	0.0088451
52	0x3c2a2c78	0.010386579
53	0x3dae7e95	0.08520237
54	0x3cd87b0d	0.026425863
55	0x3da42404	0.08014682
56	0xbdf21e79	-0.118222184
57	0x3c4e3f43	0.012588325
58	0xbd4d722f	-0.050157722
59	0xbd8ba6f0	-0.0681895
60	0x3cb1c992	0.021702562
61	0xbd3cfe4b	-0.04614095
62	0x3db72231	0.08942068
63	0xbd83ff59	-0.06445188
64	0x3b9bfa82	0.0047600875
65	0xbcd8da04	-0.026471145
66	0x3dac2b4d	0.084066965
67	0xbd94f5f3	-0.072734736
68	0xbce3423c	-0.027741544
69	0x3d19de7a	0.037565686
70	0x3998347f	0.00029030812
71	0x3db8901e	0.09011863
72	0x3c9a1391	0.018808158
73	0xbbc9b15c	-0.006155176
74	0xbcd161b5	-0.025559286
75	0xbc1f3020	-0.009716064
76	0xbae5f23a	-0.0017543503
77	0xbd9293c0	-0.07157087
78	0x3d23b0de	0.039963596
79	0x3d19c673	0.03754277
80	0xbbeba2cf	-0.007191039
81	0x3d7422af	0.05960339
82	0xbd536b2b	-0.051615875
83	0x3d928e97	0.07156103
84	0xbd778695	-0.06043108
85	0x3dc68a41	0.096943386
86	0x3bfdad67	0.0077416184
87	0xbaa3111a	-0.001244101
88	0xbdc2bc6d	-0.095085956
89	0xbdc3a977	-0.09553807
90	0x3c4b8f12	0.012424247
91	0x3cbbfc82	0.022947554
92	0x3d6b98e4	0.057518855
93	0x3c290a52	0.010317402
94	0x3d9a61d8	0.075381935
95	0xbc6180c9	-0.013763615
96	0xbe3fb796	-0.18722376
97	0xbcf96f67	-0.030448629
98	0xbde2c7c3	-0.11073258
99	0xbe064be0	-0.13114882
100	0xbd880307	-0.066412024
101	0xbe2804cb	-0.16408078
102	0x3b160ed2	0.0022897017
103	0xbe17b7e7	-0.14816247
104	0xbd724610	-0.059148848
105	0x3d9b7717	0.07591074
106	0x3d4f5c11	0.05062491
107	0xbd373617	-0.04472932
108	0x3db571da	0.08859606
109	0x3d8cebbc	0.068809
110	0x3d2f2658	0.042761177
111	0xbd82b385	-0.06381897
112	0xbd418635	-0.04724713
113	0x3daadc42	0.08342792
114	0xbdac0e6b	-0.084011875
115	0xbe17123a	-0.14753047
116	0x3de57533	0.112039946
117	0xbcc20f5e	-0.023688968
118	0xbdcfaadc	-0.10140011
119	0x3cce6822	0.025196139
120	0xbcd4c1af	-0.025971262
121	0xbd8f58da	-0.06999369
122	0xbdbb7da0	-0.091548204
123	0xbd8d36a8	-0.068951905
124	0xbda29290	-0.07938111
125	0x3d578cf2	0.05262465
126	0xbe0804a6	-0.13283023
127	0xbdf5f8ef	-0.12010371
128	0xbd044879	-0.032295678
129	0x3c96b263	0.018395608
130	0xbdcc8733	-0.09986725
131	0x3e0de7d6	0.1385797
132	0x3e20d33e	0.15705582
133	0x3d97c0cb	0.07409819
134	0x3bc89c68	0.0061221607
135	0xbd7bdb6a	-0.061488546
136	0x3d120fc8	0.03565958
137	0x3e0bf7df	0.13668774
138	0xbda5a90a	-0.08088882
139	0xbdc3c21c	-0.09558508
140	0xbcb7edec	-0.022452317
141	0xbdab5675	-0.083661
142	0xbe010d72	-0.12602785
143	0xbd9618de	-0.07328962
144	0xbd7d979c	-0.061912164
145	0xbe240ba3	-0.16020064
146	0xb96ff0b4	-0.00022882485
147	0xbd25558f	-0.0403648
148	0xbdfcabb7	-0.123374395
149	0xbe02072e	-0.12698051
150	0xbddb735f	-0.10715365
151	0x3d2cea5f	0.0422157
152	0x3c738cb3	0.014865088
153	0xbc9d4e5c	-0.019202404
154	0xbdcc628e	-0.09979735
155	0x3cb5c59e	0.022188958
156	0xbe0bba8a	-0.13645378
157	0x3e35259a	0.17690125
158	0x3da7403c	0.081665486
159	0x3d3b445d	0.045719493
160	0xbda56902	-0.08076669
161	0xbdd6f160	-0.104952574
162	0x3d79a346	0.060946725
163	0x3b8f81c6	0.004379484
164	0xbd8899ce	-0.06669961
165	0xbdf3d0a2	-0.11905028
166	0x3d8da358	0.06915921
167	0xbd4565d3	-0.04819281
168	0x3db5170f	0.08842289
169	0xbe2172f8	-0.15766513
170	0xbc6ede3b	-0.014579351
171	0x3ce4b09a	0.027916241
172	0xbe118a0d	-0.14212818
173	0xbd2a15af	-0.041524585
174	0x3c8903c8	0.016725436
175	0xbdf5d6e6	-0.12003879
176	0xbcf72b77	-0.030172093
177	0xbd45605e	-0.048187606
178	0x3d0b5988	0.03402093
179	0xbdcf8447	-0.10132652
180	0xbcc9951f	-0.02460724
181	0xbdeddc75	-0.116143145
182	0xbd54b5bd	-0.05193113
183	0xbcfb90b5	-0.03070865
184	0x3b6aad86	0.0035808994
185	0xbde435c2	-0.11143066
186	0xbe205019	-0.15655555
187	0x3d01a941	0.031655554
188	0x3d52a58a	0.0514274
189	0xbe0befe1	-0.13665725
190	0x3d41101c	0.047134504
191	0x3bc4ea17	0.006009351
192	0x3db0177a	0.08598228
193	0x3ddf77bb	0.10911509
194	0x3c4c4f60	0.012470096
195	0x3d9f9ca0	0.07793546
196	0x3cba9bd1	0.022779377
197	0x3dca5f37	0.09881442
198	0xbd8aa466	-0.06769638
199	0x3c53d37f	0.012928843
200	0xbdf4e23c	-0.11957213
201	0x3d49b369	0.049243364
202	0x3ddd9a1c	0.1082041
203	0x3e0f4fe0	0.13995314
204	0x3e180881	0.14846994
205	0x3d396ade	0.045267932
206	0xbddf44e3	-0.10901811
207	0xba8176a4	-0.0009877277
208	0xbddcd0c0	-0.107820034
209	0x3e0c380e	0.13693258
210	0x3db694ac	0.08915076
211	0xbde0f5a0	-0.10984349
212	0x3e1e558b	0.1546232
213	0x3d7ef94d	0.06224947
214	0xbdb877a3	-0.09007194
215	0x3dc9c45f	0.09851908
216	0xbb9488c4	-0.0045329053
217	0x3cd0bbd3	0.025480187
218	0xbd3e5125	-0.046464104
219	0xbc70f299	-0.014706277
220	0xba26521c	-0.0006344633
221	0xbe0de58f	-0.13857101
222	0xbbf87084	-0.0075817723
223	0xbdfa00ea	-0.122072056
224	0x3da8b112	0.082368985
225	0xbe0a32cb	-0.13495938
226	0x3e1cce1b	0.15312998
227	0xbc87763f	-0.016535876
228	0xbddfacd1	-0.10921634
229	0xbe0c0eb1	-0.1367748
230	0xbde54fe5	-0.11196879
231	0x3ce6c3cf	0.02816954
232	0x3df4c9ea	0.119525746
233	0x3e28eb46	0.16496
234	0xbe0755fd	-0.13216396
235	0xbd9337af	-0.07188355
236	0xbe3c205c	-0.18371719
237	0x3d821142	0.06350948
238	0x3c48278d	0.012216461
239	0x3deb122f	0.114780776
240	0x3d8dcfbe	0.06924389
241	0xbe12793a	-0.14304057
242	0x3dcf4d17	0.101221256
243	0xbdb61bc1	-0.088920124
244	0x3d1135b3	0.035451602
245	0x3d36d3c0	0.044635534
246	0xbe14ab9a	-0.14518586
247	0xbe115098	-0.141909
248	0x3e3a9e3e	0.18224427
249	0x3e4066bd	0.18789192
250	0x3c434b89	0.011919864
251	0xbd91b64c	-0.071148485
252	0x3d4665bf	0.048436876
253	0xbd7d273f	-0.061805006
254	0xbdfcd107	-0.12344556
255	0xbdb8ea61	-0.09029079

nn_fun2.2.bias f4 [30]
0	0xbd141b4d	-0.03615885
1	0xbde75f5d	-0.11297486
2	0x3bb46f8c	0.0055064615
3	0x3d566e3f	0.052351233
4	0x3d76aeb5	0.060225207
5	0xbdd7e8f3	-0.105424784
6	0xbe02a361	-0.12757637
7	0xbe2672e0	-0.16254759
8	0x3d33a560	0.043858886
9	0x3cd63038	0.02614604
10	0x3c463ebf	0.012099921
11	0x3e231bca	0.1592857
12	0xbd16d597	-0.03682479
13	0x3e10ea74	0.14151937
14	0xbdaccb6d	-0.08437238
15	0xbd7ace8d	-0.06123214
16	0xbddccf0c	-0.107816786
17	0x3cbe8e28	0.023261145
18	0x3e195a16	0.14975771
19	0xbdaf1cc2	-0.08550407
20	0x3d531748	0.051535875
21	0x3ddfc761	0.109267004
22	0xbdb77471	-0.08957756
23	0x3c2b338e	0.010449303
24	0x3e0413e8	0.12898219
25	0xbdf4d0c4	-0.119538814
26	0x3d5d5373	0.05403466
27	0xbd6f69c5	-0.05845048
28	0xbd5a2163	-0.053254496
29	0x3e017b33	0.12644653

agg.0.weight f4 [1, 30]
0	0x3c2976cb	0.010343264
1	0xbc14f781	-0.009092213
2	0x3ac9688f	0.0015366244
3	0xbd42e248	-0.04757908
4	0x3c330582	0.010926606
5	0xbd396d23	-0.045270097
6	0x3c0f714d	0.00875504
7	0xbcdd2677	-0.02699588
8	0xbd9bbcbf	-0.0760436
9	0xbb48d50b	-0.0030644562
10	0x3ba7f83d	0.005126028
11	0xbd1a6eab	-0.037703197
12	0xbc97baf1	-0.018521758
13	0xbe08b482	-0.13350108
14	0x37b5beba	2.1665695e-05
15	0xb929c511	-0.00016190509
16	0xbd627445	-0.055286665
17	0xbc4788ba	-0.012178594
18	0xbd9dce3d	-0.077053525
19	0xbd2198e7	-0.03945246
20	0x3ded323f	0.11581849
21	0xbacef2af	-0.0015788878
22	0x3a6369f5	0.00086751516
23	0x3b55eefb	0.0032643664
24	0x3d0c2e80	0.034224033
25	0x3b65a944	0.0035043517
26	0x3b231576	0.0024884618
27	0x3a4c31e0	0.00077894144
28	0xba9bc066	-0.0011882901
29	0xbd59650e	-0.05307489
