multiple_model_analysis/results/er_experiment_MM_size_10_38_alpha_0_scale_100_dynwght_False_std_reg_1.0_equiv_reg_0.0/neural_network.pth (torch, 16501 bytes, 14 tensors)

g.0.weight f4 [30, 1]
00000000: 658c 823f f065 a33d a829 f2be d130 95bf
00000010: 8c96 6dbe ae23 89bf c2c4 1fbf 3c2a 26bf
00000020: 5247 8abe 7c3f cf3e fd6d b1bf 7b0a 98be
00000030: e013 03be d245 97bf 91e4 4e3f 6518 243f
00000040: a0dc 853f 1426 3bbe a4cb 9bbe 4cef 3b3f
00000050: 12ab f03e 828c 45bf 8efa 513f e5b0 debe
00000060: 8035 15bc 3fdf 2d3f 3ba3 c8be 916e 183f
00000070: a1ab c53e 0daf 973d
1.0199095 0.079784274 -0.47297406 -1.1655523 -0.2320196 -1.0714014 -0.62409604 -0.64908195
-0.27007538 0.40478122 -1.3861691 -0.29695496 -0.1280055 -1.1818182 0.80817515 0.64099723
1.0457954 -0.18276244 -0.30428803 0.73412013 0.47005516 -0.7716752 0.8202294 -0.43494335
-0.009106994 0.6791877 -0.39187035 0.5954371 0.38607505 0.07406435

g.0.bias f4 [30]
00000000: 5e86 b3bd 465d 79be e37d 11bf 486b 373c
00000010: de70 1dbf 4080 993e 9dfa a13e c0a3 55bb
00000020: 82bb 08bf 74b1 f9be 3539 503f 78c4 4a3f
00000030: 4dd5 90bc 2610 79bc 1cb1 153d 3f46 603e
00000040: 08de 08bf c322 e73e d69d 133f 5dd9 4b3e
00000050: c3c6 21bf 7846 b1bd a5e1 27be abc8 a4be
00000060: ec40 b33c e035 0cbc 4b06 9abe 028d f7be
00000070: 97ca a0be 6d64 3d3f
-0.08765863 -0.24351987 -0.5683271 0.011195011 -0.61500347 0.2998066 0.31636515 -0.0032598823
-0.53411114 -0.48768198 0.8133729 0.7920604 -0.017679835 -0.015201604 0.036545858 0.21901797
-0.5346379 0.4514371 0.57662714 0.19907136 -0.6319391 -0.08656019 -0.1639467 -0.32184348
0.021881543 -0.008557767 -0.30082926 -0.48349768 -0.31404564 0.7398136

g.2.weight f4 [30, 30]
00000000: 6083 babd 6fb1 9abd 52ac 35bc 0931 8b3e
00000010: 0b52 0cbd 8bd0 8bbd ac31 b0bd f344 863e
00000020: 3318 df3d 1a92 113d 1f81 203e 5c70 32be
00000030: 1863 713d 00ed a03e e3df 2bbe 97ab 53bd
00000040: 2688 33be 02f0 153d 8cb5 bf3d 92e2 b33c
00000050: 366b ddbd 7189 fb3d 5be5 05be e100 363e
00000060: 4221 843d 4544 45be 0ede 83bd 9c7e 823d
00000070: 8959 d33d e9f5 f43d 0370 18be b979 1d3e
00000080: 9b90 f3bc 3340 2d3e b530 033d 46a6 133e
00000090: 3432 9dbd c616 893e 79b7 763c 5317 2d3e
000000a0: 9bc5 0ebe 841c 29be 3a19 c13d d8f8 c03e
000000b0: 52ad 02be 8d45 92bd 554d 0dbe b41d 9f3c
000000c0: 2810 d23d 0a35 b3bd 25e2 053c 00bd 153e
000000d0: 4e1b b5bd b126 93bc 1c41 22bb 1bee 64bd
000000e0: 6e94 b4bc 3086 a4bd 9f7b 5e3c a71d 003e
000000f0: 19a4 51bc 520f 9fbd c622 e0bd 6cbe 9e3e
00000100: 6615 173d 3922 5e3e 09bf 47bc 4ced 083d
00000110: ecaf 043e 2070 b1bb 6cc1 04bd 4435 8c3d
00000120: 783d bfbd b2ed 3c3e d9a9 dabc fdd9 f7bd
00000130: 8c6b 7cbc fdcb 113e 4695 dc3d 231b 50be
00000140: 3a75 d73d 0c0f c33d a835 3bbe 2a95 04be
00000150: 9b6c c93d a459 6bbe 0508 0a3e fa78 0bbe
00000160: b638 b43c a4a5 963d 11eb 64be 2ea2 e83c
00000170: 16f4 823d 61ed 873e dad7 0abd fdb3 8cbd
00000180: 7d66 1d3e c4f0 613d 8ace 033e 9a86 a6b9
00000190: 7bbd 9b3c c248 d3bd 3256 123e 637b 523e
000001a0: bf9c 7ebe 1144 01be 8354 e43d cdde b6bd
000001b0: abde ab3d 370e 0abe ad90 d0bd b922 2bbd
000001c0: bcb9 11be 8778 133d 021e dbbd 047c 26be
000001d0: 3327 3dbd 532a 023e 30fd 43be c131 aa3d
000001e0: 10c4 783d ddd5 d63c a54f 4dbd ef11 c1be
000001f0: 337f 943d fe7a 90bd 2388 d13d 093a 1cbd
00000200: f90c 13be e055 993c 129e 85bd 33ed ecbd
00000210: abc2 59bd 7482 95be fe41 863e 516d 05be
00000220: d243 06be da60 4dbe 0b00 1f3e 3931 403e
00000230: e2fa 193e f2e9 18be 10e6 343e 991f 50bd
00000240: 9926 fbbd f489 dd3d 868e b7bc ccca 363e
00000250: 39a6 93bd 5330 15be 54ec dfbc 450c c53d
00000260: fac5 a23d cc47 863e dd7d a1bd 3f86 81bd
00000270: aac5 14bd e2b6 ac3d 7ad5 983d 2434 80bd
00000280: 9e9f 4f3d e2ce 0e3e 24f7 163e 539b 393e
00000290: 5d33 cdbc 70ef 023d a69b 283d 2dd9 823c
000002a0: 4941 333d ee4e 7abd 2f59 9fbc f708 cd3b
000002b0: 6898 18be 80a9 ec3b 7007 123e a8c8 e3bd
000002c0: 3478 2b3e 45ed 883d 1f3a 16be 1495 96bd
000002d0: 04d7 aebe b5b9 18be 1e3b b73c da50 193f
000002e0: c7ae a8bd 1c25 c73b 73bc 003c 8195 7d3e
000002f0: 9516 00be b911 44bd dfe0 ddbd 906f 443e
00000300: 4dcb f9bd 22f6 8e3e 4254 78be 41bd 983c
00000310: 5165 64be c878 093d 3013 8f3d 4c4e babc
00000320: e5b5 babd 720f 3b3d 605f 12be 3384 2b3d
00000330: bac0 94bd 90f6 b4be b0da cabd a117 efbd
00000340: 75b2 6bbe 28e3 203e ea17 8e3e 519b 8cbd
00000350: 1593 4d3c 23a3 9fbe a0ce adbd 167d cabd
00000360: 4c71 a8bd 4eb3 85be 7d20 103d cfdc 063e
00000370: 56c2 a13c 8e4a 9c3d 9581 2a3d 0b82 46be
00000380: 4176 4f3e 274b 193d 7036 b5bc c9c7 23be
00000390: cd58 7d3d 36cb ca3d aaf1 a4bc 2a2f 083d
000003a0: 8746 90bd 64d4 1abd 8457 383e b1f7 4e3e
000003b0: a265 12be b2ed 013d b723 d1bd 79a5 543d
000003c0: 4964 26be 9a29 38bd 2e6c 15bc 7b31 253e
000003d0: 1056 02be 5250 2d3e 6162 d2bd fa96 283e
000003e0: d3de 103d 86b1 003d 0bab 233e 739f 8ebd
000003f0: 6a58 833d f707 653e d51a 75be d39b 253d
-0.09107089 -0.07553374 -0.011088448 0.27185848 -0.03425793 -0.06826886 -0.08603224 0.2622448
0.108932875 0.035539724 0.15674256 -0.17425674 0.058932394 0.31430817 -0.16784625 -0.051677313
-0.17532405 0.036605842 0.09360799 0.021958623 -0.108114645 0.12282074 -0.13075773 0.17773773
0.06451656 -0.19264324 -0.06438838 0.06371805 0.10319812 0.11960966 -0.14886479 0.15378465
-0.02973204 0.16919021 0.032028873 0.14418897 -0.07675591 0.26775187 0.015058392 0.16903429
-0.13942568 -0.16514784 0.0942864 0.37689853 -0.12761429 -0.07142172 -0.13799031 0.019423343
0.10256988 -0.08750351 0.008171593 0.14622879 -0.088430986 -0.017962785 -0.0024758046 -0.055891138
-0.022043433 -0.08033407 0.013579278 0.12511311 -0.012795472 -0.07766594 -0.109441325 0.31004655
0.03688564 0.21692742 -0.012191542 0.03342943 0.12957734 -0.0054149777 -0.032411024 0.06846097
-0.09337896 0.18450049 -0.026692318 -0.12102125 -0.015406501 0.14237972 0.10770659 -0.20322852
0.10520406 0.09524354 -0.18282187 -0.12947527 0.09835168 -0.22983414 0.13479622 -0.13620368
0.021999698 0.07355812 -0.22355296 0.028397646 0.06394212 0.26548293 -0.03389726 -0.068702675
0.15371127 0.055161253 0.12871757 -0.00031762273 0.01901125 -0.10316612 0.14290693 0.20554881
-0.24864481 -0.12623622 0.11148932 -0.089292146 0.0839208 -0.13481985 -0.10183845 -0.04178116
-0.14231008 0.036003616 -0.10699083 -0.16258246 -0.04617996 0.12711458 -0.19139552 0.08310271
0.060733855 0.026225025 -0.050124783 -0.37708995 0.07250824 -0.07054709 0.10231044 -0.038141284
-0.14360417 0.018717706 -0.0652429 -0.1156868 -0.053164165 -0.2920109 0.26222223 -0.13029982
-0.13111809 -0.20056477 0.1552736 0.18768777 0.1503711 -0.14932993 0.17665887 -0.050811384
-0.12263221 0.10817328 -0.022406828 0.17850798 -0.07209439 -0.14569215 -0.02733437 0.09621481
0.07947917 0.26226652 -0.07885335 -0.063244335 -0.03632132 0.0843332 0.074625924 -0.06259945
0.050689332 0.13946107 0.14742714 0.18125658 -0.025048906 0.031966627 0.041164063 0.015972698
0.043763433 -0.06111043 -0.019451706 0.006257172 -0.14901888 0.0072223544 0.1426065 -0.111222565
0.16745073 0.066858806 -0.14670609 -0.07352653 -0.3414842 -0.14914592 0.022367056 0.59888995
-0.08236461 0.006077422 0.00785743 0.24764062 -0.12508614 -0.047868464 -0.108339064 0.19183183
-0.1219698 0.2792216 -0.24250892 0.01864493 -0.22304274 0.03356245 0.069860816 -0.022742413
-0.09116725 0.045669027 -0.14294195 0.041874122 -0.07263322 -0.35344362 -0.099049926 -0.11674429
-0.23017295 0.15711653 0.2775262 -0.06865562 0.012547274 -0.3117915 -0.08486676 -0.098871395
-0.08224735 -0.2611336 0.035187233 0.1317017 0.019745987 0.07631408 0.041627485 -0.19385545
0.20259954 0.037425186 -0.022120684 -0.1599418 0.061852265 0.09902041 -0.020134766 0.033248104
-0.07044702 -0.037800208 0.18002135 0.20211674 -0.14296582 0.031720825 -0.1021189 0.05191562
-0.16249193 -0.04496155 -0.00912003 0.16132157 -0.12728143 0.16925171 -0.102726705 0.16463843
0.03536875 0.0314193 0.15983216 -0.06964006 0.06413348 0.2236632 -0.23936017 0.04043181

g.2.bias f4 [30]
00000000: e853 02bc e973 ffbd 0792 2cbe 869e 3d3d
00000010: 3181 363e 3fb7 833b 3c9c 893b e8b2 65bd
00000020: e1f2 d83d 3a3e 3b3d 21fe bf3d 2a12 25bd
00000030: 70ea d83c 2c2b 103e 4cd9 13be 773a 11be
00000040: d2e3 333e 7457 f23c cdea 18be 5c38 e93c
00000050: aa20 4fbd 9094 31be 091c adbd dc04 083e
00000060: 29f3 a63d ba88 d8bd 7beb 0e3e 3143 f53b
00000070: c8a6 1bbd a9dd 1c3e
-0.007954575 -0.1247328 -0.1685258 0.046293758 0.1782272 0.0040196474 0.004199533 -0.05607882
0.105932005 0.04571364 0.09374643 -0.040300526 0.026478976 0.14078969 -0.14438361 -0.14182459
0.17567375 0.029582717 -0.1493332 0.028469257 -0.05056826 -0.17341828 -0.08452613 0.13283104
0.08151848 -0.105729535 0.13957016 0.0074848165 -0.038000852 0.15318932

g.4.weight f4 [1, 30]
00000000: e28c ae3d 600b 043e 8d53 463d 7490 493d
00000010: ddc9 2abe 6dfe 9e3c 1dc5 e03d 01e4 24be
00000020: 566b 0e3e b3be 36bc 7219 473d a949 12be
00000030: 9113 b43a 2fbb a0bd c7a8 c1bd fa23 bf3c
00000040: 2823 4ebd 490e d13c d288 1e3e 3f8d 023e
00000050: d8ac 2bbd 4472 943d f3d5 273e 23c0 4abe
00000060: 718a 0f3e abdc 3b3e ee64 d63d 506b 1f3e
00000070: f845 e03c 83bf ef3d
0.08522965 0.12894964 0.048419524 0.049210027 -0.16678567 0.019408429 0.109750964 -0.16102602
0.13908133 -0.011153865 0.04860825 -0.14285912 0.0013738741 -0.078482024 -0.0945602 0.023332585
-0.050326496 0.025519507 0.1548188 0.12749194 -0.041912884 0.07248357 0.16390209 -0.19799857
0.14017655 0.18345897 0.104684696 0.1556828 0.027377114 0.1170645

nn_fun1.0.weight f4 [30, 1]
00000000: 6123 f4be 61ea 853f f217 973e efa6 6d3e
00000010: ea88 953e 2a46 f4bd 1941 9f3f b6a4 343f
00000020: a116 8bbd f3d6 8fbf 3b9d 74be c452 a93e
00000030: bb85 c6be aca0 46bf eef7 0bbf a845 edbd
00000040: 7c5f 3ebe 6e90 20be 7d27 6cbf 2927 c3be
00000050: 0346 e2be 4f45 833d 0fcb 8dbe efe9 0a3f
00000060: 3dfc fc3d b097 42be e236 c03d c069 72be
00000070: 5297 1b3f 3d0b 02be
-0.47683242 1.0462152 0.29510456 0.23208211 0.2920602 -0.11927445 1.2441741 0.7056383
-0.067914255 -1.1237472 -0.23888104 0.33070958 -0.38773903 -0.77588916 -0.54675186 -0.115855515
-0.18591112 -0.15680096 -0.92247754 -0.38115814 -0.4419404 0.06409704 -0.27693984 0.54263204
0.12352798 -0.19003177 0.09385468 -0.23673153 0.6077777 -0.126996

nn_fun1.0.bias f4 [30]
00000000: 0f45 42be db1e b4bd 1375 ee3d 09b3 3e3f
00000010: 0900 3cbf c0ac 1abf 3b81 56bf 0633 0cbf
00000020: 6fd3 b33e 1142 b23d 2ab8 febe f20c 1b3f
00000030: aa2e 0e3f cad3 7cbd fb69 653e f3e4 29bf
00000040: da53 7fbe 5c18 fc3e ee72 873c 42af ebbe
00000050: 57f6 9b3e bfe3 433d d090 9e3e 21c4 cb3d
00000060: f3e0 8f3e bb13 37bf 21fd 203f f4da 44be
00000070: 57a5 f0be dc0f 16bf
-0.18971656 -0.08794948 0.11643424 0.74491936 -0.73437554 -0.60419846 -0.8379094 -0.54765356
0.3512225 0.087040074 -0.4974988 0.6056663 0.55539954 -0.061725415 0.2240371 -0.66364974
-0.2493433 0.49237335 0.016534295 -0.4603215 0.3046138 0.047824617 0.30969858 0.09949518
0.2810131 -0.7151448 0.62886244 -0.19224149 -0.47001144 -0.5861795

nn_fun1.2.weight f4 [30, 30]
00000000: 5c5f 03be 112b ef3c a91b ca3d c275 2ebe
00000010: e83f 6dbd dcee 09be e8d5 b1bd cf68 97bb
00000020: 459e b5bd 5b60 d7bd 3cdf 17bd b0b2 ea3d
00000030: 6abf c7bd 61aa 3abe c11a 43be e621 ec3c
00000040: 01fc e43d b0b3 393d d686 06be 8706 9bbd
00000050: 9b15 e53b cd9e df3c 8c23 0a3e 8b74 473d
00000060: 8175 fbbd 86d3 04be daaa f43d 93d4 d4bd
00000070: 9382 243e bae6 063d 68b6 e6bd 81a4 7e3d
00000080: dc53 c0bc f483 143e 0740 253c 0bbd e9bd
00000090: 44a4 253d 2680 99bd 58e0 25be 3eaf 16bd
000000a0: 4b98 12be a5ea 19be fade 18bd 2b7a af3d
000000b0: daf2 763d e0f6 433d ca91 073e 3160 ecbc
000000c0: 800c 8ebd 1135 14be e0ee 18be 86da cdbd
000000d0: cee8 8dbd 040c c5bd 15d5 893d 87f6 a0bc
000000e0: da19 cfbb e69d d33d faed 2ebd aa6e 373e
000000f0: 838e 073b fde0 103c 3d91 c23b f36d e039
00000100: 4fe7 abbd eafd 9c3c 6301 9fbd 58ed 3cbc
00000110: 2eba 5cbd 616f b1bb 4bfd fe3c 705c 07bd
00000120: 5ab0 983d 0014 a2bc 556f 49bd a35c 863d
00000130: 4b20 fc3b 8093 0dbc 7d31 9ebb cffa 5e3d
00000140: 5542 513d 5992 fd3a 4b46 033d b278 cf3c
00000150: 3105 763d a101 29bc 4507 d3bc 8344 93bb
00000160: eb90 3f3b 3f9f 8f3d df58 283d 2284 04be
00000170: 73c1 a33c aa28 443d 1f9c 9e3d a1d0 23bd
00000180: e6c0 a4bd f0b1 4cbd 779e b0bd a40e 1b3e
00000190: c76a d93d 6915 d7bc 5489 e9bc bdbb 743d
000001a0: 2edd 7c3d a831 0ebe 9be1 b7bd 3095 4c3d
000001b0: 746b 033e dbc3 15bd 5fc2 ab3d 98dd 513d
000001c0: c4fa f83c bf64 8e3c 9f21 abbd 5f45 e63d
000001d0: 3329 48bd 5843 623d 4f96 e53b ca8d 05bd
000001e0: 600f 263e 31a3 d2bc 5ad5 a0bc a0c6 4abd
000001f0: b898 9a3c 2886 f43d 7616 0a3e c568 87bd
00000200: 87d5 763d 2c85 ab3c d034 6abd e437 b8bd
00000210: 6e3c 2b3d afa6 f13d a939 113e dbbe ddbd
00000220: 977c 87bd c014 a23d a1af 363e 77d3 90bd
00000230: cec3 f2bc 0f07 15bb b2c0 883b 3839 01bc
00000240: f672 25be e9eb 77bd 5dcc c63d 9c36 29bd
00000250: a2e9 0b3e 8b34 e63c 3d9a 5f3d c6c9 b1be
00000260: 0662 c6bc b1b4 d1bd 106a a0bc 4018 c4bd
00000270: c5ea 3ebe ec27 28be d8b7 b1bd fa3e dc3e
00000280: ffdc e13c 8b42 19be 90d1 f93d 18eb 4f3e
00000290: be2f be3b ed16 473e 7d61 f93d 3b69 153e
000002a0: 33ac 0e3f a2bf 2f3e 3a2f b3bd 5b65 a43d
000002b0: ae76 293e 23c1 42be 0d27 3fbb 0ea9 a63d
000002c0: e7d7 36bd 9453 1f3e e9c7 743d e487 3b3c
000002d0: 8453 903d 4fba ccbd 29cf 34bd daf2 0b3d
000002e0: ff66 d93c a39c 8a3b 91dc 983d 9aa8 66bc
000002f0: 4c2d 7d3c 7ba5 a63d a2a9 7bbd 4899 fd3d
00000300: a23a ea3d 7ab3 623c 7d26 953d ff50 fa3d
00000310: a992 e6bd 2824 b8bd 547f 853d 7eb9 e6ba
00000320: 3211 1cbd 8ae2 f73d e3a9 2b3e ee56 0fbe
00000330: 588c dcbd b0cf 03be d33e 8e3d 1705 8f3d
00000340: d9f8 e13d 4860 bb3d 660c 6cbd 46f0 593d
00000350: 6cfe 8c3c c2b7 113e 7911 f83d 9afa b23d
00000360: 351b 713d 8c53 193e d3ea 953d 5677 40be
00000370: 309a 03be 679d 903d 1c05 363d 19f2 4bbd
00000380: 7841 26be 5cee b63d 180e 12bd 7924 16be
00000390: f0b6 20be 831e 56bd ee66 f93d 0a29 29bd
000003a0: 6b72 66bd a166 043e ddd1 e03d e113 f93c
000003b0: 4c2e 193e bdf5 d0bd 5678 823c b081 86bb
000003c0: a781 fcbd e830 47bd ed0c 103e 8e08 3c3e
000003d0: 66b3 97bd 7f01 babd 9d52 043e 9444 7fbd
000003e0: d672 2a3e c7b2 85bd 699b a9bd 15ca b7bd
000003f0: 3fea 17be 6edd 13be fb89 e53b 4c5a 78bd
-0.12829345 0.02919534 0.09868557 -0.17037109 -0.057922274 -0.13470024 -0.086833775 -0.0046206485
-0.08868078 -0.10516425 -0.037078127 0.11459863 -0.09753306 -0.18229057 -0.19053175 0.028824758
0.111808784 0.04533738 -0.13137373 -0.07569604 0.006991101 0.027297402 0.13490123 0.04869513
-0.122782715 -0.12971315 0.1194665 -0.10392108 0.16065435 0.03293488 -0.1126526 0.062168602
-0.023477487 0.14503461 0.010086066 -0.1141301 0.04043986 -0.074951455 -0.16198862 -0.036788218
-0.14315908 -0.15030916 -0.037322022 0.085682236 0.060290195 0.04784286 0.13239208 -0.028854461
-0.06935978 -0.14473368 -0.14934874 -0.10051446 -0.069291696 -0.096214324 0.06730095 -0.019648803
-0.0063202204 0.10332851 -0.04270742 0.17913309 0.002068431 0.008842704 0.005937724 0.00042806528
-0.08393728 0.019164044 -0.07763936 -0.011531197 -0.053888492 -0.0054148887 0.031126639 -0.03304714
0.074555114 -0.019784927 -0.04917844 0.06560638 0.0076942793 -0.008641124 -0.004827677 0.05443841
0.05108865 0.0019345983 0.03204946 0.025326107 0.060063545 -0.01031533 -0.025760302 -0.004494251
0.0029230665 0.07012796 0.04110038 -0.1294103 0.019989705 0.047890343 0.077446215 -0.039993886
-0.08044605 -0.049974382 -0.08623975 0.15142304 0.10616069 -0.026255326 -0.028507866 0.059749354
0.06173437 -0.1388613 -0.08978578 0.049946964 0.12833959 -0.036563735 0.08386683 0.05123672
0.030393012 0.017382024 -0.08356022 0.112437 -0.048867416 0.055240005 0.0070064436 -0.032605924
0.16216803 -0.025712581 -0.019632984 -0.04950583 0.01887165 0.11939651 0.1348513 -0.0661178
0.06026223 0.020937525 -0.057179272 -0.08995035 0.041805677 0.117993705 0.14182152 -0.108274184
-0.066155605 0.07914114 0.17840435 -0.07071584 -0.029634383 -0.0022739803 0.0041733617 -0.007887177
-0.16157135 -0.060527716 0.09706948 -0.041311845 0.13663343 0.028101226 0.054590452 -0.34724253
-0.024216663 -0.10239542 -0.019581825 -0.09574938 -0.18644245 -0.16421479 -0.086776435 0.43016797
0.0275712 -0.1496679 0.12198174 0.20304525 0.005804031 0.19442339 0.121767975 0.14590923
0.55731505 0.17162946 -0.08749242 0.080271445 0.16549179 -0.19018988 -0.0029167563 0.081377134
-0.044639494 0.15559226 0.05976096 0.011445973 0.07047179 -0.09996473 -0.044142876 0.03416715
0.02653837 0.0042300983 0.07463945 -0.014078284 0.015452694 0.08137032 -0.06144107 0.12382752
0.114369646 0.013836736 0.07282732 0.1222248 -0.11258442 -0.08991271 0.065184265 -0.0017602888
-0.038102336 0.12103756 0.16764025 -0.13998005 -0.10768956 -0.12872195 0.069455765 0.06983393
0.11033792 0.091492236 -0.05762901 0.05320766 0.017211162 0.14230254 0.12112708 0.08739205
0.058863837 0.14973277 0.0732018 -0.18795523 -0.12851787 0.07061272 0.044438466 -0.04979143
-0.16235912 0.08932182 -0.035657972 -0.1466235 -0.15694785 -0.052275192 0.121778354 -0.041298904
-0.05626146 0.12929775 0.10977528 0.030404987 0.14959067 -0.10203121 0.015926521 -0.0041048154
-0.12329417 -0.048630625 0.14067431 0.18362638 -0.074072644 -0.090823166 0.1292214 -0.06232126
0.16645369 -0.0652824 -0.08281595 -0.08974091 -0.14835452 -0.14439937 0.007004974 -0.06063299

nn_fun1.2.bias f4 [30]
00000000: c760 87bd c697 363a 97fd 723c b586 c2bd
00000010: 8caa 063c ab9a e83d e437 b6bd 71e1 8ebc
00000020: 5159 22bd ef0f 0e3e ba56 22be c023 1f3d
00000030: 2717 c63d 02de 093d e877 043e 97bb 8e3b
00000040: e93d a8bc 30ba b7bc 42d4 fa3c ada4 b83d
00000050: 4b94 8bbd aef7 aabc af1d 8bbb 21de dd3d
00000060: d818 20be 19e5 a1bc 6f5a d33d 6274 f5bd
00000070: 2aa9 893d aa29 98bc
-0.06610256 0.0006965365 0.014830968 -0.094983496 0.0082193725 0.113576256 -0.08897379 -0.017441483
-0.03963596 0.13873266 -0.15853396 0.038852453 0.09672385 0.03365899 0.12936366 0.0043558585
-0.020537334 -0.022427648 0.03061879 0.090157844 -0.06815394 -0.020870056 -0.004245482 0.10833383
-0.15634477 -0.019762563 0.10319983 -0.11985089 0.067217186 -0.018574554

nn_fun2.0.weight f4 [30, 1]
00000000: 301f 58be 9deb 33be f66e fa3e 07a1 c9be
00000010: 3391 1cbd 40e1 d73c 6a6d 193f 9987 55bf
00000020: 4452 acbf 4188 86be 1e00 fabe e32b 07bf
00000030: 4606 5fbe c9cd 4f3f fcd5 e43e 6fc5 92bd
00000040: cb99 f03e c3de da3d 4c05 4cbe 443a c6be
00000050: 856b 073e 6090 0ebe 154d c2be 2e13 513f
00000060: 42e6 cb3d 1bae 0dbe d11d eebd bf79 07bf
00000070: 859f df3e ede4 1c3f
-0.21105647 -0.17570348 0.4891278 -0.39380667 -0.03822441 0.026352525 0.5993258 -0.8341003
-1.3462605 -0.26275828 -0.48828214 -0.5280134 -0.21779737 0.8117338 0.44694507 -0.07166564
0.46992335 0.1068702 -0.19923896 -0.38716328 0.13224609 -0.13922262 -0.37949434 0.8166989
0.099560276 -0.13835947 -0.11626781 -0.52920145 0.4367639 0.61286813

nn_fun2.0.bias f4 [30]
00000000: 672a babe bf40 6bbf c50e a5be fb6d b7be
00000010: ab9d 54bf 8a8c 0dbf 4d4b 54be ef07 d13e
00000020: 9660 80be 973c 32be 9bbb 0fbf 3a03 463e
00000030: 8339 2fbf 6eb3 3fbf 13d2 3dbe e058 b93e
00000040: e4f1 98be f5e0 7e3e d623 04bf 5a0e d73c
00000050: 73d4 103f 439a 9ebe aebe 0c3e 6011 38bf
00000060: dff7 613e 7e99 1fbe 866e 26bf 1651 e63e
00000070: 5d53 d6bd 9a43 a53d
-0.36360475 -0.9189567 -0.3223783 -0.35826096 -0.8305308 -0.5529257 -0.2073185 0.40826365
-0.2507369 -0.17405926 -0.5614564 0.19337168 -0.6844713 -0.7488316 -0.18537168 0.3620062
-0.29872048 0.24890502 -0.5161718 0.02625196 0.5657417 -0.30977067 0.13744614 -0.7190151
0.22067212 -0.15585896 -0.65012395 0.4498374 -0.10465119 0.080695346

nn_fun2.2.weight f4 [30, 30]
00000000: 0be6 bb3d 741e 173e 9b95 50be 2583 96bd
00000010: bfb5 44be 56c6 003d 14a9 63be 27d4 143e
00000020: b112 053e fed4 aebd b744 803d 3926 4c3e
00000030: a399 193e 474d 6fbb 0ce3 073d 7dae adbd
00000040: fa3c 09be dbed bbbd a8a7 d3bc 3f08 e23d
00000050: 1cb7 3a3e c4e1 9abc a9aa d23d cb21 ae3d
00000060: 88e3 1fbe 91b8 afbc f305 153e 95b2 183e
00000070: 9194 52be 4b1a b9bd 0ae8 bdbc 1c4a 433b
00000080: 0f91 38bd ba0d a3bd e7e9 ccbc 3fa1 f53b
00000090: 773b bfbd 5ffa 063e e331 3e3e a1fe 9d3d
000000a0: 596c a23d b784 8cbd fc1a d63d 65bc a53b
000000b0: d985 9abd 04b5 97bd c256 133e 9dc6 8ebd
000000c0: 7b7d 8fbd 0b04 c53d c3ba 32be 1c61 253e
000000d0: 03be 233e 202c 26be 3d74 0fbc e8ff aabd
000000e0: b707 a4bd ab1a d63d 1570 143d 52a6 44be
000000f0: 10ef a7bc 7ed4 81bc c441 f2bc 9df4 413d
00000100: 4b7c 3a3c fa42 87bc b79c 2cbd 2611 523d
00000110: 159a fabc fd03 e23c aa1f d0bd da27 503d
00000120: ab4f 1ebb ba9e d4bc afcc 2bbd de1c 9c3d
00000130: 7987 4f3c cc70 50bd 0bee 8dba 499d 3f3b
00000140: 5304 8cbd 9c92 d43c 1d42 eebb 350a c0bd
00000150: 8d93 743d 1b65 03bc 3b54 d43d 0ff1 db3c
00000160: acc0 1fbb 3555 983c 784c 533d a296 2c3e
00000170: ac5a 053e 0500 9bbd 7983 073e 8c71 4cbd
00000180: 92b9 78bc bc7c dfbd 5295 b1bd de45 903c
00000190: 4e13 613d b0ea f83c 26b5 1dbe 44e7 1fbe
000001a0: d355 853d d757 adbc 3111 203e 6bc6 433d
000001b0: 44b7 303e ebe9 103e ba88 c93d 6306 f43d
000001c0: 8750 b13d 7246 23be 8bb2 953d c6c8 19bd
000001d0: 367a e53c f48f fdbd 70e1 62bd 3482 223d
000001e0: fe7d 0a3e 5be7 cbbc 4157 c8bd 2e62 dabd
000001f0: 7651 85bd 46fc c9bd f88b 813d 1763 00be
00000200: e6f9 743d 10c7 5fbc f705 333e ad71 0cbe
00000210: 3f78 5fbd 536a 413e 758f 213d 63da 11be
00000220: 4721 383d d08c 84bd 4925 b7bd 9ce0 73bd
00000230: 1c9f 1c3e 4647 413b c25b 05bd 1334 01be
00000240: c879 1c3d 10c2 113d 9822 af3c 8193 ccbc
00000250: 657e d23d 7ce4 9d3d 1e04 bebd a892 a9bc
00000260: a676 18be 1c7a 50bb b083 a13d df1b 0abd
00000270: 57c6 4cbe 8757 403e f83d 88be 61c5 093c
00000280: f70e 9b3d e8dc a53d d055 babc 1094 aebd
00000290: da94 f1bc 5241 72bc dd39 c7bd b5e7 393b
000002a0: ecb9 e03d 7f62 523d 1f69 4ebd a0ab 963d
000002b0: 643a 9a3d 8590 01be 7e6b 5dbd 9e53 823d
000002c0: 1988 a2bd 75f4 523e e955 debd 3c9a 34bb
000002d0: 449e 1cbe 60a8 373d 9d17 d73d 691f d03d
000002e0: 445b 053e 25db 643c e10e 0cbe 6e70 543e
000002f0: cc10 f13c 8acf 493c 4cee ab3d 7be5 1b3d
00000300: 3f60 a73d 494d c3bc 02eb 47be 34b8 7c3d
00000310: f8d6 debc 5b77 e43d 35bb 91bd f25c 253d
00000320: 7396 29be e75b 0bbe 0833 00be 863c 38bc
00000330: f28d c5bc fda7 27be d803 173e fa12 2bbc
00000340: bbe1 b3bc c0d9 9ebd 5de8 b03d b575 fcbd
00000350: 1323 483d 88fa 52bc 3c8f 8c3d b4bc 0e3b
00000360: 0521 d4bd 234f d33d c16e f0bd 02a9 2bbc
00000370: 84f7 9a3d bde7 05bd 1961 d0bd a826 50bc
00000380: 3002 c63d e869 1cbc fe03 fe3d 8593 833c
00000390: bed5 88bc 3c3c b63d e9f6 093e 0d33 053e
000003a0: c9c3 8b3d 2c08 debd 90b2 663c 7cdf 8e3d
000003b0: 94f2 1e3e 69b2 86bd ab61 5fbd ed87 b3bd
000003c0: 993d 4cbd d4f9 bf3d 87cb 76bd 8333 163e
000003d0: 2a0a 74bd 566b fdbd e84a 01be 9c4c fe3d
000003e0: 5c82 433e 68b0 1f3e 7c8d 293e 2f24 08be
000003f0: 99e6 17bd 41d0 0abd 1386 cfbd 59f7 de3d
0.091747366 0.1475771 -0.2036957 -0.073492326 -0.19209956 0.031439148 -0.22232467 0.14534055
0.12995411 -0.08536719 0.06263106 0.19936456 0.15000014 -0.0036514567 0.033175513 -0.084805466
-0.13402167 -0.09176227 -0.02583678 0.11036729 0.18233913 -0.018906482 0.10286457 0.08502539
-0.1561414 -0.021450313 0.1455305 0.14911874 -0.20564486 -0.09038218 -0.023181934 0.0029798811
-0.045060214 -0.079616025 -0.025013877 0.0074960287 -0.09337514 0.13181446 0.18573718 0.07714582
0.07930822 -0.06861251 0.104543656 0.005057859 -0.07545061 -0.07407573 0.14388564 -0.06971476
-0.070063554 0.09619912 -0.17454056 0.16150326 0.15990452 -0.1622777 -0.008755741 -0.083495915
-0.08009284 0.10454305 0.036239702 -0.19204071 -0.020499736 -0.015848394 -0.029572375 0.047352422
0.011382173 -0.01651143 -0.042141642 0.051285885 -0.03059105 0.027589792 -0.101622894 0.050819255
-0.0024156373 -0.025954593 -0.04194325 0.076226935 0.012666577 -0.05088882 -0.0010828389 0.0029238036
-0.06836762 0.025948815 -0.007271065 -0.09376947 0.059711028 -0.008019711 0.10367628 0.026848344
-0.0024376316 0.018595317 0.0515866 0.16854337 0.1302287 -0.07568363 0.13233747 -0.049912974
-0.015180962 -0.10912463 -0.08671059 0.01761144 0.05495005 0.030385345 -0.15401134 -0.15615565
0.0651051 -0.02116005 0.15631558 0.047796648 0.1725741 0.14151733 0.09840532 0.11915281
0.086579375 -0.15944842 0.07309445 -0.037544988 0.028012376 -0.123809725 -0.055390775 0.039674953
0.13524625 -0.024890592 -0.09782267 -0.106632575 -0.06509678 -0.098625705 0.06325525 -0.125378
0.059808634 -0.0136583 0.17482744 -0.13715239 -0.054558035 0.18888216 0.039443452 -0.14243464
0.04495361 -0.0647217 -0.089426585 -0.059540376 0.1529507 0.0029491945 -0.03255821 -0.12617521
0.038202077 0.035585463 0.0213788 -0.02497268 0.10278014 0.077095956 -0.09278129 -0.020699814
-0.14889011 -0.0031811064 0.078864455 -0.033717986 -0.19997536 0.18783389 -0.26609778 0.008408875
0.07571214 0.08098775 -0.022745997 -0.085243344 -0.029489923 -0.014786081 -0.097278334 0.0028366868
0.10972962 0.051363464 -0.05039322 0.073569536 0.075306684 -0.12652786 -0.05405759 0.06363605
-0.07936115 0.20601065 -0.1085623 -0.002755775 -0.15294749 0.04483831 0.10502551 0.10162241
0.13023096 0.013968264 -0.13677551 0.20746014 0.029426955 0.012317548 0.08395061 0.038060647
0.08172654 -0.023840563 -0.19523242 0.061699107 -0.027202114 0.11155578 -0.07115785 0.040371843
-0.16561298 -0.13609277 -0.12519467 -0.011244899 -0.024115536 -0.16372676 0.1474756 -0.010441536
-0.021958223 -0.07756376 0.0863807 -0.12327138 0.048861574 -0.012877114 0.06863257 0.0021779956
-0.103578605 0.103178285 -0.11739875 -0.010477306 0.07566741 -0.032691706 -0.1017477 -0.012704529
0.09668386 -0.009546734 0.12403105 0.016061554 -0.016703483 0.088982075 0.13473095 0.13007756
0.068244524 -0.108414024 0.014080659 0.0697622 0.15522224 -0.06576998 -0.054536503 -0.0876616
-0.04986343 0.09373823 -0.060252693 0.14668088 -0.059580006 -0.12373988 -0.1262623 0.12416956
0.19092697 0.15594637 0.16557878 -0.13295053 -0.03708515 -0.033890013 -0.101329945 0.108870216

nn_fun2.2.bias f4 [30]
00000000: 1fa8 bdbc ec96 313d d611 00be 00e8 db3d
00000010: ad2e 743d 5c73 9bbd 8b79 043e 8359 033c
00000020: b9d2 343d c920 e83b 8ddd 0dbe 6e41 8bbd
00000030: f139 1fbc ce8f bc3d d1c7 c1bd 9d73 e7bd
00000040: 776d 0fbe c74b fbbd 68ee 0a3e a9f0 a33d
00000050: 9da9 2cbe a7cf b4bd e87e 92ba 07f1 073e
00000060: 3d1b dc3d dbf3 023d def5 a5bc 3010 8dbd
00000070: 56c6 d0bd 096f 1b3d
-0.023151455 0.04335682 -0.12506804 0.1073761 0.059614826 -0.075903624 0.1293699 0.008016947
0.044146273 0.0070839864 -0.13854046 -0.06799589 -0.009718404 0.09207116 -0.0946194 -0.11301348
-0.14006601 -0.12270313 0.13567507 0.08004887 -0.16861577 -0.08828669 -0.0011176737 0.13275538
0.10747383 0.03197084 -0.02025884 -0.06887853 -0.101940796 0.03794769

agg.0.weight f4 [1, 30]
00000000: 6bc7 6d3d 2e67 51bd 8594 c93a 2294 04bb
00000010: af1c 633d b4a0 68bd acce babd 0bdf f63c
00000020: 2e97 3dbd 8216 9a3d c95f 013d 1828 b0ba
00000030: 5c1d 82bd 6532 a9bc 0ee1 3d3d efa5 3d3a
00000040: fa0d 293d 884f b43b 17b6 bd3c 96da d73c
00000050: 8046 86bd a65b 12bd d4f9 b03b ef1f d13c
00000060: 96ef b2bc 95fd e03d ecfc 9c3d 848a 053e
00000070: 0664 163a cfad a13d
0.058051508 -0.05112379 0.0015379345 -0.0020229896 0.055447277 -0.056793883 -0.09121451 0.030135652
-0.046286754 0.07523824 0.03158549 -0.0013439683 -0.06353256 -0.020653913 0.046357207 0.0007234504
0.041273095 0.005502645 0.023158116 0.026349347 -0.065564156 -0.035731934 0.0054008756 0.025527922
-0.02184276 0.10985867 0.076654285 0.13041121 0.00057369506 0.078944795
