multiple_model_analysis/results/er_experiment_PD_size_10_19_alpha_0_scale_100_dynwght_False_std_reg_1.0_equiv_reg_0.0/neural_network.pth (torch, 16501 bytes, 14 tensors)

g.0.weight f4 [30, 1]
000000 30 7f 07 3f 3a c4 3d 3f a9 cd 0b bf 73 2b da bd
       0.5292845 0.7412754 -0.5461069 -0.106528185
000010 66 a7 9f be d6 01 0d bf ad e6 76 be b0 98 ea 3e
       -0.31182402 -0.55080926 -0.24111433 0.45819616
000020 b9 1e a0 be 55 d2 12 bf c1 d6 0d bf 13 9d cf 3e
       -0.3127344 -0.5735219 -0.55405813 0.40549526
000030 bb 42 e8 3e f0 ee 17 3f 18 e3 9e 3e ee 07 b6 3d
       0.4536341 0.59348965 0.31032634 0.08888231
000040 0b 9d 39 3f b7 4c 5b bf 8f 96 96 be e4 51 cc bc
       0.72505254 -0.8566393 -0.29411742 -0.024941392
000050 6f 3f c5 be 2c da e8 be e0 20 c3 be e5 ae 03 bf
       -0.38524958 -0.45478952 -0.3811102 -0.5143874
000060 5c 21 c1 3e 67 33 71 3f b4 54 0e 3f 19 c3 53 3f
       0.37720764 0.9421906 0.55597997 0.8271957
000070 82 10 65 3f d5 6c 64 bf
       0.89478314 -0.89228565

g.0.bias f4 [30]
000000 40 70 9e be 2e da 48 bf 1b 11 54 3f 42 9e 93 3e
       -0.30945015 -0.78457916 0.828386 0.2883168
000010 ab ea 2e 3f 8f 3a b1 3e fc c9 52 3f 31 6e df be
       0.68326825 0.3461499 0.82339454 -0.43638757
000020 22 f9 41 3f 63 a6 ac 3e 78 7a 3c 3e 3e 97 b0 be
       0.7577077 0.33720693 0.18406093 -0.3449039
000030 c1 25 ed 3e 98 b5 fd 3e 98 aa 93 bd df b3 06 bf
       0.46317866 0.49552608 -0.072102726 -0.5261821
000040 cd 34 0d 3c 4e 3b 93 3e 22 94 76 bf dc 27 89 bd
       0.008618546 0.28756183 -0.9631978 -0.06697056
000050 b0 6b 92 3d 0c 0c 9a be 59 08 a9 be 97 16 97 be
       0.07149446 -0.30087316 -0.3301418 -0.29509422
000060 63 de 57 be 3a 3a cc be 7a 6c 45 be bd fd 37 be
       -0.21080928 -0.39888173 -0.19279662 -0.17967887
000070 4f 07 3f 3f 17 51 0b 3f
       0.7462053 0.5442061

g.2.weight f4 [30, 30]
000000 24 4b 58 3f fa 82 4b 3e ef 8e ea bd 92 12 f0 bd
       0.84489655 0.19874182 -0.11453044 -0.11722292
000010 66 ba f6 3b bd 5e 7b bf 48 61 10 be 72 1e de 3d
       0.0075295446 -0.98191434 -0.1409961 0.10845651
000020 4a de 26 be dd 4f 64 bf 16 dc 5b be 17 98 bd bd
       -0.16295734 -0.8918436 -0.21470675 -0.092575245
000030 4f b5 ec bd eb 13 f6 3d c8 c6 e6 3d c3 51 08 3e
       -0.11558019 0.12015518 0.11268383 0.1331244
000040 41 5d f2 bd 48 b2 83 3a d5 96 05 3e e9 46 97 3d
       -0.11834193 0.0010047639 0.13045819 0.07386572
000050 09 e7 37 be 54 8b 7f bc d9 dc 82 3d 59 6d 70 bd
       -0.17959227 -0.015597183 0.063897796 -0.058698032
000060 4a fd 0d 3f 4e 4a be 3e 53 50 bb 3d bf 88 f6 3c
       0.55464613 0.37166065 0.0914618 0.030094502
000070 37 dc 04 be 94 31 6e bf a6 2b a4 bd 9c e4 5c bd
       -0.1297463 -0.930444 -0.08016138 -0.053928956
000080 17 59 a6 3c 7b b5 21 bd 04 97 0c 3d f6 5a 7b 3d
       0.020306153 -0.039479714 0.034323707 0.061366044
000090 a8 1c 80 3d 4a cd 7a bb 73 13 46 3d 7f b4 a9 3d
       0.06255466 -0.0038269334 0.048358392 0.0828638
0000a0 b5 47 83 3c 50 00 76 bb 17 c1 23 3d 61 07 a4 3c
       0.016025404 -0.0037536807 0.039979067 0.02002305
0000b0 99 02 60 bb 7d 6d 2c bc c3 56 04 3d eb ff 33 3d
       -0.0034181236 -0.010524151 0.032309305 0.043945234
0000c0 60 55 a0 3d 3e 45 3f 3b f2 8a fb 3b f0 39 37 bd
       0.07828784 0.0029185559 0.0076764757 -0.044732988
0000d0 33 51 cf 3c f2 ab 32 3d 64 5f 8b bd 19 81 0c bd
       0.025307273 0.04362101 -0.06805304 -0.034302805
0000e0 7e af 21 bc 2c 7d 1f 3b 0c 4f 80 bd 3d 74 8a 3d
       -0.009868501 0.0024336083 -0.06265077 0.06760452
0000f0 b0 56 05 be 75 de 1e 3d f8 ac 0a be 10 62 1a be
       -0.1302135 0.03878637 -0.13542545 -0.1507647
000100 51 77 9b bd 34 15 79 bd e2 49 fd 3d e1 42 b3 bc
       -0.07591117 -0.060811237 0.12367608 -0.021882476
000110 97 9b d4 3d 7c ec db 3d 6c 46 0c be ab 79 40 3d
       0.10381239 0.10738465 -0.13698739 0.04699103
000120 e2 85 8f bd 87 97 cd bc 92 6f 00 3e 42 3e 28 be
       -0.07007958 -0.025096668 0.1254256 -0.1643
000130 86 8d c8 bd 86 e4 1f be ad 11 f4 bd 3a 02 0a be
       -0.097926185 -0.15614519 -0.11917434 -0.13477412
000140 7b 28 20 3e 05 4c fa bd 43 0f 5d 3d 7a bf ae 3c
       0.15640442 -0.12221531 0.053969633 0.021331538
000150 25 ae 95 3c d9 1c 2f be ca 16 62 bc 53 4f 22 be
       0.018271515 -0.17100848 -0.013799379 -0.15850572
000160 ff bb 87 3d b9 05 1a 3e 21 fa 1e bc ff d6 0c 3e
       0.06627654 0.15041246 -0.00970319 0.1375389
000170 49 67 09 3e 3c 20 67 bd 49 c5 28 3d 2e 2a 1e bd
       0.13418306 -0.056427225 0.04120377 -0.038614444
000180 03 4a 0e bd b1 26 96 3c 73 c7 ac bd 90 88 cb ba
       -0.03473855 0.018328996 -0.084364794 -0.001552837
000190 de 3e a3 bd 84 81 90 bd 08 7d 28 3a bc ec d5 3d
       -0.07970975 -0.07055953 0.00064273225 0.10445544
0001a0 0e 41 a4 bc 34 7d 9f 3d 94 f5 62 bd 8b f3 b9 3d
       -0.020050552 0.077875525 -0.055409983 0.09079655
0001b0 ee 46 57 bd f3 9b 75 3d 48 fa 77 bc 96 05 2b 3e
       -0.05255788 0.059963178 -0.015135355 0.1670135
0001c0 2b d1 d6 3c 3b be f0 3c 0c 98 39 3b 4d 86 38 bd
       0.026222786 0.029387584 0.0028319387 -0.045049954
0001d0 5a ca cd 3d a3 b2 b2 bd 2d ea a4 bc 88 65 7c bd
       0.10048361 -0.087254785 -0.020131195 -0.061620265
0001e0 c9 e9 be 3d 6d 64 30 3e 8c 54 d3 bc 9e 32 87 bd
       0.09321935 0.1722581 -0.025797151 -0.06601451
0001f0 33 52 9e bc a9 6b b2 bd 75 0e 88 bd 30 99 29 3e
       -0.019326305 -0.08711941 -0.066433825 0.16562343
000200 10 d2 03 be c3 f3 a6 bd 3a c4 99 3d 63 e1 ab 3d
       -0.12873101 -0.081519626 0.0750813 0.083925985
000210 0d 76 89 3d f5 2c 0c be 5b 08 dd bc 9f 61 36 3c
       0.067119695 -0.13689025 -0.026981523 0.011131673
000220 d4 f4 35 3d 84 c7 ae 3d 3c 9d a7 3d ad fe b1 bd
       0.04442294 0.08534148 0.08184287 -0.08691154
000230 4c 29 11 be e5 20 d8 3c 4b e0 9d bd 90 b4 fd 3d
       -0.1417591 0.026382873 -0.07708796 0.12387955
000240 c9 a6 9c bd 24 6c 97 ba 93 11 cb bd 24 1d d8 bd
       -0.07648999 -0.0011552614 -0.099154614 -0.10552433
000250 60 2c 28 bb 86 e2 f5 bc 26 66 b1 3d e3 44 83 bd
       -0.0025661215 -0.030015241 0.086620614 -0.064096235
000260 af 96 99 bd 58 14 13 be b5 21 e2 bd d7 62 5b bd
       -0.07499444 -0.1436323 -0.11041585 -0.053561058
000270 7f fa d7 3d b7 60 3b 3e 4e d1 26 be 30 60 f8 bd
       0.10545825 0.18298613 -0.16290781 -0.12127721
000280 bd 99 63 bd 4c 28 9c 3d ac d9 1f be a0 7c a8 bd
       -0.055566538 0.076248735 -0.15610379 -0.08226895
000290 55 d1 72 3c e8 7e 43 3e 5b e2 02 be 48 5b 20 3e
       0.014820416 0.1909138 -0.1278166 0.15659821
0002a0 1a a2 2a 3e f8 b8 45 3d 0e df dc bd f2 33 44 3d
       0.166634 0.048272103 -0.10784732 0.0479011
0002b0 0e 11 d0 3d 19 84 f8 bc 0b 85 52 bd 1e 22 5e 3d
       0.10159503 -0.030336427 -0.05139641 0.054231755
0002c0 53 e9 3a be e0 73 09 3e c5 13 f3 bc 7e 59 e1 bd
       -0.18253069 0.13423109 -0.029672513 -0.110033974
0002d0 59 e5 06 3d 70 b1 92 bc 6d ff 0d bd 15 b4 12 3d
       0.032933567 -0.017906874 -0.03466742 0.03581627
0002e0 a1 ad 36 3d fb d9 0d bd df fe 02 bb 3d 0f 65 3d
       0.04459918 -0.03463171 -0.001998834 0.055922735
0002f0 ca 4a 9c 3d 90 b2 11 bd 70 89 c0 3d 87 41 09 bd
       0.076314524 -0.03557068 0.09401214 -0.033509757
000300 c8 62 00 be 3f f6 f1 bd 0e ff 3b bc b5 66 67 3d
       -0.12537682 -0.11814546 -0.011474384 0.056494433
000310 72 aa b2 bd 19 82 0e bd af 6d a4 bd f0 99 1e 3c
       -0.08723916 -0.03479204 -0.08028733 0.009680256
000320 96 8f 24 bd 17 d2 65 3d a3 b0 c2 bd 41 a0 f2 3c
       -0.040175997 0.05610856 -0.09506347 0.02961743
000330 a9 92 c4 3c 37 24 0c bc 40 8e 8c bb aa b2 69 bd
       0.023995714 -0.008553556 -0.0042894185 -0.057055153
000340 83 53 ce 3d 95 e3 43 bd 87 8a 25 3e a9 42 84 bc
       0.10074522 -0.04782446 0.16166125 -0.016145067
000350 f4 99 f3 3d a2 78 f0 bd b4 9a d0 bd 9d e6 19 be
       0.118945986 -0.11741759 -0.10185757 -0.15029378
000360 66 65 98 3d 0c 9f c1 bc ce d2 78 3d 82 34 2b be
       0.07441215 -0.02363541 0.060747914 -0.16719249
000370 a7 8a f9 3d e2 8d c8 3d ac 46 27 bd 5c 55 17 be
       0.12184649 0.09792687 -0.040838882 -0.14778656
000380 28 89 a6 bd f0 32 f5 bd 74 b1 7b 3d b6 d9 9e 3d
       -0.08131629 -0.11972606 0.06144853 0.07756369
000390 a4 60 08 3e 16 f0 89 3d ad f9 36 bc 7a 6d ce bd
       0.13318115 0.06735246 -0.011167926 -0.10079475
0003a0 e9 a9 d3 3b f1 d2 a3 3d 6a 0d 3e 3e c9 60 2e 3e
       0.006459464 0.07999218 0.18559805 0.17029108
0003b0 c3 32 18 3e 96 8c da 3d a9 fb a1 3d 79 62 4b be
       0.14863114 0.10671346 0.079093285 -0.19861783
0003c0 76 cc e2 bc da d2 23 be 90 65 f2 3d d9 df b7 bd
       -0.027685385 -0.15998402 0.11835778 -0.089782424
0003d0 d1 0d 29 3e 99 fd 91 3d f2 32 8a bd aa aa e5 bb
       0.16509177 0.07128448 -0.06747998 -0.00700887
0003e0 96 b0 17 bd fc 27 6a 3d 38 b8 44 3c 48 ad a4 bd
       -0.03703364 0.05716704 0.012006812 -0.08040863
0003f0 47 af 50 bb 7c fa ca bc d2 7b c1 bd f2 79 74 3d
       -0.0031842755 -0.024777643 -0.09447445 0.05968661

g.2.bias f4 [30]
000000 c1 4c 18 bd e5 a0 3b bd 47 eb e4 bd 42 df 12 3e
       -0.037182573 -0.045807738 -0.11177688 0.14342979
000010 3f 7d 32 be 8e dd 9c 3d 75 5b 21 3d 10 c4 d0 bc
       -0.1743059 0.07659446 0.03939386 -0.025484115
000020 f5 c2 38 bd cc 73 6c bd da 80 aa 3d 92 7f e9 bd
       -0.0451078 -0.05772762 0.08325358 -0.11401285
000030 f4 3e 69 3c ea 52 fc bd 34 43 b0 bd 87 10 2d 3e
       0.014236201 -0.12320502 -0.08606568 0.16900836
000040 e8 8f 30 bd a9 1c 2a be db 24 05 be e0 e3 8e bd
       -0.04310599 -0.16612495 -0.1300234 -0.069770575
000050 cc 15 b7 3c 3e 5f a7 bc fa b1 69 3e 90 07 2e 3d
       0.02234926 -0.020431157 0.22821799 0.04248768
000060 0b be f1 bd 3c c2 c7 3d df 5b b5 3b 26 c8 2c be
       -0.11803826 0.09753844 0.0055346335 -0.16873226
000070 80 b9 8f bd c7 34 05 bd
       -0.07017803 -0.032521036

g.4.weight f4 [1, 30]
000000 b6 57 e7 bd de 83 56 3b 36 40 37 3b 6a da 34 bb
       -0.112960264 0.0032732408 0.0027961857 -0.0027596005
000010 1e d8 18 3e 0e 9d 13 3e be f8 e8 b9 b0 e5 cd bc
       0.14926192 0.1441538 -0.00044435816 -0.025133938
000020 81 68 b2 bd 46 84 68 b9 f5 0b 6b 3e 66 63 a5 b9
       -0.08711339 -0.0002217452 0.2295378 -0.0003154531
000030 09 63 3b bb 68 a9 28 be 5f e6 b0 bd ce ec 55 be
       -0.0028592965 -0.16470873 -0.0863769 -0.20891115
000040 45 3d 01 39 2b b2 32 3d 41 aa 3b 38 ab 30 e2 bd
       0.00012325223 0.043626945 4.4742836e-05 -0.11044439
000050 7e 37 a7 ba 4c c1 c9 3c bc 2e 3d be c4 ab 17 ba
       -0.0012757627 0.024628304 -0.18474859 -0.0005785788
000060 87 8d 98 ba 56 72 81 ba 24 08 08 3b 4b 79 13 be
       -0.0011638858 -0.0009875994 0.0020756805 -0.14401738
000070 d7 3d 59 bb b7 0e a4 3b
       -0.0033148432 0.005006637

nn_fun1.0.weight f4 [30, 1]
000000 35 63 63 bf b8 4d d8 be bd d0 ea be 47 1a a9 3e
       -0.8882325 -0.42246795 -0.4586238 0.3302786
000010 a0 6a 5a bf 3c cb a4 be fd 8f 71 3e 8a cb d6 be
       -0.85318947 -0.32186306 0.23590083 -0.41952163
000020 d0 fb 86 3d be ef 37 3f 5c 3e 15 3f 9b 6a 14 be
       0.06590998 0.7185019 0.5829828 -0.14493792
000030 ee 42 68 bf 24 3b 71 be 82 02 4e be 8d 75 57 bf
       -0.90727127 -0.23557717 -0.20118144 -0.84163743
000040 64 55 5e 3f 3f f6 a1 3d de ec 12 3f 82 8e 2b bf
       0.86849046 0.07908296 0.5739268 -0.67014325
000050 05 2f 8b bf 24 41 4f 3f 80 aa 10 bf c2 16 1b 3f
       -1.0873724 0.8095877 -0.5651016 0.605816
000060 5f ed ee bc ee 59 d9 3e ba 97 c7 be 1d 98 60 3e
       -0.029165922 0.42451423 -0.38982946 0.21933027
000070 55 76 6e 3e e4 5c 00 bf
       0.23287328 -0.5014174

nn_fun1.0.bias f4 [30]
000000 4b 00 2e 3f 3d 1a 7b be 87 ad 99 be bb 6e 84 3d
       0.679692 -0.24521728 -0.30015203 0.06466433
000010 58 b7 0e 3f 11 08 82 be f3 bd 87 3e d8 99 e3 be
       0.5574851 -0.2539678 0.26512107 -0.4445331
000020 78 24 eb 3e 19 55 25 3e e6 4f ff be 53 cb 31 3f
       0.4592626 0.16145743 -0.49865645 0.69450873
000030 1e bf b4 bd ff 04 22 3f 0b ba 90 be 77 d9 59 3e
       -0.08825515 0.63288873 -0.2826694 0.21274363
000040 b1 49 07 bf 43 5e d3 3d 1c bf 3a 3e 62 3c 67 3f
       -0.5284682 0.10320713 0.18236965 0.9032651
000050 8f 22 50 3f c5 17 5a 3e be 1e 39 bf 19 f8 1d bf
       0.8130273 0.2129813 -0.72312534 -0.6170669
000060 1e 78 79 3d 80 38 0f bf f4 4d 66 bf c6 21 96 3e
       0.06090557 -0.5594559 -0.899627 0.29322642
000070 e3 ae f5 3e e6 25 8a 3e
       0.4798499 0.2698204

nn_fun1.2.weight f4 [30, 30]
000000 aa df 0c be de 0d df 3d ec 5b 24 be 50 48 e1 bb
       -0.13757196 0.10891317 -0.1605069 -0.0068750754
000010 b6 e7 2c bd ba 04 78 bd 7c 50 ec 3d 07 94 e5 3d
       -0.042213164 -0.060551383 0.11538789 0.112098746
000020 46 1e 54 bd e3 50 c7 3d 85 d5 69 bd 51 d8 d3 bd
       -0.051786683 0.09732225 -0.057088394 -0.103439935
000030 1a 0b ed bc 02 db 9a 3d bb 94 8c bd 0f e1 20 be
       -0.028935958 0.07561304 -0.068643056 -0.15710853
000040 58 ba a1 3c 85 1f 7b bd 1c 2c b9 bd 8d 75 57 bc
       0.019742176 -0.061309356 -0.09041616 -0.013150585
000050 92 3e 89 bc 4a a1 cf 3c 05 f9 24 3e f1 23 fd 3b
       -0.016753469 0.025345463 0.16110618 0.007725232
000060 d4 f8 9e bd 21 dd 12 be 50 30 7b bd 04 0a 98 bd
       -0.07762304 -0.14342166 -0.06132537 -0.07423785
000070 02 e1 f2 bd da 52 37 bd ea 23 07 3c e8 2c bb bc
       -0.11859323 -0.044756748 0.008248309 -0.022848561
000080 f1 c5 0d bd c9 4f 47 bc 4f 52 0c 3c 6c 2a 39 bd
       -0.0346126 -0.012165018 0.008564546 -0.045206472
000090 22 96 65 bc 2e a4 86 3c e1 3c e8 bc e1 28 0a bd
       -0.014012845 0.016435709 -0.028349342 -0.03373039
0000a0 76 99 17 bb 19 ef 01 bc 53 6c 58 bc 97 64 c3 ba
       -0.0023132241 -0.0079305405 -0.01320942 -0.0014907297
0000b0 da 91 06 bc 4e f3 e5 bc 4b d9 b4 bb 79 d2 af 3c
       -0.008213485 -0.028070118 -0.0055190674 0.021462666
0000c0 d7 9f 01 bd 4e e1 12 3d 23 0d 58 3b 44 8b 21 bd
       -0.031646576 0.0358594 0.0032966814 -0.039439455
0000d0 7d c4 38 3d 83 ad 80 bb f7 c1 4c 3b fa de f8 3c
       0.04510926 -0.003926934 0.0031243542 0.030379761
0000e0 f5 34 85 bd 3d 07 95 3d ed eb 84 bc 38 8a 00 3b
       -0.065042414 0.07276771 -0.01622578 0.0019613635
0000f0 16 b2 ba 3d c0 91 2c 3e 4d 8a 2c bd 5a ec e9 ba
       0.091159984 0.16852474 -0.04212408 -0.0017846928
000100 84 74 c7 3d 51 63 09 be 10 43 5f bd fa 8c 42 bd
       0.097390205 -0.13416792 -0.054507315 -0.047497727
000110 dd bb 0b be 4d 67 82 bd 35 c1 0d be c5 67 ce bd
       -0.13645883 -0.06367359 -0.13843234 -0.10078386
000120 f7 15 09 3c d8 6c 14 3e 92 42 58 3d d6 93 a7 3b
       0.008367053 0.14494646 0.05279786 0.005114059
000130 73 04 be bd 55 62 9b bd 89 0c 03 3e 72 a7 aa bd
       -0.09278192 -0.07587115 0.1279775 -0.08332719
000140 66 56 11 3d 7a 4a c2 3d dd 41 ab 3d 40 07 cc 3d
       0.035482787 0.094868615 0.08362172 0.0996232
000150 b5 ca c6 bc ef 6d d5 bd 2a 0b fe bd 52 c0 b2 3d
       -0.02426658 -0.10421359 -0.12404473 0.087280884
000160 19 f8 17 3e af 03 b5 3d 94 4d 6a 3d 44 2f 0b be
       0.14840735 0.08838593 0.05720289 -0.13592249
000170 64 e4 6a 3c d9 e4 fe bb c7 fd 23 bd 83 5d e3 3d
       0.014336679 -0.0077787456 -0.040036943 0.1110182
000180 46 4d 19 3e ea 2b 74 bd c0 90 ed 3c 99 78 0c bd
       0.14970884 -0.059612192 0.028999686 -0.0342947
000190 50 4f 0c 3e bc 70 4e 3d 6f e5 9a 3d 58 e4 67 bc
       0.1370213 0.05040048 0.07563292 -0.0141535625
0001a0 c5 a0 8f 3c 19 51 23 3d f3 43 dd 3c 9a 0d 87 bd
       0.017532716 0.039872263 0.02700994 -0.06594391
0001b0 ea 12 11 bd 96 03 f8 bc 2d e6 ee bc f0 d3 7c 3d
       -0.03541843 -0.030275147 -0.02916249 0.061725557
0001c0 55 e7 1f 3e 09 00 8a 3c cd f0 dd bc e3 42 ae 3c
       0.1561559 0.01684572 -0.027092362 0.021272128
0001d0 c6 6c b9 3c 31 26 2c 3d 8d 48 5e 3c 65 d4 22 bb
       0.022634875 0.04202861 0.013567102 -0.0024845835
0001e0 72 1b 9e 3d 38 db df 3d d8 fc 11 3b 7b 0f bf bd
       0.077200785 0.109304845 0.002227595 -0.093291245
0001f0 79 d9 8a 3d a1 de cf bc 9f f9 cf 3c 9c 39 4a bd
       0.06779761 -0.025374712 0.025387583 -0.049371347
000200 7d 07 67 bd f6 3d 99 3d f1 98 3a 3a 58 8e 4e 3d
       -0.056403626 0.07482521 0.0007118127 0.05042872
000210 03 5d f6 3c 48 ce b7 bc 2a 7c b5 bc ac 30 1f 3c
       0.030073648 -0.02243723 -0.022153933 0.009716194
000220 62 fa 80 bd 01 17 b6 bc e4 b3 01 be 1c f9 da 3c
       -0.06297757 -0.022227766 -0.12666279 0.026730113
000230 cb 4d 8f 3d 8f ce 27 bd 0f 12 a1 bd 51 a1 14 bd
       0.0699726 -0.040968474 -0.078647725 -0.036286656
000240 5d 39 a1 3b 6c 4a b9 3c 75 97 9c bd 4b c0 6f 3d
       0.0049201683 0.022618495 -0.07646076 0.058532994
000250 7d d8 d5 3b 1f 63 12 3d 33 ad 0c be 14 5b 13 3e
       0.0065260516 0.03573906 -0.13737945 0.14390212
000260 10 a2 18 3d 36 c3 49 bd 70 3d 68 be e7 30 ee bd
       0.03726393 -0.049258433 -0.22679687 -0.11630421
000270 e4 b6 da 3d 6d c1 23 3d 96 9e ec bd c2 79 4d 3d
       0.10679415 0.039979387 -0.11553685 0.050164945
000280 9d 77 0e 3e 5f 47 7f 3d 81 3d c9 bc 6d dc cd 3d
       0.13912816 0.062323924 -0.02456546 0.100518085
000290 5a 93 60 3c d5 6f 8f 3d 7b ad 56 3e 7f ef 3c 3d
       0.013707006 0.07003752 0.20964615 0.04612684
0002a0 6c 72 0d 3e e3 6a 39 bd d8 ce 63 bd 84 73 86 3c
       0.1381318 -0.04526795 -0.055617183 0.016412504
0002b0 99 87 23 bd 9f 37 52 3e 5a bd f9 bd e7 7f fb bd
       -0.039924238 0.2052903 -0.12194319 -0.12280255
0002c0 89 a5 28 3e 15 cc 96 bd 2a 15 ae 3d 6c 80 5f bd
       0.16469397 -0.07363144 0.085001305 -0.054565832
0002d0 7f 09 b4 3b 18 d7 47 bd db 2f ac bd 4c b2 3a 3d
       0.005494296 -0.048789114 -0.08407565 0.045580193
0002e0 cc 77 09 bd b0 8b 07 3e 31 25 d1 bc 2e 87 0c 3e
       -0.033561513 0.1323688 -0.02553043 0.13723442
0002f0 15 00 94 3c fa 3d 0f 3d f6 a9 8b bb a1 78 01 be
       0.018066445 0.034971215 -0.0042622043 -0.12643673
000300 55 f2 c7 bd e4 8d 70 3d 8d e6 3a bd e0 f0 fe bd
       -0.09763018 0.058729067 -0.045630027 -0.12448287
000310 5e fe 0d 3d 0e b7 de bd aa 7b 0c 3e c2 70 79 3d
       0.03466641 -0.10874759 0.13719049 0.06089855
000320 f8 a5 1e be 5c 0f 66 bd 98 7a 2a bb fa 09 4f 3d
       -0.15493 -0.05616699 -0.0026013013 0.050546624
000330 a9 5d e7 bc 98 76 a1 bd 09 ed e2 3d 28 bc 06 bc
       -0.028242903 -0.07883948 0.11080367 -0.008223571
000340 70 3d 3b 3d 22 59 47 bb 40 63 76 3d 63 82 e1 3d
       0.04571289 -0.0030418118 0.060153246 0.110111974
000350 45 05 2d be c6 e4 ce bd 82 7a 10 3e ab 89 05 be
       -0.16896541 -0.10102229 0.14109233 -0.13040797
000360 8d 05 88 3d f9 fb 19 bd a0 7e 0d bd 5b d6 5a 3d
       0.06641684 -0.037593815 -0.034544587 0.05342708
000370 9c 44 e5 3d d2 89 1d be 36 8c 83 3d c3 51 00 3e
       0.11194727 -0.15384606 0.064232275 0.1253119
000380 23 49 c4 3d 17 05 14 bc d4 f6 a3 be a7 29 20 be
       0.09584262 -0.009034417 -0.32024252 -0.15640889
000390 49 88 bc bd 1d e4 10 3e 0d 03 72 3e 7b 44 2e be
       -0.09205682 0.14149518 0.23633976 -0.1701831
0003a0 11 fd 3f be 65 8c b2 3d 15 51 fa 3d 89 30 e5 3d
       -0.18748881 0.087181844 0.122224964 0.11190898
0003b0 62 0d a4 3c 21 1e b0 bd 6c 7c bb 3d 28 75 01 3e
       0.020025913 -0.08599497 0.09154591 0.12642348
0003c0 84 12 49 be 2d 18 30 ba 5c 5d 33 be 47 e2 9a 3d
       -0.1963597 -0.00067174697 -0.17516083 0.0756269
0003d0 44 2c eb be 5b c3 1e be bd 2f 26 bc e3 3f 7b bc
       -0.4593221 -0.1550421 -0.010143218 -0.015335056
0003e0 81 cc da 3d fe bc e1 bd bf 0b 39 bd 1c 4e 38 bd
       0.10683537 -0.110223755 -0.045177218 -0.044996366
0003f0 72 88 fd 3d 45 08 37 3e 14 55 1e be e8 1f 71 bd
       0.123795405 0.17874248 -0.15462142 -0.05886832

nn_fun1.2.bias f4 [30]
000000 60 b8 69 3d 44 bf 2e bd 69 52 14 be 32 60 c6 3d
       0.0570606 -0.042662874 -0.14484562 0.096863165
000010 39 0f ca bd 85 d2 af 3d ed fb fe 3c a8 20 1e be
       -0.09866185 0.08585075 0.031125987 -0.15442145
000020 f1 0c 54 3e ef c6 14 be df 70 08 be 6f bb 03 be
       0.20708062 -0.14529012 -0.13324307 -0.12864469
000030 16 b8 bc 3d e3 a6 52 be ff 8f 61 bd 63 62 ee 3d
       0.09214799 -0.20571475 -0.055068966 0.116398595
000040 89 f4 43 bd 3e 04 17 3e 12 af 08 be 39 d0 9c 3d
       -0.04784063 0.14747712 -0.13348034 0.07656903
000050 f3 19 bb bd 33 72 10 be 96 25 b8 3d d1 3a c2 bd
       -0.09135809 -0.14106064 0.08991544 -0.094838746
000060 75 24 9b bd 4d 28 36 3d e6 5b 18 be 5e d5 37 bd
       -0.07575313 0.044472028 -0.14878806 -0.044881217
000070 9b 34 a3 bd fd 51 49 3d
       -0.07969018 0.049150456

nn_fun2.0.weight f4 [30, 1]
000000 1f ae a3 3e 43 cf 4c bf 0e a3 90 bf 30 3c 5c bf
       0.3196878 -0.80003756 -1.129976 -0.8602934
000010 72 36 6a 3e 97 6c ed be e1 10 43 be 84 89 1d 3f
       0.22872332 -0.4637191 -0.19049408 0.6153796
000020 aa 43 4d bf b1 83 a8 3c 9c df 2b bf f9 b9 f2 3d
       -0.8018137 0.020570608 -0.67138076 0.11851878
000030 f3 ef 6c 3f ed 0f 12 bf 19 87 b3 3e 3f f4 35 3f
       0.92553633 -0.5705555 0.3506401 0.71075815
000040 38 6c 29 3f 11 48 0d 3b c8 0d 2f 3f 5b 21 36 3f
       0.66180754 0.0021557848 0.68380404 0.71144646
000050 07 5f f5 be e6 f3 b1 be b4 1b f3 bb cf 1e b7 3e
       -0.47924063 -0.34756392 -0.007419074 0.35765693
000060 42 05 29 be fd f4 a1 3e c2 19 4c 3f a9 7c 69 3f
       -0.16505912 0.31632224 0.79726803 0.9120584
000070 53 bc ae 3e 5a ed 82 3e
       0.34128055 0.2557171

nn_fun2.0.bias f4 [30]
000000 3b 30 82 be b7 95 04 3f 51 47 b7 be f4 39 39 3f
       -0.25427422 0.51790947 -0.35796598 0.72354054
000010 b2 30 88 bc c4 6a 23 bf 26 73 0f 3f 48 64 c6 be
       -0.016624782 -0.63834786 0.5603508 -0.38748384
000020 31 b4 1e 3f 43 62 3b be 7b 04 31 3f 82 0c 6c 3f
       0.619937 -0.18299203 0.6914746 0.92206585
000030 d6 13 e6 3e 9d 10 2c be 35 47 78 be 45 2a e8 be
       0.4493701 -0.16803212 -0.24245913 -0.4534475
000040 20 50 45 bd a6 78 52 3f 80 fd b6 3d d9 56 11 3f
       -0.048172116 0.82215345 0.0893507 0.56773144
000050 42 20 12 bf ee 3b fb 3e 3f 72 20 bf 71 10 23 3e
       -0.5708047 0.4906916 -0.62674326 0.1592424
000060 25 64 31 bf c7 8f 57 be 81 7d 40 bf a3 e0 14 bf
       -0.69293433 -0.2105094 -0.75191504 -0.5815527
000070 c9 a7 6b 3f 42 23 17 be
       0.92052895 -0.14759544

nn_fun2.2.weight f4 [30, 30]
000000 77 da d9 3c 19 ce 94 bd 4b 7c 95 bd e0 6c c9 bd
       0.02659343 -0.072658725 -0.072990976 -0.098352194
000010 91 e3 90 3c 97 29 d7 3d ef 3c f3 bc fb 7d 47 3d
       0.017686637 0.105059795 -0.029692141 0.04870413
000020 8b 29 a4 bd 43 a2 84 bd a3 41 f6 3d 82 78 cd 3d
       -0.08015736 -0.064762615 0.12024238 0.10032751
000030 a7 ed b7 bd b3 b6 7d 3d d0 da 3a bc 29 61 86 3d
       -0.089808755 0.061941814 -0.011404708 0.065615006
000040 77 14 8e 3c 80 8a 60 3d 92 f8 c0 bd f6 57 bc bc
       0.017343743 0.054819584 -0.09422411 -0.022991162
000050 30 43 10 be ed 8c bb 3d a1 ed 93 3c ce df 93 3d
       -0.1408813 0.09157739 0.018057646 0.07220422
000060 8a 0b 40 3d 79 0e 90 3c 05 57 ad 3d 0a 24 b6 3d
       0.046886005 0.017585026 0.08463863 0.08893593
000070 18 26 c1 3d 8b 50 07 3d 9c 33 cf 3c 6f cc e0 bc
       0.09431094 0.033035796 0.025293164 -0.027441232
000080 b0 29 f7 3d 28 6b a5 bb c9 81 bb bd 30 a2 ef ba
       0.12068498 -0.0050481744 -0.09155614 -0.0018282589
000090 9b 4a 09 bd 0d c7 ad bd fb af b4 bd 78 95 b2 3d
       -0.033518415 -0.084852315 -0.08822628 0.08719915
0000a0 ba dc 76 bc 6d c8 4d 3d 18 5a fb bd 2b b4 01 bd
       -0.015067274 0.05023997 -0.122730434 -0.031665962
0000b0 8b 3c 06 3d cf a7 23 3d a1 b8 6f bc 3c 66 c9 3c
       0.032772582 0.039954957 -0.014631421 0.024584882
0000c0 a4 b4 2a be 6b 93 d2 bd 34 0d 0c be ae 0a de 3d
       -0.16670471 -0.10282024 -0.13676912 0.10841881
0000d0 2d 66 c9 3d 0b 19 0a 3e cd 15 d3 bc 6e 06 83 3c
       0.098339416 0.13486116 -0.025767231 0.015994277
0000e0 38 6f 10 3d 69 fa c2 bb fb dc c7 3d e7 52 59 3d
       0.035262316 -0.0059502614 0.097589456 0.053057577
0000f0 b5 5f 9f 3d 23 2f 82 3d 53 72 6e bd 59 61 a5 3d
       0.077819265 0.06356647 -0.058214497 0.08075208
000100 6a d6 ad bc 7f e1 4a 3d 6a fb c0 3d 61 09 6f bc
       -0.021220405 0.049531456 0.094229534 -0.014589638
000110 a9 f1 11 bc da d0 ed 3d ea 88 fc 3d af 34 c2 bd
       -0.008907714 0.11612101 0.12330802 -0.09482705
000120 55 20 0b 3d 10 ae bb bd b5 70 b2 bc c8 b4 7f bd
       0.03396638 -0.09164059 -0.021782259 -0.062428266
000130 96 99 07 3e 08 49 2f be 6d 7d 54 bc 68 3a 02 be
       0.13242182 -0.17117703 -0.012969357 -0.12717593
000140 e4 aa 1d 3c 5a 9a 10 be d2 65 eb bd 0d be eb 3d
       0.009623263 -0.1412138 -0.1149403 0.11510859
000150 e1 1e 8a 3c 13 41 4c bc 0a a7 f7 bd 2b 76 af bd
       0.016860427 -0.012466687 -0.12092407 -0.085674606
000160 ea 4b 10 3e 09 59 01 bd 27 0b 14 bd 05 eb f8 3c
       0.14091459 -0.03157905 -0.03614345 0.030385504
000170 b6 69 d1 bd 6e 56 95 3c 96 67 b9 bd 15 47 7d 3d
       -0.10225241 0.01822969 -0.090529606 0.061835367
000180 04 ae bc bb 90 c2 59 bc 50 ec 1a 3d 35 fa 49 bd
       -0.005758049 -0.013291016 0.03782302 -0.04931088
000190 2e 90 b9 bd bd 7b 13 3e 58 97 27 be 30 fb 23 3c
       -0.09060703 0.14402671 -0.16366327 0.010008618
0001a0 33 ee d4 3d 22 c4 98 bb 05 ba b6 bd 17 e3 a5 bc
       0.103969954 -0.0046620527 -0.08922199 -0.020249886
0001b0 66 3b 18 be cf 7d 0a 3e 62 87 48 3c 03 34 f4 bd
       -0.14866409 0.13524555 0.012239309 -0.11923983
0001c0 6d 26 aa bc 43 33 db bd ed e0 19 3e b5 83 65 3b
       -0.020770276 -0.10703137 0.15027209 0.003502113
0001d0 c2 53 5e 3d bf cd 43 bb 42 52 12 3e a4 9a 64 3d
       0.054279096 -0.0029877273 0.14289191 0.05581154
0001e0 9b f5 5e 3d 3d cf 07 be 6f 44 38 bd 72 92 0b be
       0.054433446 -0.13262649 -0.04498714 -0.13630083
0001f0 58 18 66 3d 8e e1 d4 3d f1 60 f9 3d 5d 70 f0 ba
       0.05617556 0.10394584 0.12176693 -0.0018344034
000200 e0 22 92 bd 22 41 9c 3d e2 9b a7 3d 55 09 38 3e
       -0.07135558 0.076296106 0.08184029 0.1797231
000210 84 94 db bd ab 4b 20 3e 08 27 c4 bd c5 d8 7e 3d
       -0.107216865 0.15653865 -0.09577757 0.062218446
000220 d2 a1 d3 bd ec 63 29 be 7c 0d ff 3d 02 84 9a 3c
       -0.10333599 -0.16542023 0.12453744 0.018861774
000230 01 f0 5f 3d 50 38 52 bd d7 a5 0a bd cd 1e 73 bd
       0.054672245 -0.051323235 -0.033849563 -0.059355546
000240 7b 2a be bd f6 6e 05 3d 1d e1 97 bd 97 5a f3 3c
       -0.09285446 0.032576524 -0.07415984 0.029706283
000250 e0 8c 68 bd f2 05 07 be 50 fb 8f 3d 10 69 97 3d
       -0.056774974 -0.13185862 0.07030356 0.07393086
000260 78 a6 96 bd 4d 02 15 be c5 bb f0 3c 97 11 09 be
       -0.0735597 -0.14551659 0.02938641 -0.13385616
000270 51 7d 8c bc 74 aa c7 bc cc 04 19 bd 9f ea 0d bc
       -0.0171496 -0.02437327 -0.03735809 -0.008661895
000280 69 48 03 be 30 ed 05 be bf c7 14 bd 13 3b ce 3d
       -0.12820591 -0.13078761 -0.036323305 0.10069861
000290 15 d2 ab bb 82 e2 bc 3c dd 08 be bc 1e 5d c6 bd
       -0.0052435496 0.023057226 -0.023197586 -0.096857294
0002a0 bc 6d 88 bd aa 2c f3 bd c8 5e 3d be 06 53 23 3e
       -0.06661555 -0.11873753 -0.18493187 0.1594964
0002b0 24 77 08 be d0 5f cd bc a9 18 f4 3c 71 08 91 3d
       -0.13326699 -0.025070101 0.029796915 0.07081688
0002c0 80 69 8b 3d 5f 51 2c 3e cc c5 2b 3d 12 ce e0 3d
       0.06807232 0.16827916 0.04193668 0.10976805
0002d0 d7 d7 1b bd e8 06 20 3c f8 ee f8 bc 7f 29 27 3d
       -0.038047638 0.009767272 -0.030387387 0.040811058
0002e0 09 e3 bc bd f6 e9 30 3e fd 6b ae 3c a5 b6 7d bd
       -0.09222991 0.17276749 0.021291727 -0.06194176
0002f0 ee 0e a8 3d 51 63 6b bd a7 b9 84 3d db dd 1f bc
       0.082059726 -0.057467762 0.06480723 -0.009757484
000300 7c 92 86 bd 5d bb 82 bd a7 a5 0e be 65 eb 08 bc
       -0.065709084 -0.06383393 -0.13930379 -0.008356904
000310 cc 0b 89 3c d1 a0 1d 3e d6 ec 2f 3d a5 85 e5 bd
       0.016729258 0.15393378 0.042950474 -0.11207131
000320 c6 d9 09 3d 98 e1 ed 3d 16 91 db 3d fb a3 0c 3e
       0.03365495 0.11615294 0.10721032 0.13734429
000330 cb 0b 58 bd ee c7 d0 3b 3b f2 e7 3c ce c4 33 b9
       -0.05274562 0.0063714897 0.028313747 -0.00017144086
000340 c4 fb ee bd 76 b0 15 bd 50 cf 98 3c 2f 4c 1f be
       -0.11669114 -0.03654524 0.018653542 -0.15556405
000350 0c 3e 51 3d 1f 5a 6c bd 65 70 2a bd 6b 74 f4 bd
       0.051084563 -0.057703134 -0.041611094 -0.119362675
000360 e1 cc 18 3e 57 a9 ef bc 35 f8 dd 3d 94 23 50 3d
       0.14921905 -0.029255552 0.10838357 0.05081518
000370 32 6e 12 3d 8a 34 59 bb 2f 32 29 3e 81 00 9f bd
       0.03574962 -0.0033142888 0.1652305 -0.07763768
000380 93 65 10 3e 08 38 ba 3d 1d 2b 94 bb f5 9c aa bd
       0.14101247 0.09092718 -0.004521741 -0.083307184
000390 b1 4a 25 3e c3 97 7f bd 0d 90 75 3d 52 89 7b 3b
       0.16141774 -0.06240059 0.05995183 0.003838141
0003a0 f4 5c c9 bd 22 af 2d 3d f5 46 df 3d 1e 71 83 3d
       -0.098321825 0.042403348 0.10902206 0.0641806
0003b0 7b a9 49 be 19 4a e2 bd fb 02 15 be e2 6e 1f be
       -0.19693558 -0.11049289 -0.14551918 -0.15569642
0003c0 f6 5e e6 3c 53 65 24 3e 7a 54 68 be 11 a4 87 3e
       0.028121453 0.16054277 -0.22688475 0.2649236
0003d0 0d 60 06 3e 73 05 4a bd 76 04 1d bd 44 9e d3 3c
       0.13122578 -0.049321603 -0.038334332 0.025832303
0003e0 22 6e 63 3e f5 55 16 be 88 61 80 bd fe dd 37 3e
       0.22209981 -0.14681228 -0.062686026 0.17955777
0003f0 44 60 80 3d 92 83 a6 bd 57 61 fa bc 9b ad b5 3c
       0.06268361 -0.08130564 -0.030563993 0.022177508

nn_fun2.2.bias f4 [30]
000000 7e 1b 3a bd bc aa 01 3e 28 09 fa bd 40 8d 14 3e
       -0.045436375 0.12662786 -0.12208778 0.14507008
000010 4f bf 10 3e e9 7d fc 3d 00 cf 1d 3e cf d9 25 3d
       0.14135478 0.12328703 0.15410995 0.04049092
000020 23 67 db bd db 9d 91 bc 28 75 2b 3e aa d4 c9 3d
       -0.10713031 -0.017775467 0.1674391 0.098550156
000030 3d 16 98 3d 7c cc 48 be e5 51 44 3d 01 1e 26 3c
       0.074261166 -0.19609255 0.047929663 0.010138989
000040 64 bb 4a 3e cf 44 d4 bd 02 21 15 be 66 80 c2 bd
       0.19798046 -0.10364687 -0.14563373 -0.09497146
000050 b5 6d 06 be 3c e6 47 3d 3a 74 c9 3c c1 83 c4 bd
       -0.13127787 0.048803553 0.024591554 -0.095954426
000060 9f 6a 76 3d 24 91 87 bc c2 9d 71 3d ad ab ea 3c
       0.060160276 -0.0165487 0.05898834 0.028646315
000070 2b 63 23 be 1c 4b fe 3d
       -0.15955798 0.1241667

agg.0.weight f4 [1, 30]
000000 83 50 6d 3c db a9 82 3b 4a b2 cc 3c 9c ae 0b 3b
       0.0144845275 0.0039875335 0.024987359 0.0021313792
000010 e4 1d 93 bc 40 a4 08 3d 84 0d f9 b9 7b 28 56 bd
       -0.017958589 0.033359766 -0.0004750305 -0.0522847
000020 2a ce 2e 3e 53 65 b0 36 68 48 96 bd 7d 7d 1f 3a
       0.17070833 5.2570044e-06 -0.07338029 0.0006084068
000030 10 d2 9c bb 35 bc cb bc e0 bd 2b 3d 78 8c d2 3c
       -0.0047857836 -0.024870018 0.041929126 0.025701746
000040 c4 d6 b3 bd a7 60 1a bb 36 4a d0 3c e1 6d aa bd
       -0.08781198 -0.0023556144 0.025426012 -0.08321739
000050 ac e5 dc 3c dc ba 00 3d 78 43 4c bc a5 6e 80 3d
       0.026964985 0.031428203 -0.012467258 0.06271104
000060 b5 b0 97 38 a4 0b e6 39 81 68 28 3d 6f 5e fb 3b
       7.233155e-05 0.00043877691 0.041115288 0.0076711695
000070 45 8f a2 bd ee 85 5b bd
       -0.07937483 -0.053594522
