multiple_model_analysis/results/er_experiment_MM_size_10_37_alpha_0_scale_100_dynwght_False_std_reg_1.0_equiv_reg_0.0/neural_network.pth (torch, 16501 bytes, 14 tensors)

g.0.weight f4 [30, 1]
000000 f1 20 36 bf e7 b3 c3 be 12 08 25 be 71 65 1c 3f
       -0.71144015 -0.38223192 -0.1611636 0.6109229
000010 09 62 9f bd d4 6f 47 be 03 07 7f bf 6b 12 8c 3f
       -0.077823706 -0.19476253 -0.99620074 1.0943121
000020 13 39 5b bd 74 ff 09 3f 0c 85 39 bf 80 6f 47 be
       -0.053521227 0.53905416 -0.7246864 -0.19476128
000030 d5 4b d4 be 98 37 59 3f 9a a9 6a 3f 27 7b e0 3e
       -0.41464105 0.84850454 0.9166504 0.43843958
000040 39 49 24 be 89 6b be 3e 49 50 20 3f 94 d4 45 bc
       -0.16043557 0.37191418 0.62622505 -0.012074608
000050 24 13 6b 3f 2b af da 3e ca 84 4b bf 67 e2 8a bf
       0.9182608 0.42711768 -0.79499495 -1.0850343
000060 0c c0 38 bf 1f 4c 33 3f c4 57 95 3e 92 6e 94 3f
       -0.7216804 0.70038027 0.29168522 1.1596243
000070 57 84 e9 be 73 89 53 bf
       -0.4560878 -0.82631606

g.0.bias f4 [30]
000000 c0 1d a6 bd 04 8a dc 3e 0d 5e b0 3e 1b 12 a6 3e
       -0.08111143 0.43074048 0.34446755 0.32435688
000010 74 f5 7e be 33 0d 11 bf c3 fb 6c 3e 20 a1 03 bf
       -0.2489832 -0.56660765 0.23142914 -0.5141773
000020 23 ac fd be 45 52 80 bd c7 44 4a 3f 36 2b 4f bf
       -0.49545392 -0.06265692 0.79011196 -0.8092531
000030 48 2c b6 3d 2a a2 92 bb 93 85 f7 bc d0 b6 08 bf
       0.08895165 -0.004474898 -0.03021506 -0.5340395
000040 a1 95 28 bf e6 d2 aa bd 17 e5 32 be a3 a5 7f be
       -0.65853316 -0.08341007 -0.17470203 -0.24965529
000050 9f c5 f4 be 6c b8 13 bf f4 1d 1f bd f2 82 30 3f
       -0.47807023 -0.5770328 -0.038846925 0.68949807
000060 66 d9 24 bd 1b 78 b4 3e 00 39 3f 3f 9b 82 0c bf
       -0.04024639 0.35247883 0.7469635 -0.5488679
000070 4c e5 4c bf 3d c5 c8 3e
       -0.8003738 0.3921298

g.2.weight f4 [30, 30]
000000 d9 43 9c 3c b5 3d bd bd dd dc 4d 3d 6e e9 95 3d
       0.019075321 -0.09240285 0.05025946 0.07319914
000010 ed f5 8e bd 9a d1 eb bd 9b b4 e6 bc 71 3e 2e bd
       -0.069805 -0.11514588 -0.028162291 -0.042540018
000020 73 52 d3 3d fd 58 6f bc a4 ae de bd c3 d5 18 3e
       0.1031846 -0.014608619 -0.10873154 0.14925294
000030 52 c3 50 bd b8 12 0c bc 62 b6 e9 bb 84 78 83 3c
       -0.050967522 -0.008549385 -0.0071323374 0.016048677
000040 5e f5 88 bc bc 44 0d 3e 3d 3e 34 bc 20 84 86 bd
       -0.016718563 0.13795751 -0.011001167 -0.065681696
000050 b2 0e 93 bd 86 02 ef bc f4 27 2f 3d 64 56 05 3e
       -0.07180537 -0.029176008 0.04276271 0.13021237
000060 6f 43 d4 3c 61 0b 6e 3d 3f 03 d7 3d 19 0b 6e 3c
       0.025911061 0.05811632 0.10498666 0.014529013
000070 35 f0 c5 3d 18 43 89 bd 66 50 77 3e 67 40 f6 bc
       0.096649565 -0.0670225 0.24151763 -0.030060006
000080 b4 76 b2 3c 23 ef 2b bd e1 cc 28 3e aa 13 1a 3e
       0.021785118 -0.041976105 0.16484405 0.15046564
000090 77 99 78 3e e1 46 27 be f4 1e 03 3e 7c df 40 be
       0.24277292 -0.16335632 0.12804776 -0.18835253
0000a0 a3 f1 70 bc ba c7 03 be 0d 50 85 3d 49 dd cf be
       -0.014706048 -0.12869158 0.06509409 -0.40598515
0000b0 90 f6 ac be c7 4d 8d 3c d9 04 9c 3d 71 24 b7 3d
       -0.33781862 0.017249001 0.07618112 0.089424975
0000c0 6f e0 d6 3d 7f 16 3d 3d 8b 71 a6 bd 86 d0 d6 bd
       0.10492026 0.046164032 -0.08127125 -0.104889914
0000d0 0c 95 10 bc ec 32 38 bc d2 3a 10 3d 94 fa 16 bc
       -0.008824598 -0.0112426095 0.035212345 -0.009215016
0000e0 d2 2a d7 3d c2 31 33 bc b1 48 1e be 05 4e 77 3d
       0.10506214 -0.010937156 -0.15457417 0.06037714
0000f0 95 43 5e bd a5 2b 76 bd cc 88 2e 3d d8 69 04 3d
       -0.05426367 -0.060100216 0.04261093 0.032327503
000100 ff 4b 99 bd 14 fc b7 3d 3b 7f 09 be 2a 48 2f bb
       -0.07485198 0.08983627 -0.13427441 -0.0026745894
000110 a4 93 fd 3c dd 33 98 3d b4 fa 06 3e 76 f1 dc 3d
       0.03095419 0.07431767 0.13181573 0.107882425
000120 58 1c 19 be 6d 23 d2 3d 7b e5 c2 3d 1b cf b4 bd
       -0.14952219 0.10260663 0.09516426 -0.08828565
000130 f6 41 71 bd 4c e2 ab 3d 5e e7 af 3d b7 ff 60 3c
       -0.058900796 0.08392772 0.08589052 0.013732842
000140 33 ce 9b 3d da 81 cf bc 91 df 35 be 29 d5 45 be
       0.07607689 -0.025330473 -0.17761065 -0.19319595
000150 1d 86 71 bd cf b2 d3 bd 47 38 10 3e d4 7c f6 bc
       -0.05896579 -0.103368394 0.14083968 -0.03008882
000160 e9 4d 99 3c 1b 0b 29 be 61 0f 0c be 5b 19 a1 bd
       0.018713908 -0.16508143 -0.13677742 -0.07866164
000170 29 44 3f bd 23 4d 0a 3e 15 71 0f 3e c6 31 04 be
       -0.046695862 0.13505988 0.14007981 -0.12909612
000180 4c e1 9d 3c b2 3e b2 bd 17 c0 d0 bd 96 1f 7a 3e
       0.019272469 -0.087033644 -0.10192888 0.24426112
000190 af 58 6a 3c 83 fd 1c bc 59 65 9e 3d 97 07 30 3e
       0.01430337 -0.009581926 0.07734174 0.17190395
0001a0 f7 1e a5 3e 2f 53 7a 3d e3 89 91 bd ea 58 8d bd
       0.32250187 0.061114486 -0.07106378 -0.06901725
0001b0 31 0c 01 3e 95 fa 1d be e4 8d e4 3d c1 e2 48 bd
       0.12602307 -0.1542762 0.11159876 -0.049044374
0001c0 9c 28 4c be 04 0f 27 be 00 d2 39 be d2 9b ff 3d
       -0.19937366 -0.16314322 -0.18146515 0.12480892
0001d0 ad 4c 76 bd 8b ef 89 3b 75 20 2f 3d e0 24 b2 bd
       -0.060131717 0.004209464 0.042755563 -0.086984396
0001e0 ff ca 37 be e7 d4 87 3d 78 dc c6 bc b1 8e dd 3d
       -0.1794853 0.06632405 -0.02427505 0.10818232
0001f0 d6 76 c2 bc 0a db 98 bd 18 7d af 3d e0 42 68 3d
       -0.023738306 -0.074636534 0.085687816 0.056704402
000200 43 74 19 bb 37 0f 18 3d fe 82 fb bd 2a 2a 8f bd
       -0.0023415245 0.037123885 -0.12280844 -0.06990464
000210 cb 51 f2 3d 65 3d 9c 3e b5 e2 b1 3e 0f 45 31 3c
       0.11832007 0.3051559 0.34743276 0.0108196875
000220 cb c7 4c 3c e1 9c 2a 3e 7c cd 3c 3e 65 7d 20 3e
       0.012498806 0.16661407 0.18437761 0.15672834
000230 18 d9 38 3e a3 f0 22 bd 97 19 00 be 1c 79 21 bc
       0.18051565 -0.03978027 -0.12509762 -0.009855535
000240 15 6f 23 be 55 79 83 3c 06 22 c7 3d 2a 6e 37 3e
       -0.15960343 0.016049067 0.09723286 0.17913118
000250 96 8b cd bd ee 84 0f 3e 23 e3 37 be c6 99 55 3c
       -0.100363895 0.14015552 -0.1795774 0.013037151
000260 4d b8 82 bd c5 0c 50 3e 88 73 1a be f5 ef e7 3d
       -0.06382809 0.20317371 -0.15083134 0.11325065
000270 28 8a dd bd 54 25 55 bb d7 86 ca bd eb 59 00 3e
       -0.10817367 -0.003252347 -0.09889 0.12534301
000280 22 55 94 bd d9 f9 6f bd 65 75 b8 bc 7c 3d 98 3e
       -0.072428 -0.058587883 -0.022516916 0.2973441
000290 43 fb 3c 3e 19 b4 a6 bd a9 60 2e bd c6 81 d9 bd
       0.18455224 -0.0813982 -0.04257265 -0.106204554
0002a0 35 65 d8 3d fe a8 47 bc 98 55 34 3e 44 ff 37 be
       0.10566179 -0.012186287 0.17610776 -0.1796847
0002b0 07 33 5c be ba 10 03 be 87 d3 40 be 89 1e a3 3d
       -0.2150384 -0.1279935 -0.18830691 0.079648085
0002c0 25 88 b1 bd 46 da c3 bc 68 04 ae 3d 25 16 75 3d
       -0.08668546 -0.023907792 0.08496934 0.05983557
0002d0 ad a9 5f ba d2 5b 25 be cd 63 5b bb 97 15 46 3d
       -0.00085320586 -0.16148308 -0.0033476234 0.048360433
0002e0 d4 2e 8a 3c d3 0e 23 3e 46 20 7d bd 4a b8 03 3e
       0.016868033 0.15923624 -0.061798356 0.1286327
0002f0 e7 ed 1a be 01 5a 4d 3a 74 04 e7 3c c6 65 ab 3c
       -0.15129815 0.0007833541 0.028200366 0.020922553
000300 93 1c 0c be 4a 93 a8 3e 63 55 4a 3e 6a ee be bd
       -0.13682775 0.32924873 0.19759135 -0.093228176
000310 fe 4d 6e bd fb d9 00 3d 10 3d 01 3e 21 5b 26 be
       -0.058179848 0.031457882 0.1262095 -0.162457
000320 84 3d 25 3e 88 f6 ee 3d db 5e b8 bd 63 de 3b be
       0.16136748 0.11668116 -0.09002467 -0.18346553
000330 97 77 40 3c e2 64 23 3e 8f db 36 3e 14 1c 1c 3e
       0.011747262 0.15956452 0.17857192 0.15245086
000340 8c 22 6c 3d 45 4d bc 3d df 79 3e be fb 0a 83 3d
       0.057650134 0.091944255 -0.18601178 0.06398579
000350 10 d2 6c 3c 3a a6 32 3e e5 49 87 3d f7 ca 09 bd
       0.01445438 0.17446223 0.06605891 -0.033640828
000360 00 a8 f3 bd dc 80 ef bd 78 58 10 be ac 70 40 3e
       -0.11897278 -0.116945 -0.14096248 0.18792981
000370 24 47 0c be 76 a3 40 bc a8 57 0a 3e 6a 80 e2 3e
       -0.13699013 -0.011757722 0.1351 0.44238597
000380 1b 85 eb 3e ee 84 cc bc bf e4 ae bd f6 87 03 bd
       0.4599999 -0.02496573 -0.085397236 -0.032112084
000390 91 9d 2d 3d 43 3c 98 3d c4 7e 0c 3b 0c 73 c2 3d
       0.042386595 0.07433369 0.0021437863 0.094946
0003a0 41 c8 88 bd 04 16 ca bd 8f c3 10 bd c4 68 89 3d
       -0.066788204 -0.098674804 -0.03534275 0.067094356
0003b0 f2 7d 7e 3d 13 68 ff 3d d0 d8 96 bd c7 aa f8 3d
       0.06213183 0.124710225 -0.073655725 0.12141948
0003c0 b7 da 32 3e a4 9c 12 3d 7e cf 5a 3b 6b d5 94 bd
       0.17466246 0.035793915 0.0033387835 -0.07267269
0003d0 36 9d f5 bd 82 77 fc 3d b9 d0 32 3e 7d 47 72 3d
       -0.11992876 0.12327482 0.17462434 0.059150208
0003e0 81 00 f9 3d 2e e6 4b be 68 e5 17 3c ac 3c 11 be
       0.12158299 -0.19912025 0.009271003 -0.141833
0003f0 1a a2 c1 3d df 8b 59 be ba d8 bc be 7a f9 3b be
       0.094547465 -0.21244763 -0.368841 -0.18356887

g.2.bias f4 [30]
000000 a2 e2 37 3c f8 8c 20 be e6 73 05 3e 0e f3 ce bc
       0.011223467 -0.15678775 0.13032493 -0.025262382
000010 2e b4 41 3d 7c 6a 36 bd 74 e8 14 3e 44 a5 0b be
       0.047290973 -0.044535145 0.14541799 -0.13637263
000020 7a 29 74 bd 9e 9e 0e 3e 0e a1 7e 3c d3 11 f0 bd
       -0.059609868 0.13927695 0.015541328 -0.1172215
000030 67 f3 6e 3d 6a c2 2f 3e be d6 c8 3d 22 fc d2 bd
       0.058337595 0.17164007 0.09806584 -0.10301997
000040 51 12 92 3d 5d d2 4c 3d d5 4c c1 3d 54 e8 66 bd
       0.071324 0.050005306 0.09438483 -0.05637391
000050 c2 54 7f bd 9b 0f 14 bb 95 4e 74 3d 91 78 5e 3d
       -0.06233669 -0.002259231 0.059645254 0.0543142
000060 be 45 15 3d 77 99 29 3e 00 6a 39 bc 54 46 21 be
       0.036443464 0.16562448 -0.011316776 -0.15749484
000070 bd bd fd bd d9 9e d4 3c
       -0.12389705 0.02595465

g.4.weight f4 [1, 30]
000000 1c 0f 9c 38 46 88 06 3e ea b5 df bc b8 34 b3 bd
       7.441474e-05 0.13137922 -0.027308423 -0.0875029
000010 84 8d 53 be f3 75 91 bd f3 b1 0c be 5f 21 07 be
       -0.20659453 -0.07102575 -0.13739757 -0.13196324
000020 d3 b9 e7 3d f8 22 53 ba f2 5f 50 3a a2 01 e1 3d
       0.1131474 -0.0008054222 0.0007948867 0.109866396
000030 96 38 e9 bd ef 9d 32 3e 9f ea 79 bd ea 5a 48 bd
       -0.11387746 0.1744306 -0.061014768 -0.048914827
000040 d0 33 8a be bd 6c 9b 3d 76 b2 4b bd 29 3b 12 3e
       -0.26992655 0.075890996 -0.04973074 0.1428038
000050 3f d6 51 3d 56 25 f5 bd a3 6a 46 bd 32 3e 0a be
       0.05122971 -0.11970012 -0.04844154 -0.13500288
000060 11 3f c7 b9 ef 00 fe bd a5 19 85 3e a1 e4 4e bd
       -0.00038003226 -0.12402522 0.25996128 -0.050511006
000070 58 11 bc 3c 16 95 4c 3e
       0.022957489 0.19978747

nn_fun1.0.weight f4 [30, 1]
000000 7f d2 30 3e 46 8d 20 bf e6 4d c0 bb 4a e8 83 be
       0.17267798 -0.62715566 -0.005868661 -0.2576316
000010 09 ba 4b bf 39 65 8b be 3c 93 59 3f d9 6e 4b be
       -0.7958074 -0.27225664 0.84990287 -0.19866504
000020 c2 48 80 3e d2 a6 ef bd 31 0c 06 bf 8c 54 12 3f
       0.2505551 -0.1170174 -0.5236235 0.5716026
000030 e0 98 b3 3d e7 27 31 3e e7 67 ca 3e 96 0f ee bd
       0.08769393 0.17300378 0.39532396 -0.116240665
000040 c5 4e ab 3d d8 b0 5e 3f 92 b8 25 3f f4 76 b0 be
       0.083646335 0.8698859 0.64734757 -0.34465754
000050 58 78 3e 3e 64 f6 3b bf d3 96 51 3e 66 bf 00 bf
       0.18600595 -0.7342284 0.20467691 -0.5029205
000060 6f f8 6f 3e 0a 82 4f 3f 35 59 07 bf 11 cf 8f 3b
       0.23434614 0.810578 -0.52870494 0.004388698
000070 2b b4 1e 3f 2e 88 0c be
       0.61993665 -0.13723823

nn_fun1.0.bias f4 [30]
000000 b3 0d 63 3e ed c0 c4 3d c9 81 d7 3e e7 33 0e 3f
       0.22173195 0.0960711 0.42091206 0.55547947
000010 0a 34 8f 3c f2 7d 0b bf 43 5c 92 be 35 ab dd be
       0.017480869 -0.5448905 -0.28586015 -0.43294683
000020 fd 61 10 3f 52 1d ce be 4e 4b a5 be 33 cd 24 be
       0.5639952 -0.40256745 -0.32284015 -0.16093902
000030 23 ee 10 bf b4 8e ea be 1b b7 16 3e f9 27 51 3f
       -0.5661337 -0.45812 0.14718287 0.8170162
000040 54 23 4e 3f 7c 8b 04 bf 54 7b 98 be dc 36 c0 bd
       0.80522656 -0.51775336 -0.29781592 -0.093854636
000050 55 ea 11 3f 81 48 cf 3e b0 ef 06 3f fe c5 33 3d
       0.5699819 0.40485004 0.52709484 0.043889992
000060 00 34 22 3f cb b5 c4 be 3c 5b 90 be 4c 82 d7 3d
       0.63360596 -0.38419947 -0.28194606 0.10522899
000070 cc 78 43 3b fe 2e 99 be
       0.002982664 -0.29918665

nn_fun1.2.weight f4 [30, 30]
000000 e7 4e 3b bd cd 19 fa bb e5 6f f5 bb 84 1d cf bc
       -0.045729544 -0.00763247 -0.0074901455 -0.025282629
000010 90 c7 87 ba bd 58 3e 3d e4 75 22 bd 76 4b 1f 3c
       -0.0010359157 0.046471346 -0.03966321 0.009722581
000020 30 09 89 3b 0e 55 29 3d e1 80 af bc 2f 55 a7 3b
       0.0041820034 0.04134088 -0.021423759 0.00510659
000030 ce b0 4b 3c 5e 2f f4 bc 26 fb 11 3d 25 ed 95 3b
       0.01243229 -0.029807743 0.035639904 0.004575389
000040 f6 2e b3 bc a9 65 11 bc c6 29 50 3d 1f c2 5e bb
       -0.021872979 -0.008874335 0.05082109 -0.0033990217
000050 63 5a 63 3d ad 29 98 3d 36 80 8a ba 70 ee fa ba
       0.05550612 0.07429824 -0.0010566774 -0.0019144546
000060 6a 7b 1a bd 63 bc 53 bb b6 7b 46 bd 99 a3 9d bc
       -0.037715353 -0.0032308332 -0.048457824 -0.019243049
000070 17 f3 75 3a f3 52 4c 3d bc b7 d3 bd 7e 87 28 3e
       0.00093822315 0.049883794 -0.10337779 0.16457936
000080 44 05 ee 3d cf 64 da 3d 4c 2b 3e 3e 9e 01 4b 3d
       0.11622098 0.10663759 0.18571204 0.04956209
000090 23 c8 e2 3d 54 25 f5 3d d4 45 d5 bc 0f 53 1e 3e
       0.11073329 0.119700104 -0.026034273 0.15461372
0000a0 f3 ed b6 3d c8 20 5f 3d 08 e9 b3 3d 77 5b 02 3d
       0.08932104 0.054474622 0.087846816 0.03182551
0000b0 cc c4 be bd 65 67 d1 3d 13 0c 93 3d 78 80 74 bd
       -0.0931488 0.10224799 0.07180037 -0.05969283
0000c0 f8 5e 0d be a8 df fc bb a5 58 1b 3b 7b 34 92 3c
       -0.13805759 -0.0077170916 0.002370396 0.01784729
0000d0 1c a0 21 be 9a c2 59 3d 7e 56 ad 3d 11 74 49 bd
       -0.15783733 0.053164102 0.08463763 -0.049182955
0000e0 46 82 99 bd 7e 0b ec 3d 0e 86 80 bd dd db b2 3c
       -0.07495551 0.115256295 -0.06275569 0.021833355
0000f0 b5 e9 dc bc e0 68 82 3e 76 0c be 3d 19 50 37 bd
       -0.026966909 0.25470638 0.092797205 -0.04475412
000100 93 da d0 3e b1 6a 26 3e da f9 84 be 4e bb c0 bd
       0.4079176 0.16251637 -0.25971872 -0.094107255
000110 76 97 2d be 3f 67 76 3d b0 79 4e 3e 6e 62 29 be
       -0.16952309 0.060157057 0.20163608 -0.16541454
000120 97 b6 2c be 13 e6 f5 bd 33 36 0c be 60 c3 e3 3c
       -0.16866527 -0.12006774 -0.1369255 0.027803123
000130 80 e7 36 bb ac 82 05 bd 4a e7 b5 bc 6b 88 59 3e
       -0.002790898 -0.03259532 -0.022205014 0.21243446
000140 aa 70 a6 bd 68 62 54 3e 84 01 a5 bd 38 ae 80 3e
       -0.08126958 0.20740664 -0.0805693 0.25132918
000150 84 ed b1 bd d2 8a da bc dc e0 a8 3c 79 fb ea 3d
       -0.08687881 -0.026677523 0.020615034 0.11473746
000160 70 8b 80 be 97 80 55 bb 15 35 92 bd 15 98 b3 3d
       -0.25106382 -0.0032577866 -0.07139031 0.08769242
000170 77 8a ef bc 61 62 dc 3c 1e 49 8c 3d 37 b0 14 3e
       -0.02924083 0.02690238 0.068498835 0.14520346
000180 ac 60 a7 bd cb d2 8b bd 82 6e a0 3d 7d 19 6b bd
       -0.081727356 -0.06827315 0.07833578 -0.057397354
000190 d0 2d d5 bb 1d 34 28 be 80 ce 23 3e 00 97 83 3d
       -0.0065057054 -0.1642613 0.15996742 0.06425285
0001a0 c1 9e 9b 3c 99 55 b2 3c 8d 05 ed 3d 06 be 87 3d
       0.018996598 0.021769332 0.11573324 0.06628041
0001b0 be 98 b8 bd fa f3 d3 3d f9 83 0a be d0 3d 80 3d
       -0.09013508 0.10349269 -0.13526906 0.0626179
0001c0 b9 3c 5a 3d d5 b5 57 3d f9 46 a5 3c 4e 25 56 be
       0.053280566 0.052663643 0.020175444 -0.20912668
0001d0 d3 29 49 3d 29 f0 14 be 64 65 07 be 41 3b 83 bd
       0.049112152 -0.14544739 -0.13222271 -0.06407786
0001e0 de 7b 8d 3c 8e 89 22 be 1f cf 34 3e 71 2a 7a 3d
       0.017270979 -0.15872785 0.17657135 0.06107563
0001f0 2d d6 17 be 66 c8 eb bd be a0 11 bd d9 aa 8a 3d
       -0.14827795 -0.11512832 -0.035553686 0.06770868
000200 ce 5e 73 3b 2b ff 63 bd 0e b0 ab 3c 96 82 d4 bd
       0.0037135365 -0.05566327 0.020957973 -0.1037647
000210 bc 06 4d 3d 05 43 4f 3d 0d 24 0c be 1c 52 30 3e
       0.05005525 0.050601024 -0.13685627 0.17218822
000220 40 dc 32 bd 98 83 b9 3d cc c9 45 bd d3 e4 0a 3b
       -0.043667078 0.09058303 -0.04828815 0.0021193519
000230 22 2e 7a 3c fc 4d 27 be a4 99 13 be 07 2a 14 3e
       0.015269788 -0.16338342 -0.14414078 0.14469157
000240 3a b9 a9 3d 00 37 ab bd ed 5f 48 bc 85 9f 15 3a
       0.08287282 -0.083601 -0.012229902 0.0005707669
000250 95 eb b5 3d af 3b 20 bc 68 b7 ce 3d 02 74 de bb
       0.08882824 -0.009779855 0.10093576 -0.0067887316
000260 9b 02 2c 3d 29 68 d3 bd d8 d7 8c bc ac 9c 7a 3c
       0.041994672 -0.10322601 -0.017192766 0.015296143
000270 d3 d9 35 bd fe 15 c5 bc a2 7b 3a bd 8b 7e 0c 3d
       -0.044397186 -0.024058338 -0.04552806 0.03430037
000280 c3 8e 38 3d 8a c9 9f bc 7f 51 6e 3d 1f ec 22 3c
       0.045058023 -0.019505281 0.05818319 0.009943991
000290 b5 76 db bb 35 c0 99 3d a2 07 45 3d eb f5 6a 3d
       -0.0066975006 0.07507364 0.048102982 0.057363432
0002a0 e1 65 1c 3d ba f0 11 bc 83 48 37 bc d1 2f 6e bd
       0.038183097 -0.008907491 -0.011186722 -0.05815107
0002b0 37 54 86 3d 3a 63 88 bb 8c cd d7 3d 0e a1 96 bd
       0.065590315 -0.0041622194 0.10537252 -0.073549375
0002c0 1d 60 88 3d ea 9d e4 ba 12 69 88 3c 30 f5 62 3d
       0.06658957 -0.0017442082 0.016651664 0.05540961
0002d0 1f 0b 77 3d 36 62 34 be 3d d9 4a 3e b0 e3 04 be
       0.06031334 -0.1761559 0.19809432 -0.12977481
0002e0 e5 2d bb be a8 4d be bd ee fa 35 3e 92 e6 5c 3d
       -0.36558452 -0.092921555 0.17771503 0.053930826
0002f0 f6 93 34 3d 04 6f 9b bd 4a 91 3a be 8b b1 f3 3d
       0.04408642 -0.07589534 -0.18219486 0.11899098
000300 c1 27 bb 3d 37 a2 3c bd a3 e6 5c 3c f4 c9 12 bd
       0.09138442 -0.046053138 0.013482722 -0.03583713
000310 d2 d0 a6 bd 13 2b 06 3e 9e 35 34 3e 0a ab 93 bc
       -0.08145298 0.13102369 0.17598578 -0.018025894
000320 a0 01 bb 3d 3f 5f d5 bc 1e 43 d2 3d 31 9f d1 bd
       0.09131169 -0.026046393 0.10266708 -0.102354415
000330 e7 df 52 3e c1 bf da 3d d4 35 6a be df 73 18 3e
       0.20593224 0.106811054 -0.22872096 0.14887951
000340 81 37 38 3e da cd 5a 3d a9 8f d3 bd be cd 38 bd
       0.17989923 0.05341897 -0.103301354 -0.045118086
000350 a8 da 08 3e eb b6 a9 bd f3 91 c7 bc 8f 76 12 3e
       0.1336466 -0.08286842 -0.024361586 0.14303039
000360 c1 52 9e 3d 76 00 55 3d 85 65 80 3c 52 50 13 3c
       0.07730628 0.052002393 0.015673408 0.008991318
000370 db 09 11 be ee cc f3 bc 3b ef 8d 3d 6e cf af 3d
       -0.14163916 -0.029760804 0.06930395 0.08584486
000380 59 b1 57 bc d8 07 be 3d 8e 2b 89 3d 20 2f 14 3e
       -0.013164842 0.0927884 0.066977605 0.14471102
000390 ff 1e 04 bd 66 b4 d9 bd d3 5c 42 bc 7d 63 84 3d
       -0.032256123 -0.106301114 -0.011862951 0.064642884
0003a0 05 3e 3f 3c d2 a1 40 bd 0a f6 1e 3c 6c c5 88 bd
       0.011672501 -0.047029324 0.009702215 -0.0667828
0003b0 43 18 d7 bd 6d 82 09 3d 3c 8f 08 3d de b8 fc bd
       -0.105026744 0.03357165 0.033339724 -0.12339948
0003c0 d7 06 f8 3d 89 23 c8 3c 51 86 8e 3d e9 bb a5 bd
       0.121106796 0.024431007 0.069592126 -0.08092482
0003d0 cb 66 44 3d 06 15 ab 3d bb 1e c1 bd b3 2d 06 be
       0.047949594 0.08353619 -0.094296895 -0.1310337
0003e0 50 07 bd bc 8c 5d 40 3d 90 9d 21 3d 39 5d 36 3d
       -0.023074776 0.046964213 0.039456904 0.044522498
0003f0 cc 12 41 bc 39 76 0c 3e bd 8f c6 3d 4e b3 df 3d
       -0.011784267 0.13716973 0.09695385 0.109228715

nn_fun1.2.bias f4 [30]
000000 5a 15 22 3d e7 b2 3e 3d c3 8c f5 bc 47 14 a1 bd
       0.039571144 0.046557333 -0.029974347 -0.07865196
000010 0c a2 14 be 9e 97 d3 bd 93 b4 fa bd 7b 20 06 bd
       -0.14514941 -0.10331653 -0.12241473 -0.03274582
000020 2b 1e 1e be e7 5c 03 be f7 04 67 bd 16 a0 e5 bd
       -0.15441196 -0.12828408 -0.05640122 -0.112121746
000030 03 c9 aa bd 5a ee d4 bd 3e f7 f9 bd ed bf 8a 3b
       -0.08339121 -0.103970245 -0.12205361 0.004234305
000040 81 44 a2 bd 92 21 1d 3e 43 6e 07 3e 19 e7 af 3d
       -0.07923222 0.15344837 0.13225655 0.08589
000050 48 e2 c9 3c cb 03 4c bd 34 c2 cf 3d bd 56 0a 3d
       0.024644032 -0.049808305 0.10144463 0.033774126
000060 93 f8 b1 3d 99 af 9f 3d 96 65 b8 bd b5 82 20 3a
       0.0868999 0.077971645 -0.09003751 0.00061229925
000070 c9 6a c8 3d 5a 8c ae 3d
       0.09785993 0.08522864

nn_fun2.0.weight f4 [30, 1]
000000 b8 ed 9c be a1 a6 95 3e d3 92 b9 bd 25 8c a2 3d
       -0.30650115 0.2922869 -0.090612076 0.07936887
000010 85 ad f7 be 69 8b 1a bd 1b 1c ea 3c a5 e9 04 3e
       -0.48374572 -0.037730608 0.028577855 0.12979753
000020 f3 08 3b bf a3 b0 eb 3b b8 e7 b4 3d f4 96 64 3c
       -0.7306053 0.0071926876 0.08833259 0.013952006
000030 21 a5 6e bf 87 22 a1 bd 8d c1 85 be 95 b8 9d 3e
       -0.93220717 -0.07867914 -0.2612423 0.30804887
000040 60 cf ac 3d 8a 2f cd 3d 99 e2 f1 be 1b 0e 8f be
       0.08437991 0.10018833 -0.47243193 -0.2794045
000050 85 40 13 bf 96 b5 05 3e bb 08 22 bf 46 e4 67 be
       -0.57520324 0.13057551 -0.6329457 -0.22645673
000060 a8 e4 83 3c b6 c7 42 3f 21 92 4d bf e2 99 d4 bd
       0.016100243 0.76085985 -0.803011 -0.10380913
000070 28 ee 0e be 82 fb e7 bc
       -0.13958037 -0.02831817

nn_fun2.0.bias f4 [30]
000000 4f c9 59 3f 71 5b bb 3e 51 e9 25 3f 21 de 4e 3f
       0.850728 0.36593202 0.6480914 0.8080769
000010 2a cd 8e 3b 13 d0 18 3f df 35 3d bf df d8 ee 3b
       0.0043579536 0.59692496 -0.73910326 0.0072890366
000020 5f b3 ed 3e 91 2c d6 be f1 9a a9 be b6 cc 54 bb
       0.46425912 -0.41830876 -0.33126023 -0.003247065
000030 d9 58 4d 3f b7 13 13 3d 28 d2 c4 bd 53 56 e3 3e
       0.80213696 0.035907473 -0.096103966 0.44401798
000040 fe b6 44 3f 1b 80 54 3f 93 71 ad 3d 1d fa 39 3f
       0.76841724 0.83007973 0.08468928 0.7264727
000050 dc 37 91 3e 7c 8d 12 be 9a ce cd 3e f5 70 4a bf
       0.2836293 -0.14311785 0.40196687 -0.7907861
000060 8f 7b 53 3e e9 7e 13 be 76 16 40 3f b7 d5 00 bf
       0.20652603 -0.14403881 0.7503427 -0.503261
000070 7f 5e 37 3e 69 c9 15 3f
       0.17907141 0.5851045

nn_fun2.2.weight f4 [30, 30]
000000 f1 13 2c bc db 7d 5e bd 88 3e 76 3c 67 6d a0 3c
       -0.010502801 -0.054319244 0.015029557 0.019583417
000010 8a da d9 ba 01 9a 8a 3d b9 36 a0 bd ed d1 d5 39
       -0.0016620916 0.06767655 -0.078229375 0.00040782933
000020 2b ac b4 bd 87 bd 87 3d ee b4 81 3c d5 6e 4f 38
       -0.08821901 0.06627946 0.015833344 4.9455866e-05
000030 2b 33 2c bc 00 8b bd 38 e7 d8 51 ba 13 6e 53 bc
       -0.010510246 9.038113e-05 -0.0008005038 -0.012904662
000040 f5 ef 9c bd 8f bf 90 3d 50 d0 cd bb 8b 6d 93 3b
       -0.07662956 0.07067787 -0.0062809363 0.0044991425
000050 50 0f b9 3b aa 2a 07 bc 71 ab 59 3d da b2 da 3c
       0.0056475773 -0.008249918 0.053142015 0.026696611
000060 5b 0f 02 3d 1d fc ac 3c 2e be 8d bd 33 cd 37 3d
       0.031752925 0.02111631 -0.069210395 0.044873428
000070 07 bc fb 3c 57 18 cf 3c 56 04 e0 bc 60 52 67 3d
       0.030729307 0.02528016 -0.027345818 0.056475043
000080 2c a5 bf bd c9 ce 39 be 91 54 82 3e 91 68 21 3d
       -0.09357676 -0.18145289 0.25455144 0.039406363
000090 66 39 e4 3d bc 23 0c be 05 3c 7a bb 8e 9d 1f 3e
       0.111437604 -0.13685507 -0.0038182747 0.15587446
0000a0 38 ac f9 bd 52 90 48 bc 89 9e 05 bc 12 75 d5 bd
       -0.12191051 -0.01224144 -0.0081554735 -0.1042272
0000b0 29 b3 8d bd 80 b4 da bd 21 45 10 3e 45 06 1f 3d
       -0.06918938 -0.10678959 0.1408887 0.03882434
0000c0 65 68 4d bb 96 b8 4a 3d 9b b0 7a 3d 94 41 de 3d
       -0.0031342742 0.04949244 0.06120358 0.10852352
0000d0 07 bf e1 3d d2 47 44 3e 57 8f c5 3c aa 96 32 be
       0.11022764 0.19168022 0.024116201 -0.17440286
0000e0 5a ab 72 3d af 10 f0 bd 52 c5 10 bc bb b1 c5 3b
       0.059245445 -0.11721932 -0.008836107 0.00603315
0000f0 12 58 9e bd 37 2e ab 3d 63 ef 1c be 88 75 e6 bd
       -0.07731642 0.08358424 -0.15325694 -0.11252886
000100 c4 54 f8 3d 23 11 59 3d 1f 07 9c bc bb 0f f5 bd
       0.12125543 0.05299486 -0.019046364 -0.11965891
000110 0e f5 3f 3e 57 32 0d 3e 36 07 4f 3d ef 5e 0e 3c
       0.18745825 0.13788734 0.050543986 0.008689626
000120 67 ff 25 3e 7d 55 57 bd b6 e0 39 3d 8c 3a 95 bd
       0.1621071 -0.052571762 0.045380317 -0.072865576
000130 31 93 30 3e c8 3a f7 bd 0a 79 05 3e 5a b9 05 bd
       0.17243649 -0.120717585 0.13034454 -0.03264747
000140 ad 57 38 3e 67 c7 b7 3d d6 9f 2f 3c 70 65 0f be
       0.18002196 0.0897358 0.01071926 -0.14003539
000150 03 4d ed 3c b6 3e 62 bd 32 8a 79 3e 4f 84 88 3b
       0.028967386 -0.055235587 0.24369124 0.004166163
000160 9d e2 57 3c fc 7c 5b bd 8a 26 48 be c1 e0 cd bb
       0.013176587 -0.05358599 -0.19545951 -0.0062828963
000170 c0 c8 29 be 42 06 a9 3d 2e 29 40 bd 10 79 81 bd
       -0.16580486 0.08253147 -0.046914272 -0.06321919
000180 40 d3 03 be a3 d0 b9 3c 1c 14 18 3d 5f 19 64 3d
       -0.12873554 0.022682494 0.037128553 0.05568826
000190 ec b7 99 3d c2 69 a8 3a 3e 51 09 3d 6a 3a 6c bb
       0.075057834 0.0012848901 0.033524744 -0.003604556
0001a0 28 44 79 3d 98 9b e0 bd da f9 53 bd 3a ba 33 3d
       0.060856014 -0.10967177 -0.05175195 0.04387877
0001b0 9c a2 2d bd a5 03 ee bd dc ba d7 bd 09 0f a3 3c
       -0.042391405 -0.11621789 -0.105336875 0.01990463
0001c0 53 d8 bf ba 0e 7b 8d bd 42 f0 4d 3d 23 3e f4 3c
       -0.0014636613 -0.069082364 0.050277956 0.029814785
0001d0 46 4b 4a 3d 96 a1 a0 3c 51 f4 64 3b 75 07 be 3d
       0.049388193 0.0196083 0.0034935663 0.09278766
0001e0 a7 9b 10 be 78 c2 ca 3d eb 15 ba 3d 63 43 76 bd
       -0.14121877 0.09900373 0.09086212 -0.06012286
0001f0 04 bc df bd 11 4a 62 3d c0 ef 98 3d 4f 30 48 3d
       -0.10924533 0.055246416 0.07467604 0.048874196
000200 b0 ed 08 be dd fa 8c 3d 94 24 ce bd 93 35 48 ba
       -0.1337192 0.06883786 -0.100655705 -0.0007637378
000210 f5 b6 9d bd f3 41 8f bd 46 b1 58 bd 4e 15 e9 3d
       -0.07700912 -0.06995001 -0.052903436 0.11381017
000220 e7 83 4b 3e 5b a4 a7 3d 86 d9 18 be 47 4d 15 3d
       0.19874536 0.08185645 -0.14926729 0.03645065
000230 24 15 1f bd 60 0e d4 bd 82 b1 9e 3d 5c 33 42 3d
       -0.03883852 -0.10354304 0.07748701 0.04741226
000240 6d 78 80 bd 1e bd b5 bc 6d 01 0a be d2 97 53 bc
       -0.062729694 -0.022184905 -0.13477106 -0.012914615
000250 b9 99 2f 3e 92 ad 23 bc c7 52 f9 3d ea 35 a3 3c
       0.17148484 -0.009990113 0.12173992 0.01992317
000260 8b ac 80 3d f1 5d a1 bd 05 ca 45 bd 9b 14 cf 3c
       0.0628291 -0.07879246 -0.048288364 0.02527838
000270 dc 6b fc 3c 66 73 1f 3c 6d 2b 70 bc 60 8f 00 3e
       0.03081315 0.009732103 -0.014658791 0.12554693
000280 2e 5f e8 3d 12 f4 db 38 c1 f9 67 3c 6f dc 8d bc
       0.11346279 0.000104881954 0.014158667 -0.017317025
000290 b7 f8 0b be 3a 79 ab 3d a9 2a 0f bd e0 00 08 bc
       -0.13669096 0.083727315 -0.034952793 -0.00830099
0002a0 29 62 94 bd c7 ad 81 3b 99 03 1f 3d 65 c8 96 bd
       -0.07245285 0.0039574835 0.03882179 -0.07362441
0002b0 33 e8 22 be 16 75 c0 bd ac d7 af bc a5 d6 ae 3d
       -0.1590889 -0.09397332 -0.021465145 0.08537034
0002c0 e5 43 be bd b5 36 6b bd fc 92 06 3e cc 8d 36 bd
       -0.092902936 -0.05742522 0.13142008 -0.04456882
0002d0 94 95 0a 3d 48 94 f8 3d 68 ad c0 3b 1b f3 46 be
       0.033834055 0.121376574 0.0058800466 -0.19428675
0002e0 1d 11 e4 3d 30 a3 d9 3d d0 c3 fc 3c e1 4d f3 bc
       0.111360766 0.10626829 0.03085509 -0.029700221
0002f0 fb 91 92 3d 56 9c 5b 3d cf 65 12 3d 30 2a a4 3c
       0.0715675 0.05361589 0.035741623 0.020039648
000300 fd 58 33 3d 1c e8 2a bc cb a3 34 3d fb c7 b7 bd
       0.043786038 -0.010431316 0.044101518 -0.0897369
000310 19 e9 b7 3d 4e 4a 00 3e 02 46 b0 bd 6d 22 22 be
       0.08980007 0.12528345 -0.08607103 -0.15833445
000320 3d 52 93 bd fc ed b7 3d c7 3d 18 be f6 4a 9a 3d
       -0.0719342 0.08980939 -0.14867316 0.07533829
000330 22 21 c4 3c a0 60 81 bc 12 7e 01 3d 25 32 2b 3d
       0.02394158 -0.015793145 0.03161437 0.04179587
000340 fa 61 13 bc 55 d9 0f bd ef 2a a3 bb b5 20 9c bb
       -0.008995527 -0.035119373 -0.0049794833 -0.004764641
000350 0c 2f a5 bd 1a c0 5d 3d be a8 c9 3b 30 44 6f 3d
       -0.08065614 0.05413828 0.006154149 0.058414638
000360 b0 44 22 3d ba 07 85 ba 00 5d be bd 68 db e8 3c
       0.039616287 -0.0010149397 -0.09295082 0.028424934
000370 e5 9b 11 bc 83 b3 a4 b9 7a 13 6d 3d b2 4a 24 ba
       -0.008887266 -0.00031414264 0.057879902 -0.0006267234
000380 fd 3d 41 bc 7e 6e 5d bd 29 e4 f8 bc be b1 5c 3d
       -0.011794564 -0.05406045 -0.030382233 0.053880446
000390 9c 76 13 3b 3e 81 5b 3d 51 9f 0e bd 53 0e 6f ba
       0.0022501117 0.05359005 -0.034819905 -0.0009119261
0003a0 d0 e3 8b bd 54 30 3a 3d ef 2c 12 3c 47 01 3c bc
       -0.06830561 0.045456246 0.008921846 -0.011474914
0003b0 f9 07 1b bd e9 dc 8c 3d fc e1 eb bc 33 61 8c 3d
       -0.0378494 0.06878073 -0.028794281 0.06854477
0003c0 f1 63 eb bd d4 78 9e bd b6 3c f0 3d 41 75 0e be
       -0.11493672 -0.0773789 0.1173033 -0.13911916
0003d0 57 49 38 3b c4 36 d8 bd e8 16 b4 bb f1 e9 5c 3d
       0.0028119886 -0.10557321 -0.0054958947 0.05393404
0003e0 d1 11 47 3e f8 84 e5 bc 10 cd c1 3d 55 d0 b8 3a
       0.1944039 -0.028017506 0.09462941 0.0014100174
0003f0 d8 2e e0 bc 4a 54 be 3d 62 57 c6 3d b4 90 ec bd
       -0.027366087 0.092934206 0.09684636 -0.115510374

nn_fun2.2.bias f4 [30]
000000 85 07 2c 3d 2d 16 be 3d c8 76 e2 3d e0 ae e3 3d
       0.04199936 0.092815734 0.11057812 0.11117339
000010 85 bb 5f bc 67 11 83 3c 34 7b f6 bd 8e 82 ce 3c
       -0.013655548 0.015999509 -0.12035218 0.025208738
000020 d0 7b 63 bc 09 89 b0 3b ab 38 98 3d 25 ae 96 bd
       -0.0138845 0.0053874296 0.074326836 -0.07357434
000030 95 eb 72 bd a2 9b d6 bc 52 c2 14 be ab cb c4 bd
       -0.0593067 -0.026197258 -0.14527252 -0.09609159
000040 a2 35 eb bc 2e 0a d7 bd 29 1f 8b 3d 8b 43 64 3d
       -0.028712098 -0.104999885 0.06793053 0.055728476
000050 57 11 00 be f1 2f 91 bd e6 9f de 3d 3b f4 17 be
       -0.12506615 -0.07089222 0.10870342 -0.1483926
000060 b3 5e ce 3d 76 c8 7d 3d 45 cf cb bd 44 a9 17 3d
       0.10076656 0.061958753 -0.09951643 0.03702666
000070 0a 1f 42 bd 32 1f b9 bd
       -0.047392882 -0.09039153

agg.0.weight f4 [1, 30]
000000 70 1c 22 bb 1c 50 9d 3d 1c 87 76 bd 25 17 07 3c
       -0.0024736188 0.07681295 -0.060187444 0.008245264
000010 ac 39 dd 3d ba 0d 9d 3b 54 ec 45 bd a9 cd 65 bb
       0.10802016 0.004792896 -0.048321083 -0.003506521
000020 59 61 f4 bb 0f 22 92 bd 0f c5 a1 3a 38 d8 ed bc
       -0.007457894 -0.071354024 0.0012342053 -0.029033765
000030 22 1c 83 ba 5e df bc bb 5a 56 82 bc 59 0b 20 bc
       -0.0010002891 -0.005763932 -0.015910316 -0.0097683305
000040 65 f6 58 bb a6 0a c0 bc bf be 19 ba 61 b1 e4 bc
       -0.0033105847 -0.023442578 -0.000586491 -0.027916612
000050 9d 49 de 3b 35 37 72 3c dc f3 ad 3c 44 ca 69 bd
       0.0067836777 0.01478367 0.021234445 -0.05707766
000060 50 67 01 bd 2a 7d 20 3b 10 d1 1f bd b3 52 bf 37
       -0.031592667 0.0024488666 -0.039017737 2.2807484e-05
000070 19 6c 03 3e 1c f2 3f 3c
       0.12834205 0.011715438
