multiple_model_analysis/results/er_experiment_MM_size_10_28_alpha_0_scale_100_dynwght_False_std_reg_1.0_equiv_reg_0.0/neural_network.pth (torch, 16501 bytes, 14 tensors)

g.0.weight f4 [30, 1]
000000 d5 42 77 3e 6e 42 40 bf cc 35 61 3d af 6e d6 3d
       0.24146588 -0.75101364 0.054982945 0.1047033
000010 0d 64 7a 3f 63 56 1f bc 38 62 5d 3f 89 c8 b7 bd
       0.97808915 -0.009725186 0.86477995 -0.08973796
000020 5c a3 52 bf 43 30 d3 3e fd e2 d6 3c 59 f1 64 3f
       -0.82280517 0.41247758 0.026231283 0.8943077
000030 ec 9c 90 3f 47 02 b6 bf 04 79 3e 3f fa a9 1d bf
       1.1297889 -1.4219445 0.74403405 -0.6158749
000040 50 62 11 bf 96 a8 2e bf d3 df ba bc 40 7d b4 bd
       -0.5679064 -0.6822599 -0.022811806 -0.08812952
000050 83 40 8e 3f c0 8e b6 be ad 9b 86 be 49 f8 79 3f
       1.1113437 -0.35655785 -0.26290646 0.9764448
000060 b8 26 5b bf ee 0f 0b be a1 bf 40 3e 62 46 82 bf
       -0.85605955 -0.13580295 0.188231 -1.0177729
000070 15 3d 13 3f e6 c2 76 be
       0.5751508 -0.24097785

g.0.bias f4 [30]
000000 07 bd 9b be 6d 6a 45 bf fc 96 cc be b4 a0 e0 3b
       -0.30417654 -0.7711552 -0.39958942 0.006855095
000010 7a 35 32 be ed 5f 02 3f a6 ce 28 3e f7 ce 33 bd
       -0.17403212 0.5092762 0.1648508 -0.04389855
000020 2e 26 04 be 9e 66 ac bd f4 58 57 bf 5e 9a 2a 3e
       -0.1290519 -0.0841801 -0.84120107 0.16660449
000030 e7 5c c0 be e7 c6 37 3f 91 15 1d bc ca 5d 36 3f
       -0.3757088 0.71787876 -0.009587661 0.7123686
000040 b6 22 e8 3d 05 05 11 3f 1c 13 6e 3b ac 75 6b 3e
       0.113347456 0.56648284 0.0036327308 0.22994107
000050 57 c8 af bd 46 bb 2b bf b1 a1 84 3e 93 4f d0 bd
       -0.08583134 -0.6708263 0.2590461 -0.101714276
000060 93 fc 11 be d8 cb e3 bd 5c c4 a5 be 48 c4 a3 3e
       -0.14256506 -0.111228645 -0.32376373 0.31985688
000070 94 3d 2d 3f 9f f2 d0 3e
       0.67672086 0.40810105

g.2.weight f4 [30, 30]
000000 2e 64 02 be ae e9 b3 3d 6b a5 2f 3e a1 83 d0 bd
       -0.12733528 0.08784805 0.17152946 -0.10181356
000010 0b fd c1 3d fb 5c 0f 3e ca 81 1c 3e 97 e3 48 bd
       0.09472092 0.14000313 0.15283886 -0.04904517
000020 0a 5c a8 3d bd f7 1a 3e d5 4b 29 be 38 0f b9 3d
       0.0822068 0.15133567 -0.16532834 0.09036106
000030 62 f7 03 3e 55 b8 1a be d4 37 d7 3e 92 09 23 be
       0.12887338 -0.1510938 0.4203478 -0.1592162
000040 b9 a3 19 be 74 ac b4 3d 35 dd 46 bd 04 43 ba 3c
       -0.15003861 0.08821955 -0.048550803 0.022737034
000050 18 d8 f2 3d ff 83 27 be 64 ba c9 3c 9a a5 81 3e
       0.11857623 -0.16358946 0.02462501 0.25321656
000060 07 55 0a 3c e0 b1 4a 3d 33 c7 3e 3c 30 cc ae bd
       0.008443124 0.04948604 0.0116441725 -0.085350394
000070 45 66 03 3e ea 3a d4 3d b5 63 10 be b1 16 ce bd
       0.12831981 0.103627995 -0.14100535 -0.10062922
000080 81 68 30 3e 22 e8 e1 3d 5d 50 f3 3d a9 c2 27 3d
       0.17227365 0.11030604 0.118805625 0.040957127
000090 40 13 d6 3d 06 da 37 3d 2c 4b b8 bd bd f0 05 3d
       0.104528904 0.044885658 -0.08998713 0.03270029
0000a0 f1 22 f6 bd 97 1e 8e bd b9 7f 83 bc b2 4a 2f 3d
       -0.12018383 -0.06939428 -0.016052114 0.042795844
0000b0 52 9f 04 3f a1 d3 08 3e 85 9b 3a bc c2 04 40 3d
       0.51805604 0.1336198 -0.011389618 0.046879537
0000c0 b9 2f 39 bd f0 56 01 be b9 54 51 3e 89 75 0a 3e
       -0.045211527 -0.1263082 0.20442475 0.13521399
0000d0 a3 16 22 be 1b 4a dc 3d ce 4a 91 bd c6 6d 30 be
       -0.15828948 0.10756322 -0.07094346 -0.17229375
0000e0 91 8c d3 bd 00 fb 46 be d7 8b cf bd 3e d3 25 be
       -0.10329545 -0.19431686 -0.10134094 -0.16193864
0000f0 6a e8 1e bc ca 98 31 3e ce 4a 83 bd c6 ba b4 bc
       -0.0096989665 0.1734344 -0.06410752 -0.022061717
000100 86 8a b8 bc d8 7d 10 3d 75 62 61 be 40 bd 9b bd
       -0.02252699 0.035276264 -0.22010215 -0.07604456
000110 05 2a 31 3b 49 74 0b bd 97 88 a3 bd 2a 7a 05 be
       0.0027033102 -0.034046445 -0.07985037 -0.13034883
000120 9a b3 85 3d e4 5b 47 bd df a4 ea be b2 3e c3 bd
       0.06528397 -0.048671618 -0.45828912 -0.095334426
000130 cf 04 89 bc d4 f6 b9 bd 2b 5b 00 3e e1 c4 b6 bd
       -0.016725926 -0.09080282 0.12534778 -0.089242704
000140 cf ae 55 be 50 ea a9 3d f5 de 13 3e 09 64 40 be
       -0.20867465 0.08296645 0.1444052 -0.1878816
000150 2b 51 03 3e 0a 67 43 3e fd 79 b6 bd 01 49 9c bd
       0.12823932 0.19082275 -0.08909986 -0.07631112
000160 71 e5 1a bd 43 29 8e bc ce 82 fe bd 32 12 41 bd
       -0.03781647 -0.01735366 -0.12427293 -0.047136493
000170 c0 6f 11 3e ec a8 b7 bd 76 35 81 3e e2 0b 0b be
       0.14202785 -0.08967766 0.252361 -0.13578752
000180 4e 8a 2a bd 0c dd 21 be d2 46 9e bd bf 13 51 bd
       -0.041635804 -0.15806979 -0.07728352 -0.051044222
000190 37 7f 05 be d9 86 40 3e 8c 7e 96 3d bd da b7 bd
       -0.1303681 0.1880144 0.07348356 -0.08977268
0001a0 c2 d0 0e 3f fc 28 e6 3d 63 96 1f be fd d5 14 3e
       0.5578729 0.11238286 -0.15584712 0.14534755
0001b0 48 33 a4 bd 4f 32 0d be 5b 48 47 3e 8f 84 5c bd
       -0.080175936 -0.13788722 0.19461195 -0.053837355
0001c0 42 b3 72 bd 1a 7c 5a 3e 1a 3f a8 bd 9a fc c1 bc
       -0.059252985 0.21336403 -0.08215161 -0.02368002
0001d0 1b 24 b2 bd a9 e6 f5 3d 9f 44 8e bd c5 55 0f be
       -0.08698293 0.120068856 -0.06946682 -0.13997562
0001e0 1f e6 e4 3d 9a 2d 2a 3d c6 e1 50 3d b8 10 ae bc
       0.111767046 0.041547395 0.050996564 -0.021248206
0001f0 5f 40 4d 3e 24 ce 7b 3d ea 61 15 bd de 36 cb bd
       0.20044087 0.061475888 -0.03647033 -0.099225745
000200 66 f0 56 be e7 13 25 3e ff 51 29 3e a4 82 82 3d
       -0.20990142 0.16120873 0.16535185 0.06372574
000210 7b 46 42 3e dc 24 ed bd 9d 26 15 3f 62 0f 10 be
       0.18972199 -0.11579296 0.58262044 -0.14068368
000220 a7 e8 61 bd 3c 2a 27 3d 3a ad e1 bd 21 9e f3 3c
       -0.055153515 0.040811762 -0.110193685 0.029738488
000230 02 a2 92 3e 8b 1a ca 3d 77 6f 82 bc aa f8 bc 3e
       0.28639227 0.09868344 -0.015922291 0.36908466
000240 dd f0 15 3d 8b 07 8e bd f0 6d ef bd 1f d9 16 3d
       0.03660666 -0.069350325 -0.11690891 0.036828157
000250 f8 ff 30 bd 3d 2d a4 3b 8b 4c 1f 3e 26 c7 b6 bd
       -0.04321286 0.0050102756 0.15556543 -0.08924703
000260 37 ce 34 3d 52 7c 88 bd b5 4b 69 3d ad be 83 3b
       0.044141974 -0.06664337 0.056956965 0.004020533
000270 2d ca 3f bd 55 03 0c 3e 64 2d 1f 3e 3d 81 88 bd
       -0.04682367 0.13673146 0.15544659 -0.06665275
000280 d0 4b 1a 3e 7b f1 ab 3c 37 74 9f bc b1 bf 7d 3d
       0.15067983 0.02098917 -0.019464595 0.06195039
000290 8b ec ac be 4a 9a 18 3e 87 49 35 3e e6 16 d2 3d
       -0.33774218 0.14902607 0.1770383 0.10258274
0002a0 44 87 a3 bd cf 1b 2e be d5 89 12 be cb 4c 3a 3e
       -0.07984784 -0.17002796 -0.14310391 0.18193357
0002b0 11 da 7e bd b1 0d 43 be 25 32 ac 3d e6 e9 a3 bd
       -0.062219683 -0.19048192 0.08408002 -0.08003597
0002c0 9a e5 b3 bd b1 6f b2 3d fc 7c d5 3c 34 cf 30 3d
       -0.087840274 0.0871271 0.026060574 0.043166354
0002d0 ed 2f 96 3c e5 bc 13 be 27 80 39 bd 2b 9d 3a 3d
       0.0183334 -0.14427526 -0.04528823 0.045560043
0002e0 f5 7b 75 3e f3 95 1c bd cd 56 09 3e c0 4c 00 be
       0.23973067 -0.03822894 0.13412018 -0.12529278
0002f0 96 65 9f 3d 1a 2a 2c 3e 9e b7 39 3e 6f 29 63 bd
       0.07783048 0.16812935 0.1813645 -0.055459436
000300 eb 58 82 bd 01 fe b7 bd aa 24 2f 3e b1 a3 05 3c
       -0.06364616 -0.08983994 0.1710383 0.008156703
000310 e4 c1 d1 bc 57 41 77 3c 81 9a 1d bd f2 d2 20 be
       -0.02560515 0.015091262 -0.038477425 -0.15705469
000320 5b e9 52 3e ec 79 b7 bd f2 53 00 be 88 ab 55 3e
       0.2059683 -0.089588016 -0.12532023 0.20866215
000330 a8 2b ac bd 75 06 05 3e d4 21 4d bd 38 43 e2 bd
       -0.08406764 0.12990744 -0.05008109 -0.11047977
000340 c4 69 5c 3c cd cc 05 3e bb 34 88 3d 68 f1 92 3d
       0.013452951 0.13066407 0.066506825 0.07174951
000350 b4 75 37 bc 1f 56 28 3e 09 19 b4 3d b4 80 1c 3e
       -0.011197496 0.16439103 0.087938376 0.15283471
000360 35 fc af 3d 76 c6 d6 bc 4c 77 74 3c 44 84 38 3d
       0.085930265 -0.02621768 0.014921021 0.045048013
000370 37 2b 69 bd c5 4d af bc cd 4e 16 3e f6 66 9f 3d
       -0.05692598 -0.021399388 0.14678498 0.0778331
000380 98 3e 3f 3e 2a d5 23 3e a3 19 50 bd 88 f8 1f be
       0.18676221 0.15999284 -0.0508057 -0.15622151
000390 58 21 05 3e d5 c5 7a bd a5 9d 87 3e 6f fc 25 3d
       0.13001001 -0.061223824 0.2648746 0.040523943
0003a0 1d 43 3b be e6 d5 5b 3e 2d eb 41 be 3a e3 b2 3d
       -0.1828732 0.21468315 -0.18937369 0.08734746
0003b0 bb 1b 0a be ab c1 49 3d 7b f4 de 3d ca 06 50 bc
       -0.13487141 0.04925696 0.10886475 -0.012696931
0003c0 d7 28 23 be 8b 05 0f 3e 94 38 0b 3d 37 f4 88 bd
       -0.15933548 0.13966958 0.033989504 -0.06687205
0003d0 b7 30 d0 3d ff 84 0c 3e 49 93 74 3e 0e fc 04 be
       0.101655416 0.13722609 0.2388431 -0.12986776
0003e0 45 e6 af bd 48 85 31 3d d8 95 37 be d5 ff 17 3e
       -0.08588842 0.043339998 -0.17928255 0.14843686
0003f0 ed f3 33 3e 25 eb 14 be 45 86 e8 3e b4 71 1a be
       0.17573519 -0.14542826 0.4541494 -0.15082437

g.2.bias f4 [30]
000000 6f f1 b4 bd b4 ef 66 3d 10 b4 29 be fb c3 d8 3d
       -0.08835112 0.056380942 -0.16572595 0.10584255
000010 b9 c5 be 3b ad 9b 89 3c ba 78 d2 3d 80 94 a7 bd
       0.00582191 0.016797865 0.10276933 -0.08182621
000020 6c 01 25 bd dd b1 4e 3d c2 e0 07 3e 0e ed 4e bc
       -0.04028456 0.050462592 0.13269332 -0.01262976
000030 72 d0 fc bd 20 a8 03 3e 3c e8 24 be 62 9a 04 be
       -0.12344445 0.12857103 -0.16104215 -0.12949517
000040 55 4c 82 3d 77 54 0d be ed c3 8c 3d 15 e2 8b bd
       0.063622154 -0.13801752 0.068733074 -0.06830231
000050 84 5b 12 bc 20 80 0e 3d 08 dc d8 3d 5d 49 c6 bd
       -0.008932952 0.03479016 0.10588843 -0.09681962
000060 ec 7e c6 bd 29 64 13 be 37 30 04 be 44 54 48 bd
       -0.09692177 -0.14393677 -0.12909018 -0.048908487
000070 cd f7 61 3d ba 4a 2f 3e
       0.055167962 0.1711835

g.4.weight f4 [1, 30]
000000 8d bc 06 be a2 d0 23 bd 43 9a d1 3d ef f2 0e be
       -0.13157864 -0.03999389 0.10234501 -0.1395986
000010 31 63 74 bd 78 53 23 3d e0 fb a7 bc 1c b2 bc bc
       -0.05966491 0.039874524 -0.020505846 -0.023034148
000020 9d 80 11 be 8a f0 b9 bd 2d 0b 82 bd 54 23 88 3d
       -0.14209218 -0.09079082 -0.06349788 0.06647363
000030 9c 1f 44 3d db c4 d7 3d 32 59 98 3d 60 4a c8 bd
       0.047881708 0.10535594 0.07438888 -0.09779811
000040 b2 c6 2d be 3e 11 26 be 15 93 05 bd ca 7f a3 bd
       -0.16970327 -0.16217515 -0.03261097 -0.07983358
000050 23 47 e2 3d b2 47 4a 3d 2a 69 0a be d2 b0 14 3e
       0.110487245 0.04938478 -0.1351668 0.14520577
000060 ce 7c 7f 3d 60 b3 0c 3e bf dd 0b 3e e0 35 82 be
       0.062374882 0.13740301 0.13658808 -0.25431728
000070 62 0e 8d bd ae 1b 1a 3e
       -0.06887509 0.15049621

nn_fun1.0.weight f4 [30, 1]
000000 5d 55 94 3e 75 91 f2 3e 09 7b a2 3c 92 49 92 3e
       0.28971377 0.473766 0.019834058 0.28571755
000010 af 47 33 be 9c 39 50 3e 91 8f d6 be 37 a1 3d be
       -0.17507814 0.20334476 -0.41906407 -0.1851853
000020 c7 7f 9d bc 94 c8 12 bf 36 e5 b9 3e 35 fb ea be
       -0.019225968 -0.5733731 0.36307687 -0.4589478
000030 14 60 9b 3e 33 34 97 3e 7d 80 0d be 51 9b b5 3e
       0.3034674 0.29532012 -0.13818546 0.3547006
000040 f2 74 ea be 4e b6 05 3f 75 24 d2 be 15 61 0a bf
       -0.45792347 0.522313 -0.4104344 -0.54054385
000050 95 7d 1b bf 5e b0 db 3e 05 92 81 be c4 d8 5d 3f
       -0.607385 0.42907995 -0.25306717 0.86658883
000060 0d 26 ca be f6 20 5a 3f 6c 6a 7a bf de 44 71 bf
       -0.39482155 0.85206544 -0.97818637 -0.9424571
000070 6a 44 59 bf 56 0e 0a 3f
       -0.84870017 0.53928125

nn_fun1.0.bias f4 [30]
000000 8b 59 cc be 1e ad d6 3e 13 25 17 be ef 10 a9 3e
       -0.39912066 0.41928953 -0.14760236 0.33020732
000010 39 dc 07 bf d6 77 e3 be 62 4d 39 be 84 16 8d 3e
       -0.5307041 -0.44427365 -0.18095925 0.2755624
000020 61 7e 0b bf 46 62 86 be 5e d1 09 bf 9b 1d 8f 3e
       -0.54489714 -0.26246852 -0.53835094 0.27952275
000030 b9 94 02 3f 26 3f 3e 3f f6 6c c8 bd e8 a7 18 3f
       0.5100818 0.74315107 -0.09786408 0.59631205
000040 a4 92 fb be 45 ac 9f be a2 8c e8 3e 0f 2c 9a be
       -0.49135315 -0.3118612 0.45419794 -0.3011174
000050 2b 8e 29 3e f2 4a 21 bf c9 37 c4 3e 01 0b 4f bf
       0.16558139 -0.6300498 0.3832381 -0.80876166
000060 0b a9 1f 3f 20 fe d9 bb d5 20 bd 3e a1 07 cd 3e
       0.62367314 -0.0066526085 0.3693911 0.40044883
000070 3b ff 88 3e a4 8e 8d 3e
       0.26757225 0.2764789

nn_fun1.2.weight f4 [30, 30]
000000 93 07 69 ba 9a 99 f4 bb 86 0a ca ba b9 2d 48 b9
       -0.0008889373 -0.0074646 -0.0015414513 -0.0001909052
000010 10 51 91 bb 2f 3a 89 bb 41 a3 ff 3a 8f bd aa ba
       -0.004434712 -0.004187844 0.001950361 -0.0013026464
000020 0f b8 11 b8 2e 7e 0c 3b a1 93 13 bc 36 4c b4 3a
       -3.4742112e-05 0.0021437514 -0.009007365 0.0013755623
000030 5a 10 7c 3c 49 8d 6c bc 34 d8 28 b8 2f fe c2 3b
       0.015384758 -0.014437982 -4.0255676e-05 0.005950711
000040 d2 ea 82 3b 79 30 bc bb 6d be b0 3a 82 e7 af 3a
       0.003995278 -0.005743083 0.0013484486 0.0013420435
000050 eb e7 b3 3a ab e4 68 3c 34 42 95 bb 1b 6d 69 bb
       0.0013725733 0.014214675 -0.004555011 -0.003561801
000060 11 f2 86 3c d6 8e 20 bb 8f 28 16 3c 96 a3 47 3b
       0.016472848 -0.00244992 0.009164943 0.0030462495
000070 d8 71 23 3b 7d 3d 72 3b 44 a2 03 3e 52 4c c6 b8
       0.0024939682 0.003696292 0.12854868 -9.4555915e-05
000080 ce 5f 81 bd 51 2e 33 bd 5d 33 01 be aa 96 14 3e
       -0.063171014 -0.043745343 -0.1261725 0.14510599
000090 ce f0 8e 3d e5 7b ae 3d 62 6c f8 bd fa f7 a3 bd
       0.069795236 0.08519725 -0.121300474 -0.08006282
0000a0 e2 9e e1 3c b2 2b c5 3d 44 5e bc 3d 04 e0 f0 bd
       0.027541582 0.09627475 0.09197667 -0.117614776
0000b0 89 15 11 3d 91 87 55 bd 31 9e ce bd 69 71 29 3d
       0.03542093 -0.05213124 -0.10088766 0.041367922
0000c0 33 90 76 bd 85 f2 0c be 0d fe 20 bd 68 2b 0c be
       -0.060196113 -0.13764389 -0.03930478 -0.13688433
0000d0 9e e0 c9 3d 02 ba f6 bd 27 5b 33 3d 92 d5 22 3d
       0.098572955 -0.12047197 0.0437881 0.039754458
0000e0 b1 cb da 3d c6 c9 28 be d2 03 45 bd ec 4d ab bd
       0.10683382 -0.1648322 -0.048099346 -0.08364472
0000f0 ef f8 11 3d 07 27 a5 3d 42 42 99 3b 1e ca e2 3b
       0.035637792 0.080640845 0.004677088 0.006921067
000100 b1 ee f8 3c 24 69 ad bd 98 38 86 3c a5 b9 9b 3c
       0.030387254 -0.084673196 0.016384408 0.01900942
000110 54 ff c1 bd c5 b3 1c 3c 58 ae f2 3d 85 16 cc 3d
       -0.09472528 0.009564345 0.1184966 0.09965233
000120 6a 73 b8 bd 0b c8 50 3d 9f ca c8 3b 38 49 9c 3c
       -0.090063885 0.050972026 0.00612767 0.019077882
000130 22 9d 61 bd 75 dd d6 bc 03 ca b9 3c 41 e1 ba 3d
       -0.055081494 -0.026228646 0.022679335 0.09124995
000140 a6 e5 80 bb c5 3d 3f 3d 50 41 fd 3b 65 cb fc 3d
       -0.003933626 0.046689767 0.007728733 0.12343482
000150 56 5f e2 3d 3e 62 75 bc 97 aa 74 bd 36 62 6d 3c
       0.1105334 -0.014977036 -0.059733 0.014488747
000160 39 b6 33 3d b1 d4 f9 bc f6 90 a9 bd 37 12 a0 3d
       0.043874953 -0.030496927 -0.08279602 0.07815974
000170 30 8d 21 3e eb 97 5a bd d1 d5 1a be 1f d5 34 3d
       0.15776515 -0.053367537 -0.15120627 0.04414856
000180 d1 01 a7 bd d1 60 e4 3d 34 43 1b 3e 2e 6b 12 3e
       -0.08154643 0.11151279 0.15162355 0.14298698
000190 69 6b 10 3d e0 10 84 bd 5f f5 b2 3d da 75 77 3d
       0.035258684 -0.06448531 0.08738207 0.060415126
0001a0 24 94 b3 3d 44 f2 15 3e 43 f7 fb bc e7 c5 66 3d
       0.0876849 0.14643198 -0.030757552 0.056341078
0001b0 23 10 40 3d 1a 8b 84 bd 9b 04 8c bd 97 d0 e7 bc
       0.04689039 -0.06471844 -0.06836816 -0.028297706
0001c0 1d 85 1f 3e 34 fd b3 bd 4e b8 e9 bd 2c 53 fa 3d
       0.15578122 -0.08788529 -0.114121065 0.12222895
0001d0 2b f8 f2 bd e3 e1 0f 3e 0c 8c ff 3d 6d d6 02 be
       -0.118637405 0.14051013 0.12477884 -0.1277711
0001e0 82 d0 34 3d 26 52 17 be 03 bd 60 bd d7 1b 96 3d
       0.04414416 -0.14777431 -0.054867756 0.07329529
0001f0 3f 0a d3 bd 2a ce 76 3d b8 c1 3f 39 24 0b c8 3d
       -0.10304689 0.060255207 0.00018287345 0.0976775
000200 96 a1 9c 3c 03 da 4f bd 70 c8 66 bd 65 bd c6 bb
       0.019120019 -0.05074502 -0.056343496 -0.006065058
000210 6d 35 d0 bb ae 70 8e 3d c5 f5 c2 3c c1 59 08 3d
       -0.006354025 0.06955086 0.023798833 0.03328872
000220 81 4a 07 3e b5 c4 c4 3c a0 ec b2 3d 66 37 ca 3d
       0.13212015 0.024019578 0.08736539 0.09873848
000230 74 7e bf 3d 38 43 b3 bd 4e a8 b3 bd 06 0f 27 3c
       0.09350291 -0.08753055 -0.08772336 0.010196453
000240 82 34 41 bd 3c c4 20 bd ef bd 9e 3b 65 0d f1 bc
       -0.047169216 -0.039249644 0.004844419 -0.029425332
000250 77 68 69 bb f8 1e ce 3c 34 d0 d2 bb df d4 05 3d
       -0.0035615244 0.025161251 -0.006433511 0.032673713
000260 0e 24 fd 3d f9 de 93 bd 5e 1a bd 3d a5 18 e7 bd
       0.123603925 -0.07220263 0.09233545 -0.112839974
000270 ec ac 71 bd 12 3d 0b be 91 a8 bb bc ad 20 e5 bc
       -0.0590028 -0.13597515 -0.022907527 -0.027969683
000280 e6 a5 25 bd cc 55 ef 3d 41 95 68 bd 15 35 50 3c
       -0.040441416 0.11686286 -0.056782965 0.012707968
000290 1a 2e 7f 3d 7f 8f 17 be 20 af a6 bd 3f 36 0a be
       0.062299825 -0.14800833 -0.08138871 -0.13497256
0002a0 bb a0 08 be 32 40 1a 3e c6 06 e1 3d f0 de 50 3d
       -0.13342564 0.15063551 0.1098762 0.05099386
0002b0 17 ec 06 be 9f 7f 05 be 3d 8b af 3d 20 8a 27 bd
       -0.13175999 -0.13036965 0.085714795 -0.04090321
0002c0 43 fe 01 3d 3d a5 90 bd 22 b0 ae bd dd b0 a9 bd
       0.031736623 -0.07062767 -0.085296884 -0.08285687
0002d0 3e 56 6d bd bd 6b ee 3d 74 0d 48 3d ec 8e 3c 3d
       -0.057943575 0.11641643 0.048840955 0.04603474
0002e0 e8 8d 88 3d ad c0 9c 3d 4d 75 39 3e 88 be d2 3d
       0.066676915 0.076539375 0.18111153 0.10290247
0002f0 3c c8 ee 3c 5e 49 16 3c a7 42 c3 3d 28 e0 90 3d
       0.029148214 0.009172766 0.09534197 0.070740044
000300 21 38 09 3e b5 19 9f 3c 9d 81 00 3e b0 e4 08 be
       0.13400318 0.019421438 0.12549444 -0.13368487
000310 f4 2d cd 3d 07 a8 ab bd 4a 2b 09 3e 92 f2 48 3e
       0.100185305 -0.08381658 0.1339542 0.19623783
000320 05 b1 5b 3e e7 73 c3 bd c6 3f 13 be a8 c9 04 be
       0.21454246 -0.09543591 -0.14379796 -0.12967551
000330 22 49 1f be 32 c3 b0 be 82 d1 e6 bd 5c f4 3f 3e
       -0.15555242 -0.34523922 -0.11270429 0.1874556
000340 a8 13 89 3c 9b 67 62 be 37 b0 01 be 19 fe 91 3d
       0.016733006 -0.22109835 -0.12664877 0.071285434
000350 e9 b8 b4 3d 43 22 0d 3d 31 6f cf 3d f8 77 c9 bc
       0.08824331 0.034456503 0.1012863 -0.024593338
000360 96 bb f2 3d 73 bb 22 3d c1 15 98 3d 44 f1 76 bd
       0.118521854 0.039729547 0.07426024 -0.060288683
000370 e9 77 78 bc 1c fe 0c 3e aa cb f7 bd 90 16 15 be
       -0.015165308 0.1376881 -0.12099393 -0.14559388
000380 54 3a ad bd e5 51 de 3d 04 ad c4 3d dd 63 c2 3d
       -0.08458391 0.10855464 0.096033126 0.09491704
000390 58 15 1d 3d 38 f1 96 bd f0 0a be 3d ca eb 13 3e
       0.038350433 -0.073702276 0.0927943 0.14445415
0003a0 07 f8 60 3d 6f 15 25 be 01 cd ef bb ba 57 d8 bb
       0.054924037 -0.16121458 -0.0073181395 -0.0066022547
0003b0 79 4c f6 bd a3 2c 85 bc c6 96 aa bd c1 b6 ee bd
       -0.12026305 -0.016256636 -0.08329539 -0.11655951
0003c0 22 95 b8 bd 76 1e b0 3d 54 42 79 3d f8 18 77 3a
       -0.0901282 0.0859956 0.06085427 0.0009426023
0003d0 a4 31 f9 bd 07 f7 a0 3d 79 24 3c 3d b9 67 fe 3d
       -0.12167671 0.07859617 0.04593322 0.12422127
0003e0 ef d1 88 3d b6 49 04 3e b5 f7 df 3b f0 04 45 3e
       0.06680667 0.12918743 0.006834949 0.19240165
0003f0 a4 2d 99 bd 1a 45 1b be 20 c1 f7 3d 67 e3 3b 3d
       -0.074794084 -0.15163079 0.120973825 0.045871165

nn_fun1.2.bias f4 [30]
000000 be aa 52 bc d7 a4 1a be 83 4a ec 3d 8b a5 3f be
       -0.012858091 -0.15101944 0.115376495 -0.18715493
000010 55 6e a4 bd ee 29 95 3d 28 20 79 3d 62 16 c2 3d
       -0.08028857 0.07283388 0.060821682 0.094769254
000020 c3 b5 16 3e 26 bb 04 bc 14 9b 45 3d 70 31 c4 3b
       0.14717774 -0.00810126 0.048243597 0.0059873387
000030 0e 99 e1 bb 87 d3 ee bb d4 85 4d 3d 34 a1 ce bd
       -0.0068847006 -0.0072883996 0.050176457 -0.10089341
000040 e1 87 66 3d 3b d8 e9 bd dd 9f 1a 3e 7e 01 b8 3d
       0.056281928 -0.11418196 0.15100046 0.089846596
000050 5e 71 9e bd e7 2f bf 3b 4d d6 e8 3c 11 c9 f2 3d
       -0.07736467 0.005834568 0.0284225 0.118547566
000060 96 94 84 bd b5 af 06 be 5c 98 d5 3d c1 3d 6b bd
       -0.06473653 -0.13152964 0.10429451 -0.05743194
000070 c3 41 05 3e e1 21 99 bb
       0.13013367 -0.004673228

nn_fun2.0.weight f4 [30, 1]
000000 ad 90 46 3d e4 85 ef bc 08 ab fc bc 50 97 24 bf
       0.048477817 -0.029238649 -0.030843273 -0.64293385
000010 4c 17 4e 3d 81 7c 10 be 91 40 83 be 98 b3 a5 3e
       0.050315186 -0.14109994 -0.25635198 0.32363582
000020 52 3c 94 be b1 64 2f bf de 30 07 3d 83 93 32 bf
       -0.2895227 -0.6851302 0.033005588 -0.69756335
000030 15 6d bb 3d 83 a0 23 bf 20 42 ce be 98 cb ba 3b
       0.09151665 -0.63916796 -0.40284824 0.00570054
000040 be 50 9d 3e 74 5b 31 bf f1 71 8f 3e 94 ae 15 3e
       0.30725664 -0.6928017 0.28016618 0.14617378
000050 cb d6 10 bd a8 01 cb 3c e2 a7 ae 3e 25 01 5e be
       -0.035361093 0.024781063 0.3411246 -0.21680124
000060 40 a1 cc bd 40 60 fe 3e f3 e4 a1 3d cf 65 36 3e
       -0.099916935 0.49682808 0.07904997 0.17812274
000070 42 30 3d 3e 01 f9 16 bf
       0.1847544 -0.589737

nn_fun2.0.bias f4 [30]
000000 85 40 33 be 42 76 39 3f 05 c8 75 bd 1d 6c 1f 3f
       -0.17505081 0.7244607 -0.060005207 0.6227434
000010 27 d4 43 3f f7 db 9d be 9d a7 5a bd e8 21 c4 3e
       0.76495594 -0.30831882 -0.053382505 0.38307118
000020 ee 6f bf bd 85 cf 13 bd 54 e5 c7 3e 52 47 0a 3f
       -0.09347521 -0.036086578 0.3904215 0.54015076
000030 1b 11 28 bf 50 6b ed 3e f4 76 93 be 51 53 17 bf
       -0.656511 0.46370935 -0.28801692 -0.59111506
000040 a2 75 89 3e b6 7c 24 3f ce ae be 3c 47 e8 d9 bd
       0.2684756 0.64252794 0.023276713 -0.106400065
000050 b1 7b 07 3f 00 a4 fd 3e ab d2 47 be 6b d4 2a 3e
       0.52923113 0.49539185 -0.19513957 0.16682594
000060 4c a5 00 be cf 34 77 38 ed 8b 64 bf 8f 19 24 bf
       -0.12563056 5.893857e-05 -0.8927601 -0.641015
000070 8a d3 a9 bd 8c f3 37 3f
       -0.08292301 0.71856

nn_fun2.2.weight f4 [30, 30]
000000 f3 c2 fa b8 99 04 a6 3d c8 83 93 bc d7 be cd 3d
       -0.00011957241 0.08106346 -0.018007174 0.100461654
000010 f6 0f 84 3d 86 9c 0e bd 1e 91 63 3a 58 20 3f 3d
       0.06448357 -0.03481724 0.0008680987 0.046661705
000020 c2 b1 46 3c da a7 b2 3b 35 f1 9d 3d ce 82 79 3c
       0.012127342 0.0054521384 0.07712022 0.01522894
000030 3b a3 cb 3d 17 4b e5 bc 51 3f 49 bd 45 51 90 3d
       0.09943243 -0.027989907 -0.04913265 0.07046751
000040 b5 bf b1 bb 26 f2 a0 3b b1 1b 21 39 13 5a b1 bb
       -0.0054244646 0.004911679 0.00015364472 -0.005412349
000050 e0 a9 b7 bd 06 88 d9 3b 0e f7 14 bd 7d ee 5d 3c
       -0.08967948 0.0066385297 -0.036368422 0.01354563
000060 8f b4 36 3c b5 a3 a9 39 d9 3d 9f 3d 4d 19 9b 3c
       0.011151447 0.00032356163 0.077754684 0.018932963
000070 8d 41 59 37 79 69 b5 bd 76 7f 59 3d fe 74 1f ba
       1.294947e-05 -0.08858008 0.05310007 -0.0006082802
000080 5d 98 b2 3c 16 c1 29 3d e9 f3 1a be f8 e5 1f 3e
       0.021801168 0.041443907 -0.15132107 0.1561507
000090 ab ff c0 bd 07 b2 37 3d 43 6a d4 bb 03 bc 38 3e
       -0.09423765 0.044847514 -0.006482394 0.18040471
0000a0 a0 af a1 3d f0 56 60 3d 00 2b 8d 3d a4 8c 1a 3e
       0.07894826 0.05477041 0.06892967 0.15092713
0000b0 92 06 cf 3d 8b 0e 0d 3e d9 72 c1 3d 24 02 33 bd
       0.10108675 0.13775079 0.094457336 -0.043703213
0000c0 64 ce 65 3d 7a 4b b6 bc a8 f0 00 3d 70 8d c4 bc
       0.056105033 -0.022252787 0.031479508 -0.023993224
0000d0 14 24 02 3e c1 c3 05 be a8 ba e6 3d 52 24 16 be
       0.12709075 -0.13062955 0.112660706 -0.14662293
0000e0 fc d9 1e be 39 15 57 3d d0 36 50 bd de 9b 51 bd
       -0.15512842 0.052510474 -0.050833523 -0.051174037
0000f0 bc c7 a1 3c 97 88 1f bb f4 33 ae bd 41 9c 31 3e
       0.019748561 -0.0024342889 -0.08506003 0.17344762
000100 e9 39 9e bd ac 93 46 bd 3d 73 53 3d d9 bb f6 bd
       -0.07725889 -0.048480675 0.05162357 -0.12047548
000110 30 4d 0e 3e f5 d5 35 3e cf 67 1b be b6 c5 03 be
       0.13896632 0.177574 -0.15176319 -0.1286839
000120 de 28 c6 3d d9 ad 0b bd c7 4c 0d 3d af 91 62 bd
       0.096757635 -0.03410134 0.03449705 -0.055314716
000130 1b 34 79 bc f1 51 21 3e e1 f6 21 3d d1 cc fd 3d
       -0.015210177 0.15753914 0.039542083 0.12392581
000140 c1 79 c6 3d f3 87 c8 bc bf e8 20 be 2d 4c 9a 3d
       0.096911915 -0.024478888 -0.15713786 0.075340606
000150 1a dd 1d 3e 38 4e 09 be 5d a8 ba 3d c5 e7 b6 3c
       0.15416375 -0.13408744 0.09114144 0.022327313
000160 9d 0e cd bd 1a 7d e7 3c ff b3 ad 3d 0c 50 ce 3d
       -0.10012553 0.028257895 0.08481597 0.100738615
000170 d5 7b 5c 3d 9b 57 4f bc bd db cd 3c 85 23 e2 3d
       0.053829033 -0.012655164 0.025129193 0.11041931
000180 49 aa f8 bc 8c b6 82 bd fb a0 67 3d 8d 21 0d bd
       -0.030354636 -0.06382474 0.056550007 -0.034455825
000190 c4 6d f2 bd 11 fd 03 be 03 b4 88 bd cc 4e 98 bd
       -0.118373424 -0.12889506 -0.066749595 -0.07436904
0001a0 09 48 fb bd 4f d9 eb 39 0f 54 28 3d 27 24 bd bd
       -0.12269599 0.000449846 0.04109579 -0.09235411
0001b0 32 fc f2 3d 65 07 ed bd 44 d1 05 be 7c 5e 9e 3c
       0.11864509 -0.11573676 -0.1306811 0.019332163
0001c0 d8 9f 7e bd c7 1c 86 bd f7 9d 40 bd 65 2b c8 3d
       -0.062164158 -0.065484576 -0.047025647 0.09773902
0001d0 01 4d 30 be 72 6e d3 bb 04 eb 81 3d b7 0e 0b be
       -0.17216875 -0.006452375 0.06343654 -0.13579832
0001e0 0d 64 5b 3d fc 1e 2a 3e f2 57 37 bd 4c e5 a4 bd
       0.053562213 0.16613382 -0.044761606 -0.080515474
0001f0 22 cd 15 be 36 68 1d be d1 a2 0e 3e f9 8f 07 be
       -0.14629033 -0.15371785 0.13929297 -0.13238515
000200 d9 43 f2 bc 28 70 75 3d 9c 19 2c be e4 20 89 3c
       -0.029573368 0.059921414 -0.16806644 0.016739316
000210 f6 84 cd bd 5a aa f4 3c 81 8d 27 3e 7a 25 f5 3d
       -0.10035126 0.029866386 0.16362573 0.11970039
000220 ea 38 c8 3d 51 4a ca 3d bc 72 d3 bd c3 93 9f bd
       0.097764805 0.09877456 -0.10324618 -0.07791855
000230 ae b4 0c be ef 6c bf bd 7d 0a 7c 3c b6 b4 8b 3b
       -0.13740799 -0.09346949 0.01538336 0.004263486
000240 53 77 14 be 3e 52 e0 3c fa 69 ea bd 03 e0 52 3d
       -0.14498644 0.027382966 -0.11445995 0.051483165
000250 4b cb 76 3d c4 2d ee 3d 6a 2f 2a be f5 6c 82 3d
       0.06025247 0.11629823 -0.1661965 0.06368438
000260 ee 78 0d bd d5 d2 b3 3d 9c a2 3f 3c 24 cf 1b be
       -0.034539156 0.087804474 0.011696484 -0.15215737
000270 16 87 3f 3d 74 cf 97 3d 89 30 e4 3d e9 1c 30 3d
       0.046759687 0.074126154 0.1114207 0.04299632
000280 26 4e cf 3b 18 da c2 bd c4 7d 98 bd d8 e2 af 3d
       0.0063264547 -0.09514254 -0.07445863 0.08588189
000290 57 2b 9c bd 61 6d 01 3e 27 f4 3d 3e a1 4f 21 be
       -0.07625454 0.12639381 0.18550168 -0.15753032
0002a0 2b 4e 13 bd 5c a5 f8 3d 73 61 00 3e f4 1d 36 3d
       -0.03596322 0.12140915 0.12537174 0.04446216
0002b0 fe 31 c8 3c e7 c9 d2 3d ea 90 85 bd 18 14 16 bd
       0.0244379 0.10292416 -0.06521781 -0.036640257
0002c0 eb 5e 4f 3d d0 33 21 bd 65 24 5a 3d f0 38 e9 bd
       0.05062763 -0.039356053 0.053257365 -0.11387813
0002d0 9f 62 ae 3a 0b 82 cb bd d6 1c 80 3d e2 fd 3f 3e
       0.0013304538 -0.09936913 0.062555 0.18749192
0002e0 47 57 00 3d bf 46 63 bd e3 88 d5 3c 5a b9 65 3d
       0.031333234 -0.05548739 0.02606625 0.05608497
0002f0 e3 9a 25 3d 95 e1 77 bb d2 38 3b 3d af 1d b5 3d
       0.040430915 -0.0037823666 0.045708485 0.08843552
000300 8a 55 f3 3d 43 95 a1 bd 2a 79 73 3d d4 25 28 3e
       0.1188155 -0.078897975 0.059441723 0.1642068
000310 08 8f 0c 3e 26 01 c0 3d 87 e1 56 bd b1 2c e7 bd
       0.13726437 0.09375219 -0.052461173 -0.11287821
000320 43 e1 d2 bc 81 08 17 be b2 35 3a 3d de 77 15 3e
       -0.025742179 -0.14749338 0.045461364 0.14596507
000330 7a 81 14 bd 53 27 21 3c 44 a9 0e 3d 46 f0 34 bd
       -0.03625629 0.009836036 0.034829393 -0.044174455
000340 78 8f 03 be 41 9d 6d bd 7c cd fe bb ce 49 ec bd
       -0.12847698 -0.058011297 -0.0077759605 -0.115375146
000350 6a 58 52 3d ac 95 ce 3a b9 c2 0f 3e fe 22 c5 bd
       0.05135385 0.0015761158 0.14039125 -0.09625815
000360 91 20 d0 bc 8b 44 e2 3c 32 60 37 3d ce 2b 8d 3c
       -0.025406154 0.027620574 0.044769473 0.017232802
000370 5f d4 9d 3d be 0e a1 bc 3a ef 05 be 7a 74 dc 3d
       0.07706522 -0.01966035 -0.13079539 0.10764404
000380 e0 fb 8f bd 81 da 9a bd ae 11 04 bb 4f dc 2e be
       -0.07030463 -0.075612076 -0.002015214 -0.17076229
000390 cf d6 e7 3b a4 d7 b4 3d 9a 07 9f bd 9c 05 29 be
       0.0070751677 0.08830193 -0.07765122 -0.16506046
0003a0 90 1a 4f 3c 29 4d 24 3b fd 85 c6 bc 89 03 0d 3b
       0.01264061 0.0025070405 -0.024233812 0.0021517
0003b0 34 68 b9 bd 01 9d e7 3d ef 16 52 bd 77 68 0a be
       -0.09053078 0.11309243 -0.051291402 -0.13516413
0003c0 3e 81 cb bd fa 64 14 be 63 f5 cb bc dc e0 21 be
       -0.0993676 -0.14491645 -0.024897283 -0.15808433
0003d0 cd 8b 8f 3d 63 8c 6e bd 11 09 a1 bc 71 e7 e1 bc
       0.07009087 -0.058239352 -0.019657644 -0.02757618
0003e0 b0 7a 22 bd c0 57 f3 bd 74 e2 e2 bc a3 1b bf bd
       -0.039667785 -0.11881971 -0.027695872 -0.09331443
0003f0 d1 f4 2f bd 75 b6 e6 bd 3c 2d 0a bd 8c 29 10 be
       -0.042958084 -0.1126527 -0.033734545 -0.14078349

nn_fun2.2.bias f4 [30]
000000 1d 43 09 3d 68 04 1a 3e 35 be f0 3d aa a8 a7 3d
       0.03351127 0.15040743 0.11755029 0.08186467
000010 de 0b 3f 3d 91 43 12 be 30 74 ed 3d e0 32 f7 3c
       0.046642177 -0.14283587 0.11594427 0.030175626
000020 eb da f0 3d 77 0f 0a 3e 46 26 38 bd 71 d3 19 be
       0.11760505 0.13482462 -0.044958375 -0.15022065
000030 a9 2d b7 3c 09 da 28 bd af 36 60 3d c3 d2 e1 3d
       0.02236064 -0.04122356 0.05473965 0.11026528
000040 b7 f6 64 3d 4e 61 40 3e d8 e7 a1 bd 51 35 dd bd
       0.055899348 0.18787119 -0.07905549 -0.10801185
000050 f0 bb 12 3e 57 03 bb 3b 66 dd 6e bd 42 00 f3 3c
       0.14329505 0.0057071852 -0.05831661 0.029663209
000060 54 ea 3d bc b2 c7 be bd 0f 7c e4 3d 46 b4 cf bc
       -0.011591513 -0.093154326 0.11156475 -0.025354516
000070 fa 7d 63 3d 7f f4 80 3d
       0.055540062 0.06296634

agg.0.weight f4 [1, 30]
000000 8a e6 9e bb 7c 81 8e 3c 39 d5 3c 3c ec 31 b0 bc
       -0.0048492597 0.017395727 0.011525446 -0.02150818
000010 d5 c3 88 bc d2 b3 bf 3d 60 16 59 bd bf 73 0c 3c
       -0.016694942 0.0936047 -0.052999854 0.008572518
000020 36 77 0e 3e b9 96 5e 3d 55 5f 24 bd f4 95 6d 3c
       0.13912663 0.05434296 -0.04012998 0.014501084
000030 fc bf 5d bd 7f b0 27 39 0a 9d 32 3c 53 26 d8 3d
       -0.05413817 0.00015992111 0.010901699 0.10554185
000040 82 48 07 bd cf 9e c4 bd aa f6 8b 3d 66 11 9c bc
       -0.033028133 -0.09600603 0.06834157 -0.019051265
000050 da 84 01 3c f9 e3 47 bd b9 8e b5 bb d5 57 ae 3c
       0.007905209 -0.048801396 -0.0055406955 0.021282116
000060 0f 57 1f bd f0 0d d4 3c a0 55 33 3d 1a 4f 07 bb
       -0.038901385 0.025885552 0.04378283 -0.0020646513
000070 6c e8 08 bd 63 0a 0d be
       -0.03342478 -0.13773493
