multiple_model_analysis/results/er_experiment_SIS_size_10_24_alpha_0_scale_100_dynwght_False_std_reg_1.0_equiv_reg_0.0/neural_network.pth (torch, 16501 bytes, 14 tensors)

g.0.weight f4 [30, 1]
-1.1145327 0.8873741 -0.3642178 0.55981624 -0.79068446 0.31836557 -0.5645832 -1.1161261
0.5599945 -0.23993254 -0.6422369 0.8675214 -0.27844283 0.3618862 -0.21362832 -0.16530228
0.6521417 -0.764317 -0.92451143 -0.6051991 0.14262545 -1.342562 0.13584845 -0.46295497
0.62738776 0.7153054 -0.94733924 0.9286828 0.9645208 0.8916793
00000000: 02a9 8ebf f32a 633f c17a babe 1e50 0f3f
00000010: 4c6a 4abf d000 a33e 8688 10bf 38dd 8ebf
00000020: cd5b 0f3f e0b0 75be a369 24bf e215 5e3f
00000030: 0f90 8ebe 2649 b93e 62c1 5abe 0045 29be
00000040: c2f2 263f 47aa 43bf c8ac 6cbf 54ee 1abf
00000050: 680c 123e 12d9 abbf db1b 0b3e 6f08 edbe
00000060: 7c9c 203f 411e 373f d384 72bf 28be 6d3f
00000070: d6ea 763f 1845 643f

g.0.bias f4 [30]
-0.30241784 -0.73718137 0.03296928 0.046916142 0.48857415 0.43283728 0.15065607 0.22458506
0.6764922 0.35303 -0.039991822 -0.5371559 0.49778214 0.23127137 -0.79133767 0.0107095605
0.7391042 -0.026238162 -0.36161214 0.018130854 0.42801157 0.45183426 -0.02559377 -0.55787235
-0.18140092 -0.07965309 -0.2564478 -0.49350685 -0.42749575 -0.16977419
00000000: 83d6 9abe ebb7 3cbf cc0a 073d 242b 403d
00000010: 6426 fa3e d99c dd3e 9645 1a3e a0f9 653e
00000020: 982e 2d3f 59c0 b43e 77ce 23bd 0d83 09bf
00000030: 4ddd fe3e 67d2 6c3e 1b95 4abf 2777 2f3c
00000040: ef35 3d3f 6af1 d6bc 3a25 b9be 2887 943c
00000050: 5524 db3e d256 e73e 07aa d1bc b9d0 0ebf
00000060: 2ac1 39be 2921 a3bd 204d 83be eeac fcbe
00000070: b9e0 dabe 49d9 2dbe

g.2.weight f4 [30, 30]
-0.09733951 0.06394443 -0.092034176 -0.030016687 0.0690888 -0.11769394 0.06988515 -0.14902635
0.044958368 -0.11205161 -0.03769918 -0.085143685 0.1629232 0.15442356 0.13704799 -0.13504697
0.17838821 -0.27555776 -0.060313914 -0.49157026 0.07557463 -0.23004434 0.026346337 0.06373734
0.016025688 0.09040962 -0.10499794 0.1314265 0.026088743 0.17858224 0.022994597 -0.050847795
0.0208003 0.09083402 0.031053415 -0.11023598 -0.17270134 -0.12557404 0.101857536 0.0883956
0.008668914 -0.08452156 0.09401562 0.14357522 0.008189501 -0.12250227 0.08701278 -0.07174467
0.012332788 -0.21475446 -0.14835562 -0.24476567 -0.040953744 0.03650982 0.20841403 0.07005047
0.077046126 0.14546292 0.1612886 0.035706732 -0.20803618 0.037540082 -0.17122708 -0.13957615
0.07608342 -0.023719419 -0.13194923 -0.05680466 0.014172401 0.092844315 -0.05709921 0.18543158
-0.118079446 0.046396278 -0.1059738 -0.12344198 0.16328964 -0.29285657 -0.0826983 -0.43739733
-0.1350174 -0.016289845 -0.15761687 0.08308617 0.15355623 0.10617219 -0.21738556 0.067308754
0.10078954 0.0842881 0.069464065 0.13554299 0.13746892 -0.05485757 -0.051686384 -0.07225619
0.08612475 -0.16383605 0.16123384 0.17849939 -0.18564227 0.08706227 -0.010173029 0.07479137
0.0715912 -0.08367877 0.19005728 -0.21797854 -0.10529716 -0.1505466 0.025861958 -0.10973242
0.07960095 -0.12170177 -0.110819004 0.15124136 -0.1800675 0.055956528 0.0994385 0.1365212
-0.08324163 0.101654805 0.089041695 -0.02606069 -0.059380665 -0.1335022 -0.03484214 0.035884764
-0.1378352 0.040558673 0.03710425 0.010638798 -0.08883428 0.15107867 -0.14686157 0.13199086
-0.067454346 0.03518595 0.12048207 0.28315523 0.013712978 0.12586336 0.047733583 -0.035352435
-0.05938708 -0.17307419 0.13005497 -0.24241756 0.0525859 -0.23198994 0.22369981 0.07983852
0.0560988 -0.019397773 0.18268485 0.027489498 -0.0760756 0.17494074 0.13278651 -0.101392664
0.09556482 0.012633341 -0.028328197 -0.16468115 0.0350589 -0.14505333 -0.12669899 -0.024052113
0.15970324 0.45858312 -0.15744773 0.16442564 -0.08630449 -0.1507952 -0.12885 -0.03000468
0.19900167 0.086752936 -0.20691857 -0.19850561 -0.045812372 0.13511828 -0.13618891 0.07919469
0.15547973 0.11171257 0.12209978 0.2518672 0.10726755 0.1772689 0.19760835 0.0854047
-0.01980292 -0.08404 -0.0770888 -0.007866104 -0.03569872 0.17653409 0.00705097 0.34990767
-0.082580216 0.22247389 -0.111203246 0.13080071 0.055136073 -0.041620318 0.21343945 -0.13436073
-0.13040985 -0.07312406 0.053872347 -0.16867661 -0.16676085 0.09389723 -0.08999978 -0.08053167
0.1664179 0.23156779 -0.17425612 0.09489928 0.03630337 -0.1259212 -0.16363192 -0.100067735
-0.15770343 -0.10949189 -0.024928346 0.014377227 0.18419227 0.5219114 0.081506364 0.12285862
0.07268068 0.1371899 -0.124872886 -0.05475342 0.12956895 -0.073169746 -0.16274741 0.047815427
-0.055394474 0.06931375 0.15721287 0.06768843 -0.0757273 0.1615125 -0.07800244 0.0076639485
0.059115794 0.09016697 -0.18091483 0.080649756 0.09016476 0.16700909 0.007606406 0.11439513
00000000: f059 c7bd 4cf5 823d 6a7c bcbd 8ee5 f5bc
00000010: 6e7e 8d3d 8509 f1bd f21f 8f3d 5d9a 18be
00000020: 4426 383d 517b e5bd 756a 1abd d05f aebd
00000030: 57d5 263e 3621 1e3e 4f56 0c3e c149 0abe
00000040: 66ab 363e e815 8dbe b90b 77bd 19af fbbe
00000050: dfc6 9a3d be90 6bbe 46d4 d73c b988 823d
00000060: 4e48 833c ae28 b93d 2909 d7bd ab94 063e
00000070: 0fb8 d53c 43de 363e 2a5f bc3c c745 50bd
00000080: 6465 aa3c 3007 ba3d bb63 fe3c 67c3 e1bd
00000090: 9fd8 30be 7b96 00be af9a d03d c108 b53d
000000a0: 1008 0e3c a419 adbd 438b c03d 6205 133e
000000b0: 422d 063c 78e2 fabd c233 b23d dfee 92bd
000000c0: 760f 4a3c 98e8 5bbe 89ea 17be daa3 7abe
000000d0: 1dbf 27bd 528b 153d 7d6a 553e 9f76 8f3d
000000e0: 5cca 9d3d 3bf4 143e d728 253e 3941 123d
000000f0: 7007 55be a1c3 193d 2756 2fbe 0ded 0ebe
00000100: a0d1 9b3d 3a4f c2bc b31d 07be 01ac 68bd
00000110: 5c33 683c 2925 be3d dce0 69bd c7e1 3d3e
00000120: a3d3 f1bd 060a 3e3d cb08 d9bd 26cf fcbd
00000130: 6635 273e 4cf1 95be ba5d a9bd 8bf2 dfbe
00000140: 0042 0abe 4872 85bc 5166 21be 1529 aa3d
00000150: d83d 1d3e ce70 d93d 529a 5ebe 2cd9 893d
00000160: bf6a ce3d 3d9f ac3d 2d43 8e3d c8cb 0a3e
00000170: a7c4 0c3e 55b2 60bd 1ab5 53bd 0efb 93bd
00000180: 2c62 b03d a3c4 27be 7c1a 253e 8bc8 363e
00000190: 0219 3ebe b44d b23d c7ac 26bc 382c 993d
000001a0: 689e 923d c65f abbd 609e 423e c435 5fbe
000001b0: 0aa6 d7bd e328 1abe 75dc d33c 64bb e0bd
000001c0: d305 a33d c73e f9bd 13f5 e2bd 04df 1a3e
000001d0: 9d63 38be ac32 653d 6aa6 cb3d 37cc 0b3e
000001e0: 967a aabd 6530 d03d 7e5b b63d 3a7d d5bc
000001f0: 2439 73bd cdb4 08be a2b6 0ebd e7fb 123d
00000200: ac24 0dbe da20 263d a0fa 173d 5a4e 2e3c
00000210: bfee b5bd 5eb4 1a3e e162 16be 9d28 073e
00000220: 8125 8abd 251f 103d 4ebf f63d b9f9 903e
00000230: 66ac 603c 53e2 003e 4a84 433d b7cd 10bd
00000240: de3f 73bd 5c3a 31be 212d 053e 4f3c 78be
00000250: 5064 573d c58e 6dbe 9011 653e 6182 a33d
00000260: dbc7 653d 14e8 9ebc bd11 3b3e a831 e13c
00000270: 86cd 9bbd aa23 333e 30f9 073e f5a6 cfbd
00000280: 7db7 c33d 13fc 4e3c 8910 e8bc 2da2 28be
00000290: ec99 0f3d dc88 14be 61bd 01be f008 c5bc
000002a0: 3f89 233e 68cb ea3e fa39 21be 325f 283e
000002b0: 69c0 b0bd 0f6a 1abe 41f1 03be 60cc f5bc
000002c0: 18c7 4b3e 86ab b13d 76e2 53be 0e45 4bbe
000002d0: c1a5 3bbd 725c 0a3e 1b75 0bbe d330 a23d
000002e0: 1436 1f3e 8fc9 e43d 730f fa3d bdf4 803e
000002f0: 17af db3d fb85 353e d859 4a3e a9e8 ae3d
00000300: bc39 a2bc 2a1d acbd bce0 9dbd d5e0 00bc
00000310: d238 12bd 5ac5 343e d30b e73b 1927 b33e
00000320: d11f a9bd 32d0 633e 87be e3bd 9ff0 053e
00000330: 5dd6 613d 117a 2abd df8f 5a3e dc95 09be
00000340: 298a 05be 11c2 95bd 40a9 5c3d 90b9 2cbe
00000350: 5bc3 2abe 314d c03d ce51 b8bd caed a4bd
00000360: 7469 2a3e 1b20 6d3e 3270 32be 8e5a c23d
00000370: d8b2 143d 7df1 00be 208f 27be 50f0 ccbd
00000380: 027d 21be 493d e0bd 8836 ccbc 768e 6b3c
00000390: e69c 3c3e fc9b 053f cfec a63d 4d9d fb3d
000003a0: 9cd9 943d 827b 0c3e 5bbd ffbd 1f45 60bd
000003b0: b9ad 043e 05da 95bd 42a7 26be 1cda 433d
000003c0: 51e5 62bd 5ef4 8d3d 69fc 203e 3ba0 8a3d
000003d0: ea16 9bbd 8863 253e bebf 9fbd dc21 fb3b
000003e0: 6723 723d 76a9 b83d bd41 39be b32b a53d
000003f0: 4da8 b83d 6e04 2b3e 293f f93b fe47 ea3d

g.2.bias f4 [30]
-0.026328871 0.1127926 0.054542743 -0.15445302 -0.025315853 0.16306691 -0.16194783 0.0047141304
0.19612117 0.088925794 -0.13547981 0.14537273 0.024888026 -0.18929982 0.073381275 -0.14696771
0.12232582 0.037845075 -0.0845058 0.18271029 0.079015024 0.109366864 0.14293207 -0.08598793
0.036644954 -0.17591387 0.0042636613 -0.15616448 -0.043365944 -0.13318059
00000000: a5af d7bc cfff e63d 3668 5f3d ef28 1ebe
00000010: 3163 cfbc 03fb 263e a7d5 25be fe78 9a3b
00000020: fdd3 483e ba1e b63d 38bb 0abe 97dc 143e
00000030: f9e1 cb3c d0d7 41be ec48 963d b47e 16be
00000040: f685 fa3d 7003 1b3d 6011 adbd 6818 3b3e
00000050: a1d2 a13d bcfb df3d c95c 123e 711a b0bd
00000060: 0519 163d c422 34be 2fb6 8b3b 95e9 1fbe
00000070: 7da0 31bd 7e60 08be

g.4.weight f4 [1, 30]
-0.13570982 -0.017915927 -0.35658398 -0.050524414 0.031032667 0.17094512 0.067796774 0.23965655
-0.1438625 -0.06375891 0.00040830477 0.051828887 -0.0014362021 0.13158503 -0.16514508 0.054842994
0.107677996 0.21692951 -0.008410114 -0.18916865 0.14798865 -0.059735764 -0.17408696 -0.12383653
-0.00039099727 0.04710963 0.12779902 -0.11828004 0.004927491 0.059284694
00000000: 84f7 0abe 6cc4 92bc 2d92 b6be b0f2 4ebd
00000010: 3838 fe3c 3d0c 2f3e 09d9 8a3d 8768 753e
00000020: b150 13be 0894 82bd bd11 d639 874a 543d
00000030: f23e bcba 3abe 063e cb1b 29be 0ca3 603d
00000040: 4886 dc3d c522 5e3e 93ca 09bc 6db5 41be
00000050: 568a 173e 7dad 74bd da43 32be 029e fdbd
00000060: c4fe ccb9 07f6 403d bfdd 023e ce3c f2bd
00000070: ca76 a13b 82d4 723d

nn_fun1.0.weight f4 [30, 1]
1.3896296 0.45007098 -1.1547154 -0.39682093 -0.09407527 -0.35929126 0.8875478 0.72801936
-0.29635257 -0.10155201 -0.40214488 0.37820074 -0.32222775 0.35554653 -0.32155117 1.3032596
0.7510566 0.20064735 0.19213712 1.13195 0.19785497 -0.91454595 0.5929172 -0.6776838
0.82805234 0.017649539 -1.0495495 0.77886295 0.673123 -0.83272
00000000: 62df b13f b46f e63e b7cd 93bf 1d2c cbbe
00000010: 89aa c0bd 06f5 b7be 5536 633f 7a5f 3a3f
00000020: 86bb 97be 80fa cfbd efe5 cdbe 87a3 c13e
00000030: 09fb a4be 320a b63e 5ba2 a4be 36d1 a63f
00000040: 3f45 403f 8076 4d3e 98bf 443e bde3 903f
00000050: 7e9a 4a3e af1f 6abf 6cc9 173f af7c 2dbf
00000060: 3dfb 533f c495 903c a357 86bf 9063 473f
00000070: ca51 2c3f 232d 55bf

nn_fun1.0.bias f4 [30]
-0.748164 -0.037640844 0.57261074 0.79433066 0.62169206 -0.21336457 0.38221824 0.49921206
-0.14082211 0.056944173 -0.62928104 -0.8425366 -0.29330835 0.4170298 -0.6522617 -0.3883113
-0.08738587 -0.63285863 0.45860845 -0.6096421 0.53573704 -0.31550002 -0.111577906 -0.83797246
0.2960114 -0.886503 0.07824024 -0.6080273 0.41604456 -0.5578604
00000000: ad87 3fbf 492d 1abd 9e96 123f 4159 4b3f
00000010: 3627 1f3f 3e7c 5abe 1cb2 c33e b998 ff3e
00000020: ac33 10be 4b3e 693d 9018 21bf 7bb0 57bf
00000030: 832c 96be ee84 d53e 9ffa 26bf bdd0 c6be
00000040: 5df7 b2bd 0603 22bf bace ea3e 8111 1cbf
00000050: 1026 093f 3889 a1be f582 e4bd 5d85 56bf
00000060: ce8e 973e dcf1 62bf 6b3c a03d ada7 1bbf
00000070: cb03 d53e f0cf 0ebf

nn_fun1.2.weight f4 [30, 30]
0.09869221 0.3071732 -0.22795042 -0.018458199 0.16528606 -0.09315801 0.19227968 0.0063253227
-0.017166223 0.025027795 -0.0093219755 -0.079133786 0.057035256 0.040708046 -0.13730417 0.253022
0.58404475 -0.0078051784 0.17056839 0.15154308 0.13619798 -0.1276706 0.361369 -0.19295014
-0.014079373 0.11016506 -0.9069198 0.1611756 0.077275574 -0.012150676 -0.1446446 -0.13560395
0.052768394 -0.029252172 0.16217421 0.044502094 -0.2546437 0.10666673 0.012109616 -0.05746372
0.06923202 0.124535546 -0.0708721 0.13478498 0.06093745 -0.36031413 -0.17724738 0.0070422785
0.022671247 -0.19025956 0.16262618 0.002140224 0.0050135525 0.13895312 -0.11683687 0.02371906
0.7827611 -0.029878262 -0.19218746 0.10954784 -0.13065645 -0.06694925 0.14021163 0.0009848978
-0.071225226 -0.023305574 -0.11659282 0.13112786 -0.062405095 -0.12692304 -0.014516593 0.14440213
-0.047085654 0.09573248 0.112430565 0.07790474 0.004253042 -0.16765594 -0.14460999 -0.08556619
-0.13472696 0.032773696 0.037999455 0.026775833 0.15006039 0.011843292 -0.050004467 -0.056953628
0.116767175 -0.11513851 -0.15919575 -0.28294662 0.16237412 0.12745784 0.12958205 -0.009487945
-0.066772416 -0.17824715 -0.034231547 0.04448455 -0.012482898 -0.136469 0.18879165 -0.17275968
0.14265764 -0.12680018 -0.24807987 -0.038105737 -0.06315352 0.07275377 0.032041755 0.1904682
-0.0026799983 0.13211966 -0.01824968 0.042607736 0.9416139 -0.059965324 -0.05967706 0.21265426
0.08678325 0.04563852 0.040953282 0.10084597 0.15577959 4.900431e-05 0.016153418 0.16109502
-0.14008655 -0.104840636 -0.020225255 0.07694217 0.14978936 -0.109220214 -0.068521075 0.010676115
0.20581143 -0.008105277 -0.1118196 0.14340544 0.08166814 -0.16372354 -0.04591202 0.072047144
-0.06409215 0.15116784 -0.53266305 0.14436713 0.16861117 -0.12905024 -0.10068345 0.09369657
0.010840443 -0.0107361395 0.044437267 0.0052867453 -0.06100286 0.105303556 -0.07007624 -0.025197085
-0.1420762 -0.079457656 0.16967262 0.121462524 -0.014980756 0.07849864 0.029382868 0.027356379
0.05608654 -0.10391806 0.07083978 -0.13372384 0.18221262 -0.15415546 0.13889183 0.15568964
-0.60460454 -0.007060498 -0.06720554 0.024591502 -0.0522929 0.025435776 0.016988827 0.03908187
0.040311784 -0.07587035 0.15856072 0.009372465 0.05434207 -0.026019376 -0.13102852 0.14501445
-0.15489917 0.02623603 -0.15099385 0.14501584 0.027009454 0.029502546 -0.08053597 0.099046424
-0.04722324 0.07677102 -0.008196129 0.06313594 -0.011072518 -0.17189705 -0.02571658 0.09434988
0.14696255 0.13231137 -0.11382174 -0.027152067 0.012941719 0.11784618 -0.1323875 -0.0007380038
0.0903798 -0.120462954 -0.03464393 0.07636249 0.10235443 -0.15158172 0.14854932 0.0049885595
-0.08910931 -0.07421243 0.010749294 0.033103243 -0.076877125 0.10023951 0.09319305 -0.066355966
-0.05838343 -0.13983956 -0.10183782 -0.11915326 0.004222995 0.12289557 0.0035915335 0.15134226
0.031443395 0.06763207 -0.109898955 0.018084146 0.10849705 0.19850639 0.07096033 0.04305896
-0.013881006 0.066906996 -0.102459736 0.03319171 0.011729077 -0.045718882 0.009058538 0.09084747
00000000: 241f ca3d ce45 9d3e d66b 69be a635 97bc
00000010: c040 293e a0c9 bebd f7e4 443e a744 cf3b
00000020: 2ea0 8cbc 1707 cd3c 33bb 18bc e510 a2bd
00000030: cd9d 693d 7bbd 263d 7799 0cbe 198c 813e
00000040: f583 153f 95c2 ffbb 7ba9 2e3e 1c2e 1b3e
00000050: 7c77 0b3e 15bc 02be 5c05 b93e b994 45be
00000060: 2cad 66bc 389e e13d e52b 68bf 370b 253e
00000070: a842 9e3d a113 47bc b71d 14be c3db 0abe
00000080: ac23 583d 40a2 efbc ff10 263e d447 363d
00000090: a960 82be 1674 da3d 6967 463c 145f 6bbd
000000a0: 84c9 8d3d 7e0c ff3d 6425 91bd 1305 0a3e
000000b0: 8c99 793d 187b b8be 5680 35be eac2 e63b
000000c0: 0db9 b93c 67d3 42be 7a87 263e 0043 0c3b
000000d0: ba48 a43b ba49 0e3e 2b48 efbd 794e c23c
000000e0: 0863 483f 42c3 f4bc cacc 44be 9e5a e03d
000000f0: ceca 05be b01c 89bd a393 0f3e b017 813a
00000100: 88de 91bd 55eb bebc 37c8 eebd 6246 063e
00000110: 7c9c 7fbd 1df8 01be 01d7 6dbc 27de 133e
00000120: e3dc 40bd 640f c43d ff41 e63d 858c 9f3d
00000130: 1a5d 8b3b 00ae 2bbe a414 14be 543d afbd
00000140: ddf5 09be b63d 063d 51a5 1b3d fe58 db3c
00000150: 6ea9 193e 5e0a 423c 7cd1 4cbd 3548 69bd
00000160: a123 ef3d bdcd ebbd 3604 23be 61de 90be
00000170: 6745 263e 4f84 023e 28b1 043e 5373 1bbc
00000180: fabf 88bd 6c86 36be 6136 0cbd 6e35 363d
00000190: 1285 4cbc 88be 0bbe 9952 413e eae7 30be
000001a0: d814 123e e8d7 01be a608 7ebe c314 1cbd
000001b0: a256 81bd eeff 943d 373e 033d 190a 433e
000001c0: e9a2 2fbb 604a 073e 5a80 95bc 7385 2e3d
000001d0: 9c0d 713f 339e 75bd ef6f 74bd 0ac2 593e
000001e0: 6bbb b13d 75ef 3a3d a1be 273d 5588 ce3d
000001f0: af84 1f3e fa89 4d38 2c54 843c 18f6 243e
00000200: d972 0fbe b0b6 d6bd 6faf a5bc db93 9d3d
00000210: 6262 193e d9ae dfbd c754 8cbd dfea 2e3c
00000220: 3bc0 523e ffcb 04bc ad01 e5bd e0d8 123e
00000230: a041 a73d 25a7 27be 3e0e 3cbd 748d 933d
00000240: bf42 83bd becb 1a3e 9b5c 08bf fad4 133e
00000250: 68a8 2c3e bf25 04be 2033 cebd fde3 bf3d
00000260: 1d9c 313c a2e6 2fbc da03 363d 6f3c ad3b
00000270: 23de 79bd 64a9 d73d 2284 8fbd 1e6a cebc
00000280: 6c7c 11be b2ba a2bd a9be 2d3e 58c1 f83d
00000290: d871 75bc e5c3 a03d 57b4 f03c 7c1a e03c
000002a0: 00bb 653d fed2 d4bd 7214 913d e7ee 08be
000002b0: f295 3a3e eeda 1dbe a939 0e3e 1b6d 1f3e
000002c0: 5dc7 1abf c05b e7bb 0fa3 89bd 1e74 c93c
000002d0: 1431 56bd b05e d03c 272c 8b3c 5014 203d
000002e0: f81d 253d ea61 9bbd be5d 223e f88e 193c
000002f0: ca95 5e3d 9626 d5bc 572c 06be ab7e 143e
00000300: e39d 1ebe f1ec d63c 229e 1abe 087f 143e
00000310: ee42 dd3c 53af f13c 0bf0 a4bd dad8 ca3d
00000320: 286d 41bd 203a 9d3d 0f49 06bc 6a4d 813d
00000330: 8269 35bc c805 30be 94ab d2bc 833a c13d
00000340: 5a7d 163e a27c 073e 5f1b e9bd 036e debc
00000350: 8109 543c 5759 f13d 9790 07be 9976 41ba
00000360: 0b19 b93d 48b5 f6bd cbe6 0dbd f063 9c3d
00000370: 339f d13d 3d38 1bbe 501d 183e 1277 a33b
00000380: f17e b6bd b0fc 97bd cf1d 303c 4497 073d
00000390: c171 9dbd 5f4a cd3d ffdb be3d a3e5 87bd
000003a0: 7723 6fbd 1a32 0fbe 5990 d0bd a006 f4bd
000003b0: 0d61 8a3b acb0 fb3d ef5f 6b3b 77f9 1a3e
000003c0: caca 003d af82 8a3d b412 e1bd 3425 943c
000003d0: b433 de3d 4245 4b3e a653 913d 985e 303d
000003e0: 296d 63bc 8906 893d 69d6 d1bd 08f4 073d
000003f0: 512b 403c b943 3bbd 436a 143c 3d0e ba3d

nn_fun1.2.bias f4 [30]
0.074174136 -0.15575263 -0.15793025 0.030221973 0.048603985 -0.15026392 -0.111203 -0.11574783
-0.01792767 -0.032545872 -0.061444163 -0.06097785 0.0639568 0.09304745 0.13632807 0.17300014
0.059073977 0.10541186 0.100778334 -0.11994633 0.023172166 0.0021190676 0.026863173 -0.17867053
-0.05561198 0.039220527 -0.08872371 -0.044455983 0.10834196 0.042678006
00000000: 9ce8 973d 9e7d 1fbe 78b8 21be 1294 f73c
00000010: f914 473d c9de 19be 66be e3bd 330d edbd
00000020: 0ddd 92bc d24e 05bd e0ac 7bbd e9c3 79bd
00000030: c8fb 823d a98f be3d 9699 0b3e f326 313e
00000040: 8ef7 713d 2ce2 d73d df64 ce3d 6ca6 f5bd
00000050: 8ed3 bd3c 0ee0 0a3b 2810 dc3c 68f5 36be
00000060: 63c9 63bd b4a5 203d c7b4 b5bd 7a17 36bd
00000070: 64e2 dd3d 22cf 2e3d

nn_fun2.0.weight f4 [30, 1]
0.52325165 0.64052165 0.21733406 0.23665604 -0.048693154 -0.63916284 0.045891427 0.44622234
0.10387078 -0.4765203 0.37746128 1.0045513 0.14404303 -0.01718866 0.21958971 -0.53285164
-0.058341604 0.6726333 0.45956665 0.12688869 0.89769864 0.34262112 0.34441346 0.0015563595
0.4221934 0.7460423 -0.30077386 0.4771888 0.69313574 -0.49380368
00000000: d2f3 053f 3af9 233f d28c 5e3e f655 723e
00000010: 7972 47bd 2da0 23bf a6f8 3b3d 4177 e43e
00000020: 34ba d43d 78fa f3be 9b42 c13e 2395 803f
00000030: 0480 133e 3ccf 8cbc 20dc 603e f768 08bf
00000040: 9bf7 6ebd b231 2c3f 524c eb3e 1cef 013e
00000050: 94cf 653f 096c af3e f656 b03e c2fe cb3a
00000060: bc29 d83e a1fc 3e3f 08ff 99be 1752 f43e
00000070: 5871 313f d6d3 fcbe

nn_fun2.0.bias f4 [30]
-0.72052264 0.1635308 0.033911668 0.8213485 -0.23224121 0.1333149 -0.020510945 -0.09422611
0.22574694 -0.1593178 -0.12551351 -0.8155374 -0.03063803 0.063330546 0.3016201 0.51032674
0.6567306 -0.24123864 0.4433023 -0.713942 -0.618792 -0.69728386 -0.14664322 -0.48742685
-0.6019596 -0.6970307 0.6233025 0.690507 0.8459783 0.12936865
00000000: 2c74 38bf 9e74 273e f6e6 0a3d e543 523f
00000010: a4d0 6dbe b383 083e 9206 a8bc 9ef9 c0bd
00000020: 352a 673e 3524 23be 9d86 00be 0fc7 50bf
00000030: 9bfc fabc 72b3 813d f36d 9a3e c6a4 023f
00000040: 7f1f 283f 4307 77be 85f8 e23e e7c4 36bf
00000050: 2769 1ebf 3281 32bf a429 16be 0390 f9be
00000060: 061a 1abf 9b70 32bf c190 1f3f 11c5 303f
00000070: 0992 583f 3779 043e

nn_fun2.2.weight f4 [30, 30]
0.045008417 0.04722707 0.10177714 0.11217213 0.016209874 -0.1617285 0.026408315 0.1209711
-0.041748025 0.07024532 0.12382012 0.11738245 0.019142887 -0.14015633 0.110151626 -0.20398745
0.01109599 0.15494278 -0.04894292 -0.06550007 0.17345737 0.060105477 0.075575575 0.05717036
-0.0109540215 0.22083712 0.086067 -0.01238584 -0.18441683 -0.16738266 0.11334707 -0.030614868
-0.053873878 0.117160216 0.0013268809 -0.13446379 -0.14363874 0.22156781 -0.068202116 0.09207323
0.01095253 0.21065599 0.06592309 0.005166579 -0.07765196 -0.101590574 -0.037175123 0.049137343
0.07276224 -0.0504294 0.16426189 -0.14967118 0.08761422 -0.036851205 0.037078172 0.0042884154
-0.16759606 -0.035954516 0.13450342 -0.2091954 0.12097906 -0.00815593 -0.03393942 0.13030852
-0.048154008 -0.029869666 0.0038087938 0.013609196 -0.088508755 -0.1032453 0.07530534 -0.062324397
-0.008691502 -0.014213447 -0.15910019 0.09170423 0.07395243 0.08414512 -0.041824937 -0.0955223
-0.052661486 -0.002865157 0.09453484 0.13097265 0.013564885 0.09579407 0.13012008 0.07201102
-0.024480803 -0.03791438 0.017445426 0.0095070945 -0.027270362 0.10534566 -0.08744368 -0.24521713
0.08978737 0.20040353 0.0061519546 0.05105829 -0.060092025 0.07523998 -0.027033951 0.07885108
0.008957662 0.055067025 0.010878038 0.22362939 -0.06218435 0.17675725 0.17128469 0.12123419
0.13510016 -0.12317563 0.12249806 -0.03887543 -0.13037029 -0.17541313 0.06526848 -0.16755374
0.013064306 -0.051548954 0.1817748 -0.09019397 -0.15381871 -0.18187426 -0.10431054 0.1608809
0.039712876 0.051825944 -0.029927257 0.19141433 -0.069076486 0.034687404 0.043816727 -0.15408647
-0.12355326 0.15180758 0.13513985 -0.15645592 -0.11051497 -0.15409032 -0.13125373 0.081582785
0.017058667 -0.009857061 0.06259273 0.11285148 -0.17123145 -0.06408336 0.06878289 -0.0852374
0.14991656 0.18423402 0.043063834 -0.028990133 -0.04755661 0.110471174 0.14109018 -0.10052341
0.036560006 0.087067425 0.040015638 0.03972601 -0.088833794 -0.06088532 -0.078113265 -0.08078521
-0.08773124 0.017308755 -0.03473028 0.09841704 -0.14461073 0.10979828 0.10998689 0.06227792
-0.09015565 -0.10435317 -0.023332018 0.115493126 -0.056714274 0.019145386 -0.023975845 -0.029791705
0.010661997 -0.0654524 -0.067388095 -0.060487755 0.08749751 0.07805309 -0.062084135 0.0022704625
-0.039405357 -0.08824216 0.15294811 0.07787555 0.08532356 0.0061238003 0.18602417 -0.013215856
0.018175937 0.05998942 -0.097210705 0.11066984 0.017890815 0.07633508 -0.06350185 -0.091730036
0.14222102 0.061810292 -0.021403145 0.061452616 -0.022976961 -0.08295093 -0.040361952 0.021157144
0.012464205 -0.007622928 0.103512354 -0.09809153 -0.012102117 0.093508095 -0.005926411 0.04193779
0.12556332 0.15176877 -0.039911345 -0.020036392 -0.09138703 0.056094505 -0.06618302 -0.1321089
0.012111012 -0.017416878 -0.058233522 0.105918966 -0.0749836 0.011436134 -0.06646761 0.0059212134
0.090500906 0.057673726 -0.0027739669 0.16065754 0.0728043 -0.07130914 0.08389789 0.08601702
-0.031519257 -0.15832122 -0.12986365 -0.07876374 -0.038450323 0.079623155 -0.097362064 -0.053375177
00000000: bf5a 383d 2c71 413d 8870 d03d 80ba e53d
00000010: 92ca 843c 289c 25be 4056 d83c b2bf f73d
00000020: faff 2abd c7dc 8f3d 6795 fd3d 3666 f03d
00000030: 8bd1 9c3c 2485 0fbe 2d97 e13d 16e2 50be
00000040: f5cb 353c 52a9 1e3e 5f78 48bd e724 86bd
00000050: cf9e 313e 2931 763d 5ec7 9a3d 782b 6a3d
00000060: 7f78 33bc 2023 623e e543 b03d faed 4abc
00000070: c4d7 3cbe 5c66 2bbe 8222 e83d 08cc fabc
00000080: dbaa 5cbd b2f1 ef3d bcea ad3a e0b0 09be
00000090: 0916 13be ace2 623e 8dad 8bbd e490 bc3d
000000a0: 3e72 333c 34b6 573e af02 873d 684c a93b
000000b0: fe07 9fbd b80e d0bd f144 18bd 3d44 493d
000000c0: 5f04 953d 0f8f 4ebd 4534 283e 6743 19be
000000d0: 166f b33d 4af1 16bd 48df 173d d685 8c3b
000000e0: 4d9e 2bbe 0b45 13bd 44bb 093e 5237 56be
000000f0: dfc3 f73d 73a0 05bc 1004 0bbd 996f 053e
00000100: 233d 45bd 3bb1 f4bc f59c 793b 1bf9 5e3c
00000110: 1444 b5bd 4672 d3bd b039 9a3d de47 7fbd
00000120: cd66 0ebc 85df 68bc 29eb 22be 6dcf bb3d
00000130: 5f74 973d 4754 ac3d a050 2bbd 32a1 c3bd
00000140: 92b3 57bd 5cc5 3bbb 7b9b c13d b21d 063e
00000150: 403f 5e3c ae2f c43d 333e 053e 837a 933d
00000160: f78b c8bc 1c4c 1bbd b6e9 8e3c a5c3 1b3c
00000170: 1866 dfbc 77bf d73d ac15 b3bd 331a 7bbe
00000180: 71e2 b73d 9536 4d3e 5696 c93b 7f22 513d
00000190: 0e23 76bd 6b17 9a3d 4e76 ddbc ad7c a13d
000001a0: 28c3 123c f68d 613d cc39 323c 1aff 643e
000001b0: 04b5 7ebd daff 343e 4165 2f3e a249 f83d
000001c0: b257 0a3e 8143 fcbd 43e0 fa3d d83b 1fbd
000001d0: ca7f 05be 809f 33be 7bab 853d 3593 2bbe
000001e0: ac0b 563c ff24 53bd 2c23 3a3e 9eb7 b8bd
000001f0: a782 1dbe 3f3d 3abe c4a0 d5bd f6bd 243e
00000200: f8a9 223d 7147 543d 022a f5bc 1e02 443e
00000210: f977 8dbd 6114 0e3d 2b79 333d d8c8 1dbe
00000220: 7e09 fdbd 7273 1b3e 1a62 0a3e fb35 20be
00000230: ac55 e2bd dac9 1dbe 6167 06be e014 a73d
00000240: 9ebe 8b3c 837f 21bc 9e30 803d ad1e e73d
00000250: 4c57 2fbe 233e 83bd 0bde 8c3d f290 aebd
00000260: ba83 193e d8a7 3c3e b463 303d b77c edbc
00000270: b8ca 42bd b63e e23d f279 103e 38df cdbd
00000280: f2bf 153d 6850 b23d 70e7 233d beb7 223d
00000290: 7eee b5bd e362 79bd d9f9 9fbd b772 a5bd
000002a0: 70ac b3bd 17cb 8d3c 5741 0ebd e08e c93d
000002b0: d614 14be ecdd e03d ce40 e13d 2217 7f3d
000002c0: 87a3 b8bd 1db7 d5bd ca22 bfbc a987 ec3d
000002d0: 3a4d 68bd c9d6 9c3c fe68 c4bc bc0d f4bc
000002e0: a8af 2e3c e80b 86bd c502 8abd 02c2 77bd
000002f0: e531 b33d 4cda 9f3d ef4b 7ebd 0acc 143b
00000300: 8367 21bd 4eb8 b4bd 6e9e 1c3e 377d 9f3d
00000310: 1ebe ae3d 29aa c83b 1f7d 3e3e 5187 58bc
00000320: b4e5 943c 77b7 753d 6816 c7bd dea6 e23d
00000330: c28f 923c 9155 9c3d 420d 82bd f5dc bbbd
00000340: 63a2 113e ca2c 7d3d a655 afbc bdb5 7b3d
00000350: 2e3a bcbc 2de2 a9bd 9352 25bd bf51 ad3c
00000360: aa36 4c3c c1c9 f9bb 49fe d33d 36e4 c8bd
00000370: f547 46bc 2c81 bf3d 5732 c2bb f6c6 2b3d
00000380: ac93 003e 4669 1b3e 147a 23bd 5c23 a4bc
00000390: 2029 bbbd 5ac3 653d f78a 87bd 8e47 07be
000003a0: 446d 463c d7ad 8ebc 4686 6ebd 0bec d83d
000003b0: 0091 99bd 9f5e 3b3c 2c20 88bd bd06 c23b
000003c0: 8a58 b93d 493b 6c3d 71cb 35bb 6983 243e
000003d0: 6c1a 953d 870a 92bd a8d2 ab3d b129 b03d
000003e0: 561a 01bd f51e 22be fafa 04be e24e a1bd
000003f0: 167e 1dbd 7711 a33d c365 c7bd ee9f 5abd

nn_fun2.2.bias f4 [30]
0.085803874 -0.08666913 -0.12197133 -0.1944602 -0.05098715 0.12316664 -0.1083322 0.03265867
-0.019728769 -0.047872923 0.032709025 -0.12439084 0.0383537 0.031430956 0.056922033 0.058600664
-0.090511434 -0.07338624 -0.08602981 0.016921232 -0.17702383 -0.12060319 0.044796795 0.14797252
0.00028239592 -0.041027114 0.13078476 0.12954733 -0.013691836 -0.023394711
00000000: f1b9 af3d 967f b1bd 1bcc f9bd 9320 47be
00000010: e7d7 50bd cb3e fc3d 46dd ddbd 19c5 053d
00000020: 3a9e a1bc 6616 44bd e6f9 053d a0c0 febd
00000030: c518 1d3d bfbd 003d 1427 693d 4007 703d
00000040: 0f5e b9bd 864b 96bd 6630 b0bd 659e 8a3c
00000050: bc45 35be cefe f6bd d87c 373d 1c86 173e
00000060: 8a0e 9439 0c0c 28bd 71ec 053e 0ea8 043e
00000070: b953 60bc 44a6 bfbc

agg.0.weight f4 [1, 30]
-0.1507601 0.0867992 0.055249356 0.08716632 -0.03360163 -0.045929767 0.026844677 -0.0015459671
-0.07358734 0.00056618237 -0.0865791 -0.12585826 -0.00018629483 -0.025925335 0.11623213 0.022883218
0.006534297 -0.00981277 0.050850406 -0.017310748 0.038788162 0.057871655 0.0416306 0.0052063256
-0.046669252 -0.047146346 0.05200445 -0.0023306066 0.007422509 -0.031733252
00000000: db60 1abe c7c3 b13d 264d 623d 4184 b23d
00000010: dda1 09bd da20 3cbd 5ee9 db3c 0ca2 caba
00000020: f6b4 96bd db6b 143a 6250 b1bd fde0 00be
00000030: 2358 43b9 5e61 d4bc 1c0b ee3d 9675 bb3c
00000040: a81d d63b bec5 20bc 8448 503d 45cf 8dbc
00000050: 56e0 1e3d d40a 6d3d d984 2a3d d399 aa3b
00000060: 4228 3fbd 871c 41bd 9e02 553d 17bd 18bb
00000070: 8538 f33b bafa 01bd
