multiple_model_analysis/results/er_experiment_SIS_size_10_34_alpha_0_scale_100_dynwght_False_std_reg_1.0_equiv_reg_0.0/neural_network.pth (torch, 16501 bytes, 14 tensors)

g.0.weight f4 [30, 1]
000000 f3 c7 16 be f6 7d 68 bf 76 f6 c0 3e c7 67 54 3f
       -0.14724712 -0.908172 0.37688035 0.8297085
000010 11 c6 17 3f 80 b2 58 bf 6a 08 54 3f 0c 57 0b 3f
       0.592866 -0.8464737 0.8282534 0.544297
000020 b0 d8 88 3f ed fe 13 bf 5f 01 88 3f 45 10 3c bf
       1.0691128 -0.5781086 1.0625418 -0.73462325
000030 f0 d9 92 3e 03 af 0d 3e 0d 9e 3e be ff f0 8c bf
       0.28681898 0.13836293 -0.18614979 -1.1011046
000040 ae 18 e0 be ac fc dc be e9 50 16 bd cf 42 5a bf
       -0.4376883 -0.43161523 -0.036698256 -0.8525819
000050 5f 87 4e 3e e1 0d ba 3e bc fe 40 3f f8 05 4b 3e
       0.20168827 0.36338714 0.75388694 0.19826496
000060 23 a3 37 3f 49 c3 11 3f cc 1e cb be 30 52 97 bf
       0.717333 0.56938607 -0.39671934 -1.1821957
000070 fe aa 9d be 3b a5 86 bf
       -0.3079452 -1.0519174

g.0.bias f4 [30]
000000 85 ee 09 bf e0 42 8d 3e b7 40 a7 3d 53 a8 a8 3e
       -0.53879577 0.27590084 0.0816664 0.3294092
000010 19 6c a3 be d0 5c 33 3e 8e 35 b5 3e 9e 49 04 be
       -0.3191841 0.17515874 0.3539242 -0.12918708
000020 7f df 91 bd 4c 2a 2d bf 5c db 39 bf df 9d 8e be
       -0.071227066 -0.67642665 -0.7260034 -0.2785482
000030 03 e2 0f 3f 2b 72 2d 3f d6 c4 bf 3c 76 e5 e6 3e
       0.5620424 0.6775233 0.023409288 0.4509694
000040 7b f5 af 3e 01 90 55 3d 58 96 6c be 4a 33 c1 3e
       0.34366974 0.052139286 -0.23104227 0.37734443
000050 30 fd 12 bf ad ec 07 bd e0 c8 21 bf ff 91 24 3f
       -0.57417583 -0.033184696 -0.63197136 0.6428527
000060 46 29 51 3f 38 6b 23 bf 35 aa 2b 3f ec bd 87 3e
       0.81703603 -0.6383548 0.6705659 0.26512086
000070 4a 09 ec bd 9d b6 49 bc
       -0.11525209 -0.012311605

g.2.weight f4 [30, 30]
000000 c5 cc 06 3e f3 f5 7c 3e 50 dd 1e be 95 01 12 be
       0.13164051 0.24703197 -0.15514112 -0.14258416
000010 9f 7c 5a 3d a3 1f c1 bb 92 4b 20 be 14 31 93 3d
       0.053341504 -0.005893664 -0.15653828 0.07187095
000020 5d 6e bd be 9e 50 44 3e be 30 f3 bd 7a 8e 5e bc
       -0.36998263 0.19171378 -0.11874531 -0.013583774
000030 c1 35 f8 3d d5 b5 0c 3e 8e 7e e0 bd 7a 05 fa bc
       0.12119628 0.13741238 -0.109616384 -0.03052019
000040 5b 5e b8 bd a3 c4 da bd a7 7c a7 bd 32 6a 0e 3e
       -0.09002372 -0.10682037 -0.081780724 0.13907698
000050 48 f5 45 3d 7b 0f 62 bd b0 71 d7 3d e2 ac f7 3d
       0.04832962 -0.055190545 0.10519731 0.12093522
000060 ee ba 42 3b 3c 7f 24 be c8 72 0e be 98 f8 7b 3e
       0.002971347 -0.16064161 -0.13910973 0.2460655
000070 58 35 a1 3c 0e 92 16 3e 8d 4a 2e 3e 30 07 a4 3d
       0.019678757 0.14704153 0.17020626 0.080091834
000080 f8 70 38 bd 73 f4 1b 3d a1 2e 0b 3d 06 3a 58 be
       -0.04502961 0.03807492 0.033980016 -0.21115884
000090 2c 0b 57 3d 26 c6 43 bc e8 11 5d 3e 86 81 11 be
       0.05250089 -0.011949098 0.21588862 -0.14209566
0000a0 66 0d e5 bd a3 b1 cf 3d 05 6b a7 3d 19 59 15 be
       -0.11184196 0.101413034 0.08174709 -0.1458477
0000b0 fe bb 09 3e 24 5e c2 bc 3e 56 90 bd 13 82 86 3d
       0.1345062 -0.02372653 -0.070476994 0.065677784
0000c0 e5 15 8d bc 01 c8 3c 3c 3c c1 a4 bd ba d6 96 3d
       -0.017222354 0.011522294 -0.08044669 0.073651746
0000d0 9c f8 3e 3e 61 dd 85 bd 72 22 62 bd 43 f0 14 be
       0.18649524 -0.06536365 -0.05520863 -0.14544778
0000e0 69 b3 96 bc 26 aa dc bd b5 e9 2c 3d 76 91 0c be
       -0.018396096 -0.10774641 0.042215068 -0.13727364
0000f0 1e 9a 19 3d cc 40 33 3d ab 64 a6 3d f8 a6 4b be
       0.037500493 0.043762967 0.0812467 -0.19887912
000100 e6 bb 94 3c a1 17 b0 3d 2c ff bd 3d e1 6e e5 bb
       0.018156003 0.08598257 0.09277186 -0.007001743
000110 05 e8 bb be f8 9c 3a 3d 3c 12 36 3d d1 0d ef bc
       -0.36700454 0.045559853 0.044450983 -0.029181393
000120 c2 a0 73 bd 72 90 4a bd 56 f3 15 3e ca 11 11 3e
       -0.059479482 -0.04945416 0.14643607 0.14166942
000130 1a 84 8b bd 19 9b b6 3d 47 73 8b bd 8f 20 98 bb
       -0.06812306 0.08916301 -0.06809097 -0.004642553
000140 64 53 d1 bc dc f4 93 bd 70 67 54 bd c3 69 95 3d
       -0.025552459 -0.072244376 -0.05185646 0.07295563
000150 99 ac 9f bd 56 f3 70 bc 3e de 1e bc 51 7c 42 3e
       -0.07796592 -0.014706453 -0.009696541 0.18992735
000160 c7 19 03 3e 85 bb 97 3e 7c ed 38 3c 21 19 0c be
       0.12802802 0.29635254 0.011287089 -0.13681461
000170 ea 04 fa 3d 0b e3 5c 3e db 7e 58 bc a9 60 2e 3d
       0.122079685 0.21570985 -0.013213838 0.04257265
000180 ce 97 36 3d 02 6f f6 3d a8 00 5d 3e 76 a4 ed bc
       0.044578366 0.12032892 0.21582282 -0.029009085
000190 c0 5d 8a bd 1c 81 3d be ab e5 25 3e 75 5b c1 bd
       -0.06756163 -0.18506283 0.16200893 -0.09441272
0001a0 eb 44 93 bd da 70 6a 3c 7d c3 ba 3d bb 6a a2 bd
       -0.071908794 0.0143091325 0.09119318 -0.079305135
0001b0 3e 54 03 3e 7c f0 cc bd f5 e9 40 3b 4f bc b8 bd
       0.12825105 -0.10006806 0.0029436324 -0.09020292
0001c0 87 43 8d bc b7 f8 89 3d 63 a2 69 3d cf 72 fb 3d
       -0.017244114 0.06736892 0.05703963 0.122777574
0001d0 a8 ed 2c be 14 2c 0c be bc 5b 9f bd 8e fa 50 be
       -0.16887534 -0.1368869 -0.07781169 -0.20408079
0001e0 dd 99 9b bd a1 59 7f bd 82 36 9f bd 37 ea 17 3e
       -0.075977065 -0.062341336 -0.077740684 0.1483544
0001f0 52 fb dd 3d db c4 e8 bd a9 49 01 3e cb b3 38 3b
       0.10838951 -0.11365672 0.12625755 0.0028183337
000200 6e b3 f4 3e 49 a5 e1 bd e0 63 e6 bd b0 90 cc bd
       0.47793144 -0.11017854 -0.112495184 -0.099885345
000210 06 f0 e2 bd f7 b5 4d 3d 95 12 ba 3d fa 78 f9 3c
       -0.11080937 0.050222363 0.090855755 0.030453194
000220 b3 06 5c bc 28 1f 14 3d db 73 ea 3b 1b 1b 26 be
       -0.013429332 0.036162525 0.0071549243 -0.16221277
000230 df 09 2b 3e 63 34 1e 3d 04 7b a9 3d 7c 8f 25 3e
       0.16702984 0.03862418 0.082754165 0.16168016
000240 93 72 1e 3e a5 26 7f 3c d8 79 42 3d f4 26 02 be
       0.15473394 0.015573178 0.04747948 -0.12710172
000250 c6 04 4b bd 01 18 bc be 1a a7 7a bd 3d 6d 0d 3e
       -0.0495651 -0.36737064 -0.061194517 0.13811202
000260 e5 29 8e 3a f8 ef 0a be 04 56 c6 bd 0e ce be 3d
       0.0010846226 -0.13568103 -0.09684375 0.093166456
000270 91 ea c5 3d 4c bf f3 3d 86 e5 bb be ed 8c 15 3e
       0.096638806 0.11901721 -0.3669855 0.1460454
000280 c5 0b 3b be 8c 8b 69 3c 57 28 04 bd f7 2f 1c 3d
       -0.18266208 0.014254462 -0.032265034 0.03813168
000290 23 7a 06 3e 41 30 1e 3e f3 3b 5e 3d 7d 10 5f 3d
       0.13132529 0.15448095 0.05425639 0.054459084
0002a0 bf 21 9a bd e7 15 13 be c8 4c 12 3e a8 82 21 be
       -0.07525968 -0.14363824 0.14287102 -0.15772498
0002b0 62 ba 2d bd d8 29 16 be 7a 40 3a be 63 8d 1f be
       -0.042414077 -0.146644 -0.18188658 -0.15581279
0002c0 98 09 10 bd c8 a1 65 3e f5 70 ee bb 20 a0 32 3e
       -0.0351654 0.22424996 -0.007276649 0.17443895
0002d0 5a 8b ac bc 24 2f 5b 3d 63 9b 85 3d 99 28 bb bd
       -0.021062542 0.053511754 0.06523778 -0.09138603
0002e0 7c a1 49 3d 14 b9 3b 3e ed cb dd 3d 2d c2 dc bd
       0.04922627 0.1833232 0.108299114 -0.107792236
0002f0 af 95 e4 bd 49 f6 7e 3d 5d 41 93 bc 62 a8 f1 3d
       -0.111613624 0.062246595 -0.017975504 0.117996946
000300 3a f4 9e 3d cd 1f 8a 3d 54 75 32 bc ca ef 54 3c
       0.07761426 0.06744347 -0.010892231 0.012996623
000310 5d 2d 47 3c 49 c8 7d 3b 0a 6a 44 3d 92 64 da bc
       0.012156812 0.0038724116 0.04795269 -0.026659284
000320 91 a7 bf 3c d0 15 e2 bc cc 8e 3b 3a a7 15 66 3b
       0.023395332 -0.027598292 0.0007154762 0.003510812
000330 b7 86 00 bd 5e fd e6 3c 05 76 c8 bc 62 a9 f5 3d
       -0.031378474 0.028196987 -0.024470339 0.11995198
000340 08 90 ae 3d 2c 43 1b 3e ae 09 f2 3d bc be c9 bd
       0.085235655 0.15162343 0.118182525 -0.09850833
000350 55 4a 50 3e 8f 13 e7 3d fd 06 a0 bd a7 95 62 3d
       0.20340855 0.112830274 -0.07813833 0.0553185
000360 73 50 da 3c ba a7 86 bd 3c 0e e5 3e a4 33 fc 3b
       0.02664969 -0.0657496 0.44737422 0.0076965857
000370 43 34 1a 3e 38 ae 3a 3d 22 a2 59 bc 5d ba 37 bd
       0.15058999 0.045576304 -0.013283284 -0.044855464
000380 23 12 18 be 2a 63 3a be a8 01 17 bd 6b 31 3d bd
       -0.14850669 -0.1820189 -0.036866814 -0.046189707
000390 8c 93 b6 bd 92 47 47 be 70 d8 73 bc ac 65 36 bc
       -0.08914861 -0.19460896 -0.014883146 -0.011132639
0003a0 d1 94 7e 3d 78 48 07 be 7f 3b e6 bd 3d ff 59 bd
       0.06215364 -0.13211238 -0.11241817 -0.05322193
0003b0 95 88 28 bc cd 75 81 be 1f 77 58 bd 06 ed a8 be
       -0.01028647 -0.25285187 -0.052847978 -0.32993335
0003c0 78 8b 03 3d b5 1d 0f 3e 25 1a 5e be 85 91 7f bd
       0.03211543 0.13976176 -0.21689661 -0.062394638
0003d0 90 aa 6d 3c 5e c4 81 3d ac 2f 57 be 78 51 ac 3c
       0.014505997 0.06336282 -0.21014279 0.021034941
0003e0 92 40 88 be 68 0c 21 bd d8 c4 14 bd 57 eb fc 3b
       -0.26611763 -0.039318472 -0.036320537 0.0077184844
0003f0 ac ea b1 3d 52 ef d0 3d 9e 53 e6 3d c0 84 c1 bc
       0.08687338 0.10201897 0.112464175 -0.02362287

g.2.bias f4 [30]
000000 68 fc 2d bd a3 23 bf 3d 27 9f 88 3d f6 8a e8 bd
       -0.04247704 0.09332969 0.06670981 -0.1135463
000010 c4 b2 19 be cb 40 09 3e d0 49 ef 3b b3 4f 98 3c
       -0.150096 0.13403623 0.0073025003 0.018592691
000020 dc 2b 39 3c 08 dd 11 be c4 02 8d 3c 90 38 55 bd
       0.011301961 -0.14244473 0.017213233 -0.052055895
000030 c3 35 24 3e da cf 0a be f8 a7 18 be 63 eb bd 3d
       0.16036133 -0.13555852 -0.14907825 0.09273412
000040 c2 28 c8 bd b0 a5 a0 3d f5 b5 47 3e fb 13 a5 3d
       -0.09773399 0.078441024 0.19503005 0.080604516
000050 98 af 88 bd 27 1d 0f bd 68 34 14 be 17 72 b6 bb
       -0.06674117 -0.03493991 -0.14473116 -0.0055678
000060 ee a6 6e 3d 97 d6 f2 bd cc ce 12 3e 85 fc aa 3d
       0.058264665 -0.11857336 0.14336699 0.083489455
000070 ed 52 9d 3b 26 c3 db bd
       0.0048011453 -0.10730581

g.4.weight f4 [1, 30]
000000 36 de 91 3d 7a a7 b8 bc d9 66 8e 3d 50 78 3b bd
       0.071224615 -0.022540797 0.069532104 -0.045769036
000010 24 cd e0 bd b9 82 d3 3d 3f df 13 3c e2 a1 1f be
       -0.109766275 0.10327668 0.009025394 -0.15589097
000020 42 0b 16 3d 4c 50 c5 3d f0 7b 1a be bb ca 86 bd
       0.03663183 0.09634456 -0.15086341 -0.065816365
000030 4b 76 94 bd 77 7d 4d bd d4 c9 11 3e 1b 00 3f bd
       -0.07249125 -0.05016848 0.14237148 -0.04663096
000040 af d4 36 3e f6 57 83 bc 9c ff 24 be f5 23 2f 3d
       0.1785457 -0.016033154 -0.16113132 0.0427589
000050 cc a3 cf bd df 06 06 3e 3e f6 32 bd 87 d1 1b be
       -0.10138664 0.13088559 -0.043691866 -0.15216647
000060 99 d7 4e be 7d 40 08 3e 0a 60 34 be 61 fd 6f bd
       -0.20199431 0.1330585 -0.17614761 -0.05859125
000070 e9 35 40 be 84 b0 67 3e
       -0.18770565 0.22625929

nn_fun1.0.weight f4 [30, 1]
000000 f7 35 41 3e 53 5a 05 3f 17 27 3c be f5 5e 88 3f
       0.18868242 0.5209095 -0.18374287 1.0653979
000010 d5 14 72 bf 69 36 43 be aa e3 41 3f 5b 18 67 be
       -0.9456304 -0.19063725 0.7573801 -0.22567885
000020 60 ce 81 bf a7 b5 5e 3f 5f ed 86 bf 83 ec 23 3f
       -1.0141106 0.8699593 -1.054119 0.64032763
000030 93 df a3 3e 5b a8 ee 3e b6 db 1f 3d 95 66 6a 3f
       0.3200651 0.4661282 0.039027892 0.9156278
000040 51 28 6a 3e 4b 30 4a 3f 32 2a 4f 3f b2 44 75 3e
       0.22866942 0.7897994 0.8092376 0.23951986
000050 ea a1 1b bf cf c5 de 3d e4 68 46 3f 15 e9 0f bf
       -0.60793936 0.10877573 0.775038 -0.5621503
000060 89 41 ee bc 6d 38 ac be 17 46 82 3e 0f af 2e 3f
       -0.029083984 -0.336368 0.254441 0.6823587
000070 31 c2 d8 3e ab 15 0a bf
       0.42335656 -0.5393931

nn_fun1.0.bias f4 [30]
000000 47 4b 3f 3f 77 6d 2f 3f 38 f5 e0 3e b1 36 ec be
       0.7472424 0.68526405 0.43937087 -0.46135476
000010 04 98 db 3c d2 a0 4b 3f 36 5f c0 3d d4 17 0c bf
       0.026805885 0.7954227 0.0939316 -0.5472386
000020 5c 4d 69 3e 68 78 bb be c4 6f 68 3e a5 d6 2c bf
       0.22783417 -0.366153 0.22698885 -0.6751502
000030 bc 7e 67 3e 7e 66 fb be d6 15 96 3c b6 91 a0 be
       0.22606939 -0.49101633 0.018320959 -0.3136117
000040 8e 3f da 3e 4d 49 27 3f f1 ba fc bd c8 cb fa be
       0.42626613 0.65346223 -0.12340344 -0.48983598
000050 3e a8 fc 3d 12 b9 d5 3e f7 cf 1d 3f f3 c2 c2 be
       0.12336777 0.4174276 0.61645454 -0.3803936
000060 fa 67 31 bf cd 9d 77 be 89 b9 7a 3e c3 0b 21 3e
       -0.6929928 -0.2418129 0.24484839 0.15727143
000070 d4 02 96 be 46 45 30 bd
       -0.29299033 -0.043034814

nn_fun1.2.weight f4 [30, 30]
000000 ab 36 3c 3e 11 6d 52 3e 80 ce 54 bd bd 5b 83 3e
       0.18380229 0.20549418 -0.051954746 0.25655928
000010 b5 70 3a bf dd 53 00 be 73 0c 9c 3e 14 fa e8 bd
       -0.7282823 -0.12531991 0.30478248 -0.113758236
000020 41 81 88 be 67 7e 4a 3e 98 69 51 be d2 28 22 3e
       -0.26661113 0.19774781 -0.20450437 0.15835884
000030 78 ca 16 3e c8 58 11 3e 6b 8b 47 3c 6a fa 80 3e
       0.14725673 0.14194024 0.012179236 0.2519105
000040 c9 0f be 3d 21 6d 30 3e 99 1a d4 3e 9b 8a da 3c
       0.092803545 0.1722913 0.41426542 0.02667742
000050 a3 80 96 be a1 3a 75 3d 5c 3a 61 3e 98 40 75 be
       -0.29395017 0.059870366 0.21994919 -0.23950422
000060 bb 44 00 3e b7 19 fc bd 88 34 ab 3c 6b 0a 8f 3e
       0.12526219 -0.12309592 0.020899072 0.27937636
000070 8d 3d 11 3d 45 bd 72 be 0b 99 0f bd b0 61 7b 3d
       0.03545909 -0.23705013 -0.035058063 0.06137246
000080 21 47 8e 3d 8a ea 26 bd 8f 8f 23 ba 2a 2c 77 3d
       0.069471605 -0.040751018 -0.00062393484 0.060344853
000090 9f 2b 44 3c c1 d5 c6 3d a7 57 1e bd ca f7 fb 3c
       0.011973291 0.09708739 -0.03865781 0.030757803
0000a0 e9 fc 86 3b d8 cd d8 bd 67 48 19 bb fb 62 fa bc
       0.0041195047 -0.105861366 -0.0023389102 -0.030564776
0000b0 65 2e 00 3d f1 8b c3 3c bd d0 8f bd db 97 f3 bb
       0.031294245 0.02387044 -0.070222355 -0.007433874
0000c0 9f 7e 36 3c c9 12 bd 3d a5 a9 ce 3b f5 08 d6 3c
       0.011138587 0.092320986 0.0063068443 0.026127318
0000d0 47 06 d5 3c 62 63 32 bd 43 37 a4 bd 2e 24 87 3d
       0.02600397 -0.04355181 -0.08018353 0.065986976
0000e0 5a f5 44 3c d9 06 dd bb 16 a5 c2 3c c9 ae 70 3a
       0.012021387 -0.006745201 0.02376036 0.00091813185
0000f0 fc b9 d6 3d ac 45 b5 3c 91 b3 b4 bc fe cb 12 bd
       0.104846925 0.022127949 -0.02205828 -0.035839073
000100 19 e9 36 bd 56 e3 1d bd d1 b5 ca 3d 11 31 c3 3d
       -0.044655893 -0.038546883 0.0989796 0.09530843
000110 eb 38 b8 bc e5 95 82 bd a9 ee 8d bc 73 e7 23 bd
       -0.022488078 -0.06376246 -0.017325716 -0.04001565
000120 4f 46 3e bd e0 b3 8e bd c5 6b 6b bc 60 39 2b 3d
       -0.04645377 -0.06967902 -0.014368956 0.041802764
000130 06 48 b1 3c d9 fe 98 3d 92 ce d2 3c 5e db 05 3d
       0.021640789 0.07470483 0.025733266 0.032679908
000140 06 f7 c1 3c 47 50 fa bd 7e f8 5e 3d 57 f7 47 3d
       0.02367736 -0.12222343 0.0544362 0.048819866
000150 2a 05 aa bd 0c f0 95 3d 13 2c fb 3d e4 8e 45 bd
       -0.08301766 0.07321176 0.12264266 -0.048231974
000160 17 6b a3 3c e5 ff 03 bd 1f e8 db 3c 86 2e 31 bd
       0.019948525 -0.032226462 0.026844082 -0.04325726
000170 b4 8d 00 3d e5 1f e5 3d 4f aa e1 bb 27 d8 ea bc
       0.03138514 0.11187724 -0.0068867574 -0.028667523
000180 87 1a 03 bd 3a b8 6d 3c 9a db 0a bd 8d ee b1 bd
       -0.03200772 0.014509255 -0.033900835 -0.08688078
000190 1c 3d 8a bd a1 d2 02 3e 98 4e 76 3d af 0a fb 3d
       -0.06749937 0.12775661 0.060133547 0.12257897
0001a0 f6 4b 87 3d 8c 49 a7 bc 0d 72 97 bd 39 bd 5d bd
       0.06606285 -0.020420812 -0.073948 -0.054135535
0001b0 0e aa b9 3c eb 1e 2c 3d 9c 06 46 bc c1 8b 77 bc
       0.022664096 0.042021673 -0.012086537 -0.0151090035
0001c0 a5 17 bc 3d e0 ca c4 bd 6c 4d 00 be af 42 46 3b
       0.09184197 -0.09609008 -0.12529534 0.003025215
0001d0 df d3 ba bd 1e 6d 47 3d a7 b0 df 3c 85 fe a1 bb
       -0.091224425 0.048688047 0.027305914 -0.004943671
0001e0 b2 ba 88 bc 52 44 02 be 54 50 70 3c 21 88 0b be
       -0.016690586 -0.12721375 0.014667589 -0.13626148
0001f0 54 cc 45 3e 3a b3 cf 3d fe 75 41 be 6b 96 13 3c
       0.19316226 0.10141607 -0.18892667 0.00900803
000200 84 4b 56 3e b9 25 23 bc a7 27 04 3e 24 c5 08 3e
       0.20927244 -0.009957724 0.12905751 0.13356453
000210 35 e0 fc bd 96 63 ee 3d a9 21 72 bc 52 89 e0 bd
       -0.123474516 0.11640088 -0.014778533 -0.10963692
000220 64 cb 84 3d a0 ba 28 be f0 c5 82 bd 01 5f 04 be
       0.06484106 -0.16477442 -0.0638541 -0.12926866
000230 ad 09 e1 3d 2a b8 05 3e ed e0 0c 3e 9a 80 35 3e
       0.10988174 0.13058534 0.13757677 0.17724839
000240 5a 36 21 3e cc 44 0a be b2 41 75 3d 9c 04 d8 bd
       0.1574339 -0.13502806 0.059877105 -0.10547754
000250 2d 59 2c 3d 44 22 14 3e 8a 0f 21 be e8 08 5c 3b
       0.042077232 0.14466196 -0.15728584 0.0033574644
000260 3f ae 71 bd 38 0b af 3c 02 92 6e 3e 07 9f 44 3c
       -0.059004065 0.021367654 0.23297885 0.012000806
000270 28 f0 96 bd 1e 8a 3e 3d ab 06 6b 3e fd fb 4c be
       -0.07370025 0.046518438 0.22951762 -0.20018001
000280 28 eb 47 3e cc 31 5e bd f1 aa 20 3e d2 cf 97 3c
       0.19523299 -0.05424671 0.15690209 0.018531714
000290 0f 53 d4 3d a1 b9 30 be 33 93 3d bd 31 29 eb bd
       0.10367405 -0.17258312 -0.04628296 -0.11482466
0002a0 fe 15 f6 3b e6 98 de bd 7f a9 75 3c b2 41 f6 3d
       0.007509946 -0.10869007 0.014994024 0.12024249
0002b0 60 7e b4 bd 82 0d 12 3d e5 4d d1 3d 7c 60 9f bc
       -0.088131666 0.035657413 0.10219935 -0.019455187
0002c0 16 1d 08 be 95 ff 4d 3d df 82 13 3e 9d 69 a0 bd
       -0.13292345 0.05029257 0.14405392 -0.07832644
0002d0 9f 48 55 3c 85 6f c3 bd 95 ee d1 3d 61 5e c9 3d
       0.0130178025 -0.09542755 0.10250584 0.098324545
0002e0 22 6e d4 bb 34 40 ca 3d a1 5b 5d 3c 18 7c 2e bd
       -0.0064828554 0.09875527 0.013510616 -0.042598814
0002f0 d6 33 78 3c 9e 85 30 bd 54 e5 5c bd 41 c8 ac bd
       0.015149077 -0.043096177 -0.05392964 -0.08436633
000300 e0 20 62 bc 73 86 eb 3d 92 8d 7e bc 22 c8 09 3d
       -0.013801783 0.115002535 -0.015536683 0.033638127
000310 b9 05 fa bd 59 1b 9e 3d fa 03 df bb 42 41 e5 3d
       -0.12208123 0.0772006 -0.006805894 0.111940876
000320 52 56 06 bd d9 6e 4c bd 22 74 3e 3d 8d b0 c7 3d
       -0.032797165 -0.0499104 0.04649747 0.09750471
000330 80 71 be bc c3 09 3f 3d 9b 54 00 bd 88 82 0c bd
       -0.02324748 0.04664017 -0.031330686 -0.03430417
000340 89 ba a2 bd 4c ed 65 3c 08 62 a1 bd df d7 32 bd
       -0.07945735 0.014033627 -0.07880026 -0.043662902
000350 a1 c0 9f 3d c4 fc 17 be 31 a8 6b 3d 0a 59 1e 3e
       0.07800413 -0.14842516 0.057533447 0.15463653
000360 a3 15 f0 3d c4 72 90 3d f1 bc 0a 3e c3 87 35 bd
       0.11722877 0.0705314 0.13548638 -0.044318926
000370 03 de 14 bd 3b c0 fe 3d 12 4c 3c bd 7e 38 50 bd
       -0.03634454 0.12439009 -0.045970984 -0.050835125
000380 1b 1f aa bd 76 44 af 3c 89 65 0e be ee 51 c6 bd
       -0.08306714 0.02139495 -0.1390592 -0.096835956
000390 5c 67 dd bd f6 61 d9 3d 3d d2 88 3d 78 d5 1c bd
       -0.1081073 0.10614388 0.06680725 -0.038289517
0003a0 98 0b ec bd 3f 93 d0 3d 88 b1 05 be f4 6c 30 3d
       -0.11525649 0.10184335 -0.13056004 0.043072656
0003b0 2e e3 bd 3c 2f 5c 55 bd 42 9d bf 3d a9 67 bd 3c
       0.023179617 -0.052089866 0.093561664 0.023120718
0003c0 fa d9 33 3b ef 37 6c bc d3 03 54 bc 64 db 13 bb
       0.0027443157 -0.0144176325 -0.012940365 -0.0022561187
0003d0 1b 2c 51 36 c7 f7 8e 3c 79 e0 08 38 f3 ba 22 ba
       3.11691e-06 0.017452134 3.2633983e-05 -0.0006207667
0003e0 c8 19 be 38 32 dc de 38 78 66 30 38 89 0d 93 3b
       9.064708e-05 0.000106267995 4.20571e-05 0.0044876975
0003f0 74 a1 3b 3a 43 49 7e bb df a7 ff ba b9 d1 b2 3a
       0.0007157542 -0.0038800992 -0.0019504986 0.0013642824

nn_fun1.2.bias f4 [30]
000000 d6 34 79 3c 5b ae c3 bd 67 05 00 be b5 a5 f8 3d
       0.015210351 -0.0955474 -0.12502061 0.12140981
000010 dd ba 9c 3d 78 a1 b1 3d 19 cd 7d 3d 82 c1 39 3e
       0.07652829 0.08673376 0.061963174 0.18140224
000020 e3 76 00 bd fe 76 c0 3d 17 9f 23 3a 3c cd 52 bd
       -0.03136338 0.09397696 0.0006241663 -0.051465258
000030 7b 42 74 3d 64 de 6d 3c 0b e9 f6 3b 92 b0 a6 bd
       0.059633713 0.014518354 0.007535105 -0.08139147
000040 30 e1 67 3c 5d 7b 88 3d 83 f6 d2 3d 74 a2 7b bd
       0.01415281 0.06664155 0.10300925 -0.061434224
000050 ce b3 ed 3d fb d3 08 bb 43 7a 64 bc dc b3 67 3c
       0.11606561 -0.0020878303 -0.013945165 0.014142003
000060 73 88 a3 3d 43 6d fb bc 4a 54 05 3d 8d d1 fb 3d
       0.0798501 -0.030691748 0.032551087 0.12295828
000070 ef 7b 20 3d a4 d6 de bd
       0.039180692 -0.10880783

nn_fun2.0.weight f4 [30, 1]
000000 4e 83 20 3f 7c 48 e0 3e 6c 7d 42 3f 0e 27 cc bd
       0.62700355 0.438053 0.7597263 -0.099683866
000010 ce 4e 13 bf e0 c3 7a 3f 9e 92 8d 3f 58 d4 72 be
       -0.5754212 0.9795513 1.1060369 -0.23713815
000020 9c 12 e3 3c a7 56 1e 3d 05 9f 7a bf 00 61 26 be
       0.027718835 0.038656857 -0.97898895 -0.1624794
000030 4a 48 8e 3e 73 59 c9 bd d6 94 d3 3e 79 11 6b 3e
       0.27789527 -0.09831514 0.4132449 0.22955884
000040 a5 82 27 3e 38 1d 2e 3c 9a 0d 91 bf d0 07 71 bf
       0.1635843 0.0106270835 -1.1332276 -0.94152546
000050 63 53 58 3f 19 9c 92 be 61 6e 64 3f 1a 8e a0 3d
       0.8450224 -0.28634718 0.89230925 0.07839604
000060 d5 e4 86 bf 3e 5e 1b bf 1d 63 94 3d cd be ab bc
       -1.0538584 -0.6069068 0.07245467 -0.020965004
000070 09 9d fd 3e e5 1e 13 bf
       0.4953387 -0.57469016

nn_fun2.0.bias f4 [30]
000000 fe 1f 90 be ff c4 8d be 76 9d 2e bf 92 23 05 3f
       -0.28149408 -0.2768936 -0.68209016 0.520074
000010 9d ac 07 3f 3f c6 04 3f 00 1b 58 bf ea ab 40 3f
       0.5299776 0.51865 -0.844162 0.7526232
000020 d4 fe 93 be d9 dd a1 be 70 2b 57 3f bf 32 13 3e
       -0.28905356 -0.3161457 0.84050655 0.14374827
000030 bc df c6 3e 79 c8 46 bf 69 c9 3c 3f c5 b0 90 bd
       0.3884257 -0.77649647 0.7374483 -0.07064966
000040 48 68 ac 3a d3 d0 41 bf d2 bb 51 3f c7 ac 2d 3f
       0.0013153637 -0.75709265 0.81927216 0.6784176
000050 ae a7 0b bf 7b d4 44 3d cd 70 23 bf 51 c7 0b 3c
       -0.54552734 0.0480542 -0.63843995 0.008531407
000060 04 da 4b 3f f3 e0 8b 3e 97 ee c7 3e 43 b9 cd bd
       0.7962954 0.2732006 0.39049217 -0.100451015
000070 7d 52 8a be 90 77 cb 3d
       -0.2701606 0.09934914

nn_fun2.2.weight f4 [30, 30]
000000 c4 5b 75 be 55 e2 85 bd 06 9c 82 3c b6 53 5c bd
       -0.23960787 -0.0653731 0.015943538 -0.05379077
000010 a8 37 6d 3e 2d 7f 4c 3e a7 33 ea bd 61 78 3f 3e
       0.23165762 0.19970389 -0.11435633 0.18698265
000020 c1 79 fd 3d 3f fe 75 bc 3a 3c 23 3e 7c 72 1e 3e
       0.12376738 -0.01501423 0.15940943 0.1547336
000030 d2 42 98 bd 7d 04 aa bd 51 60 c9 3b 02 fb 73 3c
       -0.0743462 -0.08301637 0.006145515 0.014891388
000040 4a 3e 53 bd b7 54 86 3d 84 5d 5c 3e eb 1b 82 3d
       -0.051573075 0.06559127 0.21520048 0.06352981
000050 e2 6c 7d be 6a f6 91 3d c4 73 55 be f4 ab eb 3c
       -0.24748567 0.07127078 -0.20844942 0.028768517
000060 05 2c 15 3d 1a d8 61 3e fb 2b 74 bd fc cc 46 bd
       0.036418933 0.22055092 -0.059612256 -0.048535332
000070 c9 98 04 bd 9e 16 e4 3d 51 a5 75 3a 26 03 db bc
       -0.03237227 0.111371264 0.00093706424 -0.0267349
000080 55 85 89 3d 27 82 86 3c 23 34 7e 3c b3 34 5b 3d
       0.06714884 0.016419483 0.01551536 0.053517055
000090 f6 fb 1f 3c c6 ff 6d 3d 58 fc ba ba a0 52 39 3d
       0.009764662 0.058105253 -0.0014265878 0.045244813
0000a0 4e ea 49 3d 03 a8 72 3c 76 f5 1d 3c c9 da d3 3c
       0.049295716 0.014810565 0.009641042 0.02586116
0000b0 5f b3 36 bd c3 c0 39 39 d1 b5 76 bb e8 cc 5f 3d
       -0.044604655 0.00017714784 -0.0037644992 0.054638773
0000c0 3f 01 8b bc 8b 50 86 3d d7 4b 71 bc 69 a0 4d 39
       -0.016968368 0.06558331 -0.014727554 0.00019610081
0000d0 8c 39 48 3b e3 c0 1a b7 88 52 10 3b 97 36 ae 3c
       0.0030551879 -9.224025e-06 0.0022021849 0.021266265
0000e0 7a 42 0b bd c4 a7 0b 3c 7e 23 9c bc f8 aa fe 37
       -0.033998944 0.008523885 -0.019059893 3.0358773e-05
0000f0 45 c1 5b bd c2 f2 bc 3c 31 0c e2 bd 67 05 0f be
       -0.053651113 0.023064975 -0.110374816 -0.13966905
000100 cc dd 02 3d 5b 03 ae 3c 8f ee fa 3d a6 5f ec bd
       0.031949803 0.021241834 0.12252533 -0.11541681
000110 0b a4 12 3e e6 29 60 bc d5 4b 0c bb 75 c3 ec 3c
       0.1432039 -0.013681864 -0.0021407504 0.028901795
000120 4b 3c e0 bd 27 ad fd 3c a7 b2 13 3e 56 5d ae bd
       -0.10949 0.030966355 0.14423619 -0.08513896
000130 0c f4 a8 3c f0 05 c8 3d dc cf ad 3c 9c 86 1c bd
       0.020624183 0.097667575 0.02121728 -0.03821431
000140 d7 dd c3 bb c5 6c 74 39 88 c0 dc bd 0e e3 82 bd
       -0.005977373 0.00023310173 -0.1077891 -0.063909635
000150 c7 b5 13 3e dd 57 9d 3d a7 28 f2 3d a2 80 84 3c
       0.14424811 0.07682774 0.1182416 0.016174618
000160 d6 59 84 3c c2 99 02 3d b4 12 6c 3c 73 d9 ce 3b
       0.016156118 0.031884916 0.014408756 0.006312543
000170 de 2a 19 bd e8 fb f1 bc 6e 72 be bc 70 bc 27 bd
       -0.037394397 -0.029539064 -0.023247924 -0.040951192
000180 a0 e0 a6 bc 16 73 9a 3a e8 5a e7 bc 4b a7 06 3d
       -0.020370781 0.0011783566 -0.02824159 0.032874387
000190 7e 56 85 3d ba 4a 1a bc 3c a6 2e 3d 3d 24 71 bd
       0.06510638 -0.00941723 0.042639002 -0.05887245
0001a0 31 a2 c0 bc 22 6a c4 3b 8f db 9f 3b 68 2f 5a 3d
       -0.023514839 0.0059940973 0.0048784683 0.053267866
0001b0 8f 63 60 3d e4 b4 76 3c d3 e7 95 3c 61 d6 e6 bb
       0.054782446 0.015057776 0.018299019 -0.007044599
0001c0 72 60 05 bd 59 3d 6e 3a 5f e9 53 3d 0c d4 6e bc
       -0.03256268 0.0009088121 0.051736232 -0.014576923
0001d0 82 d5 1a bd e0 dd 7f 3a 54 9a 05 3c 58 60 a3 bc
       -0.037801273 0.000976054 0.0081544705 -0.019943401
0001e0 6b 18 45 3d f6 ab 28 3c c8 be 5f bd 36 bc fe 3d
       0.04811899 0.010294905 -0.054625303 0.12438242
0001f0 6d a9 4b bd 12 79 dc bd 8e c6 bb 3d 9e bb 95 bd
       -0.049722124 -0.1076528 0.09168731 -0.07311176
000200 8b 99 b1 bc 67 54 d5 bd ff 6f 01 3e 88 81 85 3d
       -0.02167966 -0.10416489 0.1264038 0.06518847
000210 6f 69 f6 bd 44 4a 22 be 23 aa 42 bd 1a 35 90 bd
       -0.120318286 -0.15848643 -0.047525536 -0.07041378
000220 80 7f ff bd a1 15 0a 3e 10 34 2f 3e 58 eb 2f 3e
       -0.124754906 0.13484813 0.17109704 0.1717962
000230 74 df 3b bd 15 70 0a 3b 58 40 9c 3c dc b4 a6 3c
       -0.0458674 0.0021123935 0.01907365 0.020349912
000240 3c af 10 3d d3 f4 90 3d e9 16 8c bb 27 e1 ee 3d
       0.035323367 0.070779465 -0.004275192 0.11664038
000250 e6 bc cc bc ef 7e 97 bd 1e 81 f7 3d 38 dd f9 3c
       -0.024992418 -0.073972575 0.12085174 0.030500993
000260 4a 88 c1 bd f5 c1 07 3e c2 c0 fd bd 04 95 42 be
       -0.09449823 0.13257582 -0.12390281 -0.19002157
000270 4b bd 1d 3e 3d ac ac bd 1f 4d 8f bd 71 c2 27 bd
       0.15404241 -0.08431289 -0.069971316 -0.04095692
000280 df 86 6e 3d 1b 6b 4d 3d b8 b0 2a bc 12 69 42 3d
       0.05823409 0.05015097 -0.01041811 0.047463484
000290 ad 8f 06 3e 95 60 15 3d 95 c3 93 bc c7 92 01 be
       0.13140745 0.03646906 -0.018037597 -0.12653647
0002a0 12 fe cf bd 43 92 e6 bd 11 da a6 bc 82 73 79 bd
       -0.10155882 -0.11258366 -0.020367654 -0.060901172
0002b0 7b 57 4c 3d ef 86 1d bd 25 6f 91 3d ec 34 bd bc
       0.049888115 -0.03845876 0.07101277 -0.023096524
0002c0 c7 22 7f bd 80 17 14 3e 85 a6 98 3d 9f f6 94 bd
       -0.062289026 0.1446209 0.07453636 -0.07273602
0002d0 fb d4 bd bc 0c 55 81 bd 77 73 a1 3d 84 e0 0e 3e
       -0.023172846 -0.063150495 0.07883351 0.13952833
0002e0 45 ea 65 bd ce 72 2f bd b9 13 86 bd 19 8b ed 3d
       -0.05613162 -0.042834096 -0.065467305 0.115987964
0002f0 69 bc 31 bd 40 81 4e bd c0 ed 56 3d 28 20 05 3d
       -0.043392573 -0.05041623 0.05247283 0.03250137
000300 f7 7b 4c 3d ba 6e 29 3d 30 86 f5 bd 02 84 8e bb
       0.04992291 0.041365363 -0.11988485 -0.0043492327
000310 9c 4a 06 3d 5c f2 a3 3d 24 d2 d5 3d 99 c7 be 3c
       0.032785997 0.08005211 0.10440472 0.023288535
000320 d9 7d f6 bd 5a 0b 41 ba a5 07 5c 3d d4 16 2c 3a
       -0.12035722 -0.0007364057 0.053718228 0.0006564681
000330 5e fa ef bd 05 d0 60 bd d8 2b 7d bd 2f 9d 05 3d
       -0.117176756 -0.054885883 -0.06180939 0.032620605
000340 40 c5 e2 3b 29 bc 4e bb fa a3 0a 3e 10 28 cb bc
       0.0069204867 -0.0031545258 0.13539115 -0.024799377
000350 cf 87 14 3e 6d b5 b2 3c 86 b7 a6 bd 09 6c b6 bd
       0.14504932 0.021815026 -0.08140473 -0.08907325
000360 f3 f3 a3 bd c8 ec 46 be 9b 2f 0b bd c5 ad b0 bd
       -0.08005514 -0.19426262 -0.033980947 -0.08626894
000370 e7 f3 4e bc ea 40 bf 3d 98 c8 4e bd e8 25 2d 3e
       -0.012631393 0.09338553 -0.05048427 0.16908991
000380 1c 50 ec 3d 66 b5 93 bd 10 87 a0 bd 5e d0 05 be
       0.11538717 -0.072123334 -0.07838261 -0.13067767
000390 7e 9c 6d 3d c9 d7 a5 3c 72 00 50 3c 34 b8 af bc
       0.05801057 0.020244496 0.012695419 -0.02145014
0003a0 d2 f4 ac bc e5 67 a7 bd 7c c1 87 3d 84 f7 08 be
       -0.021112833 -0.08174113 0.06628701 -0.1337567
0003b0 62 9e fc 3c f9 fe 25 3e b6 dc 44 bd 0c c1 62 bd
       0.030837242 0.16210546 -0.04806205 -0.055359885
0003c0 16 18 25 ba c2 a2 0c 3a db dd 5a bc 26 d2 da bc
       -0.00062978396 0.0005364829 -0.0133585585 -0.026711535
0003d0 a0 14 75 3a 14 de d1 bc 74 e0 80 3c 9d c2 0d 3d
       0.00093490817 -0.02561859 0.015732028 0.034609426
0003e0 40 0f 43 bc 5b 95 96 bc 4b f2 3d 3b 5d 60 9b 39
       -0.011905491 -0.018381765 0.002898353 0.000296357
0003f0 84 31 9c bb eb 8f fd 3c ed 77 ae 3c 01 4e 5c 37
       -0.004766645 0.030952414 0.02129742 1.3131184e-05

nn_fun2.2.bias f4 [30]
000000 46 30 0a be d6 02 9b 3b d8 2d cf 3c e3 ab 43 bd
       -0.13494977 0.0047305627 0.025290415 -0.047771346
000010 fd 42 b6 bd 3b 30 8c 3d f0 da b0 bc 64 76 e7 3d
       -0.08899496 0.06845137 -0.021588773 0.11301878
000020 24 c0 de 3b e4 2f ce 3d 99 99 58 bd 9f 1e 31 be
       0.0067978073 0.10067728 -0.052880857 -0.17296837
000030 62 e4 9d bd 07 a3 d6 bd 59 54 31 3d cc 57 e0 bc
       -0.07709576 -0.10480314 0.04329333 -0.027385615
000040 3d 3e a0 bd 09 dd 11 3e b5 af cf bd 6c ad f0 bb
       -0.07824371 0.14244474 -0.10140935 -0.0073448922
000050 45 bc db bb 2a 63 7e 3d f2 fa 2b bd fb cb 36 3d
       -0.006705793 0.06210629 -0.041987367 0.044628125
000060 6b 5c 97 3d 26 d3 8c bd 38 b8 c3 3d 74 44 82 3d
       0.07390674 -0.06876211 0.09556621 0.06360713
000070 d6 20 d4 3c 78 8a 23 bd
       0.025894564 -0.039926976

agg.0.weight f4 [1, 30]
000000 d6 8d 05 3e 22 b9 4e ba f5 31 74 bb 16 ab 62 3c
       0.13042387 -0.00078858633 -0.0037261222 0.013834735
000010 24 28 3f bc 54 85 70 3d 43 d9 cd 3b cc 52 ba bd
       -0.011667285 0.0587209 0.006282003 -0.090978235
000020 3a d8 ae b6 96 be 5b 3d d9 04 a9 39 7c ca 33 3d
       -5.210776e-06 0.053648554 0.00032237804 0.043894276
000030 2a ab 07 bb 65 b1 2a 3a c6 3b c1 3c 82 53 82 3c
       -0.0020701387 0.0006511419 0.023588073 0.01590896
000040 a8 6d 6b 3d e6 a2 61 bc d1 62 b5 bc b9 f7 ad 3d
       0.057477623 -0.013771748 -0.022141846 0.08494515
000050 db 60 a6 b9 f5 fe 29 bc 02 50 93 b9 15 69 00 3c
       -0.0003173415 -0.010375728 -0.00028097635 0.0078375535
000060 f6 34 0c 3d 76 3a ec 3b cb 32 2d 3a 87 d5 b8 b9
       0.034230195 0.0072091175 0.0006606995 -0.00035254305
000070 d4 f3 c5 3d 19 4b 9d bd
       0.09665647 -0.07680339
