multiple_model_analysis/results/er_experiment_PD_size_10_4_alpha_0_scale_100_dynwght_False_std_reg_1.0_equiv_reg_0.0/neural_network.pth (torch, 16501 bytes, 14 tensors)

g.0.weight f4 [30, 1]
0	0xbf14e410	-0.58160496
1	0x3eb20b86	0.34774417
2	0xbee35b0a	-0.44405395
3	0x3f3a331b	0.7273423
4	0x3cd47ac2	0.025937442
5	0xbf07dcd1	-0.53071314
6	0xbe9ad9ac	-0.30244195
7	0x3ec69acf	0.38789985
8	0xbd8c08f6	-0.06837647
9	0x3e42960c	0.19002551
10	0xbf0586d8	-0.5215888
11	0x3f5ac9a0	0.85463905
12	0xbf0ee56e	-0.5581883
13	0xbf2792a9	-0.6545816
14	0xbedead1e	-0.43491453
15	0xbeb3d6b1	-0.35124734
16	0xbf32a450	-0.6978197
17	0x3ea56781	0.3230553
18	0x3f3fa6e6	0.7486404
19	0xbd50dade	-0.050989978
20	0x3eba0724	0.36333573
21	0x3ed80b0c	0.42195928
22	0xbf26a005	-0.6508792
23	0x3dabf0ad	0.08395515
24	0x3eab9105	0.3350908
25	0x3e205e6a	0.15661016
26	0xbf25d9a6	-0.6478523
27	0xbe613a71	-0.2199495
28	0xbe20d2d2	-0.15705422
29	0x3e485b4b	0.19566076

g.0.bias f4 [30]
0	0xbf153161	-0.5827847
1	0xbe73a734	-0.23794252
2	0x3e059c97	0.13048016
3	0xbf35c6db	-0.71006554
4	0xbf0cf076	-0.55054414
5	0xbf113c4f	-0.5673265
6	0x3e80e0a3	0.25171384
7	0xbf0c484b	-0.5479781
8	0xbf4fea69	-0.81217057
9	0xbf0e2846	-0.555302
10	0xbe3b4cf2	-0.18291071
11	0xbebaead5	-0.36507288
12	0xbf2c52a2	-0.6731359
13	0x3ebac365	0.364772
14	0xbe1f0f92	-0.15533283
15	0xbf2d3a1a	-0.6766678
16	0x3ef8fff7	0.48632786
17	0x3e603b93	0.21897726
18	0x3d1e4bba	0.038646437
19	0x3f605e0e	0.87643516
20	0xbe40898c	-0.1880247
21	0x3f0ab7da	0.54186785
22	0xbec64ffd	-0.387329
23	0xbefa32ec	-0.48866975
24	0xbd8a1fd7	-0.06744354
25	0xbf13c2be	-0.5771903
26	0x3ed7c6f7	0.42143986
27	0xbf5566ef	-0.8336019
28	0xbe157403	-0.14595036
29	0x3f4a68f7	0.79066414

g.2.weight f4 [30, 30]
0	0xbc6f12a7	-0.014591849
1	0xbc2112bd	-0.009831128
2	0x3d2c503d	0.04206871
3	0xbcfd2187	-0.030899776
4	0xbd043483	-0.03227664
5	0xbcdb7529	-0.026789265
6	0xbb85ae82	-0.004079641
7	0xbbdf1a5e	-0.006808563
8	0x3d3f5700	0.04671383
9	0x3d9fe17a	0.07806678
10	0x3d8f4d20	0.06997132
11	0x3d6ddf4b	0.058074277
12	0xbd93d3d0	-0.072181344
13	0x3c888c51	0.01666847
14	0xbdd9bce0	-0.10631728
15	0x3d7d9b1d	0.061915506
16	0x3cbe4a1e	0.023228701
17	0xbc517ede	-0.012786595
18	0x3dc6bfe4	0.09704569
19	0xbd9f2f33	-0.077726744
20	0xbc0d8589	-0.008637794
21	0x3bbbf1a3	0.0057355925
22	0x3d30f32a	0.04320065
23	0x3d8d9578	0.069132745
24	0xbd34c9fc	-0.04413794
25	0x3da7072d	0.081556655
26	0x3cb29853	0.02180115
27	0x3cba6b3b	0.02275621
28	0xbda20065	-0.079102315
29	0x3d564cf3	0.05231948
30	0x3d48d065	0.049026866
31	0x3c70fc4b	0.014708589
32	0x3e12e64d	0.14345665
33	0xbdfb9b0f	-0.122854345
34	0xbd2c08c5	-0.04200055
35	0xbd450d52	-0.048108406
36	0xbd4c030e	-0.0498076
37	0x3dd7615c	0.10516617
38	0x3c430584	0.0119031705
39	0x3d28f9df	0.04125392
40	0xbe01fd41	-0.12694265
41	0xbdf480f6	-0.1193866
42	0x3dee64d0	0.11640322
43	0xbb1dd64a	-0.0024084025
44	0x3d9ae4ee	0.07563196
45	0xbddc1b56	-0.107474014
46	0xbd0ffe60	-0.0351547
47	0x3d56053c	0.052251086
48	0x3dcc835f	0.099859945
49	0xbbe0bb02	-0.0068582306
50	0xba200f1c	-0.0006105767
51	0xbdf15bb5	-0.1178507
52	0xbd4b0958	-0.049569458
53	0x3dac25a2	0.084056154
54	0xbe0d74b5	-0.13814051
55	0xbdae4bf4	-0.08510581
56	0xbd95163b	-0.07279631
57	0xbdc957dd	-0.09831212
58	0x3e07229e	0.13196799
59	0xbd9dcd20	-0.0770514
60	0xbcbcff63	-0.023070997
61	0xbc1a3972	-0.00941311
62	0xbc176380	-0.009240031
63	0xbc92eaab	-0.017934164
64	0x3bba8118	0.0056916587
65	0xbd63596f	-0.055505212
66	0x3caae780	0.02086234
67	0x3c02c9a3	0.007982644
68	0x3d74b7ee	0.05974572
69	0x3c84ba02	0.016201977
70	0x3db78183	0.08960249
71	0x3cfaa950	0.030598313
72	0xbd63e376	-0.055636846
73	0x3c74a010	0.01493074
74	0x3cb976a3	0.022639578
75	0xbd1e8ca9	-0.038708363
76	0x3c731aed	0.014837963
77	0x3d964edd	0.07339261
78	0x3d8d9793	0.06913676
79	0xbd8d052f	-0.06885754
80	0xbbfba3f6	-0.007679458
81	0x3da9dfdc	0.08294651
82	0xbd88c3d5	-0.06677977
83	0xbc142077	-0.009040943
84	0xbd9c914e	-0.07644902
85	0xbd983df5	-0.07433692
86	0x3ca25c26	0.01981933
87	0x3d512188	0.05105737
88	0xbd85d2c1	-0.06534339
89	0xbc9a0d39	-0.018805133
90	0xbd76b9d2	-0.060235806
91	0xbef2cab0	-0.47420263
92	0x3df7b632	0.12095298
93	0xbda59005	-0.0808411
94	0x3c755421	0.014973671
95	0xbddd296f	-0.107989185
96	0x3e15fe32	0.14647749
97	0xbdbbb04a	-0.09164484
98	0xbda95b88	-0.08269411
99	0xbdd688fc	-0.104753464
100	0x3d1c75f9	0.038198445
101	0xbe5ec29a	-0.21753922
102	0xbe1fcd3c	-0.15605634
103	0x3f2caee4	0.6745436
104	0xbd83a132	-0.0642723
105	0xbe1aabd4	-0.1510461
106	0x3f4b5a6a	0.79434836
107	0xbddc11be	-0.107455716
108	0xbe6c745e	-0.23091266
109	0xbd4193ad	-0.047259975
110	0xbf272c2b	-0.6530177
111	0x3da4c378	0.08045095
112	0xbc16ee5b	-0.009212102
113	0xbdf975eb	-0.12180694
114	0xbe10f046	-0.14154157
115	0xbd9da5c7	-0.07697635
116	0x3f8b690f	1.0891436
117	0x3cb3a453	0.021928942
118	0xbdbd7dfc	-0.09252545
119	0xbd55c1e3	-0.052186858
120	0x3e27198a	0.16318336
121	0xbda42b8b	-0.08016118
122	0xbd009197	-0.031388845
123	0x3df1dcd8	0.11809701
124	0xbd8c5077	-0.06851285
125	0x3e0a1cb0	0.13487506
126	0xbdd5d537	-0.10441058
127	0x3dcf970b	0.10136231
128	0x3dfbb216	0.122898266
129	0xbcbde3b1	-0.02317986
130	0xbe1bbdf0	-0.15209174
131	0xbdc970a9	-0.09835941
132	0x3d353c20	0.044246793
133	0x3d5b864a	0.053594865
134	0xbdf85bf8	-0.12126917
135	0xbe162824	-0.1466375
136	0x3e0d5b3e	0.13804337
137	0x3de018af	0.10942208
138	0xbd8ce2d1	-0.06879199
139	0x3b294444	0.0025828043
140	0xbdab80a7	-0.08374148
141	0x3dc5e7b4	0.096633345
142	0xbdec0a18	-0.11525363
143	0xbdc26d7e	-0.0949354
144	0xbdaa4001	-0.08312989
145	0xbd15bd6b	-0.036557596
146	0x3d825895	0.06364552
147	0xbe228e6a	-0.15874639
148	0xbd48f902	-0.049065597
149	0xbda3980b	-0.07987984
150	0xbd5c9426	-0.053852223
151	0x3d8d1eb4	0.06890622
152	0x3b9675c0	0.0045916736
153	0x3d3c0eb6	0.045912467
154	0xbdde86a6	-0.10865526
155	0xbc5d5969	-0.013510087
156	0x3dbed747	0.09318405
157	0xbc812f6a	-0.01576968
158	0xbe049c10	-0.12950158
159	0x3deff76a	0.11717112
160	0xbe2a92b1	-0.16657521
161	0x3d60bf83	0.05487014
162	0x3dfbd639	0.12296719
163	0x3d33e961	0.04392374
164	0x3d9cd23f	0.07657289
165	0x3e055d88	0.1302396
166	0x3df27949	0.118395396
167	0xbd29218f	-0.04129177
168	0x3d839bee	0.064262256
169	0x3e1614ee	0.14656422
170	0x3cccb706	0.024989616
171	0xbdf9fc00	-0.12206268
172	0x3dfdb070	0.123871684
173	0x3e19433f	0.14967059
174	0x3dc82d86	0.09774308
175	0x3d922103	0.07135203
176	0x3d4600d1	0.048340622
177	0xbde637ce	-0.11241113
178	0xbd45a32b	-0.048251312
179	0x3dafca6e	0.08583532
180	0x3cf63b5f	0.030057607
181	0x3d7558f6	0.059899293
182	0xbd74f31e	-0.059802167
183	0xbe08a77d	-0.13345142
184	0x3d9bd224	0.076084405
185	0xbe00e482	-0.12587169
186	0xbdef527e	-0.11685656
187	0x3e4f4cba	0.20244113
188	0x3d6d98f9	0.058007214
189	0x3d8c57d9	0.06852693
190	0xbdca4e5a	-0.098782256
191	0x3e1d507c	0.15362734
192	0x3b8b402a	0.0042495923
193	0xbde208a3	-0.110368036
194	0xbc2f418a	-0.010696778
195	0x3e1012eb	0.14069717
196	0xbe60d0f0	-0.21954703
197	0x3e4361c7	0.19080268
198	0x3e476a54	0.19474155
199	0x3d114c2b	0.03547303
200	0x3db238e7	0.087022595
201	0x3c7aa747	0.015298671
202	0x3e08fd8d	0.13377972
203	0xbe052a68	-0.13004458
204	0xbd058dfe	-0.032606117
205	0x3d83269d	0.06403849
206	0xbdfd8a6c	-0.123799175
207	0x3e1b9775	0.15194495
208	0x3a9548b5	0.0011389466
209	0x3c538792	0.01291074
210	0xbcc4085f	-0.023929773
211	0xbe61b8bc	-0.22043127
212	0xbe336551	-0.17519118
213	0xbddc08d9	-0.10743875
214	0xbe64e70c	-0.22353762
215	0x3da2877d	0.079359986
216	0x3dd2fd3d	0.103022076
217	0xbd085ac4	-0.033289686
218	0xbdb13f1b	-0.086546145
219	0xbe2a8b10	-0.1665461
220	0xbe27856e	-0.16359493
221	0xbc912995	-0.017720023
222	0x3bcc2100	0.00622952
223	0xbd072fb3	-0.033004474
224	0xbe145e5c	-0.1448912
225	0x3d46af27	0.048506882
226	0x3d1b4dcf	0.037916
227	0x3e1ba110	0.15198159
228	0x3e403aae	0.18772385
229	0x3e720beb	0.23637359
230	0xbe0863fd	-0.13319393
231	0x3d846a44	0.06465581
232	0xbe31c1eb	-0.1735913
233	0xbd7a8195	-0.061158735
234	0x3d6acb9a	0.057323076
235	0xbe111385	-0.14167602
236	0x3e3f83e8	0.18702662
237	0xbdfc6370	-0.12323654
238	0x3d3529d8	0.04422936
239	0x3d7983d7	0.060916748
240	0x3e076a77	0.13224207
241	0x3d549bcc	0.051906392
242	0x3d763a94	0.06011446
243	0x3c9c8631	0.019106956
244	0xbd7d1d0d	-0.061795283
245	0xbdc66e0e	-0.0968896
246	0x3d8c09b8	0.06837791
247	0x3dbfd13f	0.093660824
248	0x3d33c1f9	0.04388616
249	0x3e1afe4d	0.1513607
250	0x3dd38f52	0.103300706
251	0x3d44f5dc	0.048086032
252	0xbc99d400	-0.018777847
253	0x3d7ce3a4	0.061740533
254	0xbdf55bff	-0.119804375
255	0xbe0a92ec	-0.13532609

g.2.bias f4 [30]
0	0x3d7198ce	0.058983617
1	0x3d3db107	0.046311405
2	0xbe077cf6	-0.13231263
3	0xbda6db86	-0.081473395
4	0xbe06f8d7	-0.13180862
5	0xbe2444b0	-0.16041827
6	0x3dbcc39f	0.09216999
7	0x3debba48	0.1151014
8	0x3e16cdad	0.14726897
9	0xbca98c75	-0.020696858
10	0xbdd13a90	-0.10216248
11	0xbe299dc1	-0.16564085
12	0x3daee0dc	0.08538982
13	0xbda2e2a0	-0.079533815
14	0x3d21aa15	0.039468843
15	0x3e01f4cd	0.1269104
16	0x3e53c1e1	0.20679428
17	0xbde3e194	-0.1112701
18	0xbe4017d1	-0.18759085
19	0xbd9b3d99	-0.07580108
20	0x3dde8cbb	0.10866686
21	0x3d0f9ed5	0.035063583
22	0xbd4eff69	-0.050536547
23	0xbe44e13c	-0.19226545
24	0x3d5bfba6	0.053706788
25	0x3e2f8727	0.171414
26	0x3d02c528	0.031926304
27	0x3ab087c5	0.0013468197
28	0xbdb126f7	-0.0865001
29	0x3da72a71	0.08162392

g.4.weight f4 [1, 30]
0	0xb955d06a	-0.00020390903
1	0x3a534a90	0.0008060122
2	0xb96c64ca	-0.0002254426
3	0x3e2ad5b9	0.16683091
4	0x3a91d296	0.0011125382
5	0x3c1ef8b2	0.009702848
6	0xbbf29755	-0.007403294
7	0xbdfa6141	-0.12225581
8	0x3a19777e	0.00058542925
9	0xbc37285a	-0.011179054
10	0x39865e23	0.0002562861
11	0x3b9da524	0.004810946
12	0xbe18ceb3	-0.149226
13	0xbb40e2b9	-0.0029432012
14	0x38b67c90	8.701638e-05
15	0x3e0e3902	0.13888934
16	0xbd786b7b	-0.060649376
17	0x3e4c57e6	0.19955406
18	0x3e48ccdc	0.19609398
19	0xbbad51b4	-0.005289281
20	0xb91ad8d4	-0.00014767359
21	0xb8ac4f4c	-8.216369e-05
22	0x3e0332ee	0.12812397
23	0x3c1630b0	0.009166881
24	0xba53bc64	-0.00080770836
25	0x3ea98c12	0.33114678
26	0xbcbfc0c1	-0.023407342
27	0xbba9e8d6	-0.005185227
28	0x3c712f1c	0.014720704
29	0xbe58eb81	-0.21183588

nn_fun1.0.weight f4 [30, 1]
0	0x3d8d49ff	0.06898879
1	0x3f65e7db	0.8980691
2	0xbe8523a1	-0.26003745
3	0x3dbab703	0.09116938
4	0xbe4e4e1a	-0.20146981
5	0xbd994cea	-0.07485373
6	0xbf014a7a	-0.5050427
7	0x3f1983ed	0.5996693
8	0x3ed87323	0.42275342
9	0x3d01002f	0.031494316
10	0xbc609da8	-0.013709463
11	0x3e6cf469	0.2314011
12	0xbe04264b	-0.12905233
13	0xbea25a1c	-0.31709373
14	0x3e58f447	0.21186934
15	0xbeba436a	-0.36379558
16	0x3eaf3b08	0.34224725
17	0xbf3306a0	-0.69931984
18	0xbe18c032	-0.14917067
19	0xbf0c3723	-0.5477163
20	0xbf3ace8a	-0.72971404
21	0xbf5a4518	-0.8526168
22	0x3f36d881	0.7142411
23	0xbc80c661	-0.015719594
24	0xbf666d78	-0.90010786
25	0xbb8d1bfe	-0.0043063154
26	0xbc5678bd	-0.01309031
27	0x3f16adf3	0.58859175
28	0x3f76e7ee	0.96447647
29	0xbe7bb951	-0.24582411

nn_fun1.0.bias f4 [30]
0	0xbf0f26e8	-0.5591874
1	0xbf1741e7	-0.59084934
2	0xbe6a1bf7	-0.2286223
3	0xbef1e2d3	-0.47243366
4	0x3f628337	0.8848147
5	0xbd7ba671	-0.061438028
6	0x3ea5d950	0.3239236
7	0x3ec91bfc	0.39279163
8	0xbe05a0e1	-0.13049652
9	0x3e605d94	0.21910697
10	0x3e8db26b	0.27675185
11	0x3e89c155	0.26905313
12	0x3e908b32	0.28231198
13	0xbeec323b	-0.46132073
14	0xbe045eb3	-0.1292675
15	0x3ca1bc20	0.019743025
16	0x3f3a66b2	0.7281295
17	0x3ed0ce10	0.40782213
18	0x3f3243be	0.69634616
19	0x3edbfb93	0.42965373
20	0xbeaad31a	-0.33364183
21	0x3e560f22	0.2090421
22	0x3f5358ae	0.8255719
23	0x3e9ef6d7	0.310477
24	0x3f0f1c6c	0.55902743
25	0x3e636f79	0.22210492
26	0xbe708fcf	-0.23492359
27	0x3d8d9829	0.06913788
28	0xbf316ee4	-0.6930983
29	0x3f55cb8c	0.8351371

nn_fun1.2.weight f4 [30, 30]
0	0x3af6ce76	0.0018829841
1	0x380431ef	3.1517757e-05
2	0xbc9748ca	-0.018467326
3	0xbcf68880	-0.030094385
4	0x3bd7caec	0.0065854695
5	0xbbc623f5	-0.006046767
6	0xbb565d9d	-0.0032709606
7	0x3d01ff13	0.0317374
8	0xbd02eea7	-0.031965878
9	0x3d257ee7	0.040404227
10	0xbd8b1572	-0.067912
11	0x3c2bbecc	0.010482501
12	0xbc76ccf2	-0.015063511
13	0x3c74dace	0.014944745
14	0x36bb4b1d	5.5817786e-06
15	0xb98e4e50	-0.00027142698
16	0x3c81c423	0.015840596
17	0xb768ad41	-1.3868616e-05
18	0xbcd60c20	-0.026128829
19	0xbcf4fdce	-0.02990618
20	0x3d17192e	0.036889248
21	0xba2023ef	-0.000610887
22	0x3cdf524b	0.02726092
23	0xbc458110	-0.012054697
24	0xb7c9dd9e	-2.4064266e-05
25	0xbcf40fd9	-0.029792713
26	0xbc1b6e8a	-0.009486804
27	0xbbb07eb9	-0.0053862003
28	0x38176def	3.610359e-05
29	0x3cc2e957	0.023792906
30	0xbd7de23d	-0.061983336
31	0x3d573380	0.05253935
32	0xbd6131e1	-0.05497921
33	0xbe0fc9d1	-0.1404183
34	0x3de1cfec	0.11025986
35	0xbdc8f263	-0.098118566
36	0x3c136ab9	0.008997613
37	0xbd212a7e	-0.039347164
38	0xbd57c1a3	-0.0526749
39	0xbc862559	-0.01637523
40	0xbe415552	-0.18880203
41	0x3e0b1849	0.13583483
42	0xbe005a9d	-0.12534566
43	0x3e01930e	0.12653753
44	0xbda0a288	-0.078435004
45	0xbc62ee8e	-0.013850821
46	0xbccfd612	-0.025370631
47	0x3c8844e3	0.01663441
48	0xbdc03517	-0.09385126
49	0xbe1ef054	-0.15521365
50	0xbdc6cf9f	-0.09707569
51	0x3c8fefde	0.017570432
52	0xbd96b616	-0.07358949
53	0xbd30d75e	-0.04317414
54	0x3d3dafe0	0.046310306
55	0xbd182628	-0.037145764
56	0xbe0d3f99	-0.13793792
57	0xbdadcba5	-0.08486108
58	0x3d60223c	0.05472015
59	0x3d2d904b	0.042373937
60	0x3d678adc	0.05652891
61	0xbb9028d1	-0.004399397
62	0x3da31567	0.079630665
63	0xbdcdac28	-0.10042602
64	0xbde30c82	-0.1108637
65	0xbd41d9c6	-0.047326826
66	0x3c2febe5	0.010737394
67	0x3def52c3	0.116857074
68	0xbd97d6e6	-0.074140355
69	0xbdb66859	-0.089066215
70	0x3bdedd77	0.006801303
71	0x3d3ca44d	0.046055127
72	0xbddad53d	-0.10685203
73	0xbd949278	-0.07254499
74	0xbc704bb9	-0.014666491
75	0x3c8cd008	0.01718904
76	0x3cc3c795	0.023898879
77	0x3b7235a3	0.003695824
78	0xbdafd849	-0.08586175
79	0x3c8941c9	0.016755002
80	0xbd4c232e	-0.049838237
81	0xbdd0878d	-0.10182104
82	0xbd15dd8c	-0.036588237
83	0xbdcc832d	-0.09985957
84	0x3bb5ab3a	0.0055440934
85	0xbbb74b86	-0.00559372
86	0xbaefdabb	-0.001829944
87	0x3cac64f4	0.021044232
88	0xbc8c787c	-0.017147295
89	0x3e011d9c	0.12608951
90	0xbbec7694	-0.007216284
91	0xba8068c8	-0.0009796852
92	0x3d131d96	0.035916887
93	0x3c0ffd49	0.008788415
94	0xbdb1be2e	-0.08678852
95	0xbd4221a3	-0.04739536
96	0x3a7f263e	0.00097331766
97	0x3bcf5cec	0.006328216
98	0x3d03acc9	0.032147203
99	0xbd5310dc	-0.05152975
100	0x3d74190e	0.059594207
101	0x3d810429	0.062996216
102	0xbcb60e2f	-0.02222356
103	0xbc86a7ec	-0.016437493
104	0xb9f34427	-0.0004639935
105	0xbc1e58e6	-0.00966475
106	0x3d0b0b51	0.03394634
107	0x3a448989	0.0007497301
108	0x3ca2722e	0.019829836
109	0x3cd4a796	0.025958817
110	0xbc92fd65	-0.017943094
111	0x3c3f8207	0.011688716
112	0x3d7cdc15	0.061733324
113	0xbd36b54f	-0.044606503
114	0x3a4fb8f2	0.00079239823
115	0x3ca17298	0.019707963
116	0xbb0fbe22	-0.0021933396
117	0xbdaafbea	-0.0834883
118	0x3b98b59c	0.0046603214
119	0x3ca1fccd	0.019773865
120	0xbd889697	-0.06669348
121	0x3e95a9be	0.29231066
122	0x3d3577e1	0.04430378
123	0x3e33eda8	0.17571127
124	0x3d9bba15	0.07603852
125	0x3c96209e	0.0183261
126	0xbe3fc0ec	-0.18725938
127	0x3e14353c	0.14473432
128	0x3e20eb9f	0.15714882
129	0xbd377916	-0.04479321
130	0xbc6581f1	-0.014008031
131	0xbb28e4d5	-0.002577116
132	0xbc88b67a	-0.016688574
133	0x3dc50470	0.09619987
134	0x3d6fa246	0.058504365
135	0xbe2094e6	-0.156818
136	0x3d5e5fbe	0.054290526
137	0xbe865292	-0.2623487
138	0x3d30307f	0.043015
139	0x3d587f53	0.0528558
140	0xbdb29811	-0.087204106
141	0x3d98cabd	0.07460544
142	0x3b1f002e	0.0024261582
143	0xbdb93d9d	-0.09044955
144	0xbe09e425	-0.13465936
145	0x3de10512	0.10987295
146	0x3dfdee19	0.12398929
147	0xbdd7fa64	-0.10545805
148	0x3d1ee113	0.038788866
149	0xbe278505	-0.16359337
150	0x3dc48262	0.09595181
151	0xbbf18ac2	-0.0073712775
152	0xbdc08014	-0.09399429
153	0x3d68665b	0.05673824
154	0x3d200a1e	0.03907215
155	0xbd87b4a5	-0.06626252
156	0x3c3832bc	0.011242565
157	0xbdc7e407	-0.0976029
158	0xbd50bf28	-0.05096355
159	0x3d83a818	0.06428546
160	0x3ccc1229	0.024911003
161	0xbdf48faf	-0.11941468
162	0x3d2814f2	0.0410356
163	0xbd1124e9	-0.03543559
164	0xbd5286f5	-0.051398236
165	0xbde5a079	-0.11212248
166	0x3c2ad102	0.010425808
167	0xbc1286a8	-0.008943237
168	0xbdc1a9b1	-0.09456194
169	0x3d324245	0.04352023
170	0x3c197fda	0.009368861
171	0xbd7a6497	-0.061131086
172	0x3cee656d	0.029101098
173	0x3d9ec0ef	0.07751643
174	0x3be7e8b1	0.0070772995
175	0xbd60c112	-0.054871626
176	0x3cc13053	0.023582613
177	0x3d1ad5a8	0.037801415
178	0x3ba35ea7	0.0049856487
179	0x3dedd167	0.11612206
180	0xbd469b1b	-0.048487764
181	0x3dc456e3	0.09586885
182	0xbe0b853c	-0.13625044
183	0xbd69d316	-0.057086073
184	0x3e2a27b2	0.16616705
185	0xbe4bd037	-0.19903646
186	0xbdb0c0b9	-0.08630509
187	0xbddd328b	-0.10800656
188	0x3e36bf53	0.17846422
189	0x3c90ea2d	0.017689789
190	0x3e483b64	0.19553906
191	0xbd5a2565	-0.05325832
192	0xbc36c599	-0.011155509
193	0x3d972b52	0.073813096
194	0xbd778a33	-0.06043453
195	0xbe445ba6	-0.19175586
196	0xbd9a95ef	-0.07548129
197	0xbd9c2c79	-0.0762567
198	0xbdf3ae83	-0.1189852
199	0x3d6b9d5e	0.057523124
200	0x3dd87614	0.105693966
201	0xbda52ec3	-0.0806556
202	0x3c28f3b1	0.010312007
203	0xbddf318d	-0.10898123
204	0xbdbe6834	-0.09297219
205	0x3d4f8155	0.05066045
206	0xba6893c5	-0.0008872117
207	0xbc8691bf	-0.016426919
208	0xbd903b8f	-0.0704261
209	0xbd58886b	-0.052864473
210	0x3dbcdb63	0.09221532
211	0xbe12bd4c	-0.14330024
212	0xbc3a3ffe	-0.011367796
213	0xbd60bb86	-0.054866336
214	0xbd33cc66	-0.0438961
215	0xbccf2031	-0.025283905
216	0x3e0ed5a6	0.13948688
217	0x3e21b1e1	0.15790512
218	0xbc3a24fd	-0.011361358
219	0xbc5ce1a0	-0.013481528
220	0xbd97b7a1	-0.07408071
221	0xbd647912	-0.055779524
222	0xbbda6bee	-0.0066656983
223	0x3dd5a462	0.10431744
224	0x3d038cf2	0.032116838
225	0xbe1bf1e8	-0.15228999
226	0xbca86fe7	-0.020561172
227	0xbd630634	-0.055425838
228	0x3e392aef	0.18082784
229	0x3d24cd96	0.040235125
230	0xbd95ef2b	-0.07321008
231	0x3d25812a	0.040406384
232	0xbe0d1bf6	-0.13780198
233	0xbce89d54	-0.028395332
234	0x3d71d850	0.059044182
235	0x3e0f1a9d	0.13974996
236	0x3ddee3ae	0.1088327
237	0x3caa5875	0.020794133
238	0xbe554007	-0.20825206
239	0x3d6b5709	0.05745605
240	0xbd6df866	-0.05809822
241	0x3d8a881d	0.06764243
242	0xbcb5ba4c	-0.02218356
243	0xbc909215	-0.017647782
244	0xbd2f95b6	-0.042867385
245	0x3e15b717	0.14620624
246	0x3cc98d59	0.024603533
247	0xbdee7c07	-0.1164475
248	0x3c6716ac	0.0141045265
249	0x3ceb934e	0.028756764
250	0xbd68d3b8	-0.056842536
251	0x3d0b3de0	0.033994555
252	0xbe0b272b	-0.1358916
253	0xbd83821d	-0.064213015
254	0x3cd889b4	0.02643285
255	0x3db3c118	0.08777064

nn_fun1.2.bias f4 [30]
0	0x3cecfbdf	0.028928695
1	0x3d0a9364	0.03383197
2	0xbd671524	-0.056416646
3	0xbd001a6f	-0.03127521
4	0xba927abc	-0.0011175494
5	0xbdb6ec8c	-0.089318365
6	0xbcc5fb6e	-0.024167743
7	0xbd3f57d9	-0.046714637
8	0xbd448bf6	-0.04798504
9	0xbd9087ee	-0.070571765
10	0x3dcac861	0.099015005
11	0x3d1030a7	0.03520265
12	0x3d67adff	0.05656242
13	0xbdd25fb4	-0.1027216
14	0x3d2af61f	0.041738626
15	0xbd384e04	-0.044996276
16	0x3dd3ac22	0.10335566
17	0xbdaf0c00	-0.08547211
18	0xbda8f507	-0.0824986
19	0xbcee54b3	-0.029093122
20	0xbd9fbaaa	-0.07799275
21	0x3dc89a54	0.09795061
22	0x38b46534	8.6019194e-05
23	0x3de7aa51	0.11311782
24	0xbd06edc8	-0.03294161
25	0xbd38ecd3	-0.04514773
26	0xbe09b008	-0.13446057
27	0x3ccc542a	0.024942476
28	0x3be044a1	0.0068441187
29	0x3d8bc52d	0.06824718

nn_fun2.0.weight f4 [30, 1]
0	0x3e271be1	0.16319229
1	0xbe2a589c	-0.16635364
2	0x3dddbdce	0.10827218
3	0x3eb79cf9	0.35861948
4	0x3f763b76	0.9618448
5	0x3df06bf5	0.11739341
6	0xbf391bd8	-0.7230811
7	0xbf647006	-0.89233434
8	0x3e5b2ced	0.21403857
9	0x3edf35ab	0.43595633
10	0xbef4d5d5	-0.4781939
11	0x3f09a7c7	0.5377163
12	0x3f387fd6	0.7207006
13	0x3f49b680	0.787941
14	0x3f22f8d3	0.63660926
15	0xbee335ca	-0.44376975
16	0x3f41bd24	0.7567923
17	0xbcaf13be	-0.021371718
18	0xbe62381b	-0.22091715
19	0xbf830144	-1.0234761
20	0xbec2292a	-0.3792203
21	0x3f550d78	0.83223677
22	0x3f01156b	0.50423306
23	0x3e22ade3	0.15886645
24	0xbf21782d	-0.63074
25	0x3f1f38a1	0.62195784
26	0x3e99c53f	0.300333
27	0x3f635ef4	0.8881676
28	0xbf12a41c	-0.5728166
29	0x3f48b6e5	0.78404075

nn_fun2.0.bias f4 [30]
0	0xbde5decd	-0.112241365
1	0x3ea058c0	0.3131771
2	0xbefbd7aa	-0.49187976
3	0xbe7182d7	-0.23585068
4	0xbf35211a	-0.70753634
5	0xbe5aebed	-0.21379061
6	0x3c27c016	0.010238668
7	0xbe9ebb6d	-0.3100237
8	0x3ea96dfd	0.33091727
9	0x3f02dc01	0.5111695
10	0x3e9ac203	0.30226144
11	0xbedcadc4	-0.43101323
12	0xbea687de	-0.32525533
13	0xbece3a2e	-0.40278763
14	0x3d917424	0.0710223
15	0x3d878772	0.06617631
16	0x3f0b537e	0.54424274
17	0x3c437e63	0.011931988
18	0xbee54413	-0.447785
19	0xbe803f86	-0.25048465
20	0xbeeb487a	-0.45953733
21	0x3e834cec	0.25644624
22	0x3f31eb10	0.694993
23	0x3ea35259	0.31898764
24	0x3ea67195	0.3250853
25	0xbf24897e	-0.64272296
26	0xbe1fa6f6	-0.15591034
27	0x3d19eea6	0.03758111
28	0x3c9de2e0	0.019273221
29	0x3ec20771	0.37896302

nn_fun2.2.weight f4 [30, 30]
0	0x38df0bf0	0.00010635692
1	0xbb5569b4	-0.0032564225
2	0xbb7fb45e	-0.003901742
3	0x3947c490	0.00019051344
4	0x3a2aeeab	0.00065205497
5	0x3a532bbc	0.0008055528
6	0xbc630701	-0.01385665
7	0xbccba797	-0.024860187
8	0x3c81ef22	0.015861098
9	0x3d115a65	0.035486598
10	0xb9873b30	-0.00025793305
11	0x39e59e1f	0.00043796093
12	0xba5c0a60	-0.000839388
13	0xba158065	-0.0005703031
14	0xbc6f090c	-0.014589559
15	0x3bde4013	0.0067825406
16	0xbd0c3dc3	-0.034238588
17	0xb6f626ce	-7.3358888e-06
18	0xbc93fbdf	-0.018064437
19	0x3be9aba9	0.007131059
20	0xbab46f2e	-0.0013766044
21	0xbc6d4a20	-0.014483005
22	0xbd0a8476	-0.03381773
23	0xbd48a2fc	-0.04898356
24	0x3973d189	0.00023252344
25	0x3ab37fc6	0.0013694696
26	0xbb2a996e	-0.0026031393
27	0x3c8846e0	0.016635358
28	0x3b0c2381	0.0021383467
29	0xbc9b63ff	-0.01896858
30	0x3b970213	0.0046084016
31	0x3cdaf97d	0.026730293
32	0xb9d9bef2	-0.0004153173
33	0x3d44ab76	0.04801508
34	0x3d94f2a9	0.07272846
35	0x3d4d6221	0.05014241
36	0x3d8dcd5b	0.06923934
37	0xbd8e017f	-0.06933879
38	0x3c997d8a	0.01873662
39	0xbb7217d4	-0.0036940472
40	0x3d3db1ba	0.04631207
41	0xbd0f5f70	-0.035003126
42	0x3dc6bfd4	0.09704557
43	0xbca274dc	-0.019831114
44	0x3e04d909	0.12973417
45	0x3d325021	0.043533448
46	0x3ddd33be	0.10800885
47	0xbcdf79eb	-0.027279815
48	0xbd1f2118	-0.03884992
49	0x3e17cc79	0.14824094
50	0xbe1c04e0	-0.15236235
51	0xbccc72d6	-0.024957102
52	0xbe07eb82	-0.13273433
53	0xbdeee1fb	-0.11664196
54	0x3d78e847	0.060768392
55	0xbda8f5d2	-0.082500115
56	0x3cdcde36	0.026961427
57	0xbe02d141	-0.12775137
58	0xbde1e514	-0.11030021
59	0x3e225023	0.15850882
60	0x39536775	0.00020161069
61	0xbc95b2f8	-0.018273816
62	0xbc365c2b	-0.011130373
63	0x3a3be8b5	0.000716816
64	0x3aaff847	0.0013425433
65	0x3cab90e2	0.020943109
66	0x3d9c6586	0.076365516
67	0x3c8887c7	0.016666306
68	0x39ab26a6	0.00032644457
69	0xbc1a5ebb	-0.009422
70	0xba4ae897	-0.0007740347
71	0xbb1417fc	-0.0022597304
72	0x3cd8c5fa	0.02646159
73	0x3c86c72a	0.01645239
74	0xbb211314	-0.0024578022
75	0xbc6316ed	-0.013860446
76	0x3d909f24	0.07061604
77	0xba53bffc	-0.0008077619
78	0x3c36e4e5	0.011162971
79	0xbc9ef0bf	-0.019401906
80	0xbd15ee00	-0.036603928
81	0xbda83ae0	-0.082143545
82	0x3db6bda1	0.089228876
83	0x3d9c8ca7	0.07644015
84	0x3bf768fe	0.007550358
85	0xbbb67b58	-0.005568903
86	0xbc77e368	-0.0151299015
87	0x3d17378d	0.03691821
88	0x3d16765b	0.036733966
89	0x3dacf5b5	0.084453024
90	0x3a77afee	0.0009448518
91	0xbd4c679d	-0.0499035
92	0xbd0d7deb	-0.034543913
93	0x39f684bf	0.0004701968
94	0xbb2fb60e	-0.0026811394
95	0xbd4871c6	-0.048936628
96	0x3c04ba3b	0.008101041
97	0xbb68f850	-0.0035548396
98	0x3d25215f	0.04031503
99	0xbdef6f84	-0.11691192
100	0xba3a42d6	-0.0007105296
101	0xbc3824e9	-0.011239269
102	0x3d068112	0.032837935
103	0xba3e85f4	-0.00072678854
104	0xbd980f58	-0.074248016
105	0xbc13d2c3	-0.0090224175
106	0x3d833b70	0.06407821
107	0x3b95b585	0.004568758
108	0xbdd538a1	-0.10411192
109	0xbd795d18	-0.060879797
110	0x3d357b01	0.04430676
111	0x3c56d810	0.013113037
112	0xbde173b8	-0.110084
113	0x3cf9670e	0.030444648
114	0x3c4c36de	0.012464253
115	0xbd106c6f	-0.03525966
116	0xbd86ca98	-0.065816104
117	0xbca1ba84	-0.019742258
118	0x3d48a675	0.04898687
119	0x3d23dc4a	0.040005006
120	0xbd1b5083	-0.03791858
121	0x3de1dd63	0.11028554
122	0x3e219f7a	0.15783492
123	0xbe331d3a	-0.17491618
124	0xbea9b452	-0.33145386
125	0xbe00a8ea	-0.12564436
126	0x3deef84f	0.11668455
127	0xbe4a5785	-0.19759949
128	0xbdad7a1c	-0.08470556
129	0xbe15a1b1	-0.14612462
130	0x3e0c1aaa	0.13682047
131	0xbe288024	-0.16455132
132	0x3cc18a7f	0.02362561
133	0xbe544ec5	-0.20733173
134	0x3dd572ed	0.10422311
135	0xbd41a9c2	-0.047281034
136	0x3d4b2576	0.049596272
137	0xbcdadd54	-0.026716866
138	0x3d51d0bb	0.05122445
139	0x3da40c2c	0.08010134
140	0x3d8239cc	0.0635868
141	0x3da6ab10	0.08138096
142	0xbd10eb74	-0.035380796
143	0xbe238d2a	-0.15971819
144	0x3e0a4752	0.13503769
145	0x3ca5c40d	0.020235086
146	0x3d2f4e00	0.042798996
147	0x3e3767a1	0.17910625
148	0xbda302b2	-0.079594985
149	0x3df11c5a	0.11772986
150	0x3c4e4e25	0.012591873
151	0x3dac1ba1	0.08403707
152	0xbd86da2f	-0.06584584
153	0x3bfb4bc0	0.007668942
154	0xbd468f4e	-0.04847651
155	0xbd5244f1	-0.05133528
156	0x3dbd5532	0.09244765
157	0x3e0e92ba	0.13923159
158	0x3dad3141	0.0845666
159	0xbd563ec4	-0.05230595
160	0xbc98e044	-0.018661626
161	0x3d136f42	0.035994776
162	0xbd914761	-0.070936926
163	0x3d47794d	0.048699666
164	0xbcb16dc0	-0.021658778
165	0x3d92cbec	0.07167801
166	0x3c880136	0.01660214
167	0xbc1f5c54	-0.009726603
168	0xbd5f66f0	-0.05454153
169	0xbc831360	-0.01600045
170	0xbcdd24cd	-0.026995087
171	0xbe11723d	-0.14203735
172	0x3d32f735	0.043692786
173	0x3d4be2f1	0.049776975
174	0xbd8d5e68	-0.06902772
175	0xbd70fa10	-0.05883223
176	0xbddf2f37	-0.108976774
177	0xbc9a945a	-0.018869568
178	0xbd4c1e28	-0.049833447
179	0x3de65148	0.11245972
180	0xbd2cfdda	-0.04223428
181	0xbb965fa1	-0.0045890366
182	0x3dd09018	0.10183734
183	0xbce54d8b	-0.027991077
184	0xbded5fcf	-0.1159054
185	0xbdcc26ce	-0.09968339
186	0x3dd6b834	0.10484353
187	0xbe1d40d6	-0.15356764
188	0xbcbd069c	-0.02307444
189	0xbdd05d62	-0.10174061
190	0x3dc63203	0.09677508
191	0xbd14f075	-0.03636213
192	0xbd1da61e	-0.0384885
193	0x3bf423e1	0.007450566
194	0x3ce114e9	0.027475791
195	0xbe07abfe	-0.13249204
196	0xbd80dc86	-0.062920615
197	0x3d36e467	0.044651415
198	0x3da3876e	0.079848155
199	0xbd2f60c9	-0.04281691
200	0x3de9170d	0.1138135
201	0x3cfe50a8	0.03104432
202	0x3e1323f9	0.14369191
203	0x3dcedf87	0.10101228
204	0x3df35727	0.11881857
205	0xbc29f85b	-0.010374154
206	0xbd9dab39	-0.07698674
207	0x3e0ded56	0.13860068
208	0xbdbc00dd	-0.09179852
209	0xbdb4e102	-0.08831979
210	0xbd89da40	-0.06731081
211	0x3e4ccee5	0.20000799
212	0x3bd62614	0.006535301
213	0x3dbe29b0	0.09285295
214	0x3d3b4d8f	0.045728263
215	0xbe272bdf	-0.16325329
216	0x3ceb2df8	0.028708443
217	0xbe27f56e	-0.16402218
218	0x3d8c2b1c	0.0684416
219	0x3be32678	0.006932076
220	0xbccfe24f	-0.025376467
221	0x3dc61387	0.09671693
222	0xbdfe4814	-0.124160916
223	0x3dcc72e4	0.09982851
224	0xbd6492ee	-0.055804186
225	0xbd6c98e6	-0.057763003
226	0xbd82e405	-0.063911475
227	0xbcf7ef15	-0.03026537
228	0x3d0aebc4	0.03391625
229	0x3d955327	0.07291251
230	0xbe31abb4	-0.17350656
231	0x3d4bb0e8	0.049729258
232	0x3cf81934	0.030285455
233	0x3e1744f7	0.14772402
234	0xbd01d4b2	-0.031696983
235	0x3e10ae99	0.14129104
236	0x3e193ef2	0.14965418
237	0xbe1080a3	-0.14111571
238	0x3deae2d9	0.11469049
239	0x3d1a37c8	0.037650853
240	0x3c00df2c	0.007865708
241	0xbdb5f685	-0.088849105
242	0xbda1ac24	-0.07894161
243	0x3ca2f3ea	0.019891698
244	0x3d6a5460	0.057209373
245	0x3d545ea9	0.051848087
246	0xbbd0d0f6	-0.0063725663
247	0xbc96124b	-0.01831927
248	0x3d96974c	0.07353076
249	0xbe04b23e	-0.12958619
250	0xbcead476	-0.028665762
251	0x3d6e75a0	0.058217645
252	0x3d743fd4	0.059631184
253	0x3dd83b30	0.10558164
254	0x3db9e369	0.09076578
255	0xbda1dd9b	-0.07903596

nn_fun2.2.bias f4 [30]
0	0x3d1101bc	0.035402045
1	0xbdb5c1f5	-0.08874885
2	0x3be1fc8e	0.006896562
3	0x3ce8a733	0.02840004
4	0xbe0ab288	-0.13544667
5	0xbcc07524	-0.023493357
6	0xbde47e8c	-0.111569494
7	0xbe0c6227	-0.13709317
8	0x3dc9fc4a	0.098625734
9	0xbd211e8f	-0.039335784
10	0xbad3b373	-0.0016151502
11	0xbe1bb454	-0.15205508
12	0x3da040e8	0.0782488
13	0xbdaf5bd4	-0.08562437
14	0x3e0c54e5	0.1370426
15	0xbe4aac2d	-0.19792242
16	0x3d761c5b	0.060085636
17	0xbccd04d8	-0.025026724
18	0x3d9f4497	0.07776754
19	0x3c71be5f	0.014754861
20	0x3b84bdea	0.00405096
21	0xbdb127e2	-0.08650185
22	0xbda0baf3	-0.07848158
23	0x3e1de82e	0.15420601
24	0x3ae373c5	0.0017353228
25	0xbe435f7a	-0.1907939
26	0xbccb0545	-0.024782786
27	0xbc076a72	-0.008265125
28	0x3df4622c	0.11932787
29	0xbdbf1718	-0.09330577

agg.0.weight f4 [1, 30]
0	0x361914da	2.2810914e-06
1	0x3db49df5	0.088191904
2	0x3a0281da	0.0004978456
3	0x3b1322a6	0.0022451072
4	0xbda5fb6a	-0.08104594
5	0xbb59d378	-0.0033237617
6	0xbc9f49a9	-0.019444304
7	0xbdc4ad44	-0.0960336
8	0x3cae9cf1	0.02131507
9	0xbc7484ef	-0.014924272
10	0xbd360bbf	-0.044444796
11	0x3d689f0e	0.05679231
12	0x3b4a321b	0.003085262
13	0x3d1d776b	0.038443964
14	0xbd582f5f	-0.05277955
15	0x3d8c32a1	0.06845594
16	0x3d0526f4	0.03250785
17	0xbdf365ac	-0.11884627
18	0xba00c458	-0.000491207
19	0xbe0bc2f2	-0.13648584
20	0x3c49c45f	0.012314885
21	0xbd555e95	-0.052092154
22	0xbd3a925c	-0.045549735
23	0x3d805410	0.06266034
24	0x3be265c6	0.006909105
25	0x3b7f1dcf	0.003892768
26	0x3d8f8cb7	0.07009261
27	0xbc22bcd0	-0.009932712
28	0x37f81cfa	2.9577397e-05
29	0x3a0af8f6	0.00053013803
