multiple_model_analysis/results/er_experiment_MM_size_10_40_alpha_0_scale_100_dynwght_False_std_reg_1.0_equiv_reg_0.0/neural_network.pth (torch, 16501 bytes, 14 tensors)

g.0.weight f4 [30, 1]
0	0xbf4b1079	-0.7932201
1	0xbf5ead08	-0.86982775
2	0xbea05ffd	-0.31323233
3	0xbf796b69	-0.9742952
4	0x3f08d36b	0.534476
5	0xbf481a03	-0.7816469
6	0xbf0d4b1d	-0.5519274
7	0x3da076bc	0.07835147
8	0xbd5f5c16	-0.05453118
9	0xbf564c11	-0.8370982
10	0xbebbfb8d	-0.36715356
11	0xbd1c695a	-0.03818641
12	0xbed4f8e4	-0.41596138
13	0x3f6c4dbb	0.9230611
14	0xbf8110af	-1.0083216
15	0x3f0f5f04	0.5600436
16	0x3f63948b	0.88898534
17	0xbf0e27b1	-0.55529314
18	0x3f35162f	0.70736974
19	0x3bc28a2f	0.005936883
20	0xbf19311a	-0.5984055
21	0xbe9a516b	-0.30140242
22	0xbf507f12	-0.81443894
23	0x3f02b91f	0.5106372
24	0xbf71c774	-0.94444966
25	0x3eecdcbf	0.46262166
26	0xbefde725	-0.49590412
27	0x3e74980d	0.23886128
28	0xbf1be4db	-0.6089608
29	0x3e76f115	0.24115403

g.0.bias f4 [30]
0	0x3c3695bb	0.011144097
1	0x3d9728b7	0.073808126
2	0x3c20faad	0.009825391
3	0x3e9546a4	0.29155457
4	0xbe09ba5a	-0.13449994
5	0xbd75ef48	-0.06004265
6	0xbe5ed814	-0.21762115
7	0x3c3de1d4	0.011589486
8	0x3e84c01a	0.25927812
9	0xbd23a40e	-0.039951377
10	0xbe0afdf5	-0.1357344
11	0xbe36186c	-0.17782754
12	0xbd265599	-0.040608976
13	0xbc7b0374	-0.0153206475
14	0x3efd153b	0.4943026
15	0x3ecc330d	0.398827
16	0xbe53cd7b	-0.20683853
17	0x3ead9e04	0.3390962
18	0xba8c0f4d	-0.0010685712
19	0xbea61572	-0.32438236
20	0x3e6486fc	0.22317117
21	0xbd28de24	-0.041227475
22	0x3d90c6e0	0.070691824
23	0x3e12c470	0.14332747
24	0x3e8c5f5a	0.27416497
25	0x3f15d6a4	0.5853064
26	0xbf173a90	-0.59073734
27	0xbc0977ee	-0.00839041
28	0x3eb7a666	0.3586914
29	0x3ea8f493	0.32999095

g.2.weight f4 [30, 30]
0	0xbdcc9abf	-0.09990453
1	0xbcdf64cf	-0.027269749
2	0xbd94b155	-0.07260386
3	0xbe22341c	-0.1584019
4	0x3d879465	0.06620101
5	0xbdec01fa	-0.115238145
6	0xbc34c419	-0.011033081
7	0x3dd59860	0.10429454
8	0xbdedc641	-0.116100796
9	0xbde0cab5	-0.10976163
10	0xbe0a1676	-0.1348513
11	0xbdd52539	-0.1040749
12	0xbc083a52	-0.008314686
13	0x3c89795d	0.016781503
14	0x3d8ffa85	0.07030205
15	0x3b817e41	0.003951818
16	0x3c5ddc50	0.013541296
17	0x3d8016d4	0.06254354
18	0x3dc79aae	0.097463
19	0x3e1bca40	0.15213871
20	0x3cabb7af	0.02096161
21	0x3d008b3a	0.031382777
22	0xbd15a745	-0.036536474
23	0x3d7a0dfd	0.061048497
24	0xbdcbe6fc	-0.09956166
25	0x3c694f5c	0.014240112
26	0x3d9b9c50	0.075981736
27	0xbd836a95	-0.06416813
28	0xbafa3de1	-0.0019091928
29	0xbd462288	-0.048372775
30	0xbe859954	-0.26093543
31	0xbd06b997	-0.032891836
32	0x3d103604	0.035207763
33	0xbe0631ff	-0.1310501
34	0x3ce8ec19	0.028432893
35	0xbe08611a	-0.13318291
36	0x3d9d2dfa	0.07674785
37	0xbe4217f1	-0.18954445
38	0xbd645020	-0.055740476
39	0xbd782e17	-0.06059083
40	0x3c68c43f	0.014206945
41	0x3da88523	0.08228519
42	0xbdcd3cc2	-0.10021354
43	0x3dfa426f	0.122197025
44	0xbe372352	-0.17884567
45	0x3e239b82	0.1597729
46	0x3d26ae09	0.040693317
47	0x3d521912	0.05129344
48	0x3d9ec7af	0.077529304
49	0x3dd21761	0.102583654
50	0xbd94e9ea	-0.07271178
51	0x3d044f09	0.032301936
52	0xbe011f44	-0.12609583
53	0x3dfd845a	0.1237876
54	0x3db956e4	0.09049776
55	0xba1af037	-0.00059104286
56	0xbdbb4ea3	-0.09145858
57	0x3c4ac840	0.012376845
58	0x3dba6139	0.09100575
59	0x3db362a3	0.08759048
60	0xbe5523ca	-0.20814434
61	0xbe8d3e85	-0.2758676
62	0x3bc67fd8	0.0060577206
63	0x3dd6e92e	0.10493694
64	0xbde3d14b	-0.11123904
65	0xbe80602d	-0.25073376
66	0x3c7e8f8e	0.015537156
67	0x3e1a9ca0	0.1509881
68	0x3e2a1d32	0.166127
69	0x3d16457a	0.03668735
70	0x3d46b26e	0.048510008
71	0x3e1900d3	0.1494172
72	0x3c3f3a44	0.011671606
73	0x3ea67730	0.32512808
74	0x3df36e91	0.11886323
75	0xbce88eb4	-0.028388359
76	0x3e00deb0	0.12584949
77	0xbdd2bf17	-0.10290354
78	0x3dcf6b5c	0.10127899
79	0xbe1b6526	-0.15175304
80	0x3d6ba2e2	0.057528384
81	0x3cefaef8	0.029258236
82	0xbe6fc428	-0.23414671
83	0xbdf9635d	-0.12177155
84	0xbd08d13e	-0.033402674
85	0x3e3d6368	0.18494952
86	0xbe2c3c19	-0.168198
87	0x3dfa043a	0.122078374
88	0xbcaab947	-0.0208403
89	0xbddfc484	-0.10926154
90	0x3e056163	0.13025431
91	0x3ce67d83	0.02813602
92	0x3da7170c	0.08158693
93	0x3d0d95ab	0.034566563
94	0x3c7ea25b	0.015541638
95	0x3e62fa56	0.22165808
96	0xbdfa28b9	-0.122147985
97	0xbe10a496	-0.14125285
98	0xb9342880	-0.00017181225
99	0x3e0b608a	0.13611045
100	0x3c55f113	0.013057965
101	0xbdcf81f2	-0.10132207
102	0xbd36e894	-0.044655398
103	0xbe414831	-0.18875195
104	0x3e06ae99	0.13152541
105	0xbdd95aff	-0.10613059
106	0x3dd58ee7	0.10427647
107	0x3d475f60	0.04867494
108	0xbdb52a68	-0.08845979
109	0x3d3eb5a2	0.046559937
110	0x3e37fdc3	0.17967896
111	0x3d1e5ff1	0.038665716
112	0x3c38576a	0.01125131
113	0x3d0076bc	0.031363234
114	0x3d88bebe	0.06677006
115	0xbe178bd0	-0.14799428
116	0xbdab8720	-0.083753824
117	0xbdd01146	-0.10159545
118	0x3da3f0e5	0.08004931
119	0xbe04ceab	-0.12969463
120	0xbe6234f4	-0.22090513
121	0xbe4fd200	-0.20294952
122	0x3e20ce00	0.15703583
123	0xbe5454f1	-0.20735528
124	0xbddd5f7a	-0.10809226
125	0xbdb4aab6	-0.08821623
126	0xbdb19f0b	-0.08672913
127	0x3da6730e	0.08127414
128	0xbc025a95	-0.007956167
129	0xbbba2a58	-0.0056813173
130	0xbbdd1376	-0.0067467047
131	0xbcf0bbc3	-0.029386407
132	0xbd91905e	-0.07107614
133	0x3df6fe2f	0.120602004
134	0xbdc5cdc5	-0.09658388
135	0x3dc74461	0.09729839
136	0x3e340ca1	0.17582943
137	0xbe1d4872	-0.15359667
138	0x3cb80673	0.022464013
139	0x3e31c1b1	0.17359044
140	0xbd1f9b42	-0.038966425
141	0xbde1f493	-0.11032977
142	0xbe78d646	-0.24300489
143	0x3dd836da	0.10557337
144	0xbd9ac006	-0.07556157
145	0x3e08dee7	0.1336628
146	0x3d88012a	0.06640847
147	0xba8f3361	-0.0010925346
148	0x3e2cd8ca	0.16879573
149	0x3da2f400	0.079566956
150	0x3e2e8d7f	0.17046164
151	0xbc8e0a88	-0.017339006
152	0x3c37bfe2	0.011215182
153	0x3c0f3890	0.008741513
154	0x3d31828a	0.043337382
155	0x3e43a8ee	0.1910741
156	0x3d654942	0.055978067
157	0xbdc39aa9	-0.095509835
158	0xbcf4d6d3	-0.029887592
159	0x3b3efec4	0.0029143551
160	0xbd3e7b5d	-0.046504367
161	0x3d91d7ca	0.071212366
162	0x3de2ad73	0.11068239
163	0xbe747ca3	-0.2387567
164	0xbd965770	-0.07340896
165	0xbd13f2ec	-0.03612034
166	0xbd60d308	-0.054888755
167	0x3deedceb	0.116632305
168	0xbe12f24d	-0.14350243
169	0xbe27bb27	-0.16379987
170	0x3dc47c5a	0.09594031
171	0xbd841868	-0.064499676
172	0x3e88e3ce	0.267363
173	0xbe0ba9b8	-0.13638961
174	0x3d6026d7	0.05472454
175	0xbdbb3d2f	-0.09142529
176	0x3e076081	0.13220407
177	0x3dea7403	0.11447909
178	0x3e2842db	0.16431753
179	0x3dcf7052	0.10128845
180	0x3d061e76	0.032743894
181	0x3e0629fa	0.1310195
182	0xbd94b1f7	-0.072605066
183	0x3e6cdbfa	0.2313079
184	0xbe53fa3c	-0.20700926
185	0x3dbd5912	0.092455044
186	0x3b5d0df8	0.003373025
187	0x3ced6c58	0.028982326
188	0x3e0cb276	0.13739952
189	0x3e0326c7	0.12807761
190	0x3d0efdc9	0.034909997
191	0x3dfce74b	0.12348803
192	0x3cd7b80d	0.02633288
193	0xbe01f3a0	-0.12690592
194	0x3db2fd45	0.087397136
195	0xbe07bd44	-0.13255793
196	0xbdc6cafc	-0.09706685
197	0xbc5092eb	-0.0127303405
198	0xbe1dc2b6	-0.15406308
199	0xbe034c13	-0.12821989
200	0x3e262ab6	0.1622723
201	0xbe0e3203	-0.13886265
202	0xbc87cfa4	-0.016578503
203	0x3dafceb8	0.0858435
204	0x3d945a57	0.072437935
205	0xbd2decbd	-0.0424621
206	0xbb44ff8b	-0.0030059542
207	0x3d6a78fe	0.057244293
208	0xbd8365ba	-0.06415887
209	0xbe03402e	-0.12817451
210	0xbc8aab84	-0.016927488
211	0xbe85d8e0	-0.26142025
212	0xbda7ea1c	-0.0819895
213	0xbe4efe1b	-0.20214121
214	0x3e2d4eef	0.16924642
215	0x3d8e2240	0.069401264
216	0xbd96fca4	-0.07372406
217	0xbe177a86	-0.14792833
218	0xbe35d4f1	-0.17757012
219	0x3da9964a	0.082806185
220	0xbdf62543	-0.12018826
221	0x3e291a4e	0.1651394
222	0xbdf81560	-0.12113452
223	0x3e8e8ac2	0.2784024
224	0xbe63ae8b	-0.22234552
225	0x3d2a211a	0.041535474
226	0xbd680456	-0.05664476
227	0xbe2b61c7	-0.16736518
228	0x3e5abf6b	0.21362083
229	0x3e2f115f	0.1709647
230	0xbdeda4d6	-0.116037056
231	0xbe290c2c	-0.1650855
232	0xbe3b5a98	-0.18296278
233	0xbd844814	-0.0645906
234	0xbd85e92d	-0.065386154
235	0xbd24c2b3	-0.040224742
236	0xbc539606	-0.012914186
237	0x3cef3e22	0.029204432
238	0x3d669a7a	0.056299664
239	0xbd275635	-0.040853698
240	0x3da010ee	0.07815729
241	0xbc71cff5	-0.0147590535
242	0x3dfe630f	0.12421238
243	0xbd952ea9	-0.0728429
244	0x3cfd3652	0.030909691
245	0x3df84919	0.12123317
246	0x3bfa5b7e	0.0076403012
247	0x3d4d2af8	0.050089806
248	0xbe20e1ac	-0.15711087
249	0x3e50cf24	0.20391518
250	0xbe24ca20	-0.1609273
251	0xbd574739	-0.052558158
252	0x3db635bc	0.08896968
253	0xbea29fab	-0.31762442
254	0x3e005248	0.12531388
255	0xbd65abe5	-0.056072135

g.2.bias f4 [30]
0	0x3da4f3c4	0.08054307
1	0x3e161a2f	0.14658426
2	0x3b02dd06	0.0019968166
3	0xbcbbcb57	-0.022924108
4	0xbe0bbdf0	-0.13646674
5	0xbdbab0bb	-0.0911574
6	0xbdeebb48	-0.11656815
7	0x3e0104c7	0.12599479
8	0x3d759969	0.059960756
9	0xbd86afd1	-0.06576503
10	0xbbc22d5f	-0.005925819
11	0x3e152fee	0.14569065
12	0x3e16220c	0.14661425
13	0xbc877924	-0.016537257
14	0x3c217b64	0.009856079
15	0x3e272ae6	0.16324958
16	0xbdf637fc	-0.12022397
17	0xbde8fc51	-0.113762505
18	0x3d942611	0.07233823
19	0xbd5cb110	-0.053879797
20	0x3dfa2173	0.12213411
21	0x3c8d7553	0.017267859
22	0xbe36c8a6	-0.17849979
23	0x3d5e8777	0.054328408
24	0x3e0e7f02	0.13915637
25	0xbdefe8eb	-0.117143475
26	0x3da7c584	0.0819197
27	0xbdc9d2b9	-0.09854645
28	0xbd0431ec	-0.03227417
29	0x3de81e7d	0.1133394

g.4.weight f4 [1, 30]
0	0xbca388c0	-0.019962668
1	0xbd886ff3	-0.066619776
2	0xbdbf63e9	-0.09345228
3	0x3d63f903	0.055657398
4	0xbe08daf1	-0.1336477
5	0x3e433fae	0.1906726
6	0x3d76f53f	0.06029248
7	0xbe4ff4c9	-0.20308222
8	0x3e013f11	0.12621714
9	0xbe4f3a6e	-0.20237133
10	0x3e76b0f1	0.24090935
11	0x3e27192f	0.163182
12	0x3e0c68bd	0.1371183
13	0x3dc4da1f	0.09611916
14	0xbe01185b	-0.12606947
15	0x3dd8ea11	0.105915196
16	0xbe2de702	-0.16982654
17	0x3e838d31	0.25693658
18	0xbe051b1e	-0.12998626
19	0x3e3bb319	0.18330039
20	0x3c977a28	0.018490866
21	0xbc93004f	-0.017944483
22	0x3d9a661b	0.07539006
23	0x3d519790	0.051169932
24	0x3d84a306	0.06476407
25	0xbddc1c5d	-0.10747597
26	0xbe0fe34e	-0.14051554
27	0x3dbc38ee	0.09190546
28	0xbd160ab8	-0.036631316
29	0xbd030e2c	-0.031995937

nn_fun1.0.weight f4 [30, 1]
0	0x3f0f0959	0.5587364
1	0x3e351f96	0.1768783
2	0xbec8296e	-0.39094108
3	0xbe434def	-0.19072698
4	0xbdf3255b	-0.11872359
5	0x3eb09df1	0.344955
6	0x3ec02971	0.37531617
7	0x3f887d57	1.0663251
8	0xbe479f36	-0.19494328
9	0x3e7a821b	0.24463694
10	0x3e3f3ddd	0.18675943
11	0xbdd98078	-0.106202066
12	0xbf5cb68a	-0.8621603
13	0xbe796cd0	-0.24357915
14	0x3dfcfb98	0.12352675
15	0xbe5fce6c	-0.21856087
16	0xbe98c6e7	-0.2983925
17	0x3f727111	0.94703776
18	0xbf680ad1	-0.90641505
19	0xbf6cfe1f	-0.9257526
20	0xbcc7899a	-0.024357606
21	0x3ec668b4	0.38751757
22	0xba1cecfb	-0.00059862406
23	0xbe95a595	-0.29227892
24	0xbe954f43	-0.29162034
25	0xbe971b44	-0.2951299
26	0x3eb80991	0.359448
27	0x3dbfab83	0.09358885
28	0xbb1b9a68	-0.0023743156
29	0x3e9288df	0.2862005

nn_fun1.0.bias f4 [30]
0	0x3db79e81	0.08965779
1	0x3ec532b5	0.3851525
2	0xbd9a8850	-0.07545531
3	0xbf172ee4	-0.59055924
4	0xbec9363b	-0.39299187
5	0xbe20bb9b	-0.15696566
6	0xbe7d250a	-0.2472116
7	0xbf220525	-0.632891
8	0xbefcbfb2	-0.49365002
9	0xbf3eaf08	-0.74485826
10	0xbf30adf4	-0.6901543
11	0xbf3d7f21	-0.7402211
12	0x3d128a74	0.03577657
13	0x3f0f2b2e	0.5592526
14	0xbd82940d	-0.06375895
15	0xbf046f19	-0.5173202
16	0x3ef00bd1	0.46884015
17	0xbf037648	-0.5135236
18	0x3cb27216	0.021782916
19	0x3f066c35	0.5250886
20	0x3f16645f	0.58746904
21	0x3e8b49d2	0.27204758
22	0x3dc48afb	0.09596821
23	0xbebaeb5d	-0.36507693
24	0xbf06f12a	-0.5271174
25	0x3f2934aa	0.66095984
26	0xbf133cf7	-0.575149
27	0xbf3de644	-0.7417948
28	0x3f1a2707	0.602158
29	0x3f15567c	0.5833509

nn_fun1.2.weight f4 [30, 30]
0	0xbacc26de	-0.0015575548
1	0xbcc0a2b3	-0.023515081
2	0x3b8bbc30	0.004264377
3	0xbbae0883	-0.0053110733
4	0xbc027a8a	-0.007963786
5	0x3be498a3	0.0069762035
6	0x3c1ca6cd	0.009561253
7	0x3cef37e5	0.029201457
8	0x3c6e787a	0.014555091
9	0x3d5ee52f	0.054417785
10	0xbbf513d8	-0.007479172
11	0x3cbc9db9	0.023024427
12	0xb8ea5fd5	-0.000111758396
13	0xbcb26d20	-0.02178055
14	0x3a19f479	0.0005872916
15	0xbc4313bc	-0.0119065605
16	0x3cba76e1	0.022761764
17	0xbcbe1136	-0.023201566
18	0x39a739a0	0.00031895656
19	0xbc5718d4	-0.013128478
20	0x3cb69e28	0.022292212
21	0x3b783ffd	0.0037879937
22	0xbac3f320	-0.0014949776
23	0x3c197c3f	0.0093680015
24	0x3d43a56a	0.047765173
25	0xbc4d979c	-0.0125483535
26	0x3d24f7b5	0.040275294
27	0xbd099958	-0.033593506
28	0x3cd22e4f	0.025656847
29	0xbc844eb5	-0.016150812
30	0xbde6fa7d	-0.112782456
31	0xbda38587	-0.07984453
32	0xbdf8ab03	-0.12141993
33	0xbdd25728	-0.1027053
34	0x3cc498df	0.023998676
35	0x3e3355f3	0.17513256
36	0xbdff6e55	-0.12472216
37	0xbbcc19c3	-0.006228657
38	0xbd2363e4	-0.039890185
39	0xbd054630	-0.03253764
40	0xbd9435de	-0.07236837
41	0x3e1892f9	0.14899816
42	0xbd925828	-0.07145721
43	0xbd9dae80	-0.07699299
44	0x3debe2da	0.11517878
45	0x3d12c2e9	0.035830412
46	0x3dbfd1bd	0.09366176
47	0xbdf2ecb2	-0.11861552
48	0x3b75c4de	0.0037501375
49	0xbd3cde1f	-0.04611027
50	0xbdf31920	-0.118700266
51	0xbe145182	-0.14484218
52	0xbdf76423	-0.120796464
53	0x3d85d66f	0.065350406
54	0xbd4468f5	-0.047951657
55	0x3daf65e6	0.085643575
56	0xbe078b5e	-0.13236758
57	0x3c827d43	0.01592887
58	0x3c9529fa	0.018208493
59	0x3dc5dcf1	0.09661282
60	0xbe8823c5	-0.2658979
61	0xbd19844d	-0.037479687
62	0x3e0e5e58	0.13903177
63	0x3e09b048	0.13446152
64	0x3d1d0663	0.03833617
65	0xbe131f0b	-0.1436731
66	0xbdddac5c	-0.108238906
67	0xbe596461	-0.21229698
68	0x3e066b87	0.13126956
69	0xbe0d77cc	-0.1381523
70	0xbdd5837b	-0.104254685
71	0x3d2b8532	0.04187507
72	0x3f2b800c	0.6699226
73	0x3d2a76eb	0.041617315
74	0xbc80a319	-0.015702771
75	0x3da7f1fe	0.08200453
76	0x3cd2bd90	0.025725156
77	0xbe444a31	-0.19168927
78	0x3f48872a	0.78331244
79	0x3e30298d	0.1720335
80	0xbcd772a0	-0.026299775
81	0xbe45e0fe	-0.19324109
82	0xbdb6b875	-0.08921901
83	0x3cd389ec	0.025822602
84	0x3e205289	0.15656485
85	0x3d4a0fa9	0.04933134
86	0xbe2f5c68	-0.17125094
87	0x3d0de8fe	0.034646027
88	0xbdf93446	-0.121681735
89	0xbe2be385	-0.1678601
90	0xbaa081a8	-0.0012245672
91	0xbc43c080	-0.011947751
92	0x3bae5822	0.005320565
93	0xbc9f06b6	-0.01941238
94	0x3bf51b0e	0.007480032
95	0xbc665c84	-0.014060143
96	0xbc72902d	-0.014804882
97	0x3ced70f6	0.028984528
98	0x3b0c5fdd	0.0021419444
99	0x3d4a6cd7	0.049420204
100	0x3c0de207	0.008659846
101	0xbd91d857	-0.07121342
102	0x39bf94e9	0.00036541306
103	0xbd2088bf	-0.03919291
104	0xba928a77	-0.0011180182
105	0xbccaed06	-0.024771225
106	0x3c3f9d8d	0.011695278
107	0xbcad6f70	-0.021171302
108	0x39bf73ac	0.0003651654
109	0xb99e110f	-0.00030148818
110	0x3ca645f6	0.020297032
111	0x3c7cbe7f	0.015426277
112	0x3a18166d	0.00058016815
113	0xbd2d8512	-0.042363234
114	0xbcc55a96	-0.024091046
115	0x3cea9c7e	0.028639074
116	0xbbd0b71a	-0.0063694837
117	0xbcfc2700	-0.030780315
118	0xbd081306	-0.033221267
119	0xbc83a543	-0.016070014
120	0x3c9bcf65	0.019019792
121	0x3da1f7fc	0.079086274
122	0xbd07ef86	-0.03318741
123	0x3d93d2cb	0.0721794
124	0x3ddd174e	0.10795461
125	0xbd8aca4e	-0.06776868
126	0xbbb83611	-0.0056216796
127	0xbdcd9dbf	-0.10039853
128	0x3df4878f	0.11939918
129	0x3d7600ce	0.06005936
130	0xbcbd8053	-0.023132479
131	0xbd96221d	-0.07330725
132	0xbccd2ec3	-0.025046712
133	0x3c31ad06	0.010844475
134	0xbc9ab969	-0.018887239
135	0xbde0351d	-0.109476306
136	0x3bb4aa6f	0.0055134813
137	0xbd217f77	-0.0394282
138	0xbcc460a2	-0.02397186
139	0x3dc84647	0.09779029
140	0x3dcf00d8	0.10107583
141	0xbcfa55fa	-0.030558575
142	0x3c8d6cda	0.017263819
143	0x3d24b287	0.04020932
144	0x3e172ed5	0.14763959
145	0x3d4c6e34	0.049909785
146	0x3db65b25	0.08904103
147	0xbd3e2429	-0.046421204
148	0xbe18393e	-0.14865586
149	0xbd0afcf1	-0.03393263
150	0x3ca60914	0.020268
151	0x3e0e37ee	0.13888523
152	0x3bc68b42	0.0060590813
153	0xbe00f106	-0.12591943
154	0x399a4b36	0.00029429205
155	0xbc86e93e	-0.01646864
156	0xbdc170be	-0.09445332
157	0x3e08031e	0.13282439
158	0x3d9ba820	0.07600427
159	0xbe1be7b0	-0.152251
160	0x3e25f206	0.16205606
161	0xbdf03495	-0.11728779
162	0xbe605136	-0.2190598
163	0x3d597342	0.053088434
164	0x3d588177	0.052857842
165	0xbd281613	-0.041036677
166	0xbdad6166	-0.08465843
167	0x3c8f761b	0.017512372
168	0xbe4c3a0e	-0.19944021
169	0xbda21a7a	-0.07915206
170	0xbd966a72	-0.073445216
171	0x3d9c2ffe	0.07626341
172	0xbc9b2134	-0.01893673
173	0x3df97017	0.121795826
174	0xbe2d7cb2	-0.16942099
175	0xbdf7b3c4	-0.120948344
176	0xbe1ed35f	-0.15510319
177	0x3d75583d	0.059898604
178	0xbe0a5b0f	-0.13511299
179	0x3cd9118b	0.026497623
180	0x3d1ea97f	0.038735863
181	0x3d80bb68	0.06285745
182	0x3d27a793	0.040931296
183	0xbe309d53	-0.17247514
184	0x3c6644eb	0.014054517
185	0x3d0e6ac9	0.034769807
186	0x3cc1a88f	0.023639945
187	0x3e00e130	0.12585902
188	0x3c12f0b6	0.008968523
189	0xbde241d2	-0.110477105
190	0x3b73b433	0.0037186265
191	0x3df0b9d7	0.11754196
192	0x3d4a478f	0.04938465
193	0xba4d7e96	-0.0007838992
194	0xbcb8bcb5	-0.02255092
195	0x3d289506	0.041157745
196	0xbdd458ff	-0.10368537
197	0x3e11e4d6	0.1424745
198	0x3dc51e15	0.09624878
199	0x3de1db63	0.11028173
200	0x3df473fe	0.11936186
201	0x3de3278c	0.11091527
202	0xbd4bd7fc	-0.049766526
203	0xbdd3c548	-0.10340363
204	0xbc925755	-0.017863909
205	0xbce4bfcb	-0.027923485
206	0x3bdc4119	0.0067216274
207	0x3e18cadc	0.14921135
208	0x3c63c2b6	0.013901403
209	0x3df9553e	0.12174462
210	0x3d1fa5df	0.038976546
211	0x3d672bec	0.05643837
212	0x3d3bc00c	0.045837447
213	0xbdb93e43	-0.090450786
214	0x3df2c0b5	0.11853162
215	0x3cc9b443	0.024622088
216	0xbdc3529b	-0.0953724
217	0x3e0c30ce	0.13690493
218	0xbd8df0ac	-0.0693067
219	0x3d53bba9	0.05169264
220	0x3d430041	0.047607664
221	0x3dbfbe83	0.09362509
222	0x3a5dc5a7	0.00084599335
223	0x3cf88f04	0.030341633
224	0xbca3678f	-0.019946842
225	0xbcd7d731	-0.026347728
226	0x3e00728d	0.12543698
227	0xbdf82b48	-0.1211763
228	0x39795481	0.0002377797
229	0x3d4f6cf2	0.050641008
230	0xbcc5b772	-0.024135325
231	0xbd99b073	-0.07504358
232	0x3d12b215	0.035814364
233	0x3d0c4516	0.034245573
234	0x3d47dc74	0.048794225
235	0x3e00ef6c	0.12591332
236	0x3d55e487	0.052219894
237	0x3da3d883	0.08000281
238	0xbd81bf19	-0.06335277
239	0x3dc3443f	0.09534501
240	0x3cdadd1b	0.02671676
241	0x3b670868	0.0035252813
242	0x3d8cbd03	0.068719886
243	0xbd85e999	-0.06538696
244	0x3d6cb8dc	0.057793483
245	0xbc097320	-0.008389264
246	0xbaa7ea24	-0.0012810868
247	0x3e41f319	0.1894039
248	0x3cee9ce1	0.02912754
249	0x3e165fcf	0.14684986
250	0xbc97b848	-0.01852049
251	0xbdc98bee	-0.098411426
252	0xbe07fc6e	-0.13279888
253	0x3e079478	0.1324023
254	0x3dd753ca	0.10514028
255	0xbc8fe0d7	-0.017563267

nn_fun1.2.bias f4 [30]
0	0x3d79a36a	0.06094686
1	0x3d0939d6	0.033502422
2	0xbd73124b	-0.059343617
3	0xbd7de291	-0.06198365
4	0x3daaf499	0.083474346
5	0x3d9d1276	0.07669537
6	0xbd864cf7	-0.06557649
7	0x3c46c473	0.012131798
8	0x3e0ed106	0.13946924
9	0xbdce9af3	-0.10088148
10	0xbc7105da	-0.014710868
11	0xbc4465a9	-0.011987128
12	0xbdcd607f	-0.10028171
13	0x3e0ded5b	0.13860075
14	0x3da89311	0.08231176
15	0x3e012197	0.1261047
16	0x3da321d1	0.07965434
17	0xbc85ee96	-0.016349118
18	0x3cd53b94	0.026029386
19	0xbd5f90d5	-0.054581482
20	0xbe25c227	-0.16187344
21	0xbda2fa38	-0.07957882
22	0x3d90b0d3	0.070649765
23	0xbde94422	-0.113899484
24	0xbc61d62a	-0.013783971
25	0x3d2dfd14	0.042477682
26	0x3dc17867	0.09446793
27	0x3df7bb50	0.12096274
28	0xbc1dd144	-0.009632412
29	0x3d7ef4d6	0.062245212

nn_fun2.0.weight f4 [30, 1]
0	0x3d145f1e	0.036223523
1	0x3e63beed	0.22240801
2	0x3eb25503	0.34830484
3	0xbd7afabc	-0.061274275
4	0xbeb54bfe	-0.3540954
5	0xbed51eae	-0.4162497
6	0x3ed06ed2	0.4070955
7	0xbe09bc51	-0.13450743
8	0x3d8a1ab5	0.06743375
9	0xbf0f86ed	-0.56065255
10	0xbd64d84b	-0.055870336
11	0xbd762745	-0.060096044
12	0xbf0c395c	-0.54775023
13	0xbd439e7c	-0.047758564
14	0x3ea8f882	0.33002096
15	0x3f439c9f	0.7641086
16	0x3c1cc1ae	0.009567661
17	0xbebf358b	-0.37345538
18	0x3cee8a59	0.029118704
19	0x3df5f954	0.12010446
20	0xbd067212	-0.03282363
21	0xbf149d04	-0.58052087
22	0xbd9e0cec	-0.077173084
23	0xbf90f4d3	-1.1324714
24	0x3edeb82b	0.43499884
25	0x3e2b7f3f	0.1674776
26	0x3eb5bf6a	0.354976
27	0x3dbb7df4	0.09154883
28	0xbf02bb1c	-0.51066756
29	0x3d82f2dd	0.06393979

nn_fun2.0.bias f4 [30]
0	0xbf4f54a7	-0.80988544
1	0xbcaf337d	-0.021386856
2	0xbdcd0547	-0.10010772
3	0x3e7dce1e	0.24785659
4	0x3dfabf1e	0.12243484
5	0x3e204634	0.1565178
6	0xbe4854d5	-0.19563611
7	0xbf14e873	-0.5816719
8	0x3f3135d3	0.69222754
9	0x3eb2944d	0.3487877
10	0xbf000d13	-0.5001995
11	0x3f31e41a	0.6948868
12	0x3f03499a	0.5128418
13	0x3ea8e009	0.32983425
14	0xbe87583c	-0.26434505
15	0xbeff187c	-0.49823368
16	0x3e9e08ab	0.30865988
17	0xbf25a367	-0.6470246
18	0xbe7b8686	-0.24563035
19	0x3f16d1df	0.5891399
20	0x3e918ca7	0.28427622
21	0x3f4cbc31	0.7997466
22	0xbdc5e8f5	-0.09663574
23	0x3de26814	0.110550076
24	0x3ea8b6e8	0.32952046
25	0x3e5512af	0.20807908
26	0xbe2a213b	-0.16614239
27	0xbf45b051	-0.7722216
28	0x3eeb9369	0.46010903
29	0xbe9743e8	-0.29543996

nn_fun2.2.weight f4 [30, 30]
0	0xbd9c5eff	-0.076353066
1	0xba9d08fb	-0.0011980826
2	0xbab5ed28	-0.0013879882
3	0xbcea9bcf	-0.028638748
4	0xbb89558c	-0.004191106
5	0x3d20f67d	0.03929757
6	0xbc4e36ed	-0.0125863375
7	0x3d8cb695	0.06870762
8	0xbdf31744	-0.11869672
9	0x3d5e38e9	0.054253493
10	0xbca6f91c	-0.020382456
11	0x3db3ccae	0.08779274
12	0x3d330cbf	0.043713327
13	0x3d829440	0.06375933
14	0x3d94aad4	0.072591454
15	0xbbe52d60	-0.0069939345
16	0x3d0647f3	0.03278346
17	0xbd2a4ced	-0.04157727
18	0xbcb351d1	-0.021889599
19	0xbd90da07	-0.070728354
20	0x3be2df57	0.006923597
21	0x3ccc5917	0.024944825
22	0x3c4fac75	0.012675394
23	0xbbfe27a5	-0.007756191
24	0x3bdda87e	0.0067644706
25	0x3d5f8391	0.05456883
26	0xbd01016b	-0.031495493
27	0x3df2f170	0.11862457
28	0x3d58a5ed	0.052892614
29	0xbd8f3da4	-0.06994179
30	0xbe45124e	-0.19245264
31	0xbd918847	-0.07106071
32	0xbe36cb6b	-0.17851035
33	0x3e3cdada	0.1844286
34	0xbd1adbfb	-0.037807446
35	0x3df5dada	0.12004633
36	0x3dd5bfc4	0.10436967
37	0x3dd13794	0.10215679
38	0xbdeed2c0	-0.11661291
39	0x3da99c65	0.08281783
40	0x3debd634	0.115154654
41	0xbb0ff6ef	-0.0021967252
42	0xbd7f1619	-0.062276933
43	0xbd6a7ed4	-0.05724986
44	0x3d6067d7	0.05478653
45	0xbe4f432d	-0.2024047
46	0xbc25c594	-0.010117907
47	0xbe46ccd6	-0.19414076
48	0x3d6e62bb	0.058199625
49	0x3d9b5781	0.075850494
50	0xbd5de5d3	-0.054174256
51	0x3cd0296a	0.025410373
52	0x3dde17b1	0.108443625
53	0x3e80368d	0.2504162
54	0xbe1b63ca	-0.15174785
55	0xbe061dc6	-0.13097295
56	0xbd98c624	-0.07459667
57	0xbbe6d2ab	-0.0070441565
58	0xbd7f0c6e	-0.062267713
59	0x3bab730d	0.005232221
60	0x3d722304	0.059115425
61	0x3c25ce22	0.010119947
62	0x3dd37bc9	0.103263445
63	0xbcc76c37	-0.024343593
64	0xbdab4230	-0.08362234
65	0x3bd80450	0.006592311
66	0x3d580eac	0.052748367
67	0x3ce69bb0	0.02815041
68	0x3e036ab6	0.12833676
69	0xbe6ff68e	-0.23433897
70	0x3d598d06	0.053113006
71	0x3dea192f	0.11430585
72	0xbe7070ec	-0.23480576
73	0x3d9c492c	0.07631144
74	0x3de14fc0	0.11001539
75	0x3e77e8e4	0.24209934
76	0x3de5ebe8	0.11226636
77	0xbd4dbc52	-0.050228424
78	0x3ddaef03	0.10690119
79	0x3dd5716a	0.10422023
80	0xbd26c2ac	-0.040712997
81	0xbdcbbd25	-0.09948186
82	0x3dbaa130	0.09112775
83	0x3e918b01	0.28426364
84	0x3ae16ca3	0.0017198514
85	0xbbc1c1eb	-0.0059130094
86	0x3dd23afb	0.10265156
87	0x3d857ebd	0.06518314
88	0xbe7ddcba	-0.24791232
89	0xbdbe8514	-0.093027264
90	0xbd44d2ae	-0.048052482
91	0x39b31ed7	0.00034164518
92	0xbca602af	-0.020264952
93	0xbd974737	-0.0738663
94	0xbc33ab4f	-0.010966136
95	0xbd6a7f79	-0.057250474
96	0xbd344b3a	-0.044017054
97	0xbabb1196	-0.0014272209
98	0xbd85473c	-0.065077275
99	0x3d1a813e	0.03772091
100	0xbc9e9aa7	-0.019360853
101	0xbd92a97d	-0.071612336
102	0x3e07811a	0.13232842
103	0xbcf93ea7	-0.030425383
104	0x3ca8d884	0.020611055
105	0x3e00c0ca	0.12573543
106	0xbdb8d1db	-0.09024402
107	0xbd65b9c4	-0.056085363
108	0xbd605e2a	-0.0547773
109	0xbca0db12	-0.01963571
110	0x3cc12d8d	0.02358129
111	0xbd297502	-0.041371353
112	0xbd464c9f	-0.048412915
113	0x3cca1491	0.02466801
114	0xbd759533	-0.05995674
115	0x3dc522b9	0.096257634
116	0x3c03d507	0.008046395
117	0xbe129b79	-0.1431712
118	0xbe020630	-0.12697673
119	0x3dfebf44	0.12438825
120	0x3c622c76	0.013804546
121	0xbcb4184e	-0.021984246
122	0x3d470f1d	0.048598398
123	0xbe083e77	-0.13305078
124	0xbe1975d1	-0.1498635
125	0x3d8748a3	0.06605651
126	0x3dcc62a7	0.09979754
127	0xbdad0aec	-0.08449349
128	0x3e12a18a	0.14319435
129	0xbda29056	-0.07937686
130	0x3d17cb13	0.0370589
131	0xbe2d7bcb	-0.16941755
132	0x3d605f7e	0.05477857
133	0xbd2087e6	-0.039192103
134	0x3df372ff	0.11887168
135	0xbd34a30d	-0.04410081
136	0xbbad1625	-0.005282181
137	0xbd52fb8b	-0.05150942
138	0x3e119dfc	0.14220423
139	0x3d58cf28	0.052931935
140	0x3def92ec	0.11697945
141	0xbd8211ac	-0.06351027
142	0x3d88d2f3	0.0668086
143	0xbdd22bb2	-0.102622405
144	0xbd1920a0	-0.03738463
145	0x3d0a2590	0.03372723
146	0x3ca63793	0.020290172
147	0x3d726a0b	0.05918316
148	0x3dc58e9c	0.09646341
149	0x3d94b122	0.07260348
150	0x3df09b1e	0.11748336
151	0xbda56c3c	-0.08077285
152	0x3cb4ecd7	0.02208559
153	0xbe20d2aa	-0.15705362
154	0x3d9d7b53	0.07689538
155	0x3e56b048	0.20965683
156	0xbe3e5a7b	-0.18589203
157	0xbe1916d6	-0.14950117
158	0x3db5a1a5	0.08868722
159	0x3d3fff64	0.04687442
160	0xbd1353ad	-0.03596847
161	0xbcece89a	-0.028919507
162	0x3e1dd8e0	0.15414762
163	0xbddc6f8e	-0.10763465
164	0xbdbb305f	-0.091400854
165	0x3ded9cc3	0.116021655
166	0xbcad63a5	-0.021165678
167	0x3da342ce	0.07971726
168	0x3db9dd47	0.090754084
169	0xbe3295dd	-0.17439981
170	0x3da09662	0.07841183
171	0x3da321ea	0.07965453
172	0x3c09294f	0.008371665
173	0x3dffc5ba	0.12488885
174	0xbd396cb5	-0.045269687
175	0x3d9867dc	0.074416846
176	0xbe2a6f81	-0.16644098
177	0x3e1acfdc	0.15118355
178	0xbc8c6feb	-0.01714321
179	0xbe1b1cbb	-0.15147679
180	0x3cc99b3f	0.02461016
181	0xbccd84b9	-0.025087701
182	0x3d50dea0	0.05099356
183	0x3d765f1a	0.06014929
184	0xbd64fcbf	-0.0559051
185	0xba69a607	-0.00089129846
186	0x3d8a3434	0.06748238
187	0x3d76648a	0.060154475
188	0x3e09e970	0.13467956
189	0x3e1b2ed4	0.15154582
190	0x3deb1981	0.11479474
191	0x3daed55f	0.08536791
192	0xbc5daf39	-0.013530546
193	0xbcef78a9	-0.02923234
194	0xbbcc1094	-0.006227562
195	0xbd8e2f5a	-0.06942625
196	0xbcbfa3d8	-0.023393556
197	0xbc03fbf0	-0.008055672
198	0xbe0e1b4c	-0.138776
199	0xbdcd14dd	-0.10013745
200	0xbd4abea7	-0.049498226
201	0xbdce8099	-0.10083122
202	0xbd2e0b51	-0.04249126
203	0x3e19d974	0.15024358
204	0xbe0c44db	-0.13698141
205	0x3e2a47a3	0.1662889
206	0x3dbed55d	0.093180396
207	0xbd836370	-0.064154506
208	0x3e032468	0.12806857
209	0xbdc63500	-0.09678078
210	0x3def37f2	0.116805926
211	0xbb9abd24	-0.0047222544
212	0x3d4353d3	0.047687363
213	0xbdb94ab6	-0.09047453
214	0x3dadc67a	0.08485122
215	0xbc469591	-0.01212062
216	0x3bf59d6e	0.0074955737
217	0x3e133d90	0.14378953
218	0x3dfe920a	0.124301985
219	0x3d4d3000	0.050094604
220	0xbe00dbef	-0.12583898
221	0x3d93da6e	0.072193965
222	0x3e14fab8	0.14548767
223	0xbc1482a7	-0.009064353
224	0x3d859d5e	0.06524156
225	0x3d74e835	0.059791762
226	0xbd66d602	-0.056356438
227	0xbc9a22f3	-0.018815493
228	0x3d2d80f5	0.04235931
229	0x3c866b3c	0.016408555
230	0x3d8076c5	0.062726535
231	0x3d944b5d	0.07240937
232	0x3d7ffd34	0.062497333
233	0xbc0cb9e0	-0.008589238
234	0x3d481ec2	0.048857458
235	0x3c2bc2be	0.010483442
236	0x3d0075df	0.03136241
237	0xbd8a92bd	-0.06766269
238	0xbd9d0557	-0.07667034
239	0x3d854b5d	0.06508515
240	0xbe482abb	-0.1954755
241	0x3e2307b1	0.15920903
242	0x3db390cc	0.08767852
243	0xbd955e28	-0.072933495
244	0xbd224116	-0.039612852
245	0xbd9af91d	-0.07567046
246	0xbd23b968	-0.03997174
247	0x3d8af9df	0.067859404
248	0x3dc0f286	0.09421258
249	0x3de1d47c	0.11026856
250	0xbd9f2ef9	-0.07772631
251	0x3e123c35	0.1428078
252	0xbe0cd4b8	-0.13753021
253	0xbcef6b3b	-0.029225936
254	0x3e1c6e4d	0.15276451
255	0x3dca7d88	0.098872244

nn_fun2.2.bias f4 [30]
0	0xbd5d9b1f	-0.054103013
1	0xbdf0f9ae	-0.117663726
2	0xbd2de796	-0.042457186
3	0x3e0ae588	0.13564122
4	0x3def4472	0.11682977
5	0x3d83ca81	0.06435109
6	0xbde8d174	-0.11368075
7	0xbdd76d1d	-0.105188586
8	0xbd732314	-0.059359625
9	0xbdd397ff	-0.10331725
10	0xbba4864e	-0.005020893
11	0xbd8811eb	-0.066440426
12	0x3db4ed85	0.08834366
13	0xbdb9b8d5	-0.09068457
14	0xbd5c4145	-0.053773183
15	0x3ddb51da	0.10708971
16	0x3c93b6e8	0.018031552
17	0xbd516247	-0.051119115
18	0xbd458c7c	-0.04822968
19	0xbdd6b379	-0.104834504
20	0x3d61e275	0.055147607
21	0x3d60e6f0	0.05490774
22	0xbd8bb03e	-0.06820725
23	0xbdd864b8	-0.105660856
24	0x3c851554	0.016245522
25	0xbe264a0e	-0.16239187
26	0xbd032db5	-0.03202601
27	0xbdfb3df1	-0.12267674
28	0x3dad4778	0.08460897
29	0x3c16917d	0.009189961

agg.0.weight f4 [1, 30]
0	0xbb31f67a	-0.0027154968
1	0x3de91bf5	0.113822855
2	0x3d741a45	0.059595365
3	0x3851553c	4.9908864e-05
4	0xbcc01e12	-0.023451839
5	0x3d11ac94	0.035564974
6	0xbd6b3747	-0.057425763
7	0x3b93253b	0.004490522
8	0xbdddf0af	-0.108369224
9	0xbc6265ab	-0.013818185
10	0xbc9ea619	-0.01936631
11	0x3a9a810a	0.0011787724
12	0x3b4a3ae9	0.0030857867
13	0x3c7a492a	0.015276233
14	0xbcbbcfce	-0.022926237
15	0xbd99d605	-0.07511524
16	0x3cdba3ea	0.026811559
17	0xbba382a6	-0.0049899397
18	0xbd9a1ac8	-0.07524639
19	0x3cc340ef	0.023834674
20	0x3d3042aa	0.043032326
21	0xbe00b86a	-0.12570348
22	0x3bd41b8c	0.0064730104
23	0x3b9dcffe	0.0048160544
24	0x3a53fb0d	0.0008086421
25	0x3dca9a0a	0.09892662
26	0xb8cac987	-9.669648e-05
27	0x3c8eb7c3	0.017421609
28	0xbd764876	-0.060127698
29	0xba090cab	-0.0005228023
