multiple_model_analysis/results/er_experiment_MM_size_10_19_alpha_0_scale_100_dynwght_False_std_reg_1.0_equiv_reg_0.0/neural_network.pth (torch, 16501 bytes, 14 tensors)

g.0.weight f4 [30, 1]
0	0x3f25a26b	0.64700955
1	0x3f618e10	0.88107395
2	0x3c241f8c	0.010017287
3	0x3ebd6613	0.3699194
4	0xbf2f49a6	-0.68471754
5	0xbf57f46e	-0.84357345
6	0xbf2212f4	-0.6331017
7	0x3f12176d	0.57066995
8	0xbf2ee50e	-0.6831826
9	0xbe651222	-0.22370198
10	0xbf380d7b	-0.7189557
11	0x3e952926	0.29132956
12	0x3f1995f1	0.5999442
13	0x3e04697c	0.12930864
14	0x3f210b18	0.6290755
15	0x3e73b0f5	0.23797973
16	0x3f82ae92	1.0209525
17	0xbf628390	-0.88482
18	0xbe99bc60	-0.3002653
19	0xbee59d34	-0.448465
20	0xbf4693e9	-0.77569443
21	0xbf07e80f	-0.5308847
22	0xbda37c83	-0.07982733
23	0xbe5cf5c0	-0.21578121
24	0x3f3e3774	0.74303365
25	0x3f945512	1.1588461
26	0x3f675ffc	0.90380836
27	0x3f91092c	1.1330924
28	0x3d86ca2c	0.0658153
29	0xbf57c0c3	-0.84278506

g.0.bias f4 [30]
0	0xbe1f69a7	-0.15567647
1	0xbf1f44f2	-0.6221458
2	0x3f3a2013	0.7270519
3	0x3e78fbdd	0.24314828
4	0x3f0d83b9	0.5527912
5	0x3e157f03	0.14599232
6	0x3f491fc7	0.78564113
7	0xbe83d083	-0.2574502
8	0x3f1cf92a	0.61317694
9	0x3c484afb	0.012224908
10	0xbddf7cf1	-0.109125026
11	0xbc8eefd7	-0.017448349
12	0x3edacd99	0.42734984
13	0x3e8da359	0.27663687
14	0x3c7b7b67	0.015349246
15	0xbf031244	-0.51199746
16	0x3d35cd53	0.044385266
17	0x3e25d29b	0.16193621
18	0xbf569cd6	-0.8383306
19	0xbc71d00d	-0.014759076
20	0xbc551bff	-0.013007163
21	0xbe422c3a	-0.18962184
22	0xbe511089	-0.20416464
23	0xbf1b2b8c	-0.6061332
24	0xbe07e00f	-0.13269065
25	0xbe90fc10	-0.28317308
26	0xbdc344b7	-0.09534591
27	0xbd64a011	-0.055816714
28	0x3e545c2c	0.20738286
29	0x3e985a0f	0.2975621

g.2.weight f4 [30, 30]
0	0x3e315715	0.17318375
1	0x3d992665	0.07478026
2	0x3c0c53af	0.008564874
3	0xbd7285e0	-0.059209704
4	0x3d92e0e8	0.07171804
5	0xbe557709	-0.2084619
6	0xbda80187	-0.08203416
7	0xbd1dcc83	-0.038525116
8	0xbdc618cb	-0.09672698
9	0xbe14183b	-0.14462368
10	0xbe7b9823	-0.24569754
11	0xbe2e5e09	-0.17028059
12	0xbd89ba36	-0.0672497
13	0x3e246185	0.16052826
14	0x3e322a0e	0.17398855
15	0x3da5d360	0.08096957
16	0x3cd98b2a	0.026555616
17	0x3d37428c	0.0447412
18	0x3da0b8d5	0.07847754
19	0xbceaa82c	-0.028644644
20	0xbe9422ec	-0.28932893
21	0xbd86e1fd	-0.065860726
22	0x3cb436f0	0.021998852
23	0xbdd0d49d	-0.10196803
24	0x3c19dd20	0.009391099
25	0x3e6d05a7	0.23146687
26	0x3d8ada3a	0.06779905
27	0x3e61ad2e	0.22038719
28	0xbd933cab	-0.07189306
29	0xbde0ff08	-0.10986143
30	0x3c8de871	0.01732275
31	0xbdd00c55	-0.10158602
32	0x3d3c02f9	0.045901272
33	0xbdec71b3	-0.11545124
34	0x3d778177	0.0604262
35	0xbdbecaff	-0.09316062
36	0x3dec7f7d	0.11547754
37	0x3d02bc1d	0.03191768
38	0x3dc6d276	0.09708111
39	0xbe0175d7	-0.12642609
40	0xbce832ab	-0.028344473
41	0x3c6f4453	0.014603692
42	0x3dae659a	0.08515473
43	0x3d234f72	0.039870687
44	0x3d7d098e	0.06177669
45	0xbc7b38f9	-0.015333408
46	0x3dfc3100	0.123140335
47	0x3aeb21f1	0.0017939192
48	0x3e0c7b03	0.137188
49	0xbd1b6f48	-0.037947923
50	0xbd8a0571	-0.06739319
51	0xbdda7d8e	-0.10668479
52	0x3d0da63c	0.03458236
53	0x3d8caede	0.06869291
54	0x3e18126f	0.14850782
55	0xbbeff060	-0.007322356
56	0x3ddc1deb	0.10747894
57	0x3d97f13a	0.07419057
58	0xbdc9c098	-0.098511875
59	0xbd66cab9	-0.056345675
60	0xbe048009	-0.12939467
61	0x3d22f553	0.03978474
62	0xbe1a1b34	-0.1504944
63	0xbe2e3362	-0.17011788
64	0xbd9b59fa	-0.07585521
65	0xbd8cd0fc	-0.06875798
66	0x3dfd3808	0.12364203
67	0xbce45dca	-0.027876753
68	0x3dd983f7	0.106208734
69	0x3d62d8b1	0.055382434
70	0xbd8bed41	-0.06832362
71	0x3d320fa8	0.043471962
72	0xbdc3d3ea	-0.09561904
73	0xbd497da0	-0.04919207
74	0x3c759afc	0.014990564
75	0xbe2332fb	-0.15937416
76	0xbe7e6b9e	-0.2484574
77	0xbda454d3	-0.080239914
78	0xbdde2c8b	-0.1084834
79	0xbdc63836	-0.0967869
80	0x3ea97fc4	0.3310529
81	0xbdaeab3b	-0.08528753
82	0x3d9dca06	0.077045485
83	0x3d2d58a2	0.042320855
84	0x3d646e93	0.055769514
85	0xbe70f36d	-0.2353036
86	0xbdfb784b	-0.122788034
87	0xbed7a596	-0.4211852
88	0x3d1ecc80	0.038769245
89	0x3e086427	0.13319455
90	0xbdc14434	-0.09436837
91	0x3e270aab	0.16312663
92	0x3e1f7216	0.15570864
93	0xbd672c3f	-0.05643868
94	0x3d1b19ba	0.03786633
95	0xbe698d0b	-0.2280771
96	0xbd32ddca	-0.043668546
97	0x3d20a7d7	0.039222565
98	0xbdd255b7	-0.10270255
99	0x3ccb7476	0.024835806
100	0xbe16e65a	-0.1473631
101	0xbd9ad4bc	-0.07560107
102	0x3c9791cf	0.018502144
103	0x3e04e803	0.1297913
104	0x3d976238	0.073917806
105	0x3dad2da9	0.084559746
106	0x3da8ed10	0.08248341
107	0xba32e44e	-0.0006824181
108	0xbd7c1eb1	-0.061552707
109	0x3d96b003	0.0735779
110	0xbe38e614	-0.18056518
111	0x3e1b42fa	0.15162268
112	0x3c51d130	0.012806222
113	0x3c9d60c0	0.019211173
114	0x3e3385f9	0.17531575
115	0x3d0e75f6	0.034780465
116	0x3e845bce	0.2585129
117	0x3e3b786f	0.1830766
118	0xba46b91b	-0.00075806835
119	0xbe1b83da	-0.15187016
120	0x3d4541a1	0.04815829
121	0x3e071b66	0.13194045
122	0x3c2e60c3	0.010643187
123	0xbd2e33f9	-0.042530034
124	0x3d019a9b	0.031641584
125	0x3dafb820	0.08580041
126	0xbc987b25	-0.018613407
127	0x3dd29be6	0.102836415
128	0xbd9eb2e3	-0.07748964
129	0xbd9a253d	-0.07526634
130	0x3e0b2e97	0.13591991
131	0x3d06e846	0.032936357
132	0x3da2f744	0.079573184
133	0xbdf8180a	-0.1211396
134	0xbe10d568	-0.14143908
135	0xbcc6425e	-0.024201568
136	0xbde406f2	-0.11134137
137	0x3e26c2dd	0.16285272
138	0x3d48fb4b	0.049067777
139	0xbd4229d1	-0.04740316
140	0x3d8301f4	0.06396857
141	0x3d087ff6	0.033325158
142	0xbdb2b067	-0.08725052
143	0x3de7245c	0.11286232
144	0xbe3f2321	-0.18665744
145	0xbd8d569f	-0.06901287
146	0xbe601d35	-0.21886142
147	0xbedb1dcf	-0.4279618
148	0x3c0b52a9	0.008503594
149	0xba093270	-0.0005233651
150	0x3bfda46f	0.0077405493
151	0xbde4226c	-0.11139378
152	0xbd052f67	-0.03251591
153	0xbde7323f	-0.112888806
154	0xbd654277	-0.05597159
155	0x3e22ad66	0.15886459
156	0x3e22ef51	0.15911604
157	0x3df002e0	0.11719298
158	0xbddc6a54	-0.10762468
159	0xbdb835f0	-0.08994663
160	0xbbeadff1	-0.007167809
161	0x3cdf2b75	0.027242402
162	0xbe0be0b7	-0.1365994
163	0xbd7ad94e	-0.061242394
164	0xbd98be0e	-0.07458125
165	0x3e1b5918	0.15170705
166	0xbe7fee24	-0.24993187
167	0x3e726ca9	0.23674263
168	0x3e0364ab	0.1283137
169	0x3d8a8ca7	0.067651086
170	0x3d6b6fe4	0.057479754
171	0x3d3b12cf	0.045672234
172	0x3db05f31	0.08611906
173	0xbd4271e9	-0.047471914
174	0xbe39d5aa	-0.18147913
175	0xbc9f4028	-0.019439772
176	0xbe9579fc	-0.2919463
177	0xbe23e83f	-0.16006564
178	0xbc60e6f9	-0.013726943
179	0xbd7e15c4	-0.062032476
180	0x3c17c0e9	0.009262302
181	0xbcd1d2f1	-0.02561328
182	0xbd1d6054	-0.038421944
183	0x3da7ba85	0.08189873
184	0x3d6caf83	0.05778457
185	0xbd94ebbd	-0.07271526
186	0xbb9e791d	-0.004836215
187	0x3e17659e	0.14784858
188	0x3ddd436a	0.10803874
189	0x3ce0b3b0	0.027429432
190	0x3d20fc25	0.039302964
191	0xbd1b248a	-0.037876643
192	0xbe0cd55b	-0.13753264
193	0xbe007901	-0.1254616
194	0x3d97c894	0.07411304
195	0x3d9562fe	0.07294272
196	0x3d80492b	0.06263956
197	0xbe3123d5	-0.17298825
198	0xbde55d3a	-0.11199422
199	0xbbae7d28	-0.0053249784
200	0xbe11efc8	-0.14251626
201	0x3cec2477	0.028825982
202	0xbe08988a	-0.13339439
203	0x3cb495e6	0.022044133
204	0xbb6a45b1	-0.0035747106
205	0x3dace39f	0.08441853
206	0x3df37d05	0.1188908
207	0x3e0ca6e3	0.13735537
208	0x3e146c57	0.14494453
209	0xbe31c1cb	-0.17359082
210	0x3b91e8b5	0.0044527897
211	0xbc2b8b69	-0.01047025
212	0x3e0278ca	0.1274139
213	0xbde83704	-0.113386184
214	0xbdf8c91d	-0.12147734
215	0xbda6ac91	-0.08138383
216	0x3d71fad1	0.059077088
217	0xbbdd6342	-0.006756217
218	0x3d2f49ca	0.04279498
219	0x3d01d19b	0.031694036
220	0x3d4531fb	0.04814337
221	0x3df8d614	0.12150207
222	0xbcf9e6f7	-0.03050564
223	0xbe10aa5d	-0.14127488
224	0x3d6c4760	0.057685256
225	0xbde5b860	-0.11216807
226	0x3e697acd	0.22800751
227	0x3ca7f6d7	0.020503445
228	0x3e0dc329	0.13843979
229	0xba0bc7b2	-0.0005332186
230	0xbe676540	-0.22597218
231	0xbe027483	-0.12739758
232	0xbb3f2407	-0.002916576
233	0x3d914e96	0.07095067
234	0x3dd113fd	0.102088906
235	0x3e4b72a6	0.19867954
236	0x3e81dd95	0.25364366
237	0x3edff111	0.43738607
238	0x3db9cd73	0.090723895
239	0xbd3ee364	-0.046603575
240	0x3da0d8c4	0.07853845
241	0xbe02dfd1	-0.12780692
242	0x3dbce8ef	0.09224116
243	0xbddf6a82	-0.10908987
244	0x3e01dda5	0.12682207
245	0xbe135bd0	-0.14390492
246	0xbdd756d2	-0.105146065
247	0x3d49be19	0.049253557
248	0xbd9fa600	-0.07795334
249	0xbb2749a9	-0.0025526083
250	0xbd3b63d1	-0.04574949
251	0xbd275e6a	-0.040861525
252	0xbc00f49e	-0.007870821
253	0xbcfa32f0	-0.030541867
254	0x3bc40ee5	0.005983221
255	0x3dafe35e	0.08588289

g.2.bias f4 [30]
0	0x3c9209d3	0.01782695
1	0xbda5c4bb	-0.08094164
2	0xbdf426df	-0.119214766
3	0x3e1c56c8	0.1526748
4	0xbe07bae6	-0.1325489
5	0x3dff5a6e	0.1246842
6	0x3d59ee12	0.053205557
7	0xbd157925	-0.036492486
8	0xbd9d5932	-0.07683028
9	0xbd37ba0b	-0.04485516
10	0x3d576e3d	0.052595366
11	0xbdbb0986	-0.09132676
12	0x3cbbc6ea	0.022921998
13	0xbdb57054	-0.088593155
14	0xbdf5cbbd	-0.120017506
15	0x3e076049	0.13220324
16	0xbd24748c	-0.04015021
17	0xbe18651c	-0.1488232
18	0xbe09f047	-0.13470565
19	0xbdc4e22b	-0.096134506
20	0x3d18642e	0.037204914
21	0xbc15203b	-0.009101923
22	0x3e3657d2	0.17806938
23	0x3d0f447f	0.034977432
24	0xbe00e430	-0.12587047
25	0x3dbf8fe9	0.093536206
26	0xbcbfbf51	-0.023406656
27	0xbe038720	-0.12844515
28	0xbd90503a	-0.07046552
29	0xbd61ec57	-0.055157032

g.4.weight f4 [1, 30]
0	0xbd89156e	-0.066935405
1	0xbb951c5b	-0.0045504994
2	0x3e37fa90	0.17966676
3	0xbdad3326	-0.084570214
4	0x3e236084	0.15954787
5	0x3e286afc	0.16447061
6	0xbc0b8431	-0.008515404
7	0xbdfcdca0	-0.123467684
8	0xbe38c0ee	-0.18042347
9	0xb9c57c44	-0.00037667353
10	0x3e3e26f2	0.18569544
11	0xbc8bf0f1	-0.017082663
12	0xbccd3626	-0.025050234
13	0xbe276620	-0.16347551
14	0xbe3b8cc2	-0.18315414
15	0xbe4cf0b5	-0.20013697
16	0x3cb9f685	0.022700557
17	0x3e0da067	0.1383072
18	0x3d0b1582	0.03395606
19	0xbe328d0f	-0.17436622
20	0xbe0baa33	-0.13639145
21	0x3e0cab9d	0.1373734
22	0xbe473d1c	-0.19456905
23	0x3e19781f	0.14987229
24	0xbdfde85b	-0.12397834
25	0xbca7e489	-0.020494716
26	0x3dc57da1	0.096431024
27	0xbde718d1	-0.1128403
28	0x3c5e21be	0.013557849
29	0x3c9263de	0.017869886

nn_fun1.0.weight f4 [30, 1]
0	0xbeb5908e	-0.3546185
1	0xbe116abf	-0.14200877
2	0xbe9703f3	-0.294952
3	0x3ef73b58	0.48287463
4	0xbf93ab1c	-1.1536593
5	0xbd9daa6a	-0.076985195
6	0x3ecc14f0	0.39859724
7	0xbe177d35	-0.14793856
8	0x3e97f957	0.2968242
9	0x3f0f7c25	0.56048805
10	0x3f15b681	0.58481604
11	0x3ca8f44e	0.020624306
12	0xbf3b8c41	-0.73260885
13	0xbc5cd84b	-0.013479303
14	0xbeddd009	-0.4332278
15	0xbf4e11f1	-0.80496126
16	0x3f6e57a2	0.9310247
17	0x3ea879d7	0.32905456
18	0x3e61cd25	0.22050913
19	0xbfa5f7a8	-1.2966204
20	0xbf959f04	-1.1689153
21	0x3eea7815	0.4579474
22	0xbe71e881	-0.2362385
23	0x3f825015	1.0180689
24	0x3ef263ac	0.4734167
25	0x3d2aaeeb	0.04167072
26	0xbd9f6987	-0.077837996
27	0x3e586fa8	0.21136343
28	0x3e8478bd	0.25873366
29	0xbd4ac040	-0.04949975

nn_fun1.0.bias f4 [30]
0	0x3f1506fa	0.5821377
1	0xbe6fe3b2	-0.23426703
2	0xbe889536	-0.2667634
3	0x3db25f17	0.08709543
4	0x3f05d1ae	0.5227307
5	0xbe390118	-0.18066823
6	0x3ea8668b	0.32890734
7	0xbed60d8c	-0.4180721
8	0x3eeb0b05	0.45906845
9	0x3e7bc057	0.2458509
10	0xbeea6d85	-0.45786682
11	0x3f310c26	0.6915916
12	0xbdce1421	-0.10062433
13	0x3f02ba87	0.5106587
14	0xbe94ba73	-0.290485
15	0x3de1081b	0.10987874
16	0xbedc81f3	-0.43067893
17	0x3e093a9d	0.13401265
18	0x3d9c716b	0.0763882
19	0x3f5fbf29	0.8740106
20	0x3f3af4d4	0.7302983
21	0x3e869e60	0.26292706
22	0xbf5e5ced	-0.86860543
23	0xbf200b74	-0.62517476
24	0x3d09a35e	0.033603065
25	0xbf24aa8a	-0.6432272
26	0xbf4f7c9f	-0.8104953
27	0x3ecdaa77	0.40169117
28	0x3f01db43	0.5072519
29	0x3e650b53	0.22367601

nn_fun1.2.weight f4 [30, 30]
0	0xbe0f15b5	-0.13973124
1	0x3dcce353	0.10004296
2	0xbe201605	-0.156334
3	0xbbec9340	-0.007219702
4	0x3c8f77f0	0.017513245
5	0xbd78471f	-0.0606147
6	0x3dea76a1	0.11448408
7	0x3dd88e63	0.10574033
8	0xbd411de8	-0.04714766
9	0x3dba01f3	0.09082403
10	0xbda0ba2d	-0.0784801
11	0xbdc856a5	-0.09782151
12	0xbcc0a591	-0.023516448
13	0x3dafdea3	0.085873865
14	0xbd8ddff1	-0.06927479
15	0xbdf1a474	-0.11798945
16	0xbd6c8814	-0.05774696
17	0xbd6a9b38	-0.057276934
18	0xbda0d9f9	-0.07854075
19	0xbb712a03	-0.0036798723
20	0x39f32764	0.0004637792
21	0x3cc958e4	0.02457852
22	0x3e1fbd56	0.1559957
23	0xbb775365	-0.0037738916
24	0xbddf5720	-0.1090529
25	0xbe1f98a7	-0.15585576
26	0xbd880ed2	-0.06643452
27	0xbd8eb9a3	-0.06969001
28	0xbde84ce8	-0.11342794
29	0xbc28661f	-0.010278254
30	0x3d138f91	0.036025587
31	0xbbe9b3e2	-0.0071320394
32	0xbc48224c	-0.012215208
33	0x391fca08	0.00015238684
34	0x3d67d9ee	0.05660432
35	0xbc4ac1b3	-0.012375283
36	0xbc2c018a	-0.010498414
37	0x3c72317d	0.014782307
38	0xbcef4b5e	-0.029210743
39	0xbc2c6d77	-0.010524145
40	0x3b958bc6	0.0045637814
41	0xbc58c428	-0.013230361
42	0xbb081dcc	-0.0020769713
43	0xbc2cf162	-0.010555597
44	0xbac5f54b	-0.001510301
45	0xbac649a3	-0.0015128147
46	0xbc91af23	-0.017783707
47	0x3ba49126	0.005022186
48	0xbbae7b0d	-0.0053247274
49	0x3d31acbe	0.04337763
50	0x3c17dce8	0.009268977
51	0xbc819017	-0.015815778
52	0x3d32ec5f	0.043682452
53	0xbb0e66cd	-0.0021728755
54	0x3aa07d6d	0.0012244411
55	0x3d3db941	0.04631925
56	0xbd4de60c	-0.050268218
57	0x3d341721	0.04396737
58	0xbc8d966f	-0.017283646
59	0x3cb84e5b	0.0224983
60	0x3d82868d	0.0637332
61	0x3dded080	0.10879612
62	0xbceeaab4	-0.029134132
63	0xba70b5a2	-0.0009182339
64	0x3d0db3e1	0.034595374
65	0xbd9b7a0d	-0.07591639
66	0xbd0de1d4	-0.034639195
67	0xbd143d34	-0.03619118
68	0xbdcd6112	-0.1002828
69	0xbd20bce1	-0.03924263
70	0xbddf48ec	-0.109025806
71	0xbdaad91a	-0.0834219
72	0x3c1538da	0.009107793
73	0x3ded0461	0.11573101
74	0x3d0197a5	0.03163876
75	0x3bf6e503	0.0075346245
76	0xbc52a185	-0.012855892
77	0xbceef4b7	-0.029169424
78	0x3d78a28a	0.060701884
79	0xbd9a22cb	-0.075261675
80	0x3c47b268	0.012188531
81	0x3d75261d	0.0598508
82	0x3d8addf7	0.06780618
83	0x3db93e83	0.09045126
84	0xbc28d96d	-0.010305745
85	0xbdacfe74	-0.084469706
86	0xbdd57792	-0.10423197
87	0x3d83c6d3	0.06434407
88	0x3dea1e84	0.11431602
89	0x3d6a8b7d	0.057261933
90	0x3e0f2079	0.13977231
91	0xbdf317a4	-0.118697435
92	0x3d183cb0	0.03716725
93	0xbd1b610b	-0.037934344
94	0x3cd59580	0.026072264
95	0x3e0b92b3	0.1363018
96	0x3e10cea1	0.14141323
97	0xbd3ab54f	-0.045583066
98	0x3cb0d723	0.02158696
99	0xbd80e7c7	-0.06294208
100	0x3e1a577e	0.15072438
101	0x3d3ec9b3	0.046579074
102	0x3de54925	0.11195592
103	0xbc6526f8	-0.013986342
104	0x3d197b5b	0.037471157
105	0x3dccf9b4	0.100085646
106	0xbd71b99b	-0.059014898
107	0xbdd1f9e2	-0.102527395
108	0xbd7489d0	-0.05970174
109	0xbca01c6a	-0.019544799
110	0x3c9b1ed8	0.018935606
111	0x3d1a4fc9	0.037673745
112	0x3e345e09	0.17613997
113	0x3a75c871	0.00093758764
114	0xbdb48604	-0.08814624
115	0x3cbbfa96	0.022946637
116	0x3d124286	0.035707973
117	0x3cd3fa96	0.025876325
118	0xb9aa0f11	-0.00032436152
119	0xbde307e0	-0.110854864
120	0x3d250b66	0.040294074
121	0x3d1af8d8	0.037834972
122	0xbc1c3648	-0.009534426
123	0xbad23dcd	-0.0016040147
124	0x3d18bdca	0.037290372
125	0xbc5e7a38	-0.013578944
126	0x3ca507e6	0.020145368
127	0xbd0bdaec	-0.034144327
128	0xbd29109f	-0.041275617
129	0x3d38998e	0.045068316
130	0x3d5d0dbd	0.05396818
131	0x3cfd91a6	0.03095324
132	0xbc4b9640	-0.012425959
133	0xbd170f67	-0.036879923
134	0xbc884ac5	-0.016637215
135	0xbc90fe1b	-0.017699292
136	0x3daec9cc	0.085345834
137	0xb9a5253e	-0.00031499
138	0xbc874fef	-0.016517607
139	0xbc20bd2f	-0.00981073
140	0x3c886a0e	0.016652133
141	0x3b28bb86	0.0025746538
142	0xbd78be42	-0.06072832
143	0x3bc4ce20	0.0060060173
144	0x3b52d983	0.0032173104
145	0x3d2a235c	0.041537628
146	0xbd607b3d	-0.05480503
147	0x3d262d18	0.04057035
148	0x3bc5bf13	0.0060347407
149	0xbcab56d6	-0.02091543
150	0xbdba5c60	-0.090996504
151	0x3dd53296	0.10410039
152	0xbb9bfa84	-0.0047600884
153	0x3c840375	0.01611493
154	0xbe556984	-0.20841032
155	0xbe216f52	-0.15765122
156	0x3e171843	0.14755349
157	0x3ba20dd8	0.004945498
158	0xbdb840fa	-0.08996768
159	0x3ddc7347	0.10764175
160	0x3dff1f43	0.124571346
161	0x3dbdc44b	0.092659555
162	0xbe054744	-0.13015467
163	0x3e0b905b	0.13629286
164	0xbcc606ea	-0.024173219
165	0xbdd5519e	-0.10415958
166	0x3e6d9d4b	0.23204534
167	0x3da88324	0.08228138
168	0x3e43ab2d	0.19108267
169	0xbce34769	-0.027744012
170	0x3c32ccd4	0.010913093
171	0x3d961219	0.073276706
172	0xbd947987	-0.07249742
173	0x3e50bc85	0.20384414
174	0xbdb7085f	-0.089371435
175	0xbe244b15	-0.16044267
176	0x3e0ddc91	0.1385367
177	0xbd35b9d2	-0.044366665
178	0x3df65efd	0.12029836
179	0xbcb71488	-0.022348657
180	0x3d9ee6a2	0.077588335
181	0xbcd0b3c9	-0.025476353
182	0xbd6e0637	-0.058111396
183	0x3c40bc21	0.011763603
184	0x3da5ffe5	0.08105449
185	0x3dfca1ea	0.1233557
186	0xbd11a886	-0.035561107
187	0x3e0c9b53	0.13731126
188	0x3c71b6bd	0.014753041
189	0x3bcefa77	0.006316479
190	0xbd26a47c	-0.04068421
191	0xbdfe7ecc	-0.12426528
192	0xbce6991e	-0.028149184
193	0x3d8ba491	0.06818498
194	0xbcfd2a10	-0.030903846
195	0xbc643df5	-0.013930787
196	0xbd0bd332	-0.03413696
197	0xbdd2f7eb	-0.10301193
198	0x3dad7716	0.084699795
199	0x3da575b1	0.080790885
200	0xbde147ef	-0.11000048
201	0xbd8a27b0	-0.06745851
202	0x3b81d971	0.0039626886
203	0x3ce2c962	0.027683917
204	0xbc9a15df	-0.018809257
205	0xbdb956c8	-0.09049755
206	0x3de6356c	0.11240658
207	0xbca7a085	-0.020462284
208	0x3d0eb023	0.034835946
209	0x3dc7e7a5	0.097609796
210	0xbb024444	-0.0019877115
211	0x3cf539fc	0.029934876
212	0xbd3c5d12	-0.045987196
213	0xbc948007	-0.018127454
214	0xbc319146	-0.010837859
215	0xbccafb23	-0.024777954
216	0x3c8f71ea	0.017510373
217	0xbc8be078	-0.017074808
218	0xbc7eab1f	-0.015543728
219	0x3c00f87d	0.007871744
220	0x3d5e3ec8	0.05425909
221	0xbda7e404	-0.081977874
222	0x3cb6e97e	0.022328135
223	0x3d671484	0.05641605
224	0x3cf1c40b	0.029512426
225	0x3ceb3699	0.028712558
226	0xbdacddb2	-0.084407225
227	0xbc916b4f	-0.017751364
228	0xbc9343d5	-0.01797668
229	0x3db6827d	0.089116074
230	0x3dcf1b7f	0.10112666
231	0xbd5d227a	-0.053987958
232	0xbde5971e	-0.11210464
233	0x3d11cab2	0.035593696
234	0xbc62bffc	-0.013839718
235	0x3d64cf0b	0.055861514
236	0x3bc4ffb7	0.006011929
237	0xbceed0c2	-0.029152278
238	0x3d300521	0.04297364
239	0x3c4b8817	0.012422583
240	0xbdee783b	-0.11644026
241	0x3d6ed867	0.058311846
242	0xbddf93a5	-0.10916833
243	0x3ccfa933	0.025349235
244	0xbe14d840	-0.14535618
245	0xbdb01409	-0.085975714
246	0xbd7dcc87	-0.06196263
247	0x3d29f958	0.04149756
248	0x3d6d56b8	0.05794403
249	0xbe235a74	-0.15952474
250	0xbd4c50dd	-0.049881805
251	0xbdb9ce8d	-0.090725996
252	0x3e1a79a5	0.15085466
253	0x3e0f375f	0.13985966
254	0xbdc78ec4	-0.09744027
255	0xbd198217	-0.03747758

nn_fun1.2.bias f4 [30]
0	0x3d81d252	0.063389435
1	0xbd471402	-0.048603065
2	0xbe00d96b	-0.12582938
3	0x3dbd1163	0.09231832
4	0xbdc2ccdd	-0.09511731
5	0x3deb74f5	0.11496917
6	0x3ce52e1b	0.027976086
7	0xbdc3d795	-0.095626034
8	0x3e19692f	0.1498153
9	0xbdf8db72	-0.12151231
10	0xbe07bd2c	-0.13255757
11	0xbd7bcbf1	-0.06147379
12	0x3d978104	0.07397655
13	0xbe3b06a2	-0.18264249
14	0xbd35eec0	-0.044417143
15	0x3df75c48	0.12078148
16	0xbd6a38cc	-0.057183072
17	0x3dec61cb	0.1154209
18	0xbe0ce044	-0.13757426
19	0x3ddf192f	0.10893475
20	0xbd4c5840	-0.04988885
21	0xbdef9b9b	-0.11699601
22	0x3db6d7d0	0.08927882
23	0xbdb218ec	-0.0869616
24	0xbdfbb8ec	-0.122911304
25	0x3d5424e4	0.051792994
26	0xbe114f5a	-0.14190426
27	0xbd0f6c9b	-0.035015684
28	0xbd9aa929	-0.07551796
29	0x3d3935ca	0.045217313

nn_fun2.0.weight f4 [30, 1]
0	0x3d2726a9	0.040808354
1	0xbf118661	-0.5684567
2	0xbdbca90c	-0.09211931
3	0xbf43747e	-0.7634963
4	0x3dc7a0c8	0.097474635
5	0xbd5915ab	-0.05299918
6	0xbc22933b	-0.009922798
7	0x3f0d6814	0.55236936
8	0xbe416dba	-0.18889514
9	0x3b3f9eef	0.002923902
10	0xbf0cb4d2	-0.5496341
11	0xbcc4ed6f	-0.024038998
12	0x3e20f9a0	0.15720224
13	0xbf2cd0a8	-0.67505884
14	0x3f091d21	0.5356007
15	0x3df6cbaa	0.120505646
16	0x3f572973	0.8404762
17	0x3c563bec	0.01307581
18	0x3f1507d8	0.58215094
19	0xbbafb47c	-0.0053620916
20	0xbd0ca754	-0.034339264
21	0xbe855208	-0.26039147
22	0x3c367ee3	0.011138651
23	0x3e413301	0.18867113
24	0xbc4c6716	-0.0124757495
25	0x3e776c37	0.24162374
26	0x3f8f8b19	1.1214324
27	0x3f4f06fd	0.8087004
28	0x3c54b13e	0.012981711
29	0x3e09a85c	0.1344313

nn_fun2.0.bias f4 [30]
0	0xbe91a25c	-0.28444183
1	0x3ec6e217	0.38844368
2	0xbeb1a322	-0.34694773
3	0x3f1ea1cd	0.6196564
4	0xbc9a4bab	-0.01883491
5	0xbf329b81	-0.6976853
6	0x3f300dc1	0.68770987
7	0xbecb20f9	-0.39673594
8	0x3eecab02	0.4622422
9	0xbe0c0ab7	-0.13675962
10	0x3f410eeb	0.7541339
11	0x3f5c34c1	0.86017996
12	0x3f0984f2	0.53718483
13	0xbe192144	-0.14954096
14	0xbcbd371e	-0.023097571
15	0xbec0c912	-0.37653404
16	0x3c4f91d9	0.01266905
17	0x3f0b1493	0.5432827
18	0x3e093165	0.13397749
19	0x3efc5875	0.49286237
20	0xbf35dd1f	-0.7104053
21	0x3ebf23e3	0.37332067
22	0xbf1168b6	-0.568004
23	0x3e9093a8	0.28237653
24	0xbf53cd27	-0.8273491
25	0xbe2baa04	-0.16764075
26	0xbf45096c	-0.769675
27	0xbf032d60	-0.5124111
28	0x3f1c68eb	0.6109759
29	0xbe2d7cfe	-0.16942212

nn_fun2.2.weight f4 [30, 30]
0	0x3ce5779d	0.028011138
1	0xbb1c23f0	-0.0023825131
2	0xbd4faf92	-0.050704546
3	0xbda9013e	-0.0825219
4	0xb99bf2aa	-0.00029744703
5	0x3dd4f427	0.10398131
6	0xbd0bb9dd	-0.0341128
7	0xbd3bc825	-0.04584517
8	0xbd8d5a7a	-0.06902023
9	0xbd50892b	-0.050912064
10	0x3e1c4fa2	0.15264753
11	0x3dadc81b	0.08485433
12	0xbda127e9	-0.078689404
13	0x3d1e094e	0.038583092
14	0xbbcd5851	-0.0062666317
15	0x3bf04a09	0.0073330444
16	0xbb640f6d	-0.0034799234
17	0x3d3121d6	0.04324516
18	0xbd3ea4ca	-0.046543874
19	0xbcc0a7f0	-0.023517579
20	0xbdfb8827	-0.122818284
21	0x3df26005	0.118347205
22	0x3cd062a7	0.025437666
23	0x3d240495	0.040043432
24	0x3d577b6c	0.05260794
25	0xbd1e420f	-0.038637217
26	0x3d6cbd2b	0.057797592
27	0x3d003906	0.03130438
28	0x3da16ca2	0.07882048
29	0x3d5360b3	0.05160589
30	0x3ccf286c	0.02528783
31	0xbd2ac094	-0.041687563
32	0x3dcf8582	0.101328865
33	0x3b3554ee	0.002766903
34	0xbb4aa482	-0.0030920808
35	0xbb7a5e05	-0.0038203013
36	0xbce42772	-0.02785084
37	0xbe020a21	-0.12699176
38	0xbdc340df	-0.095338576
39	0x3d915bf2	0.07097615
40	0xbc023217	-0.007946513
41	0x3d4b2136	0.04959222
42	0xbddcdbf1	-0.10784138
43	0xbc8cd0dd	-0.017189438
44	0xbc0e3471	-0.008679495
45	0x3e060e69	0.13091435
46	0xbc9de9b9	-0.019276487
47	0x3cd0e1b0	0.025498241
48	0xbdf372da	-0.118871406
49	0xbdbb8ca7	-0.09157687
50	0xbe0395d7	-0.12850128
51	0x3de020d7	0.10943764
52	0x3db62bee	0.08895098
53	0x3dde394b	0.108507715
54	0xbcdb0c1b	-0.02673917
55	0x3da137e6	0.0787199
56	0x3ce0de4c	0.02744975
57	0xbc0d96bc	-0.008641895
58	0x3dc145d4	0.09437147
59	0x3d4d4431	0.05011386
60	0x3dfd5705	0.12370113
61	0x3c53cecf	0.012927725
62	0xbd59fc53	-0.05321915
63	0x3d20b261	0.039232615
64	0xb7b3e1fe	-2.1443699e-05
65	0x3d27da2b	0.040979546
66	0x3dcde054	0.10052553
67	0x3ded91b5	0.11600057
68	0xbdbeb044	-0.09310964
69	0x3dd635da	0.1045949
70	0x3df1e79a	0.118117526
71	0xbdaf0eca	-0.08547743
72	0x3d0a4628	0.033758312
73	0xbdae70d6	-0.085176155
74	0x3c104a1d	0.0088067325
75	0xbd89a81d	-0.06721518
76	0x3d4c6797	0.04990348
77	0xbe261c0b	-0.16221635
78	0x3bfa541d	0.0076394216
79	0xbdf20cbb	-0.118188344
80	0x3b50b003	0.0031843192
81	0xbe236faf	-0.15960573
82	0xbdf9d9a1	-0.121997125
83	0x3df040e6	0.117311284
84	0x3c148d32	0.009066867
85	0x3dd4f158	0.10397595
86	0xbdd2524b	-0.102696024
87	0xbd112a93	-0.035440993
88	0x3e16f93a	0.1474351
89	0xbd2e89c9	-0.04261187
90	0xbd35056f	-0.044194635
91	0x3d90fd89	0.07079608
92	0xbd8eae96	-0.069668934
93	0x3ca04fd9	0.019569324
94	0xbb193fa4	-0.002338388
95	0x3d856e3f	0.065151684
96	0xbc6cd2d0	-0.0144545585
97	0xbdb0b320	-0.086279154
98	0x3dc8f4fe	0.098123536
99	0xbd151a77	-0.036402192
100	0xbdda6377	-0.10663503
101	0x3dff2cee	0.124597415
102	0xbe1d7753	-0.1537755
103	0x3cfa87b3	0.030582285
104	0xbcbbdc09	-0.02293207
105	0xbd85fac2	-0.06541969
106	0xbd72bdb3	-0.059262943
107	0xbcef8c9e	-0.029241856
108	0xbdd19c1f	-0.10234856
109	0x3ddf6512	0.109079495
110	0x3caa1103	0.020760065
111	0xbe03b205	-0.12860878
112	0xbc05d5d6	-0.008168658
113	0xbdb92153	-0.09039559
114	0x3e180048	0.14843857
115	0x3d918dab	0.07107099
116	0x3dc8b2f4	0.097997576
117	0x3cd976a1	0.026545824
118	0x3df870b5	0.12130872
119	0x3dba97aa	0.09110959
120	0x3d68e3ce	0.056857876
121	0xbe12118b	-0.14264505
122	0xbd287606	-0.04112818
123	0xbe0720d0	-0.1319611
124	0x3b8bdba8	0.0042681284
125	0x3dd37280	0.103245735
126	0x3de28b0d	0.11061678
127	0xbcb6e891	-0.022327693
128	0xbd803463	-0.06259992
129	0x3d8b0485	0.067879714
130	0x3d9cd2e4	0.07657412
131	0x3e27f579	0.16402234
132	0xbdd32d54	-0.1031138
133	0x3e050881	0.12991525
134	0xbcb9f153	-0.02269808
135	0x3d46dd88	0.048551112
136	0xbd22a9ac	-0.039712593
137	0xbe2818ab	-0.1641566
138	0x3da3f113	0.08004966
139	0x3c77c519	0.015122675
140	0x3d631c93	0.055447172
141	0xbd684362	-0.056704886
142	0xbcd8e8fb	-0.026478281
143	0xbd66914b	-0.056290906
144	0xbda8d460	-0.08243632
145	0x3de16e1f	0.11007332
146	0xbd9a3ec6	-0.07531504
147	0x3c0d9d4c	0.0086434595
148	0xbd767907	-0.060174014
149	0xbe092eee	-0.13396809
150	0x3d4dd633	0.050253104
151	0x3e637609	0.22212996
152	0xbd6b53dc	-0.05745302
153	0xbdaa48bb	-0.083146535
154	0xbc2e4390	-0.010636225
155	0xbe010b08	-0.12601864
156	0xbc872d99	-0.016501235
157	0xbe1c84fb	-0.15285103
158	0x3cef7913	0.029232537
159	0xbba73321	-0.0051025306
160	0xbdd4a967	-0.103838734
161	0xbe02683d	-0.12735076
162	0xbcf6d305	-0.030129919
163	0x3daaef40	0.083464146
164	0xbd5836e4	-0.052786723
165	0xbdc0b716	-0.09409921
166	0xbd0f6da4	-0.03501667
167	0xbdbe5b50	-0.0929476
168	0xbd4e771a	-0.050406553
169	0xbdf3ba56	-0.11900775
170	0xbe312bd4	-0.17301875
171	0x3e3ab04d	0.18231316
172	0xbe01fcf6	-0.12694153
173	0xbcf73a4d	-0.030179167
174	0x3d0160d2	0.031586476
175	0xbda88a01	-0.08229447
176	0xbc38e20a	-0.011284361
177	0x3d628fea	0.05531303
178	0x3d1f525d	0.038896907
179	0x3dd2125b	0.10257407
180	0xbcce21c6	-0.025162589
181	0xbcf2bbd0	-0.029630572
182	0xbc92518b	-0.017861148
183	0x3c8b133f	0.01697695
184	0xbab5fee6	-0.001388517
185	0x3e19cb81	0.15019037
186	0x3c123d77	0.008925787
187	0xbd922fa2	-0.071379915
188	0x3ddcdb6a	0.107840374
189	0xbcfa9be3	-0.03059191
190	0x3d1ece7e	0.038771145
191	0xbc841641	-0.016123893
192	0xbd78140d	-0.060565997
193	0xbca57e66	-0.020201873
194	0xbc84416d	-0.016144479
195	0x3d24cdc2	0.04023529
196	0xbcf6f1df	-0.03014463
197	0x3dfae333	0.12250366
198	0x3b5c100b	0.0033578898
199	0xbdc6ee19	-0.09713382
200	0x3d107532	0.035268016
201	0x3da6fdf2	0.08153905
202	0x3dcca8d3	0.09993138
203	0x3db0043c	0.08594558
204	0xbd1528fb	-0.036416035
205	0x3d836d75	0.06417362
206	0x3d864c36	0.06557505
207	0x3d596619	0.053075884
208	0xbddb3d72	-0.10705079
209	0xbcca193d	-0.024670238
210	0x3ca7ae3b	0.020468822
211	0xbe17d82e	-0.1482856
212	0x3d79ad03	0.060956012
213	0xbdd81938	-0.10551685
214	0xbaa2a754	-0.0012409487
215	0xbdbb7bf7	-0.09154504
216	0x3df029e2	0.117267385
217	0xbc520c74	-0.012820352
218	0x3da4ab6f	0.08040511
219	0x3d0cfee7	0.03442278
220	0x3c06f91b	0.008238102
221	0xbc807f57	-0.01568572
222	0x3dfd5ec3	0.1237159
223	0xbd439ce3	-0.04775704
224	0x3c6eda35	0.014578392
225	0x3e117479	0.14204587
226	0x3c292879	0.010324591
227	0xbdaec8b2	-0.08534373
228	0x3dc4a726	0.096021935
229	0xbd9205d1	-0.07130016
230	0x3d8cabf6	0.068687364
231	0xbc307634	-0.010770369
232	0xbd962a8e	-0.073323354
233	0x3cd0f57e	0.025507685
234	0x3de6f65a	0.112774566
235	0xbd8d7df5	-0.0690879
236	0xbe0e7f8a	-0.1391584
237	0xbdb46d3e	-0.08809899
238	0xbe130932	-0.14358976
239	0xbde1dd64	-0.11028555
240	0x3d7d1562	0.06178797
241	0x3de4d062	0.11172558
242	0xbe06c9fb	-0.13162987
243	0x3dff07d8	0.12452668
244	0x3ced7c2e	0.028989878
245	0x3b6dc4b9	0.0036280586
246	0xbdb30291	-0.08740724
247	0x3e073e2d	0.13207312
248	0x3dc10add	0.094259
249	0xbdd9ba18	-0.10631198
250	0xbe03fa2b	-0.128884
251	0x3e0507e9	0.12991299
252	0xbc23f74f	-0.010007693
253	0xbca9210e	-0.020645645
254	0xbd735fdc	-0.05941759
255	0x3e2d53a3	0.16926436

nn_fun2.2.bias f4 [30]
0	0xbd60df4a	-0.054900445
1	0x3dfdd946	0.12394957
2	0xbde9abd7	-0.11409729
3	0x3e035239	0.12824334
4	0x3e048755	0.1294225
5	0x3df4f32d	0.119604446
6	0x3e02f671	0.12789322
7	0x3cb937d2	0.022609625
8	0xbe1c9b6c	-0.15293664
9	0x3aeb0f44	0.0017933627
10	0x3e2b2d8a	0.1671659
11	0x3cf37a14	0.029721297
12	0x3d853f57	0.06506222
13	0xbe3517e9	-0.17684902
14	0x3d1d11ee	0.038347177
15	0x3c8b7330	0.0170227
16	0x3e1decad	0.15422316
17	0xbd6c444a	-0.057682313
18	0xbe1a8638	-0.15090263
19	0xbdf2e1a9	-0.118594475
20	0xbd419bd7	-0.04726776
21	0xbc3ffa9f	-0.011717468
22	0x3c650132	0.013977336
23	0xbcecf7d5	-0.02892677
24	0x3da694dd	0.08133862
25	0xbcf22365	-0.029557893
26	0x3d97e176	0.0741605
27	0x3c9f0a7f	0.019414185
28	0xbe207d33	-0.1567276
29	0x3d9a8d33	0.07546463

agg.0.weight f4 [1, 30]
0	0x3c2663a4	0.010155592
1	0xb9e3507d	-0.00043356782
2	0xbac7af49	-0.0015234734
3	0x3cf4f306	0.029901039
4	0x3b676c2d	0.003531228
5	0x3ca6814a	0.020325322
6	0x3cd054ef	0.025431124
7	0xbbdca04c	-0.006732976
8	0x3de6e372	0.112738505
9	0xbb24b38c	-0.0025131432
10	0xbd5aed2a	-0.053448834
11	0xb9b1501f	-0.00033819766
12	0xbcc3f4e2	-0.02392048
13	0xbd4405d1	-0.04785711
14	0x3d525090	0.05134636
15	0x3d48d5e5	0.04903211
16	0xbdb2bdce	-0.087276086
17	0xb995ab48	-0.0002854711
18	0xbb0e8caf	-0.0021751334
19	0xbdb7cdd7	-0.08974808
20	0xbaa697ea	-0.0012710069
21	0x3dd68402	0.10474397
22	0xbcb54ff9	-0.02213286
23	0x3d5864e9	0.05283061
24	0xb9c6c452	-0.00037911773
25	0x3ac9faaa	0.0015409787
26	0x3ca466c8	0.020068541
27	0x39983d4b	0.00029037366
28	0xbd9ed710	-0.07755864
29	0xbc861a96	-0.016370099
