multiple_model_analysis/results/er_experiment_MM_size_10_0_alpha_0_scale_100_dynwght_False_std_reg_1.0_equiv_reg_0.0/neural_network.pth (torch, 16501 bytes, 14 tensors)

g.0.weight f4 [30, 1]
00000000: 007a 003d d1b1 923f b8b6 7ebf ab95 833f
00000010: 7bc3 a63d 2a76 1ebf e73d 51bf be3d 4b3e
00000020: 0d8c 903f 3d8c 15bf da78 823f b86c 94bd
00000030: cec9 973d d681 c2bd ef04 f63e 64e1 37be
00000040: 131d 303f f97e 103f 8dea 87bf ba03 6f3f
00000050: 0ed6 9ebe 3b65 083f d684 bc3e e627 cd3e
00000060: 4cd5 8ebf 0864 5cbf 4b3d da3d 4284 80bf
00000070: 57d7 33bf ead9 16bf
0.03136635 1.1460515 -0.99497557 1.028005 0.08142754 -0.61899054 -0.8173508 0.19847772
1.129274 -0.5841711 1.0193131 -0.07247299 0.07411538 -0.094974205 0.4805064 -0.17957073
0.68794364 0.56443745 -1.0618454 0.9336506 -0.31022686 0.53279465 0.36820096 0.40069503
-1.1158843 -0.86090136 0.10656222 -1.0040362 -0.7025046 -0.5892626

g.0.bias f4 [30]
00000000: e81f 633e d728 38bf 9a71 263f 5a5c d13d
00000010: c497 33bc 4357 c53e d493 df3d 794d 103f
00000020: 7126 723d 70b4 50be 3efe 563e d983 87bc
00000030: 2602 d53d 13d7 e63e 0d72 dc3e 3a34 823b
00000040: e845 dd3e 5c8e dc3d 0d55 da3e c135 03bf
00000050: 9a9c 43bf 4a1e 9abe a48b 28bf 635d 0d3f
00000060: f209 7f3e 55b8 af3e cac7 25ba c1a6 ed3c
00000070: 012d 333f ce10 0cbf
0.2218014 -0.71937317 0.6501709 0.10222693 -0.010961477 0.38543138 0.10916868 0.56368214
0.05911869 -0.20381331 0.20995423 -0.016542362 0.104008004 0.45085964 0.43055764 0.003973511
0.43217397 0.107693404 0.42643014 -0.51253897 -0.7641083 -0.30101234 -0.65838075 0.5522062
0.24906138 0.34320322 -0.00063240214 0.029010179 0.69990546 -0.5471314

g.2.weight f4 [30, 30]
00000000: 33bb 093d fccb ccbd 0fef 703d b0a4 443b
00000010: 0463 953b de2e 7f3b e04a b83c 91c5 26bd
00000020: 33a8 57bb 6c61 7cbd c9b5 a13d 727e a23b
00000030: f9c1 cc3d f02f 8cbd e156 96bd 5745 6bbd
00000040: 623d 28bd f511 ab3c 9bf5 463d acd8 813d
00000050: 3c2d b8bd 9e00 95bd 217c 093d 4c4c 9cbc
00000060: 648c 223d 190b 61bb 2815 fa3c 1834 bc3b
00000070: 620d 03bd ddf6 a33b 3195 ee3c 0fc9 9fbd
00000080: 34d8 013e 2200 71bc 4e26 edbd 8887 bebd
00000090: 66cd 883e a1c5 91bd 6c0b 7dbe d608 f5bd
000000a0: 6ee0 37be 50f4 053d 328e 5fbd 707a 05be
000000b0: dd8d 83bc 5d85 e0bd 8452 38be 8090 10be
000000c0: 6757 dbbd 5af2 0fbe 78df 403e ea06 e33c
000000d0: 120b 803d a955 3abe 741f 2abc 470e 69bc
000000e0: 8f8c 1a3d f617 b03e 3772 94bd 5bd0 acbd
000000f0: 194e ab3c badc 77bd 552b eb3a 06d9 a2bc
00000100: e703 9bbd 9f50 82bd ccbd cdbc 7548 c4bd
00000110: 3f2d ae3d ba82 52bd 8c42 053e 61f7 d83c
00000120: 9655 a3bd 71f2 f23d efeb 82bc 40db 79bd
00000130: 659f b9bd 4547 84bd 7c8a 1e3d bed8 21bd
00000140: 191f 223d bede edbd 86ec b63d d0a0 b2bd
00000150: 125b 03bd d803 df3c 4a13 723d 64f6 403c
00000160: 987e 1a3e aa33 0fbe a201 533d e523 3bbd
00000170: eb55 24bd 99e9 50bc 171c 1f3e 9b80 0bbe
00000180: e590 5cbc 48ff 903d 2029 6f3e 90e0 10be
00000190: e408 703e 81bb 5a3d c4c9 513d 1721 26be
000001a0: dce0 bb3d 26a1 04bd 8406 74bd 480b 443e
000001b0: 6959 d9bb cef5 96bd 4d6e c6bd d43a 2dbb
000001c0: a3c7 c53d 6764 12bd 438d 4ebe c8fe d6bd
000001d0: 0872 17be 6fe1 d5be ad1d 093e e4f2 41be
000001e0: 6fe8 103d 0144 533d 115c 793d b4a5 47be
000001f0: 8fbf be3d 69d0 d23d 5a2d 4e3e 6657 1fbd
00000200: 14f9 72be 0602 8d3d a587 ddbd e76f 7cbd
00000210: 7f88 ad3d 2dda 213e a7dc 10bd 402f debc
00000220: 9883 b5bc 5934 7bbd 823d d53d 48a6 653c
00000230: 3b1e 23be 7484 a3bd 9274 1d3e 76ab 723d
00000240: e26b e63d 67bc 4fbd 47c7 c5bd 33a0 c53e
00000250: 5ef6 40bd c869 a33d e1cc e63d 880f fe3d
00000260: 6dda 40be 227b 1cbb 9dc7 eebc 6189 263e
00000270: 6664 a7bd fd4c 4abd 0487 663e 2291 cdbd
00000280: 7751 6ebd d760 183e ef9b 7dbd e1e3 42bd
00000290: 7ae0 31be 237b f43d 6ea9 183e cb5b b73d
000002a0: fe42 37be 9dbc 12be 457f 11be 80f7 163e
000002b0: 6af0 ba3d f65e 1c3e 2e21 1abc d818 99bb
000002c0: db5c aabc 5946 febe b95e 2ebe 965d 35be
000002d0: e2c2 933d ce69 f4bd 946b 56bc ce9f 3dbe
000002e0: 476e f9bc 99b1 f1bd 38a1 a3bc 722a 703d
000002f0: 2943 3dbe ca7a 0b3e 649c dcbd 27ec 0cbe
00000300: 7823 43bd 8274 a7bd 83bc 82bd 457a 28be
00000310: 0571 af3d f837 1ebe 5a53 0c3e 367a 573d
00000320: a5cd 043e 10c6 18be b8d7 033e d63d b9bd
00000330: 20d3 1d3e 47b5 543e dd47 90bc 2dca df3e
00000340: c54f f9bc a5be 0ebe 94ce 693d 33c7 38be
00000350: 68ae db3d b829 2e3c 0d31 d63d 31db 47bd
00000360: 0062 aebc 6aad 5b3c 7f3b 23bd 6eb6 c9bd
00000370: b632 bdbd 5ae4 93bd f19a 49bd 8b15 c5bd
00000380: c0db c3bd 7313 c8bc 0223 3fbe 6d47 663d
00000390: 7ac7 233e dbce 13bd 2d2a 583b cc5f 62bd
000003a0: 511c 04be 5d04 3fbe 1824 ee3d 35cf 6fbd
000003b0: 7d63 c1bd 6962 9a3d bf48 83bd 63d8 b7bc
000003c0: 6120 e5bb a3ce 8d3b 8ee6 bfbd dbbb 1fbc
000003d0: 7561 05be e921 093e 893e 14be da34 0c3d
000003e0: 869f 6e3d bf57 6439 2dbc 4d3e c171 e93d
000003f0: dea4 15be 5cb1 4f3d 3057 263e 073b 833d
0.033625793 -0.099998444 0.058821734 0.0030005388 0.0045589227 0.0038937847 0.02249664 -0.040715758
-0.003290665 -0.061616346 0.07896001 0.004958921 0.09997935 -0.06845081 -0.073407896 -0.057439175
-0.041074164 0.020882586 0.04857407 0.06340155 -0.08993003 -0.07275508 0.033565644 -0.01907935
0.03968467 -0.003433889 0.030527666 0.0057435147 -0.031995185 0.0050037936 0.029123874 -0.07802021
0.12680131 -0.014709504 -0.11579572 -0.09303194 0.26719207 -0.07117773 -0.24711388 -0.11964576
-0.17956707 0.032703698 -0.054578967 -0.13034987 -0.016058857 -0.10962937 -0.18000227 -0.14117622
-0.1071003 -0.14057294 0.18835247 0.027713258 0.062521115 -0.1819674 -0.010383476 -0.014224595
0.037731703 0.3439328 -0.07248347 -0.08438178 0.020911263 -0.060513236 0.0017941991 -0.019878875
-0.07569104 -0.063630335 -0.025114916 -0.095841326 0.08504724 -0.0513942 0.13013667 0.026485147
-0.079753086 0.11862648 -0.015981643 -0.06100011 -0.09063605 -0.06458906 0.038706288 -0.039513342
0.03958044 -0.1161475 0.08931832 -0.08722079 -0.032069273 0.027223513 0.059100427 0.011777494
0.15087354 -0.13984552 0.05151523 -0.04568853 -0.040121 -0.0127510065 0.15538059 -0.13623278
-0.01346228 0.07079941 0.23355532 -0.14148164 0.23440892 0.053401474 0.05121781 -0.1622356
0.09173748 -0.032380246 -0.059576526 0.19144928 -0.006632973 -0.07371102 -0.09689007 -0.002643277
0.09657218 -0.035740282 -0.20171075 -0.104978144 -0.14789593 -0.41773555 0.13390227 -0.18940312
0.035377916 0.051578525 0.060878817 -0.19496804 0.09313881 0.10293657 0.20134488 -0.03890171
-0.23727828 0.068851516 -0.10816888 -0.061630156 0.084733 0.15805884 -0.03536668 -0.02712214
-0.022157475 -0.06132922 0.10412122 0.014016695 -0.15929501 -0.07984248 0.153765 0.05924555
0.11251046 -0.050716784 -0.0965715 0.38598785 -0.047109954 0.079791605 0.11269546 0.12405306
-0.18833323 -0.0023877104 -0.029147917 0.16263343 -0.08173446 -0.049389828 0.22512442 -0.100374475
-0.05818316 0.14880691 -0.061916288 -0.047580604 -0.17370787 0.11937549 0.14908382 0.08953055
-0.17896649 -0.14329763 -0.14208706 0.14742851 0.091278866 0.152706 -0.009407325 -0.004672151
-0.02079623 -0.49663046 -0.17028321 -0.17711481 0.07214905 -0.11934243 -0.013087172 -0.18517992
-0.030448092 -0.11801452 -0.019974336 0.05863423 -0.18482651 0.13621059 -0.10772017 -0.1376196
-0.047641248 -0.08176519 -0.06383612 -0.16452892 0.08566479 -0.15451038 0.13703671 0.052606784
0.12969072 -0.14919305 0.12875259 -0.090449974 0.15412569 0.20772277 -0.017612392 0.43708935
-0.030433545 -0.13939913 0.057081774 -0.18044738 0.10726625 0.010630064 0.104585744 -0.04879302
-0.021286964 0.013408044 -0.03985166 -0.09849249 -0.09238188 -0.07221289 -0.04922003 -0.096232496
-0.09563398 -0.024423337 -0.18665698 0.05622046 0.15994063 -0.036085945 0.0032984123 -0.05526714
-0.12901427 -0.18654008 0.11627978 -0.058547217 -0.09442804 0.075383015 -0.064103596 -0.022442048
-0.0069923853 0.0043276115 -0.09370147 -0.009749378 -0.13025458 0.13391842 -0.1447698 0.03423009
0.058257602 0.00021776462 0.20091315 0.1139865 -0.14613673 0.050706252 0.16244197 0.06407743

g.2.bias f4 [30]
00000000: 318a 96bd 81c0 eab9 3509 dbbd 1d3e 29bd
00000010: 0879 3fbd 786e 153e 411e 793d a170 42bd
00000020: 729e 293c a506 a2bd 6f1b 803d 8386 953d
00000030: 207c 1d3d 7826 3abd 6efb 1c3e 2ad5 04bd
00000040: fc52 74bd 823b c53d 1993 213e aaf0 323e
00000050: 7795 863d 1a84 49bd 4edc da3d 36f5 2d3e
00000060: 7e36 23be 0ce2 e4bc df24 ddbd 004c c73c
00000070: 0892 883d 7452 15bd
-0.07350577 -0.00044775385 -0.106951155 -0.041319 -0.046746284 0.14592922 0.060819868 -0.047470693
0.010352718 -0.079114236 0.062552325 0.07301047 0.038448453 -0.045446843 0.15330288 -0.03242985
-0.059649453 0.09630491 0.1577877 0.17474619 0.06571477 -0.049198247 0.10686551 0.16988072
-0.15938756 -0.027939819 -0.10798048 0.024328232 0.06668478 -0.036455587

g.4.weight f4 [1, 30]
00000000: 1dee 4a3a 182a c63d 4196 993a d41f 52be
00000010: c8e0 c63d d5cb 04be 3f51 173e b214 573c
00000020: 473d 04be a4e0 56be f5aa 503e afb9 44be
00000030: eac7 0ebd 8e39 3d3d 7d67 f6bd 3264 6bbd
00000040: 9fa8 d5bd 62d8 debd 2174 e5bd 196b e7bc
00000050: c351 a03c 3cc3 51be f703 0ebe 5392 4b3c
00000060: 51f5 233c 61fd fb3d 9604 83bd da9c 7dbc
00000070: 722f df3d 7011 f43d
0.000774117 0.096759975 0.0011717753 -0.20519954 0.09710842 -0.12968381 0.14777087 0.013127493
-0.12914 -0.20984131 0.20377715 -0.19211458 -0.03485862 0.046197467 -0.120314576 -0.0574686
-0.104325525 -0.108811155 -0.112037905 -0.02824931 0.019570237 -0.20484632 -0.138687 0.012425023
0.010007218 0.123041876 -0.06397359 -0.015479291 0.10897721 0.119173884

nn_fun1.0.weight f4 [30, 1]
00000000: 02fc 01bf 529e abbe 6f43 80be 319c 273e
00000010: b39c c0be 2fba 4f3f 91b2 a4be de6f 49bd
00000020: 46a7 0fbe 3679 b03d 56ac 01bf a4ab 0d3e
00000030: 3c7a 863d 4054 a13d 2169 143f 0651 863f
00000040: 4cc0 48bf 3887 a13d 7b82 f2be bd6c 49bf
00000050: 27b2 143e 4493 2e3f ee53 aa3e f6e6 58be
00000060: 2dc9 43bf f900 aa3e ecdb 273f e3af a33c
00000070: 57b1 13bf 89d8 5c3f
-0.5077516 -0.33519226 -0.25051448 0.16368176 -0.37619552 0.8114347 -0.32167485 -0.04917895
-0.14028654 0.08616869 -0.5065359 0.13835007 0.06566283 0.078773975 0.57972914 1.0493476
-0.7841842 0.07887119 -0.47365174 -0.78681546 0.14521085 0.6819346 0.33267158 -0.21181855
-0.76478845 0.33203867 0.6556995 0.01998133 -0.57692474 0.86267906

nn_fun1.0.bias f4 [30]
00000000: a6fa 2ebd 8516 01bf 1afb bcbe 09dc 5a3f
00000010: f16f fc3b 86d1 d4bd b598 70be f05c 61be
00000020: 23c0 29bf 18cc 03bf 2d04 e53e 157e 463f
00000030: 6737 5b3f 726a fcbe 1668 ec3e 008d 10bf
00000040: bb52 053f aff3 053f 2767 083f 3bf4 223f
00000050: faec e13e 77e3 0fbc b6d6 813e 84ab 85be
00000060: 41ac 943e 072e 53be 464c 9dbb 78cc 40bf
00000070: 7f2c 50be ed0a d3be
-0.042719506 -0.5042499 -0.36910325 0.85491997 0.007703774 -0.10391526 -0.23495753 -0.22008109
-0.663088 -0.514833 0.44729748 0.77536136 0.8563141 -0.4929996 0.4617316 -0.5646515
0.5207936 0.52324957 0.532824 0.63653916 0.4412611 -0.008782259 0.25359124 -0.2610742
0.2903767 -0.20623027 -0.0048003523 -0.75311995 -0.20329474 -0.41219273

nn_fun1.2.weight f4 [30, 30]
00000000: 8c98 75bc e0bd a3bd c6fe fcbd c9da b3bc
00000010: 122e 703d 79ad 003e cc8d 063e 297a 64bd
00000020: 3337 12be 39eb c73d 532f 8f3d f465 3cbe
00000030: e0f1 023d 5d1e 373e 70b6 b3bc 3ef6 b1bd
00000040: 990f f73d 19a8 313d e078 b63d d312 12be
00000050: 1b84 913d 6390 08be d011 0b3e 3d68 2cbd
00000060: 4c73 b53d 4019 793d fe48 6ebc ff5e ca3b
00000070: 8725 da3d c855 60bd 81ce b0bd 5c63 87bd
00000080: 38f6 d43d 0471 00bd c42c 5d3c 6406 0cbd
00000090: 33a3 c43d 5c8d 843d 247a 3a3d 112b b8bd
000000a0: b753 e4bd f160 8a3c 98c0 a5bd af26 ed3d
000000b0: d3f5 08be ff07 743d ee3e 213e b4dc b13d
000000c0: cd62 7d3d f659 0dbe 80dc 1c3e 4bad 92bc
000000d0: 7690 f9bd ea58 fe3d d609 47bd 84b3 97bc
000000e0: 4378 eabb 78c5 f4bd d30d c0bd ca39 713c
000000f0: cba2 c2bb 690a a63d 6dfa e0bd 5bf9 14bd
00000100: 945b a7bb 39cc 9cbc 1459 01be 2e0b 0d3e
00000110: 3424 9d3d f8ee d9bd a886 c43d 407e 2c3c
00000120: 1332 42bc 8815 7dbd ff5b 23bc c232 653e
00000130: 0426 943d 5ce1 3bbe ef82 f33d d21b 11bd
00000140: 6d39 383d 7316 083e 1c6f ed3d 7c4a cabd
00000150: 5d4f d13d b007 a1bd 106e b43d 155c a8bd
00000160: ffbb 19bc ac9e 373d c328 4bbd b728 2fbd
00000170: 0807 f7bb e026 313e 25ed d2bb 49fd e23d
00000180: f6c6 233d 6000 f43d 9bc3 86bc e72c 9e3c
00000190: f7e2 a33c 723b 14be b2bd 0fbe 5e71 943c
000001a0: 3e70 21bd acad 7c3c 2d83 5abd 8a38 df3c
000001b0: aa98 d23d 9e3e 98bd 8255 143e 4c83 293d
000001c0: 63cf dcbd 6171 0bbe 24db 14be 66af 90bd
000001d0: ede0 2b3d 5a11 39bc 59bb 87bd b486 34bd
000001e0: 4712 39bd f633 a5bd a7ec c53d 79c8 e5bc
000001f0: db5a 14bc fdfb 483d dfec 1fbd f14c 943d
00000200: 2247 853d df85 e73d 23db b3bd 6d49 f73d
00000210: 3b7c 183e ed9a c1bd 5c1a 233e 1893 d43d
00000220: 5c11 0c3c b395 bd3d 5e17 0abd 4547 f6bd
00000230: 3d63 833d 1b2b 983c 85a3 52bd 0f17 eb3c
00000240: b245 d3bd 9509 a53d 161d a43c 8aaa 8d3c
00000250: 4387 cebd 55b1 913d 1b0e 243d fd52 183d
00000260: 3eb2 423d 9f84 143e 64c3 073d 5a62 b6bd
00000270: 82ba 223d 539b aa3a 3b83 023e 1e1b ddbd
00000280: 41c8 7e3c 72ca 3d3d b954 fbbc 8379 d23d
00000290: 21f8 c93c e7df 42be 4461 133c 2d3e 82bd
000002a0: a023 183d 8732 ea3b 065d 22be 08a6 c6bd
000002b0: d6eb 1dbc a1a0 66bd 7699 3d3e fdfb 59bd
000002c0: 0963 95bd 46e4 e83c 8cd8 04be 53e2 923b
000002d0: 6dd8 af3d d1de bdbd 3201 bbbd fa86 173e
000002e0: a06d 303c df6c 95bc 9aa5 cc3d be8a 2d3b
000002f0: 48aa 16be a21d 0b3d 8514 de3c 5973 8bbd
00000300: 9a53 133d 1026 f7bd 8d07 ce3d 7b1b 2d3e
00000310: a094 733d 28df 0b3c b8c7 013d 8f8f 17be
00000320: 2e77 59bd 1229 b1bb e65e c7bd 0f54 ccbd
00000330: 3ab5 883d 1ed7 e93d ab7e eb39 484c 923d
00000340: e477 763d 55a1 3d3e 26da e43d f6c7 2b3e
00000350: 6fda 4abd 0929 f13d 0891 763d 38d8 38be
00000360: da9e 04be bc4f 1b3d 241a d03d e407 adbd
00000370: 0c9c a23c 762e b0bb e8a1 293d d9e3 b9bd
00000380: cbc1 b83d e7a4 d73d ba91 eabd f95d 21bb
00000390: 5810 9e3a 3320 7d3d ae58 223e 5b06 96bd
000003a0: e7fb 4abd 910b 243e 80ce 4abd 8124 41bd
000003b0: 1266 78bd 5d89 04be 54f5 113d c978 06be
000003c0: 239d 013d 9f54 f73c 4d36 193d 2df8 1bbe
000003d0: 5e07 d63c 5841 f83b f61f 113e 0214 ccbd
000003e0: fbe8 973d b650 cdbd 936d e6ba b333 073e
000003f0: 93d5 dd3d 68f5 cabd ff64 a33d 8f5f 9e3d
-0.014989983 -0.079952 -0.12353282 -0.02195491 0.058637686 0.12566175 0.13140029 -0.055780564
-0.1427887 0.09761662 0.06991448 -0.18398267 0.03196895 0.17882676 -0.021937579 -0.08689545
0.12063522 0.0433732 0.08909774 -0.14264993 0.07105275 -0.13336329 0.13581014 -0.042091597
0.08859882 0.060815096 -0.01454377 0.006175875 0.10651689 -0.054769307 -0.086331375 -0.06610748
0.10398525 -0.03135778 0.0134994425 -0.034185782 0.0960144 0.06472275 0.04552664 -0.08992589
-0.1114878 0.016891928 -0.08093375 0.11579644 -0.13375024 0.05957794 0.15746662 0.08684674
0.061861802 -0.13803849 0.15318489 -0.017904898 -0.12185757 0.12419303 -0.048593365 -0.018518217
-0.0071554496 -0.11951727 -0.09377637 0.014723251 -0.0059398166 0.08107454 -0.10985265 -0.036370616
-0.0051073525 -0.01914035 -0.12631637 0.13773796 0.07672921 -0.10641283 0.09595996 0.010528147
-0.011852759 -0.061788112 -0.009970664 0.22382644 0.072338134 -0.18347687 0.11890208 -0.035426922
0.04497664 0.13289814 0.11593458 -0.09877488 0.102202155 -0.078627944 0.08810055 -0.08220688
-0.009383201 0.044829056 -0.04959942 -0.042763438 -0.00753868 0.17299986 -0.0064369612 0.110834666
0.039984666 0.11914134 -0.016450694 0.01930852 0.020005686 -0.14475802 -0.14037207 0.018120464
-0.039413683 0.015422266 -0.053347755 0.02724864 0.102830246 -0.07433818 0.14485744 0.04138498
-0.107817434 -0.1361747 -0.1453672 -0.070647046 0.041962553 -0.011295641 -0.066275306 -0.044073775
-0.045183446 -0.080665514 0.096642785 -0.028049694 -0.009054865 0.04906844 -0.039044257 0.07241238
0.06507708 0.11304831 -0.087820314 0.12074552 0.1489114 -0.09453378 0.15928024 0.103796184
0.008549061 0.092570685 -0.03371369 -0.12025312 0.064154126 0.018575242 -0.051425476 0.028697519
-0.10316028 0.08058468 0.0200334 0.017293233 -0.10084393 0.071139015 0.040052515 0.03718852
0.047533266 0.14503716 0.033145323 -0.08905478 0.03972865 0.0013016261 0.12745373 -0.10796188
0.015550674 0.046335645 -0.030680047 0.10277083 0.02465445 -0.19030724 0.008995358 -0.06359515
0.03714335 0.0071471366 -0.15855798 -0.09699637 -0.009638747 -0.05630553 0.18515572 -0.05321883
-0.0729428 0.028429162 -0.12973231 0.0044825464 0.08586202 -0.092710145 -0.09131087 0.14797583
0.010768324 -0.01824039 0.099925235 0.0026480402 -0.14713395 0.033963807 0.027109394 -0.0680911
0.0359684 -0.12067807 0.10060034 0.16905014 0.05946791 0.008537091 0.031684607 -0.14800857
-0.053092174 -0.0054065073 -0.09734897 -0.099769704 0.06675191 0.114179835 0.00044917068 0.07143456
0.06017293 0.18518575 0.11174421 0.16775498 -0.04952472 0.11775405 0.060196906 -0.18051231
-0.12951222 0.037917838 0.10161236 -0.08448771 0.0198498 -0.0053766323 0.04141417 -0.090766616
0.09021338 0.105294995 -0.114535764 -0.0024622662 0.0012059314 0.061798286 0.15854141 -0.07325431
-0.04955664 0.16020037 -0.04951334 -0.047153953 -0.060644217 -0.12943025 0.035634354 -0.13132013
0.031643998 0.030191718 0.0374053 -0.1523139 0.02612656 0.007576149 0.14172348 -0.09964754
0.074174844 -0.1002516 -0.0017580263 0.13203315 0.10831752 -0.09910089 0.07978248 0.0773307

nn_fun1.2.bias f4 [30]
00000000: 422d ec3a cac0 fc3d 64b5 243d 0ce6 773d
00000010: fa0f b7bc 06d2 02be 87e9 5ebd 2372 1bbd
00000020: 2e1e 84bb 4149 afbc 9a62 623d 9bed 073d
00000030: 6a50 55bd c8b2 d1bd 9155 ccbd d195 13bd
00000040: 2f51 d53d c435 c4bd cbeb a3bc 3c8e 87bd
00000050: 50e7 a8bd 2f46 973d 25de 28bd 8f53 b53b
00000060: fe1d bcbd 0285 11bd b573 933c 759a 443c
00000070: 5163 79bd a0fb 323d
0.0018018859 0.12341459 0.04021205 0.060522124 -0.022346485 -0.1277543 -0.054421928 -0.037950646
-0.004031918 -0.021397235 0.055269815 0.033185583 -0.052078642 -0.10239178 -0.09977258 -0.036031548
0.10415875 -0.095805675 -0.020009896 -0.06618926 -0.08247244 0.07386433 -0.04122748 0.0055336426
-0.09185408 -0.035527237 0.01799951 0.011999716 -0.06088573 0.043697

nn_fun2.0.weight f4 [30, 1]
00000000: 0c34 c8be 9ff3 dfbe f308 0ebe ef9e a7be
00000010: 184e 48bf 625f 213f ffbc c7be 4a4e 17be
00000020: 250b 3dbc 161c e33e 91e1 babe 5a50 ef3e
00000030: 5fdb ea3d 9ef3 003d 8c17 93bc 1413 40bf
00000040: 1c14 09bf de43 883e 63ec 403c 068c 0d3f
00000050: 322f 083f 480c 15bf 7f6d 6fbf 1da1 9a3c
00000060: 6b39 15bf cf0a 29be 4d5c b5bd 786e 243e
00000070: 5892 d23e da3b 593e
-0.3910221 -0.43740556 -0.13870601 -0.32738444 -0.7824416 0.6303617 -0.3901138 -0.14775959
-0.011538302 0.44357365 -0.3650022 0.4674099 0.11467623 0.03148233 -0.017955564 -0.7502911
-0.5354631 0.2661428 0.011775109 0.55291784 0.53197014 -0.58221865 -0.9352645 0.018875653
-0.5829074 -0.1650803 -0.088554956 0.16057765 0.41127276 0.21214238

nn_fun2.0.bias f4 [30]
00000000: 1ec1 09bf 7457 33bf 64e7 98be c054 7e3e
00000010: 3da1 7a3d 4051 113e b598 543f 6036 d23e
00000020: 0376 3b3e b930 47be 2cd1 db3e 03ae af3e
00000030: e3ae 1cbf 3103 eabe bee1 ee3c 396e bf3e
00000040: 9b40 bd3e cf92 d5be a843 33bf 11e5 4fbd
00000050: 64fe 0fbe 34ca 863e 18af 8abe aebd 413f
00000060: 28a8 983d 96d7 1d3f 8b31 18bf 4322 983e
00000070: b1d6 9d3d cb10 f4be
-0.538103 -0.7005532 -0.29864037 0.24837017 0.061188925 0.1419115 0.8304551 0.4105711
0.18306737 -0.1945218 0.42933023 0.34312448 -0.61204356 -0.4570556 0.029160377 0.3738878
0.36963353 -0.4171357 -0.7002511 -0.050755564 -0.14061886 0.26326144 -0.2708671 0.75680053
0.07453948 0.61657083 -0.59450597 0.2971364 0.07706965 -0.47669062

nn_fun2.2.weight f4 [30, 30]
00000000: b56e a63d 5389 3dbe 121c 1c3e af6b 203d
00000010: 6d27 2b3e e645 283d cec4 0c3d 9621 cf3d
00000020: 045b f53d 7e12 30be a2af 0a3e ee2e 0bbd
00000030: 2109 4ebd 5bdc 8b3c d1ad 0c3e 9a54 53bd
00000040: f151 c4bd 991a bf3d eed2 cabd c998 9abd
00000050: d8c9 dcbd fee8 bb3d e1d1 133e 242d 9cbd
00000060: 0be1 243d 58a5 d63d 0f82 cc3b 3f20 9bbc
00000070: bdb6 53be aed2 0b3e 3cf2 ef3b 27d0 87bc
00000080: e5be 51bd 4917 25bd 0161 aebc 3a29 5f3c
00000090: a79a f23d 8b62 dbbc 25fa c7bc 182a 9d3d
000000a0: 1853 99bc 0c56 edbc d46c 873d b24b 0a3e
000000b0: d0af 4038 f90f 933d 90b5 9a3d ef09 723d
000000c0: 8282 923d acbc 253d f365 0c3d 9df7 ad3d
000000d0: 3849 e53d d388 1c3d c4fb f9bc 4336 f73d
000000e0: 3873 ddbd 7ad3 ba3d 56f5 583d 1743 de3d
000000f0: 775f 2abd 0eb4 28be 7665 b03d bb1b 91bd
00000100: 146b f9bd 0ef3 303e 4c66 1ebe 79fa be3c
00000110: 5e06 15bd 8866 053e d10d c7bd 2592 1b3e
00000120: f345 af3d ddc3 ab3d 68a5 293e 6292 383c
00000130: cf6d 21be 8513 e83d d970 b7bb e9a6 153e
00000140: f88a dcbd 9bdd 5abd bd5f 04be 5547 4c3e
00000150: e01a 2ebb bd5f 1f3e 6b08 bc3d b5d6 9cbd
00000160: 86ca 343c f622 babd d325 b9bd 40fe c83d
00000170: 06a0 293d c62b 133e e99e 40bc c45c e9bd
00000180: 2711 88bb 9f49 173e a8d3 bd3d 398d 8fbb
00000190: e3b6 1bbc 0179 f9bd 3eac e7bd 187c 2a3d
000001a0: 008b f4ba c602 023e 44e2 ac3d 348d c5bd
000001b0: d767 863d 7be0 7fbc 2a9c 33bd 7a6a 2a3b
000001c0: 7e62 17be 284d 773d d2da a63c 6892 37bd
000001d0: c994 9b3d a475 e2bd 3d58 fbbd 9c2c 02be
000001e0: aba7 85bd b8e7 c4bc 166c 06bd b865 913d
000001f0: de47 8ebc fd38 8a3b 10d8 c93b 009f 4d3d
00000200: 1968 123e 9f75 aa3d fc71 adbd d1a7 04be
00000210: fbcb 43bd c894 b8bd a229 3b3c 2570 5d3b
00000220: 68ef 063e 1b8e 6c3d cb7c 20bd a069 03bc
00000230: eb72 ac3c 04fa 81bc f2d1 fe3d 21b6 f9bd
00000240: f926 613d 6c44 c8bd a340 1abe 4b3a d2bc
00000250: 470c 4d3d 3a9a dc3d c692 a23d 2538 de3c
00000260: 92a1 1e3d e2bb 92bd e0a8 b1ba 5151 35bd
00000270: 84df de3d 7f14 7a3d 3f0e 00be d982 263c
00000280: 0241 f7bd e44d 81bd 871f afbd 9c2a 8f3d
00000290: 0c93 f8bb 5351 0c3e 72bf bb3d a83e 99bd
000002a0: ca03 ebbd 251d 6cbc a118 25bd 9b39 0a3d
000002b0: 039b 7abd cdec e43c b885 9abc 6c9e f2bd
000002c0: 3d13 1fbd c55e de3c 4223 46bd 3122 e3bd
000002d0: ee09 cfbd f576 a8bd c47c 1ebe 027a fd3c
000002e0: 19ab 3b3d a890 e1bc 42cb 7abd 5773 e33b
000002f0: 8666 03be 38df e2bd bab1 ac3a bcc7 1d3e
00000300: 0b58 5dbd 781e a43d 284a e9bc 8bf8 c5bc
00000310: c7a2 1bbe 686b 0e3e e092 2d3e f3c4 efbc
00000320: 21f2 883d 6a2d 1d3e a562 9e3d 3782 be3d
00000330: 60d5 cabd d23e 25be 395c 09be 10f3 4e3d
00000340: 5f92 18be 0b5e 0abe 3062 73bd 8b0f 0dbe
00000350: 05f3 333c 1bae afbc 289d 8fbe 05dc 0e3e
00000360: f563 dcbd 2f43 bebd 561f d13d 3624 4e3e
00000370: e803 6dbd 117d 0abe 75b5 7abd a5f0 773d
00000380: d83f 063d 2646 8f3c 8fd3 febd 0823 03be
00000390: a56f fbbd a3e8 023e 0e35 dc3d 3f62 12be
000003a0: 7d8b 05be 73c1 84bc 8048 85be ddb1 30be
000003b0: 96b7 f8bd 9201 87bd e697 3d3e f079 d83d
000003c0: 07a5 03bd 9e9f cd3c 8d0f 4a3d 203e ee3a
000003d0: 9730 4bbe 1820 8abd 680d f1bd 87f9 87bb
000003e0: ef81 14be 1f12 d5bc 65a8 70bd 342f 453e
000003f0: 8392 093e f345 cc3d 96c0 343c ba5c 8fbd
0.081265844 -0.18509416 0.15245083 0.039165195 0.16714258 0.041082285 0.034367375 0.10113828
0.119802505 -0.17194554 0.13543561 -0.033980303 -0.050301675 0.017072847 0.1373818 -0.051594354
-0.095859416 0.09331245 -0.09903513 -0.07548673 -0.10780686 0.09175299 0.14435531 -0.076257974
0.04025368 0.104807556 0.00624109 -0.018936275 -0.20675178 0.13654587 0.0073225778 -0.016578747
-0.05120744 -0.04030541 -0.02128649 0.013620669 0.11845904 -0.026780387 -0.02441127 0.07674044
-0.01871638 -0.028971694 0.06612554 0.13505438 4.5940105e-05 0.07180781 0.075541615 0.059091505
0.07153799 0.040463135 0.034276914 0.08494494 0.11195606 0.038216423 -0.030515559 0.120708965
-0.10812992 0.09122367 0.052968346 0.1085264 -0.04159495 -0.16474935 0.08613102 -0.07085367
-0.12178627 0.17280218 -0.1546871 0.023312794 -0.036383025 0.13027394 -0.09719432 0.15192468
0.08558264 0.08386967 0.16567004 0.011265369 -0.15764545 0.11331848 -0.0055981693 0.14614452
-0.10768694 -0.053433996 -0.12927146 0.19949086 -0.0026566312 0.15563865 0.09181293 -0.076581396
0.0110346135 -0.090886995 -0.090404175 0.09814119 0.041412376 0.14372167 -0.011756637 -0.11394647
-0.0041524353 0.14774178 0.09268886 -0.0043808487 -0.009504053 -0.12181283 -0.113121495 0.04162225
-0.0018657148 0.1269637 0.08441594 -0.09646073 0.06562775 -0.015617485 -0.0438501 0.0026003406
-0.14783666 0.060376316 0.020368014 -0.04481736 0.07596738 -0.110575944 -0.122726895 -0.1271233
-0.06526121 -0.024036273 -0.032817923 0.070994794 -0.017368253 0.0042182193 0.00615979 0.050200462
0.14297523 0.08323216 -0.084690064 -0.12954642 -0.047801953 -0.09012753 0.0114235 0.0033788767
0.13177264 0.05775271 -0.03918151 -0.008020788 0.02105089 -0.015866287 0.12442388 -0.121929415
0.054968808 -0.097786754 -0.1506372 -0.025662562 0.050060537 0.10771604 0.07938151 0.027126381
0.038728304 -0.07164742 -0.0013554357 -0.044267002 0.10882476 0.061054703 -0.12505434 0.010163032
-0.12072946 -0.063136846 -0.08550935 0.06990549 -0.0075858887 0.13702898 0.09167375 -0.07482654
-0.11475332 -0.0144112455 -0.04030669 0.033746343 -0.061182987 0.027944947 -0.01886259 -0.11846623
-0.038836706 0.027144799 -0.04837347 -0.11090506 -0.10109316 -0.08225814 -0.15477282 0.030941967
0.04581747 -0.027534798 -0.061228998 0.00694124 -0.12832078 -0.11077732 0.0013175525 0.15408224
-0.054039042 0.08013624 -0.028477743 -0.024166366 -0.15198813 0.1390816 0.1695056 -0.029268717
0.066868074 0.15349355 0.07733659 0.0930218 -0.09903979 -0.16137245 -0.13414086 0.05052477
-0.14899586 -0.13512437 -0.05941981 -0.1377546 0.010983233 -0.021445325 -0.28049588 0.13951118
-0.10761253 -0.09290158 0.10211055 0.20131001 -0.057865053 -0.13524272 -0.061208207 0.06053223
0.03277573 0.017489504 -0.12442695 -0.12806332 -0.12277154 0.12784056 0.10752307 -0.1429529
-0.13041492 -0.016205525 -0.26031876 -0.1725535 -0.12144391 -0.065920964 0.18514976 0.10570133
-0.032139804 0.025100525 0.049331237 0.0018176474 -0.19842754 -0.06744403 -0.11770135 -0.004149619
-0.1450269 -0.026009617 -0.058754344 0.19256288 0.13434796 0.09974279 0.011032244 -0.07000108

nn_fun2.2.bias f4 [30]
00000000: b659 01be 0757 2fbd d482 8fbd 4634 fabd
00000010: a518 f8bc 437d 50bd 39e3 eabc e24b ca3d
00000020: c60b a53d 7007 c83d e3c2 683d b453 c4b9
00000030: d152 853d 63a8 b5bd 7169 b53d b668 723d
00000040: 0b8a c8bd 95b3 153a 0881 c8bd 51ea fabd
00000050: d5fc a3b7 c93a fc3c d2f6 25bd 153d 513d
00000060: 0029 05be 4619 c1bd 9206 a43d 7416 14be
00000070: c8b7 e23c 84a5 ea3d
-0.12631878 -0.042807605 -0.07007375 -0.122170016 -0.030285189 -0.05090071 -0.028672801 0.09877755
0.08058886 0.097670436 0.056826483 -0.00037446397 0.065099366 -0.08870008 0.08858002 0.05918189
-0.097919546 0.0005710659 -0.09790236 -0.122517236 -1.9548848e-05 0.03078975 -0.04051859 0.051083643
-0.13003922 -0.09428649 0.08009066 -0.1446169 0.027675524 0.11457351

agg.0.weight f4 [1, 30]
00000000: 9c4b bc3d 4642 0c3d 5ad8 f3bd d65b 2d3c
00000010: 669a 6fbc a8d0 55bc adc3 f93c 02b6 05bd
00000020: 5310 9cbc d4f1 55bd 41df 883c 61b8 7838
00000030: 93d6 073e 0ddf 58b9 7f29 b4bd 9e05 6c3a
00000040: ecc6 823d 27d8 0f3d d023 49ba c874 c8bd
00000050: c389 1cbc 6b6d 643c 4eba 13bc c07a 043c
00000060: 0414 7cba 2bc0 213c 5b3e f43a 0c02 c6bd
00000070: 5e0e 52bc 84f1 463d
0.09194109 0.03424289 -0.119065 0.010580977 -0.014624214 -0.013050236 0.030488813 -0.03264428
-0.019050753 -0.05223258 0.016708018 5.9299524e-05 0.13265447 -0.00020682458 -0.08796977 0.00090035226
0.063855976 0.03511825 -0.0007672878 -0.09787899 -0.009554329 0.013942103 -0.0090165865 0.0080859065
-0.00096160197 0.009872477 0.0018634306 -0.09668359 -0.012820808 0.04857017
