multiple_model_analysis/results/er_experiment_MAK_size_10_20_alpha_0_scale_100_dynwght_False_std_reg_1.0_equiv_reg_0.0/neural_network.pth (torch, 16627 bytes, 14 tensors)

g.0.weight f4 [30, 1]
000000 41 92 56 3f 22 4e 51 bf ef 11 21 3f b6 ee 5d 3e
       0.83816916 -0.81759846 0.6291799 0.21673092
000010 7b df 49 3f 67 21 3e bf 5a a7 12 3f 7c f4 99 be
       0.7885663 -0.7426972 0.5728661 -0.3006934
000020 ff f4 71 3f 07 db fe be 23 15 02 3f 62 72 96 be
       0.9451446 -0.4977648 0.508135 -0.29384142
000030 cb 1c b8 3e 81 8f 3e bd d7 ea be be 9b 44 98 be
       0.35959467 -0.046523575 -0.37288544 -0.29739842
000040 ac 22 4f 3f 79 53 11 bf ab 61 30 3f 79 d0 25 3f
       0.8091228 -0.56767994 0.6889903 0.6477123
000050 6d 62 f3 3e a1 44 42 bf 52 b4 35 3e f4 c0 bb be
       0.4753603 -0.7588597 0.17744568 -0.3667065
000060 62 ec 81 ba 31 3e 3a 3f f1 b8 52 bd 5a 06 8a bc
       -0.0009912367 0.72751147 -0.051445905 -0.016848732
000070 f6 73 35 be d5 10 1c bf
       -0.17720017 -0.60963184

g.0.bias f4 [30]
000000 dd 51 be 3e ea 62 9e 3e 44 db 7c be 63 87 53 bf
       0.37171832 0.3093484 -0.24693018 -0.8262846
000010 25 d0 9f be 8e 36 ea be 93 45 21 bc 4c c1 09 bf
       -0.3121349 -0.45744747 -0.009843248 -0.5381057
000020 41 20 9b bd 68 e9 94 3e 89 8c 1d 3d 63 30 e6 3e
       -0.07574511 0.29084325 0.038464103 0.4495879
000030 b4 16 4a 3f 9d 41 5c 3e b9 31 6a bf ad 61 27 bf
       0.7894089 0.21509404 -0.9148212 -0.65383416
000040 9c 94 ab be 5b 2f 3c 3e bb 90 8e 3e 1e 08 75 bf
       -0.33511817 0.1837744 0.27844796 -0.9571551
000050 d8 58 46 3f e8 6c 21 bf 97 3b 78 3f ab c0 f1 be
       0.77479315 -0.630568 0.96965927 -0.47217306
000060 e1 8b ae 3e 67 72 2a 3f 01 9e 80 3e a8 28 a2 3e
       0.34091094 0.66580814 0.25120547 0.31671643
000070 65 2d 53 3f 8d a8 91 3e
       0.8249114 0.28448907

g.2.weight f4 [30, 30]
000000 7a 3c 0d bd 88 d0 f7 bd 0a d0 e9 3d 10 94 c0 3b
       -0.034481503 -0.12100321 0.114166334 0.0058770254
000010 a1 15 c3 bc ea c0 0b bb 86 32 dd bd 86 b9 48 3e
       -0.023814024 -0.0021324703 -0.10800652 0.19602022
000020 1a 15 6a bd 3a d3 58 3c 14 b1 f9 3d 1e 1e 08 3e
       -0.05714903 0.013233954 0.12191978 0.13292739
000030 c0 c2 9c 3c d3 67 c9 3b 5a d9 41 bd e0 31 0e 3c
       0.019135833 0.00614641 -0.047326423 0.008678883
000040 62 67 85 3d 38 22 08 3d c8 8a b5 bd ec d0 d7 bd
       0.06513859 0.03323576 -0.08864361 -0.105378956
000050 b3 5b fe 3b e0 a1 80 3d e4 d0 ad 3d 35 a1 c2 bd
       0.0077623962 0.06280875 0.08487108 -0.09503404
000060 77 bb b9 bd 82 f8 06 be 58 c1 e7 3d a8 17 8a 3d
       -0.09068959 -0.13180736 0.11316174 0.06742793
000070 fa c5 fb bc 88 47 5d be 80 2b f9 bc 81 02 06 bc
       -0.030734051 -0.21609318 -0.03041625 -0.008179308
000080 8a 6f ca 3b 97 4c 4b bd 7c 8a cb 3b cc e0 ce 3b
       0.0061778473 -0.04963359 0.006211577 0.006313419
000090 b5 40 4b bc 2b 70 7b 3d f3 34 d0 bb b7 56 9b bb
       -0.012405564 0.06138627 -0.0063539683 -0.004740562
0000a0 a9 69 f9 bb d9 5c 00 3c 03 0c 9c 3c 04 16 86 bb
       -0.0076114726 0.007834637 0.019048696 -0.00409198
0000b0 c2 a5 8f bd 75 26 0b 3d 23 19 1a 3c 28 f8 bd bb
       -0.07014038 0.033972222 0.009405407 -0.005797405
0000c0 b7 9a 43 bb 12 91 02 3d 69 20 9b 3d 94 d3 52 bd
       -0.0029846856 0.03187663 0.07574541 -0.051471308
0000d0 33 a1 1c 3d d7 8e 73 3c 41 4d f8 bc 62 f4 b5 bd
       0.03823967 0.014865599 -0.030310275 -0.08884503
0000e0 22 c0 dc 3c 7d cc 0c 3d fb 0f 0c 3c 80 dc 2b bb
       0.026947085 0.034374703 0.008548732 -0.0026223958
0000f0 06 52 df 3b f4 67 d0 3b f3 bb 74 bb 8c e0 01 3d
       0.006815198 0.0063600484 -0.0037343472 0.031708285
000100 fb d6 60 bb 9c 11 0c bd 41 20 ae 3b e9 cd 27 3d
       -0.0034307826 -0.03419648 0.0053139036 0.040967856
000110 94 20 1b bc cb 83 61 3b 56 0f a2 3c 9e 44 2b 3c
       -0.009468216 0.003441083 0.019782703 0.010453371
000120 f6 97 b7 bd e6 0a ce 3c e7 ad 97 3d ab b3 21 3d
       -0.08964531 0.025151681 0.07406216 0.039477985
000130 ba a2 cb bb a3 94 cd 3b df c2 07 3c f9 14 58 3d
       -0.006214467 0.0062738224 0.008286207 0.052754376
000140 3c b2 83 3d 58 bf 47 bd 39 12 06 3d 59 bf 53 bc
       0.0643048 -0.048766464 0.032732222 -0.012924039
000150 8e 43 dd 3c ce 5c 25 bd 9d 67 b5 3c 40 3c 73 3c
       0.027009752 -0.04037171 0.022144133 0.014845908
000160 57 6d 7f 3c f1 da 57 38 dd 17 54 3d 39 69 69 3d
       0.0155900335 5.14639e-05 0.05178057 0.056985114
000170 ab e7 52 3e 49 66 e1 3c 06 b5 47 3e 18 40 5c 3e
       0.20596187 0.027514594 0.19502649 0.21508825
000180 62 ec fb 3d 82 21 0a 3e 0a af 4b be 57 43 64 be
       0.12300946 0.13489345 -0.19890991 -0.22291313
000190 b0 4a 40 be 1a 1d 30 be 65 57 5f be ef b9 ba bb
       -0.18778491 -0.17198601 -0.21810682 -0.0056984345
0001a0 15 43 6d 3e 18 17 00 bd f4 0f 63 3e 34 44 3b 3d
       0.23170121 -0.031272024 0.22174054 0.04571934
0001b0 2c d2 0f bb 17 a6 b0 3d c9 b8 32 3c d4 18 a9 3d
       -0.002194534 0.08625429 0.010908314 0.08256689
0001c0 01 05 71 b8 2d 54 07 3e bf 05 63 be 4d ca 66 be
       -5.7463538e-05 0.13215704 -0.2217016 -0.22538109
0001d0 53 bc 1a bb c5 de 63 be c7 e7 a3 bc 3f 2f f5 bc
       -0.0023610785 -0.22252949 -0.020007981 -0.029929755
0001e0 c7 30 e8 bd 19 66 e9 3c 6f 0b e1 bb c9 11 02 be
       -0.113374285 0.028491067 -0.006867818 -0.12702097
0001f0 79 1d 0e 3d 65 10 c9 3d d3 49 c5 3a 29 ad 74 bd
       0.034696076 0.0981758 0.0015051909 -0.05973545
000200 2c 0f 32 3c 64 3e 03 bd 80 21 d4 bd 20 24 48 bd
       0.010867875 -0.032041922 -0.10357952 -0.048862576
000210 a5 39 8e bc aa 26 3a bd f6 f9 fe 3d f6 3b a6 3d
       -0.017361471 -0.04544703 0.1245002 0.081169054
000220 39 6a 1e 3c 3a 9b 7b 3d 6d f4 87 bd 06 5e 8d 3d
       0.00966888 0.061427332 -0.066384174 0.06902699
000230 29 45 b0 bd 1c 30 34 be 99 95 80 3d d6 74 d3 3c
       -0.08606941 -0.17596477 0.062785335 0.025812548
000240 b7 02 8a 3b b0 90 b0 3d 57 9e ca 3c c8 2b 9c 3d
       0.0042117494 0.08621347 0.024733705 0.07625538
000250 45 fc 99 3c d0 0e 88 bd a9 dd 41 be 43 17 9a bd
       0.01879705 -0.0664345 -0.18932213 -0.07523968
000260 2b 8c 48 3d 3d 1c e9 bd 80 04 a5 3d 76 17 6d bd
       0.0489618 -0.11382339 0.08057499 -0.057883702
000270 4b 21 04 bd a9 1e a3 3d dd 73 af bc 37 4a 22 be
       -0.032258313 0.07964832 -0.021417553 -0.15848623
000280 7a 5b be 3c 6d 1a 4c be 5b 5c 08 3e 90 61 01 be
       0.023236979 -0.19931956 0.13316481 -0.12634873
000290 d3 3e da 3d 67 00 94 bb 6c 8e 31 3d 9f 6b e8 3d
       0.10656514 -0.0045166495 0.043348715 0.11348652
0002a0 34 fe 0b be 50 e3 e1 bd 7e 82 37 be 4d 47 c9 bd
       -0.1367119 -0.110296845 -0.17920873 -0.09828053
0002b0 b9 62 0c 3e be ab 57 bd f7 64 87 3d dd 64 ec bc
       0.13709535 -0.05265402 0.066110544 -0.02885669
0002c0 3a 62 c3 bd 73 0a f0 bd 3a f0 18 3e 83 1e 36 be
       -0.095402196 -0.11720743 0.14935389 -0.17785077
0002d0 f3 b0 a2 3d 77 c0 67 3d 52 fe e4 bd e4 ac 09 3e
       0.07943907 0.056580033 -0.1118132 0.13444859
0002e0 84 d4 35 3c 22 e1 4f be e2 03 35 3b 05 41 08 bd
       0.011098031 -0.20300725 0.0027620723 -0.033265132
0002f0 90 8b 07 3e c6 68 a0 bd 36 43 94 3d ef d5 a2 3d
       0.13236833 -0.07832484 0.07239382 0.07950961
000300 4b 69 ff 3d 53 0e fc bc d5 b1 cb 3d eb c6 bd bd
       0.12471255 -0.03076855 0.09946028 -0.09266456
000310 4e 22 32 be 7d cf 12 3e bd 72 82 bd 7d 3c 5c 3c
       -0.17395899 0.14336963 -0.06369541 0.013442156
000320 dc e8 5d bd a7 80 60 3d 9e 15 56 3e 78 db 2c be
       -0.05417715 0.054810192 0.20906684 -0.16880596
000330 c2 9d 21 3e 07 df a7 bc 73 12 72 bd e2 f4 3b bd
       0.15782836 -0.02049209 -0.059099626 -0.045887835
000340 9b 6d 0a 3d 84 b3 8f 3d a0 78 a9 3d c9 21 ce 3c
       0.033795934 0.07016662 0.082749605 0.025162594
000350 7a 41 3d bc 84 55 ba 3d b7 fd a3 bd e8 80 0b 3d
       -0.011551255 0.09098342 -0.08007377 0.03405848
000360 a9 4e 97 3d 5f 61 39 bd 36 e6 a8 bd fb 17 f2 bb
       0.0738805 -0.045258876 -0.08247034 -0.0073881126
000370 47 b3 90 3d a5 ce 9a bd 5d 3f 79 3d 80 6a da 3c
       0.070654444 -0.075589456 0.060851444 0.026662111
000380 f9 1b b6 bd d4 68 fd 3c b2 a4 99 3b 86 59 83 3d
       -0.08892054 0.030933775 0.0046888227 0.064135596
000390 e4 4b 91 3c 3f 90 dd 3c 85 95 9a bd 8a c4 17 be
       0.017736383 0.027046321 -0.0754805 -0.14821067
0003a0 d4 e0 e3 3d 55 31 7d 3c b1 98 14 3d a8 02 c5 bd
       0.11126867 0.015453656 0.03627843 -0.09619647
0003b0 02 43 94 bc 48 98 00 bc 4c 84 0e be 7d 24 65 3c
       -0.018098358 -0.007848807 -0.13917655 0.01398575
0003c0 e2 fa d6 3c 7c 22 e8 bd 11 91 07 3e 51 eb 4a 3e
       0.026242677 -0.113347024 0.13238932 0.19816329
0003d0 21 13 02 3e ab 89 d6 bd c3 5b da 3d 28 85 85 3d
       0.1270261 -0.10475477 0.106620334 0.06519538
0003e0 5f 36 f4 bd c9 4e 19 be 66 70 ba 3c 48 ed 0b 3e
       -0.11924433 -0.1497146 0.022758674 0.13664734
0003f0 d1 6f 11 3e ef f0 01 3e d9 65 5a bc bb e3 8d bd
       0.14202811 0.12689565 -0.013329946 -0.06928202

g.2.bias f4 [30]
000000 4a 46 83 3d be 9e 72 bd 2c d3 8d 3d a9 01 1f be
       0.06409891 -0.05923342 0.069250435 -0.15527977
000010 d8 b1 d0 3d b9 d2 48 3d 19 78 78 3d b3 6c 3a bd
       0.10190171 0.049029086 0.06066141 -0.04551382
000020 58 7c 4d be 18 b8 a3 3d 3d 9b 04 bd d6 96 94 3d
       -0.20066965 0.079940975 -0.03237461 0.07255332
000030 71 c6 23 3e 56 09 de bc 62 00 13 be b8 fd 69 bd
       0.15993668 -0.027104061 -0.14355615 -0.05712673
000040 6e ad 11 be 22 64 9b 3d 14 18 9b bd 43 6c 12 be
       -0.14226314 0.07587458 -0.07572952 -0.14299111
000050 79 d9 d7 bd 3c c5 1d 3d 50 66 38 3d ff 7e ae bd
       -0.105395265 0.038518175 0.045019448 -0.08520316
000060 19 c0 79 bc aa 23 03 be 19 0b 01 3e 70 c4 83 3c
       -0.015243554 -0.12806574 0.1260189 0.01608488
000070 d9 84 38 3e 52 7c c3 3d
       0.18019427 0.095451966

g.4.weight f4 [1, 30]
000000 44 1a 3f bc a2 83 91 b9 ea ab be 38 63 12 1a be
       -0.011663977 -0.0002775463 9.0919275e-05 -0.15046076
000010 0f b3 59 ba 6c f7 67 3a 58 58 9f 3d da 3c 3e b8
       -0.0008304575 0.00088488194 0.07780522 -4.5356202e-05
000020 79 f3 08 ba 07 52 d1 38 fb aa 29 be 14 f9 38 3a
       -0.00052242685 9.9811754e-05 -0.1656913 0.00070561585
000030 ef 97 3c 39 4a 49 25 39 15 85 e5 b9 42 62 23 ba
       0.00017985677 0.00015762929 -0.00043777438 -0.0006232598
000040 59 b5 ee b9 4a a6 d9 38 9c d9 d3 bd 05 07 e7 bd
       -0.00045530012 0.0001037834 -0.1034424 -0.11280636
000050 47 34 88 3d b2 68 1e 3d 78 ec f7 3c ad 57 ca bd
       0.06650596 0.038674064 0.030264124 -0.09880004
000060 87 51 2c 3a 3e 08 34 3a dd 6b 02 be 45 d9 51 39
       0.0006573428 0.0006867683 -0.12736459 0.00020012732
000070 db 06 70 3d 40 7f 41 bb
       0.058600288 -0.002952531

nn_fun1.0.weight f4 [30, 1]
000000 67 c3 5a bf 1e 9a 89 be 53 53 81 3e 03 88 01 bf
       -0.8545441 -0.26875395 0.25258884 -0.5059816
000010 d6 52 00 3f 69 bf 3a bf 08 1e 8f bd 10 f7 0a 3f
       0.501264 -0.7294832 -0.0698815 0.5428324
000020 63 5d a0 3e 2f a8 38 3f 40 31 ac 3e fd 5b bc bd
       0.31321248 0.7213163 0.33631325 -0.09197233
000030 c0 49 5f 3f 50 2f 66 bf cd aa 7f be dc 09 15 be
       0.8722191 -0.89915943 -0.24967499 -0.14554542
000040 b9 34 67 3f 18 12 d1 3e 4e d1 0e bf b6 29 41 3f
       0.90314823 0.40834117 -0.55788124 0.7545427
000050 5a fa 08 3f 6a 5b 73 be 68 69 32 bc f4 69 80 bd
       0.53507006 -0.2376534 -0.010889389 -0.06270209
000060 2e da e7 be 8e b1 f9 be 29 84 49 3f cf 8c 51 bf
       -0.45283645 -0.48768276 0.78717285 -0.8185548
000070 f6 c4 53 3f 86 64 e0 3e
       0.82722414 0.43826693

nn_fun1.0.bias f4 [30]
000000 6d a2 10 bd 6f 79 90 be 63 6b 27 bf 26 d9 68 3f
       -0.03531115 -0.28217646 -0.65398234 0.9095634
000010 9d 58 d3 39 5e b5 50 3f 45 1c 03 bf 4c c9 38 be
       0.00040311078 0.81526744 -0.5121501 -0.18045539
000020 0f 37 53 3e 93 1d ac 3e ed 40 dd be 0a 2e 69 bf
       0.20626472 0.33616313 -0.43213597 -0.91085875
000030 6c 56 da bd 9b e9 09 3d 1d 85 d9 3d 2e 02 48 3f
       -0.10661015 0.03367005 0.106210925 0.78128326
000040 5a cf ac bd 04 00 35 bf 5e 21 11 3f 95 31 a8 bd
       -0.08437987 -0.7070315 0.5669154 -0.08212582
000050 43 93 44 bf 10 ea 30 bf 2f 64 18 3f db eb 95 be
       -0.76787204 -0.6910715 0.5952787 -0.29281506
000060 a3 d3 43 bf d5 c6 ad bc 24 97 21 3f 14 cf ab 3d
       -0.76494807 -0.021212975 0.6312125 0.083891064
000070 31 0b 6a bf cd 0b 55 bf
       -0.91423327 -0.8322113

nn_fun1.2.weight f4 [30, 30]
000000 46 12 82 3e 83 d3 53 3e a5 2c 0d 3e 18 4a 13 be
       0.25404567 0.20686154 0.13786562 -0.14383733
000010 4a 72 aa ba 32 be 23 3e 3b ca f0 bd 71 5d 08 bf
       -0.0013004031 0.15990523 -0.117573224 -0.5326758
000020 f4 7e 33 be d5 d3 94 bd 63 b0 8a bc b2 28 56 3e
       -0.17528898 -0.07266966 -0.01692981 0.20913962
000030 f8 c3 57 be 31 48 84 3e e7 7e 3d bb b4 3b 68 3d
       -0.2107085 0.25836328 -0.002891475 0.056697562
000040 de 53 21 be 2b 7f ec 3d fc 64 d7 3c 68 04 3f be
       -0.15754649 0.11547693 0.02629327 -0.18654025
000050 71 45 ee bd 05 25 88 3d fd 5d b8 3d 1b d3 b6 bd
       -0.11634339 0.06647686 0.09002302 -0.08926984
000060 6d a7 00 3e 25 1a 49 3e 8d ba dc 3d 2a ef 3f 3e
       0.12563868 0.1963888 0.10777769 0.18743578
000070 b0 f2 ef bd 85 33 93 3d e6 7f ae bd 59 e7 ba bd
       -0.11716211 0.07187561 -0.085204884 -0.09126157
000080 1f fb e3 bd 2c 8a aa ba 85 4e 84 3d bd 39 ea bd
       -0.11131882 -0.0013011149 0.06460289 -0.11436794
000090 a7 10 eb 3d a0 76 ab 3b 54 cb bd 3d 84 3d b1 bd
       0.114777856 0.005232647 0.092672974 -0.08654311
0000a0 83 2c 9f bd 26 3b ec bd bd ba b8 bd d7 51 fa 3d
       -0.07772162 -0.11534719 -0.090199925 0.12222641
0000b0 c0 d7 bf 3d 5f ce 01 be 1e 60 d3 3d b3 4c a7 bc
       0.09367323 -0.1267638 0.10321067 -0.020422315
0000c0 48 39 16 3e 41 27 7a bd 86 ff 0c 3c de 3b a2 bd
       0.14670289 -0.06107259 0.008605843 -0.07921575
0000d0 91 5b c5 bc 23 4d e2 3d 4a 90 0a be 06 95 65 3d
       -0.024091514 0.11049869 -0.13531604 0.056050323
0000e0 6a b9 f3 bd 84 5b 34 3d c6 fb 57 3d 5c 05 0b bc
       -0.11900599 0.04403259 0.052730344 -0.0084851645
0000f0 c0 51 40 3d e1 5b 0e be 4d ad 6a bd f3 4d 2a bd
       0.046952963 -0.13902237 -0.05729418 -0.041578244
000100 7d 65 0d 3d f3 60 17 3e 24 85 07 3e 6a 59 f8 3c
       0.034520615 0.14783077 0.13234383 0.030316073
000110 2d c7 f6 3b 2a ea a0 bc 72 13 7f bd b1 dd 9e bb
       0.007531068 -0.019642908 -0.062274404 -0.004848205
000120 04 da 14 bd 42 5d 83 3d c8 32 61 3c ca b0 fb 3d
       -0.03634073 0.06414272 0.013745017 0.12289579
000130 b0 79 85 3d de 0d 8c bd d7 85 8c 3c f7 9a 8b 3b
       0.06517351 -0.068385825 0.017153664 0.0042604166
000140 cf 60 0a 3e e6 9b ea 3b da 09 92 3d e5 e0 a6 3c
       0.13513492 0.007159698 0.07130785 0.02037091
000150 7d 67 19 bd 83 9f e4 3d ed 8e c3 bd 94 21 7a bd
       -0.03745221 0.11163237 -0.09548745 -0.06106718
000160 df 05 c4 bb c0 fb 3f bc 97 db a8 bd 9e 86 90 3d
       -0.005982145 -0.011717737 -0.082450084 0.07056926
000170 d0 4e 13 3e 16 20 21 3e a7 f1 b3 bd 87 44 05 3e
       0.14385533 0.15734896 -0.08786326 0.13014422
000180 59 f7 11 3e d5 fe a8 bd 65 4a 16 3e 6d 4a 08 be
       0.14254512 -0.0825173 0.14676817 -0.13309641
000190 87 2f 08 3e 7d 58 0d 3d fb 46 39 3c fc 41 8d bd
       0.1329938 0.034508217 0.011308427 -0.06897351
0001a0 4b 80 09 be 1c d9 01 3e c0 4e 0d be 88 09 c7 bd
       -0.13427846 0.12680477 -0.13799572 -0.09718615
0001b0 6d 49 8f 3d 50 38 01 be 5f 42 fd bc c7 38 ae 3d
       0.06996427 -0.12619138 -0.030915437 0.08506923
0001c0 43 d0 29 3e cf 86 06 be 77 6a 0a be 65 61 4e 3e
       0.16583352 -0.13137363 -0.13517176 0.2015434
0001d0 62 5b 2a be 36 de 2a 3e c9 67 67 bc 63 82 fc bd
       -0.16636422 0.16686329 -0.014123865 -0.12329557
0001e0 29 7f 25 3e 73 1a 27 3e 94 e6 86 3d 2a f1 c1 3d
       0.16161789 0.16318683 0.06586948 0.094698265
0001f0 af 7f 93 bd 5a 5d 09 be 69 bb f9 bc 46 ca 74 be
       -0.07202088 -0.13414517 -0.030484872 -0.23905286
000200 e3 9f 14 bc 4c c3 d5 bd 0e 7f 9f bd 32 15 eb bc
       -0.009071323 -0.104376405 -0.07787906 -0.02869663
000210 7a 4a 33 3d fb 76 c2 3d a9 b4 0a bd 4f 40 d3 3d
       0.0437722 0.0949535 -0.033863697 0.10315
000220 2c c6 4f be 75 f4 ce bd db 5a bc 3d f4 52 e7 bd
       -0.2029044 -0.1010522 0.09197017 -0.11295119
000230 91 47 25 3e 4e d0 2a be 3f 29 09 be 9b 47 0c be
       0.16140582 -0.16681024 -0.1339464 -0.1369919
000240 46 d6 33 be 5c 7d 88 bd a2 45 15 be 6a 62 17 3e
       -0.17562208 -0.066645354 -0.14577344 0.14783636
000250 18 7c 39 be 66 98 98 bc 6e 0c 3b be dc 61 9f bd
       -0.18113744 -0.018627357 -0.1826646 -0.07782337
000260 4e 74 29 bc 3c b9 ab bd ea 43 75 bd 75 fa 40 bd
       -0.010342671 -0.0838494 -0.05987922 -0.047113854
000270 b4 18 d7 ba 94 84 96 3c 61 eb 92 3c 7d 38 06 be
       -0.001641056 0.018373765 0.017934503 -0.13107486
000280 c2 59 87 3d d2 32 1c be 35 b3 c6 bd 53 af c6 bd
       0.06608917 -0.15253761 -0.0970215 -0.09701409
000290 ca de 6a bc bc 2c 07 bd cb 7f 4c 3e 2b 45 c8 3d
       -0.014335344 -0.033001646 0.19970624 0.09778818
0002a0 8d 52 09 be 51 7c 3b bd c6 0e 26 3c 16 61 fa 3c
       -0.13410397 -0.045772854 0.010135358 0.030563872
0002b0 dd 72 b7 bd 10 17 6a bd b1 fe f4 bd 28 a5 0d bd
       -0.08957455 -0.0571509 -0.11962641 -0.034581333
0002c0 9c 78 e1 bd 7a 9b 15 be d5 1e 8d 3d 64 09 27 be
       -0.110093325 -0.14610091 0.06890646 -0.16312176
0002d0 51 a5 51 bc 26 2e 2b bd 3b 1c 2d bc 0d e2 72 3c
       -0.012795762 -0.041792057 -0.010565813 0.0148244025
0002e0 9e 67 3c bc 59 4f 8a bb 3f cd 97 bd 54 ef fa b8
       -0.011499314 -0.0042208848 -0.074121945 -0.00011965507
0002f0 5f 0c 48 3d b6 d7 f0 3c a3 50 32 3d b0 f3 bf 3d
       0.048839923 0.029399734 0.043533932 0.093726516
000300 b4 4b b9 bc 21 44 b2 bc 27 45 a2 3b 71 c1 aa bc
       -0.022619106 -0.021761002 0.0049520913 -0.020844193
000310 aa b0 89 bc c2 6e 11 bd b6 3e cb bc cf b9 64 3c
       -0.016807873 -0.035506018 -0.024810176 0.013960316
000320 9a 23 87 bd 82 82 e3 bc 38 61 05 bd 9c b8 68 3d
       -0.06598587 -0.027772192 -0.03256342 0.056816682
000330 e6 47 59 bc 4c 76 94 b9 e2 aa 6b 3d fe f2 81 bc
       -0.013261771 -0.00028316898 0.057536013 -0.015862938
000340 d2 c1 32 3d 3a b7 a2 bd 17 71 c0 3c c4 88 22 3d
       0.043641873 -0.07945104 0.023491425 0.03968121
000350 70 4a 08 3e 2d 4c 31 be 80 14 03 3e c0 d4 e5 bd
       0.13309646 -0.17314215 0.12800789 -0.112222195
000360 0b 4c fd 3d fc 47 63 3e 7d 78 a4 bd 0d 18 21 3c
       0.1236802 0.22195429 -0.08030794 0.009832394
000370 89 59 13 bd c8 90 26 be 4d 03 b0 3d 52 03 00 3e
       -0.03597406 -0.16266167 0.085943796 0.12501267
000380 b3 d3 ed 3d 59 be eb 3d f8 81 64 bd bc 12 ab 3c
       0.11612644 0.11510915 -0.05578801 0.020882957
000390 88 d6 eb 3d 4c 2e 2a 3c 01 ec e8 bd d0 a2 f4 3c
       0.11515528 0.010387015 -0.11373139 0.029862791
0003a0 3c 27 97 3d 25 0d 01 3e 20 9e 1b 3e 09 49 37 bd
       0.0738053 0.1260267 0.15197039 -0.044747386
0003b0 8e 49 d4 3d 2f 79 10 be 9c bb 0e 3d de 56 0b 3e
       0.10365592 -0.14108728 0.034846887 0.13607356
0003c0 12 49 87 3d f1 30 50 3e 3d e0 10 be a1 28 81 bc
       0.06605734 0.2033117 -0.1414804 -0.015766444
0003d0 6f f5 6d be 58 ea 2d 3e b7 46 82 3d 60 dd 0d bf
       -0.23238157 0.16983926 0.06361144 -0.55415916
0003e0 fc 14 93 bd f9 62 65 bd 77 55 0b 3e 9f ce d4 3a
       -0.07181737 -0.05600259 0.13606821 0.0016235894
0003f0 7a c8 f5 bd 70 36 a8 3d c8 0b 8c bd 2c fc 1a 3e
       -0.120011285 0.08213508 -0.068381846 0.15135258

nn_fun1.2.bias f4 [30]
000000 90 12 5e 3d 12 af 9d bc 7c 24 c1 bd 9d e6 db bd
       0.05421692 -0.01924852 -0.09430787 -0.10737345
000010 16 73 2b bd fd 25 0b bc 38 4d dc bd ae 8f 2a 3e
       -0.0418578 -0.008492944 -0.10756916 0.16656372
000020 11 98 44 be 21 07 07 be 58 1a 13 3d 7a 42 b3 3d
       -0.19198634 -0.13186313 0.035913795 0.08752914
000030 8c 21 1a be e3 fa c7 3d 70 cb ca bd fd c0 66 bc
       -0.1505186 0.0976465 -0.09902084 -0.014084098
000040 d3 7b d0 3d 24 e1 7d bd c2 b2 f8 bc 56 a4 ed bd
       0.101798676 -0.06198229 -0.030358676 -0.1160361
000050 e9 66 43 bd 09 cc 8c 3d cd e1 52 bd de 41 d9 3d
       -0.047705565 0.06874854 -0.05148487 0.10608266
000060 62 15 0d 3e 89 44 bd bd 62 a3 27 bd eb 00 a1 3d
       0.13777688 -0.09241588 -0.0409273 0.07861503
000070 98 9e 8b 3d 99 68 18 3e
       0.06817359 0.14883651

nn_fun2.0.weight f4 [30, 1]
000000 4c 33 38 bf 6d 16 09 bf 71 47 50 3a fd 96 37 3f
       -0.7195327 -0.53549844 0.0007945216 0.71714765
000010 03 d8 33 3f c2 fa ee be ee 39 c7 be 29 f8 12 3f
       0.7025148 -0.46675688 -0.38911384 0.5740991
000020 91 4f 3e 3f 63 d3 b0 be 55 d9 97 3e 62 81 0f 3d
       0.7434016 -0.34536275 0.29658 0.0350355
000030 75 74 38 3f ea 2f 40 be b9 bf 3c 3f a1 18 aa be
       0.720527 -0.18768278 0.73730046 -0.33221915
000040 b7 f2 31 bf 59 56 fb bd ef 65 af be 8c 38 1b 3f
       -0.6951098 -0.12272329 -0.34257457 0.6063316
000050 fc 98 b1 be b8 5f 84 3f bc d3 25 3f 38 60 c1 bd
       -0.3468703 1.0341711 0.64776206 -0.094421804
000060 8b fb e3 3e f8 95 39 bf cc 78 18 bf 59 ae 56 bf
       0.4452785 -0.7249446 -0.5955932 -0.83859783
000070 ae b6 5d be 14 05 51 3f
       -0.21651718 0.81648374

nn_fun2.0.bias f4 [30]
000000 4a 9a 2c bf f5 17 aa 3e 44 f1 2c 3f 0b d2 71 be
       -0.67422926 0.33221403 0.6755564 -0.23615281
000010 52 fe 3e 3f 5e 1a ff 3e a2 e4 c0 3e 78 2e f0 3e
       0.7460681 0.49824804 0.37674433 0.46910453
000020 52 bc fa be 46 5d 4e bf ce d0 18 3c fd 67 3c 3f
       -0.48971802 -0.80611074 0.009327127 0.73596174
000030 73 82 4e 3f 1d 74 09 bf 4d d3 39 3e eb f3 14 3f
       0.806678 -0.536928 0.18147011 0.5818469
000040 24 b9 b7 3e 48 f9 d2 3c 49 7c 04 bf 1f 64 ce 3e
       0.3588344 0.025753632 -0.51752144 0.4031076
000050 4c f1 51 be 52 1f b3 bd a1 dc da 3d 1e 45 78 bd
       -0.20502204 -0.08746208 0.10686613 -0.06061279
000060 48 ea 84 3e 15 00 30 3f ea b7 c4 be 44 4d bd 3e
       0.25959992 0.68750125 -0.38421565 0.36973011
000070 54 16 a6 be 4a be 58 bf
       -0.3243891 -0.8466536

nn_fun2.2.weight f4 [30, 30]
000000 db 22 19 bd a1 f7 d4 3d 94 bb 8f 3d 04 c4 25 3f
       -0.037386756 0.10398794 0.070181996 0.6475222
000010 f7 20 7e bd 9a 60 cb 3d ed 62 b6 bd 13 c9 92 3d
       -0.062043156 0.09930535 -0.08905587 0.07167258
000020 52 d3 2e 3e 82 e0 63 bd d7 aa 69 3e 0e d0 3c 3e
       0.170728 -0.05563403 0.22819076 0.18438742
000030 6b f4 5f 3e 5c ec 9d 3d 88 4b 7f 3e fa 0b 9c 3d
       0.21870582 0.077110976 0.24931157 0.07619472
000040 0e 46 0c 3c cd b6 34 3d 5a 11 94 bd 2c c1 bf 3d
       0.008561624 0.044119645 -0.07229872 0.093630165
000050 ef f6 3d be f2 ce 41 3e 6b 87 27 3e 62 fc d3 3c
       -0.18551229 0.189266 0.16360252 0.025877181
000060 c4 4b 12 3e 46 b4 17 be a9 aa 12 bd ae 14 2d be
       0.14286715 -0.14814863 -0.035807285 -0.1690242
000070 e0 b1 9b 3d 95 3d 20 3e f8 c6 d5 bd 4d 48 e4 3d
       0.07602286 0.15648492 -0.10438341 0.11146603
000080 ea 7f 13 bc 70 bd 6a bb 04 d2 86 3d 32 51 82 3d
       -0.009002665 -0.003581848 0.06583026 0.06363143
000090 47 a2 97 bc 95 91 06 be d0 b3 48 3d dd 09 b5 3d
       -0.018509997 -0.13141473 0.048999608 0.08839772
0000a0 76 ea 35 3d 8f ea 82 bb df 5c c7 bd 35 ff db 3d
       0.044413052 -0.0039952467 -0.09734511 0.10742036
0000b0 6e 29 7e 3d 0e 5c 25 bd 4e 79 df 3d 1f 82 4c bb
       0.06205123 -0.040370993 0.10911809 -0.0031205488
0000c0 e2 f1 16 be 2f 59 b2 bc 13 4c 90 bd 4a 33 50 3d
       -0.14740708 -0.021771042 -0.0704576 0.050830163
0000d0 6b 22 ae bd 16 49 8a 3d df 91 f8 3c da d7 a3 bd
       -0.085026585 0.06752221 0.030342994 -0.08000155
0000e0 0a 11 d3 bd ad c1 d4 3c ba c9 90 3d 07 7d f3 bd
       -0.10305984 0.025971258 0.07069726 -0.118890814
0000f0 87 7c 05 be 42 9a ca bd 2f 25 d7 bd 84 59 df 3b
       -0.13035785 -0.098927036 -0.10505139 0.006816091
000100 69 12 7d bd 05 c0 1d 3d cd 90 9d bd 76 61 ff 3c
       -0.061785135 0.038513202 -0.07693634 0.031174403
000110 b0 ec 0d be 01 aa 05 be a1 b2 aa 3d 97 68 0d be
       -0.1385982 -0.13053133 0.08334852 -0.13809429
000120 6c 09 d7 bd 8f bf d8 bd 1a 92 30 bd 1f e9 e2 3d
       -0.10499844 -0.10583412 -0.043108083 0.110796206
000130 47 57 0e 3e 7f ee b7 bc a5 c2 b6 3d e0 5a 95 3d
       0.13900481 -0.022452591 0.08923844 0.07292724
000140 16 46 34 be 47 af 6e bd 8b a1 01 3e 20 61 03 3d
       -0.1760486 -0.058272626 0.1265928 0.032075047
000150 cb 7d 3a 3d 71 d3 9c bd 55 59 0a 3e 78 33 e9 3b
       0.04553012 -0.07657517 0.1351064 0.0071167313
000160 0b 08 13 bd 6d 8f c4 bd 15 77 23 be 1b 80 ff bd
       -0.035896342 -0.09597669 -0.15963395 -0.12475606
000170 72 d2 eb 3c 0b 71 8d 3d 69 4b 68 bd 51 23 05 bb
       0.028786872 0.06906327 -0.05671254 -0.002031524
000180 33 72 bf bd fb fc f9 bd fb cb 76 3d c9 c9 69 bd
       -0.09347954 -0.12206455 0.060253125 -0.057077203
000190 12 37 a1 bd 3a 3e 12 be 45 bf b5 3c ac 3e 09 3c
       -0.07871832 -0.1428155 0.022185931 0.008376759
0001a0 a0 f7 b3 bc c7 63 15 bd 9c 04 c5 3c d0 90 ac 3d
       -0.021968663 -0.03647211 0.02405005 0.08426058
0001b0 17 ab 05 be 9b 6f d4 3c 77 cb b2 bd 41 a1 07 bd
       -0.13053547 0.025932124 -0.08730214 -0.033112768
0001c0 46 4f 6f bd 89 51 aa 3d 44 8c 83 bc 1d f8 d6 bb
       -0.05842521 0.08316333 -0.016058095 -0.006560339
0001d0 d0 98 96 3d ca 4f f5 bd 70 f9 15 3e 30 bb 18 be
       0.073533654 -0.11978109 0.14645934 -0.14915156
0001e0 4c 33 77 bc 55 e5 b6 3d a9 a1 4b 3d 7e 40 71 be
       -0.015087914 0.0893046 0.049714718 -0.23559758
0001f0 0f 92 ee bd c9 fa 9c 3d 3d 11 a9 bd 75 32 dc bd
       -0.11648952 0.07665021 -0.08255241 -0.107518114
000200 ef 2c de 3c 73 f3 1f bc 94 a8 50 3d 96 96 bb bd
       0.027121035 -0.009762633 0.05094202 -0.09159581
000210 6f c3 b2 bc f0 d0 06 bc 57 a4 21 be 25 21 24 bc
       -0.021821706 -0.0082285255 -0.15785347 -0.010017668
000220 5b c3 85 3d 3e 19 90 3d 3d 21 13 3e 38 e5 e1 3d
       0.06531402 0.070360646 0.14368148 0.11030048
000230 0f d7 27 be 03 cb 2f be 86 b2 54 bb 42 94 56 bd
       -0.16390632 -0.17167287 -0.003245504 -0.052387483
000240 e1 31 0c 3e d5 5d c8 3d 7e 1b 80 bd ca 47 a1 3d
       0.13690902 0.09783522 -0.06255244 0.07875021
000250 f7 2c 47 3d 40 69 90 3d 45 22 ec 3c b9 14 9e bd
       0.048626866 0.07051325 0.028824935 -0.07718796
000260 aa cb 1b 3e 7a 85 cc 3b 75 77 28 be 9a 65 95 bd
       0.1521441 0.0062414976 -0.16451819 -0.072947696
000270 51 5d ee bd 0a 6c 1d 3e 1c 6c 93 3d 7d eb 0e be
       -0.116388924 0.15373245 0.071983546 -0.13957019
000280 6a ec c2 bd 0c f5 50 bd 28 14 ad bd 7b 98 f1 3d
       -0.09517749 -0.051014945 -0.0845111 0.117966615
000290 2b 83 bc 3d cc 0d e7 bd 4b 9a eb 3c 13 57 16 3e
       0.09204706 -0.112819284 0.028760096 0.14681654
0002a0 bc 94 85 3d 06 6f 3a 3d 9a a3 e5 bd 27 32 94 bd
       0.065225095 0.045516036 -0.11212845 -0.07236128
0002b0 c5 b8 b6 3d a7 44 00 3e c1 60 1e 3e 02 01 15 3e
       0.08921961 0.12526189 0.15466596 0.14551166
0002c0 17 f7 82 bd ff b2 e5 3d 88 f2 29 3d f6 73 b2 bd
       -0.06394785 0.112157814 0.04149106 -0.08713524
0002d0 be 1b 18 3d b4 6e 90 3c a6 00 82 bc 18 3d 0c 39
       0.037135832 0.017630912 -0.01586945 0.000133742
0002e0 10 60 71 bd 36 dd 4b 3d cd bc 4f 3c 2e da 84 bd
       -0.058929503 0.04977151 0.012679291 -0.06486927
0002f0 0a e4 32 3c e2 23 76 3d 58 fe ba 39 1b 39 91 3c
       0.010918627 0.060092814 0.00035666185 0.017727425
000300 9e d0 c2 3c a8 4e 34 bd 18 20 37 3d 41 22 10 bd
       0.023781117 -0.044020325 0.04470834 -0.035188917
000310 72 95 ce 3c 01 52 0b b8 2d 6b 75 3c da 1f 38 bd
       0.025217745 -3.3216555e-05 0.014979166 -0.04495225
000320 87 c0 d5 3c ca 29 34 bb c7 42 00 ba d1 e0 59 3a
       0.02609278 -0.0027490729 -0.0004892763 0.00083113933
000330 e4 da 88 3c 69 64 70 3c 17 cf a4 3c 11 ae d5 b9
       0.016705938 0.014672377 0.02011828 -0.00040756215
000340 bf ca 2a bd 86 95 10 bd 99 45 1e be d9 b5 af bd
       -0.04169726 -0.035298847 -0.15456237 -0.085796066
000350 b5 3e 27 bd 20 58 26 3e ad 86 48 3d 25 6a 07 3e
       -0.040831286 0.16244555 0.04895656 0.13224085
000360 5c 70 0f 3e 1e 6b ae 3d 94 35 02 3e fa 3f a7 bd
       0.14007705 0.08516525 0.12715751 -0.081664994
000370 51 4a d2 bd e6 ee 5d 3c 26 c7 fb bd 50 55 b9 3d
       -0.10268081 0.013545727 -0.12293844 0.09049475
000380 d2 cf c6 3c 2c 36 d5 3c 95 b1 7d bc df c0 99 bc
       0.024269018 0.026026808 -0.015484233 -0.018768726
000390 4a 2c 6e bd 5d 57 2d be b6 a9 19 bd 8d 0b d9 3d
       -0.058147706 -0.16927858 -0.037515365 0.10597906
0003a0 28 96 21 3e 4a f4 ee 3c 96 c5 d8 3d 41 2a 80 bc
       0.15779936 0.02916922 0.105845615 -0.015645148
0003b0 61 7c c1 bd d2 17 c1 3d fd d9 1b 3e 39 b2 5f 3d
       -0.094475515 0.094283715 0.15219875 0.054613326
0003c0 f1 1d 0e 3d f1 5c c7 3d 61 ef 4a be d8 2c 21 bf
       0.034696523 0.09734524 -0.19817878 -0.6295905
0003d0 75 d9 05 be df 12 b5 3c af f6 e6 3d 74 9d 96 3a
       -0.13071235 0.022103725 0.1127752 0.0011491016
0003e0 68 ee 79 3b c6 33 0c bd 1a f4 3b be 57 49 e9 3d
       0.0038136486 -0.034229062 -0.18354836 0.113909416
0003f0 64 f1 65 bd c5 6e 65 3e 88 3d 48 3c 49 82 19 bc
       -0.05613841 0.22405536 0.012221701 -0.009369441

nn_fun2.2.bias f4 [30]
000000 1b 36 ff bd 06 1c f0 bc a1 7b be bd 74 2a 19 3d
       -0.12461492 -0.029310238 -0.09300924 0.037394002
000010 1f 1e c6 3c fa eb 9f bd 6f 6c a6 3d a5 41 2d be
       0.024184285 -0.07808681 0.08126151 -0.16919573
000020 49 c0 00 be fd e9 d5 3d 9e 2f 39 bd 8f 90 08 3d
       -0.12573351 0.1044502 -0.045211427 0.033340987
000030 e6 9b e8 bd 0d d8 ef bd ac 2b e6 3d 24 09 67 bd
       -0.1135786 -0.1171113 0.112387985 -0.0564052
000040 4a c5 bd bd 3c d0 b9 bd 3d 2f 77 bd 8a c6 14 3e
       -0.092661455 -0.09072921 -0.060347784 0.14528862
000050 65 ef 13 bd 4d df 0c be ef cd 27 3e d2 d8 88 bd
       -0.036116976 -0.13757057 0.16387151 -0.0668198
000060 18 66 64 3d 48 a3 d8 3d 3b b1 bd bd 1b eb 14 3e
       0.055761427 0.105780184 -0.0926232 0.1454281
000070 9a fb 3e bd c7 bb b0 bd
       -0.046626665 -0.08629566

agg.0.weight f4 [1, 30]
000000 fc 60 2c 3e 31 61 c3 3c 32 84 e9 3d d3 4c 10 be
       0.16833872 0.023850055 0.114021674 -0.14091806
000010 e0 b3 30 bd 05 9d 8e bd 48 4d 43 b9 20 cb 53 bd
       -0.043140292 -0.06963543 -0.00018625439 -0.051707387
000020 87 e8 0f be cb dd e8 bc eb 99 3b 3d 1d 70 9e b9
       -0.14053546 -0.028426072 0.045801084 -0.0003021964
000030 3a 43 68 bd d4 5f 7d bc f5 00 bd bd 8f ef ba bd
       -0.056704737 -0.015464742 -0.09228698 -0.091277234
000040 0e 10 11 bd 10 06 80 3d d1 76 c2 36 53 75 a5 bd
       -0.0354157 0.06251156 5.7954826e-06 -0.080790184
000050 72 22 b4 bd c6 54 01 be f4 89 09 3e f3 e3 b3 3d
       -0.087956324 -0.12629995 0.13431531 0.08783712
000060 b5 91 04 3e cd d0 8a 3d 88 2c 19 bd 2a 97 5e bb
       0.12946208 0.06778107 -0.037395984 -0.0033964613
000070 04 a9 90 bc b9 b6 59 3b
       -0.017658718 0.0033220483
