multiple_model_analysis/results/er_experiment_MAK_size_10_8_alpha_0_scale_100_dynwght_False_std_reg_1.0_equiv_reg_0.0/neural_network.pth (torch, 16627 bytes, 14 tensors)

g.0.weight f4 [30, 1]
0.05241166 0.8069244 0.3583143 0.39669806 -0.73662746 0.08483433 0.5557684 -0.22753173
-0.6040845 -0.068600595 -0.4106492 0.56234634 -0.47760358 0.65651244 -1.0173428 0.62805116
-0.44283196 -0.085711434 0.3154147 0.86915946 -0.425937 0.081390806 -0.62264794 0.65668505
0.7566912 -0.2990621 0.90510154 0.41243044 0.03525876 -0.35593396
00000000: 9cad 563d 9992 4e3f f974 b73e 021c cb3e
00000010: 9e93 3cbf 9fbd ad3d d646 0e3f 14fe 68be
00000020: 48a5 1abf 787e 8cbd 9d40 d2be eef5 0f3f
00000030: 7588 f4be 3311 283f 4a38 82bf f6c7 203f
00000040: dfba e2be 7a89 afbd 097e a13e 3c81 5e3f
00000050: 6a14 dabe 39b0 a63d db65 1fbf 831c 283f
00000060: 84b6 413f ab1e 99be bcb4 673f 152a d33e
00000070: 7d6b 103d fa3c b6be

g.0.bias f4 [30]
0.5336144 -0.02726409 -0.28843823 -0.9561958 -0.86083764 0.6368305 -0.48005062 -0.6856569
0.60526067 -0.21886241 -0.50178427 0.019373847 -0.07776013 0.23962218 0.8938814 -0.2712359
0.56158996 0.0057039554 -0.26770678 0.32607952 -0.20847934 0.23296477 0.2648515 -0.69216526
-0.26110587 0.8635698 -0.008384461 0.8663216 0.6361773 -0.23404151
00000000: f49a 083f f158 dfbc 2dae 93be 3fc9 74bf
00000010: db5f 5cbf 5307 233f 32c9 f5be 3687 2fbf
00000020: 5df2 1a3f 781d 60be ef74 00bf e7b5 9e3c
00000030: b440 9fbd 845f 753e 69d5 643f 6fdf 8abe
00000040: 5cc4 0f3f 3fe8 ba3b dd10 89be e5f3 a63e
00000050: 9c7b 55be 518e 6e3e 9e9a 873e be31 31bf
00000060: abaf 85be e912 5d3f fa5e 09bc 41c7 5d3f
00000070: 84dc 223f 94a8 6fbe

g.2.weight f4 [30, 30]
-0.07045702 0.025463343 -0.033440594 -0.023453979 -0.008273313 -0.10330447 0.06294214 -0.059313457
-0.0974421 -0.097947836 -0.09717646 0.013272226 -0.11595151 0.046740837 -0.073387496 -0.07513009
-0.023762064 -0.035968933 0.055202115 -0.061541263 0.056022495 0.08504499 0.07643413 0.05094278
-0.061910402 -0.07769075 -0.12059744 0.1498236 -0.14065807 -0.02698572 0.10548145 -0.049118213
-0.0835716 0.18806621 -0.013118525 0.039823107 0.088564545 -0.023193756 -0.17114374 0.0057454584
-0.10105731 -0.09289369 -0.09867482 0.04860385 -0.13798065 -0.0074036694 0.09407611 0.09628503
0.091372445 0.0014656786 0.119030386 0.106297284 0.017969012 0.0951213 0.047943432 -0.029601075
0.103287876 0.010794363 -0.12563238 -0.088488325 0.04480903 -0.13129257 -0.14845355 0.16794486
0.13445242 -0.04621164 0.09730451 0.05685997 0.1464043 0.05288284 0.08080509 -0.11412639
0.04496551 -0.12910524 -0.15149271 0.116734035 -0.091238186 0.13448024 -0.0376422 0.09858288
0.15308835 0.031357754 0.03842502 -0.10261208 0.13223161 0.055589374 0.1494754 0.16771577
-0.03472599 0.028459042 -0.05948812 0.10210826 -0.027776629 -0.11373189 -0.12938185 0.07106532
0.11968835 -0.18505283 0.15701824 0.09336679 -0.18267284 0.09811564 -0.0030767221 0.1580796
0.19275357 0.047102425 -0.03630492 -0.17283499 0.09075752 0.027959358 0.0507666 0.075080395
-0.00022526176 0.09844695 -0.040353455 0.1025349 0.10186448 -0.052967723 0.10344777 -0.008941317
-0.07359543 0.046272207 -0.035019808 0.026252028 -0.07170257 -0.03206731 0.019453894 -0.02210017
-0.03324386 0.006322471 -0.07695133 -0.047586504 0.028587596 -0.05393708 -0.02059578 0.016763154
0.05345143 -0.019130768 -0.018652597 0.06879839 0.029540712 0.021568226 -0.01713266 -0.08458048
0.014101552 0.06852445 -0.017759923 -0.084125735 0.016724136 -0.0032857452 -0.06751432 -0.0656706
-0.13303347 -0.029844105 0.16299637 0.1542358 0.031834386 -0.0059252083 0.14893168 0.023174208
-0.02929555 -0.114410214 0.14955261 -0.16106454 -0.06933094 0.04205543 0.022414198 -0.059155717
-0.15966454 0.02527609 -0.05434729 -0.111861475 -0.0485533 -0.083856314 -0.11423502 0.0902707
0.011821587 -0.14991628 0.09611654 0.12420294 0.06273011 -0.054827016 -0.092234455 0.031743534
0.15020977 0.036505044 -0.11164928 -0.042718314 0.11828682 0.13577782 0.15575057 0.17865239
-0.12381811 0.039556403 0.061225135 -0.2144785 0.04233486 -0.069373436 0.015661072 0.16631933
0.021759747 0.06942988 0.33683258 -0.038419314 -0.12785485 0.1982744 -0.100456774 0.19160382
-0.0067342967 0.10482198 0.043129846 0.045809343 0.08871091 -0.09997345 -0.17527358 0.038802434
-0.16499044 -0.14235783 0.20263995 -0.0041959845 -0.08805057 0.17655018 -0.008879304 0.15043752
0.05894717 0.06845561 0.15737148 -0.030089622 -0.14761344 0.18075551 -0.17568596 0.008242316
-0.06639737 0.12613297 -0.10359901 0.025713144 0.06846845 0.12565836 0.18954258 -0.12281662
0.1468898 0.13889234 0.049073823 0.0019890724 0.13710357 -0.07663366 -0.018845765 0.01567443
0.07521618 -0.059653834 0.16697682 -0.04868855 0.066096835 0.08685636 0.1125303 -0.00020839198
00000000: c54b 90bd 8098 d03c 01f9 08bd 8f22 c0bc
00000010: ca8c 07bc 4b91 d3bd cfe7 803d abf2 72bd
00000020: b98f c7bd e098 c8bd 7404 c7bd c073 593c
00000030: fc77 edbd 5273 3f3d 2f4c 96bd cedd 99bd
00000040: a9a8 c2bc 2954 13bd 9d1b 623d b112 7cbd
00000050: d877 653d 112c ae3d 7f89 9c3d 60a9 503d
00000060: c395 7dbd 541c 9fbd cafb f6bd 5c6b 193e
00000070: ab08 10be 2811 ddbc a906 d83d 2e30 49bd
00000080: 9627 abbd 6e94 403e 15ef 56bc 8e1d 233d
00000090: 5461 b53d d500 bebc 4e40 2fbe 6644 bc3b
000000a0: 23f7 cebd 0c3f bebd 0616 cabd d514 473d
000000b0: cd4a 0dbe 7b9a f2bb faaa c03d 1631 c53d
000000c0: 7a21 bb3d 031c c03a 34c6 f33d 64b2 d93d
000000d0: c033 933c f5ce c23d 5560 443d f47d f2bc
000000e0: 9888 d33d d7da 303c c6a5 00be 5e39 b5bd
000000f0: ac89 373d 8f71 06be 3504 18be bdf9 2b3e
00000100: e5ad 093e 6b48 3dbd 9647 c73d 00e6 683d
00000110: 02eb 153e ad9b 583d 247d a53d 19bb e9bd
00000120: c12d 383d 2a34 04be e820 1bbe 4112 ef3d
00000130: 16db babd 30b5 093e b52e 1abd d2e5 c93d
00000140: 31c3 1c3e fd70 003d 8e63 1d3d 4826 d2bd
00000150: b967 073e afb1 633d 1410 193e afbd 2b3e
00000160: d73c 0ebd f022 e93c d1a9 73bd 231e d13d
00000170: d08b e3bc 44ec e8bd ad7c 04be b28a 913d
00000180: 2a1f f53d 7d7e 3dbe 64c9 203e 1637 bf3d
00000190: 970e 3bbe daf0 c83d d5a2 49bb 9edf 213e
000001a0: 3161 453e 79ee 403d 78b4 14bd a8fb 30be
000001b0: 14df b93d 060b e53c a3f0 4f3d c0c3 993d
000001c0: 3e34 6cb9 8e9e c93d aa49 25bd d1fd d13d
000001d0: 539e d03d aff4 58bd 6ddc d33d 9a7e 12bc
000001e0: 33b9 96bd ed87 3d3d ee70 0fbd 7e0e d73c
000001f0: ccd8 92bd 0359 03bd c65d 9f3c 6a0b b5bc
00000200: b72a 08bd bb2c cf3b a998 9dbd 11ea 42bd
00000210: 8930 ea3c 21ed 5cbd 7bb8 a8bc e252 893c
00000220: e3ef 5a3d 21b8 9cbc 55cd 98bc 2ce6 8c3d
00000230: 5dff f13c d9af b03c cb59 8cbc 8838 adbd
00000240: 320a 673c 8c56 8c3d 427d 91bc 1d4a acbd
00000250: 0e01 893c a855 57bb f344 8abd 4f7e 86bd
00000260: ed39 08be a07b f4bc 85e8 263e fdef 1d3e
00000270: c664 023d 4028 c2bb 8c81 183e d6d7 bd3c
00000280: 39fd efbc e74f eabd 5224 193e 1aee 24be
00000290: 61fd 8dbd 5142 2c3d fb9d b73c 444d 72bd
000002a0: 1a7f 23be cd0f cf3c 449b 5ebd a117 e5bd
000002b0: d3df 46bd dcbc abbd 0df4 e9bd d8df b83d
000002c0: 54af 413c a783 19be c0d8 c43d 1c5e fe3d
000002d0: a578 803d 4b92 60bd 6be5 bcbd 8205 023d
000002e0: 97d0 193e 5086 153d 61a8 e4bd 66f9 2ebd
000002f0: 5c40 f23d 5709 0b3e 147d 1f3e a7f0 363e
00000300: 5994 fdbd e505 223d 35c7 7a3d 40a0 5bbe
00000310: 5167 2d3d a913 8ebd a64b 803c 9d4f 2a3e
00000320: 7f41 b23c 4131 8e3d 5275 ac3e 925d 1dbd
00000330: 62ec 02be 7208 4b3e 48bc cdbd cb33 443e
00000340: 60ab dcbb e8ac d63d eca8 303d 94a2 3b3d
00000350: 11ae b53d e1be ccbd eb7a 33be 4def 1e3d
00000360: 41f3 28be 40c6 11be d980 4f3e 787e 89bb
00000370: db53 b4bd 92c9 343e 807a 11bc 4b0c 1a3e
00000380: 9672 713d 7432 8c3d fd25 213e 837e f6bc
00000390: fa27 17be f917 393e 05e7 33be c70a 073c
000003a0: 58fb 87bd 0029 013e b82b d4bd 5fa4 d23c
000003b0: 3039 8c3d 96ac 003e 7317 423e 4887 fbbd
000003c0: 486a 163e cb39 0e3e a201 493d 195b 023b
000003d0: e164 0c3e 1cf2 9cbd 6f62 9abc aa67 803c
000003e0: f10a 9a3d 9457 74bd f9fb 2a3e a56d 47bd
000003f0: c75d 873d bfe1 b13d 4976 e63d cc83 5ab9

g.2.bias f4 [30]
0.084062025 0.13559456 0.16179048 0.17819998 -0.0674531 0.0365593 0.18843408 0.10959455
0.11131315 0.08722809 -0.07263185 0.06987713 0.1323314 -0.032889627 -0.056455348 0.0530322
0.15007618 0.023339203 0.038033146 0.017405195 0.14900452 0.05005613 -0.04025024 0.03766929
-0.118708365 0.03093968 -0.1561981 0.08133057 0.07600922 -0.1385822
00000000: b628 ac3d 4dd9 0a3e 67ac 253e 0e7a 363e
00000010: da24 8abd 34bf 153d ddf4 403e 1c73 e03d
00000020: 26f8 e33d a4a4 b23d 02c0 94bd be1b 8f3d
00000030: e281 073e 46b7 06bd b93d 67bd 4b38 593d
00000040: 92ad 193e db31 bf3c a5c8 1b3d 5795 8e3c
00000050: a494 183e a807 4d3d 70dd 24bd 1d4b 1a3d
00000060: 5f1d f3bd 3675 fd3c 65f2 1fbe a490 a63d
00000070: b9aa 9b3d 7ee8 0dbe

g.4.weight f4 [1, 30]
-0.0026088702 0.0062771086 -0.019480947 0.0832533 0.0008740271 -0.019217685 0.10277759 0.059151433
-0.0051962216 0.00017917129 0.0019199234 -0.00726139 0.14153734 -0.0016459812 0.00417448 0.003210175
0.0037909371 -0.0010702772 0.004905746 -0.0047542676 0.0793029 0.00091932184 -0.0040303515 0.005463818
-0.13736174 -0.0037823522 -0.0073740017 0.06722904 -0.00083825225 -0.0175154
00000000: 94f9 2abb 34b0 cd3b 8296 9fbc b580 aa3d
00000010: f71e 653a 686e 9dbc 0f7d d23d c648 723d
00000020: 1145 aabb eddf 3b39 f0a5 fb3a f4f0 edbb
00000030: 2aef 103e f7bd d7ba 14ca 883b cd61 523b
00000040: 5f71 783b 8b48 8cba 61c0 a03b b0c9 9bbb
00000050: 8f69 a23d a5fe 703a 0a11 84bb d409 b33b
00000060: 8ea8 0cbe 57e1 77bb 9ca1 f1bb 61af 893d
00000070: 28be 5bba 757c 8fbc

nn_fun1.0.weight f4 [30, 1]
0.9518463 -0.7505831 -0.35460398 -0.209588 -0.76448673 0.40391687 0.68703353 0.22733465
0.023077535 1.0217074 -0.4026125 -0.19036227 0.32307768 -0.48528227 -0.6132764 -0.15059184
0.7271728 -0.5196816 0.407923 -0.15880021 0.88723403 0.64644843 -0.54034567 -1.0058833
0.6424662 -1.0145341 -0.70702153 1.0689535 0.315001 0.06418612
00000000: 33ac 733f 3726 40bf a78e b5be 3d9e 56be
00000010: 67b5 43bf 31ce ce3e 6ee1 2f3f 6aca 683e
00000020: 190d bd3c 4fc7 823f 3a23 cebe 54ee 42be
00000030: 706a a53e eb76 f8be afff 1cbf bf34 1abe
00000040: ff27 3a3f da09 05bf 49db d03e 869c 22be
00000050: c521 633f a57d 253f 1854 0abf c9c0 80bf
00000060: aa78 243f 41dc 81bf 5dff 34bf 78d3 883f
00000070: d047 a13e 0374 833d

nn_fun1.0.bias f4 [30]
-0.70007855 -0.06264052 0.120019384 0.44247058 -0.35791206 -0.13397168 0.1549164 -0.82375443
-0.29648092 -0.82800645 -0.34226978 -0.54749256 0.4112688 -0.5647076 -0.7762317 -0.05406607
-0.43570277 -0.45711175 -0.16508734 0.18389581 -0.7189014 -0.39978963 0.11746271 0.46698567
0.03400925 0.8902667 0.42155254 -0.6367056 0.45209315 -0.45139614
00000000: 5938 33bf ac49 80bd b9cc f53d 818b e23e
00000010: 4040 b7be df2f 09be 68a2 1e3e 92e1 52bf
00000020: 59cc 97be 3bf8 53bf fc3d afbe 7928 0cbf
00000030: d391 d23e ad90 10bf 1fb7 46bf 6274 5dbd
00000040: 6f14 dfbe 8d0a eabe a80c 29be 2f4f 3c3e
00000050: ec09 38bf 3ab1 ccbe 4a90 f03d bf18 ef3e
00000060: 494d 0b3d 85e8 633f bcd5 d73e 23ff 22bf
00000070: c178 e73e 651d e7be

nn_fun1.2.weight f4 [30, 30]
0.16797565 -0.06731163 -0.030892821 -0.053707317 -0.061961118 0.059955098 0.19545381 -0.09669039
-0.06858291 -0.06921121 -0.18433386 -0.088286094 0.15158626 0.1134207 0.04578128 -0.061411925
0.07421556 -0.03798284 -0.073400214 0.11828867 0.1277839 0.18066089 -0.23665617 -0.07557778
0.13081942 -0.051518846 0.038007706 0.14652707 -0.088598885 0.13299607 0.028624238 0.007060177
-0.00031833616 0.06720632 0.039042562 0.00037822122 -0.080631636 -0.04367953 -0.004023084 0.06636507
0.07353431 -0.016254408 -0.03242063 -0.0001197858 -0.043662023 0.03839215 0.027755978 0.091942504
-0.00027225187 -0.028700681 -0.08370777 0.079647034 0.00062721345 0.0015340626 -0.057473753 0.015927989
0.02973523 -0.072174296 0.07083289 0.0331981 0.11218864 -0.09346409 0.08833906 0.13469513
0.17669994 -0.1219645 -0.05240131 -0.07723563 0.11585052 0.11732066 0.13301884 -0.10624926
0.035075765 0.059136298 -0.074828126 -0.0042780153 0.16992053 -0.0908774 0.09720635 0.12997895
-0.1035142 -0.13525464 -0.03328208 0.031201161 -0.23809 0.11329647 0.13842773 -0.007293561
0.047668245 0.19705147 0.045045342 -0.044527818 -0.00021290526 0.08888304 -0.042603713 -0.00015541952
-0.038412094 -0.016177738 -0.011673408 -0.06961489 -0.027687198 0.15128756 -0.061262272 -0.005049403
0.15325841 0.04544948 -0.07669335 -0.025141042 -0.013932055 -0.08348889 -0.11688896 0.07475294
0.050466415 -0.039282862 0.09623435 0.06290391 0.096081056 -0.100109085 0.028383883 0.11380666
0.056106962 -0.078165226 0.008107169 0.10641665 -0.1346531 0.005656898 -0.031003851 0.09055566
-0.06667478 -0.115573965 0.030697213 -0.12264144 -0.026099158 0.065378815 0.10876402 0.007030455
0.0860165 0.02284648 -0.018120142 -0.015569556 -0.063397415 -0.022986466 -0.027026331 0.020771157
0.0665691 -0.07079311 -0.050269604 0.0905698 -0.030632261 0.043048244 0.20736434 -0.21519038
-0.18894555 0.044759028 -0.14405836 0.2062083 -0.043611478 -0.18833749 -0.064881824 0.19308709
0.14668508 -0.12291966 -0.03617684 -0.11523661 0.10335541 -0.1812819 -0.0039723166 -0.08245436
0.0068306024 0.16763613 -0.12505163 -0.12139462 -0.29056853 -0.22199784 0.16032569 0.0028973992
-0.056812156 0.20898506 0.1440722 0.02602388 -0.0004736451 -0.07609402 -0.0012896745 0.05221592
0.10334135 0.0052648555 0.009905952 -0.032007687 0.09516779 -0.17393322 0.10039484 0.11987593
0.11921129 0.03516898 -0.0210073 0.015411473 -0.07810491 -0.048936404 -0.0433341 0.037895303
-0.06745532 0.09906916 0.0133483065 0.05645978 -0.058985155 0.027039083 0.12384621 0.023988849
-0.10402224 -0.08414942 0.053977594 0.12868954 0.19519958 -0.03339503 0.11979632 -0.159034
-0.0069740955 0.04813431 -0.11674812 -0.16599107 0.12572032 -0.09929028 -0.1367092 -0.14204071
0.14631338 0.08987944 0.0084166 0.13822366 -0.23851888 -0.14426449 0.022056434 0.12069647
0.1963757 0.16444735 0.13108557 -0.042885713 0.21388188 0.068153314 -0.14360273 -0.0151924305
0.1031984 0.19179255 0.09596411 0.17067964 -0.13503012 -0.092781246 0.0114801135 0.0431839
0.08252078 -0.005982986 0.098557346 0.13940075 0.09845281 0.117712475 0.18042243 0.15002303
00000000: cf01 2c3e aeda 89bd f112 fdbc 34fc 5bbd
00000010: f1ca 7dbd 7a93 753d 0b25 483e 9c05 c6bd
00000020: 3275 8cbd 9bbe 8dbd 04c2 3cbe 57cf b4bd
00000030: 6e39 1b3e 1d49 e83d 2785 3b3d 128b 7bbd
00000040: 54fe 973d e593 1bbd da52 96bd 5541 f23d
00000050: c8d9 023e 2bff 383e ff55 72be 86c8 9abd
00000060: 87f5 053e 6d05 53bd f8ad 1b3d 310b 163e
00000070: 5573 b5bd 1f30 083e 617d ea3c 0f59 e73b
00000080: 5be6 a6b9 78a3 893d 18eb 1f3d fe4b c639
00000090: 3322 a5bd 4fe9 32bd 13d4 83bb 69ea 873d
000000a0: 2899 963d f727 85bc 7fcb 04bd 8335 fbb8
000000b0: f3d6 32bd 1641 1d3d 8160 e33c 5a4c bc3d
000000c0: 07bd 8eb9 b11d ebbc fb6e abbd fc1d a33d
000000d0: 956b 243a 9912 c93a 9969 6bbd 6a7b 823c
000000e0: 4c97 f33c 1ed0 93bd d610 913d bbfa 073d
000000f0: 28c3 e53d 1a6a bfbd 1ceb b43d 85ed 093e
00000100: d4f0 343e 86c8 f9bd c2a2 56bd b72d 9ebd
00000110: 0a43 ed3d d045 f03d 1736 083e 3699 d9bd
00000120: 9bab 0f3d e738 723d 7d3f 99bd 982e 8cbb
00000130: a6ff 2d3e ee1d babd 1f14 c73d 3419 053e
00000140: 41ff d3bd 3180 0abe ca52 08bd 9499 ff3c
00000150: ddcd 73be fb07 e83d 00c0 0d3e d3fe eebb
00000160: c73f 433d dcc7 493e 7781 383d cd62 36bd
00000170: 523f 5fb9 5008 b63d 3b81 2ebd 1cf8 22b9
00000180: 0056 1dbd 2d87 84bc d241 3fbc 4092 8ebd
00000190: 43d0 e2bc 20eb 1a3e 26ee 7abd 7675 a5bb
000001a0: c6ef 1c3e 3c29 3a3d 6711 9dbd 96f4 cdbc
000001b0: 4643 64bc 39fc aabd 7b63 efbd 1218 993d
000001c0: dfb5 4e3d 11e7 20bd 8416 c53d c4d3 803d
000001d0: 25c6 c43d fe05 cdbd 5185 e83c 7713 e93d
000001e0: 6ad0 653d 1715 a0bd eed3 043c f9f0 d93d
000001f0: 81e2 09be 805d b93b cafb fdbc 3f75 b93d
00000200: c98c 88bd 0bb2 ecbd b978 fb3c 6f2b fbbd
00000210: e7cd d5bc 54e5 853d acbf de3d bb5f e63b
00000220: 6b29 b03d 8b28 bb3c b170 94bc 7317 7fbc
00000230: 81d6 81bd 1d4e bcbc 5366 ddbc 4628 aa3c
00000240: 6155 883d fafb 90bd 80e7 4dbd a97c b93d
00000250: 82f0 fabc 5b53 303d 5157 543e de5a 5cbe
00000260: f17a 41be 3e55 373d 0984 13be 4528 533e
00000270: f3a1 32bd 8bdb 40be c3e0 84bd 9fb8 453e
00000280: 9d34 163e 4dbd fbbd 2b2e 14bd 2c01 ecbd
00000290: 00ac d33d f6a1 39be 352a 82bb d5dd a8bd
000002a0: 3fd3 df3b cea8 2b3e 890d 00be be9d f8bd
000002b0: 66c5 94be 6753 63be 6b2c 243e 4be2 3d3b
000002c0: ddb3 68bd 2e00 563e aa87 133e 0830 d53c
000002d0: 9253 f8b9 2ed7 9bbd 4c0a a9ba 5ce0 553d
000002e0: a1a4 d33d cf84 ac3b 934c 223c 7e1a 03bd
000002f0: 55e7 c23d 8d1b 32be cf9b cd3d 8381 f53d
00000300: 0c25 f43d 590d 103d 8017 acbc 6780 7c3c
00000310: 78f5 9fbd 8a71 48bd 197f 31bd 1b38 1b3d
00000320: 0426 8abd c6e4 ca3d dbb2 5a3c 5f42 673d
00000330: 6b9a 71bd 1181 dd3c 15a3 fd3d 4384 c43c
00000340: 9d09 d5bd 8856 acbd 9c17 5d3d 31c7 033e
00000350: 66e2 473e 3ac9 08bd c657 f53d cfd9 22be
00000360: f486 e4bb 7b28 453d a319 efbd 90f9 29be
00000370: d4bc 003e b458 cbbd 7ffd 0bbe 1f73 11be
00000380: 2dd3 153e b612 b83d c7e5 093c 818a 0d3e
00000390: 4b3e 74be 12ba 13be b2af b43c b62f f73d
000003a0: b616 493e e364 283e 4c3b 063e eea8 2fbd
000003b0: da03 5b3e f793 8b3d 980c 13be ace9 78bc
000003c0: af59 d33d 4465 443e d588 c43d a5c6 2e3e
000003d0: 5645 0abe 1804 bebd 1617 3c3c 9ae1 303d
000003e0: a800 a93d ed0c c4bb 6fd8 c93d 12bf 0e3e
000003f0: a0a1 c93d 3d13 f13d a8c0 383e a39f 193e

nn_fun1.2.bias f4 [30]
-0.06724901 0.050415553 0.025332376 0.029047444 0.06365833 -0.12893279 -0.056632195 -0.17797355
-0.059027527 -0.059442285 -0.059144128 0.110078014 0.014999682 0.09080163 0.060667206 0.122285835
0.061449468 0.04601682 0.15237193 -0.09035496 0.10567236 0.09334623 -0.1094055 -0.157684
0.00014753774 0.08608337 0.13795783 -0.16470172 0.11805509 0.0019258218
00000000: d9b9 89bd 8a80 4e3d d885 cf3c e8f4 ed3c
00000010: 4c5f 823d f506 04be 29f7 67bd b33e 36be
00000020: d9c6 71bd c179 73bd 1d41 72bd 9570 e13d
00000030: 3ac1 753c 34f6 b93d 2d7e 783d ff70 fa3d
00000040: 70b2 7b3d 227c 3c3d 6307 1c3e 050c b9bd
00000050: c06a d83d 4f2c bf3d fe0f e0bd ea77 21be
00000060: 5cb4 1a39 7a4c b03d d144 0d3e 91a7 28be
00000070: dec6 f13d db6b fc3a

nn_fun2.0.weight f4 [30, 1]
-0.19822234 -0.17491288 0.6193713 0.55874676 0.093135044 -0.85734797 -0.052412346 -0.81787807
-0.67517436 0.25913763 -0.1980143 -1.0302914 -0.76620764 0.8680314 0.92642313 -0.82277995
-0.6199481 0.5928178 -0.29251492 -0.021606322 -0.32898423 0.49005723 -0.7251774 -0.9400137
0.2777728 0.362572 0.5986976 -0.18428063 -0.45545715 -0.4774667
00000000: ccfa 4abe 5d1c 33be 1e8f 1e3f 070a 0f3f
00000010: 96bd be3d 287b 5bbf 54ae 56bd 7560 51bf
00000020: 3ad8 2cbf b0ad 843e 43c4 4abe 97e0 83bf
00000030: 2f26 44bf 4e37 5e3f 112a 6d3f b5a1 52bf
00000040: ebb4 1ebf e8c2 173f 84c4 95be beff b0bc
00000050: 9f70 a8be c8e8 fa3e 3aa5 39bf bda4 70bf
00000060: 3d38 8e3e 0aa3 b93e 3f44 193f 10b4 3cbe
00000070: ae31 e9be 8476 f4be

nn_fun2.0.bias f4 [30]
-0.4693552 -0.77303404 0.33503827 -0.40426415 -0.8756282 0.1645211 0.7571657 -0.01581046
-0.6095564 0.4273107 -0.45017508 0.5903893 -0.6370861 0.8640018 -0.29329574 0.8522757
0.36216033 0.72111857 0.09230431 -0.50990206 0.10567296 0.8018783 -0.724254 0.28571358
0.0852003 0.49376208 -0.48034108 -0.5609332 0.23665924 -0.2575991
00000000: 534f f0be 8fe5 45bf 238a ab3e b6fb cebe
00000010: 2b29 60bf 3878 283e 9cd5 413f f084 81bc
00000020: e30b 1cbf 78c8 da3e 597d e6be c123 173f
00000030: 1318 23bf 392f 5d3f dc2a 96be be2e 5a3f
00000040: 146d b93e 3a9b 383f 0b0a bd3d f188 02bf
00000050: 116b d83d e547 4d3f b668 39bf 0d49 923e
00000060: 7f7d ae3d 62ce fc3e 44ef f5be 5199 0fbf
00000070: cd56 723e 07e4 83be

nn_fun2.2.weight f4 [30, 30]
-0.09143494 0.0055565154 0.17515257 -0.058136243 -0.031001968 -0.13116091 0.003724165 -0.12331249
0.12462209 0.13078299 -0.00067977764 -0.17027354 0.06714008 -0.05978711 0.07016317 -0.1388341
-0.10584461 -0.07856886 0.025503818 -0.038234733 -0.15609987 -0.08007868 0.11395617 -0.07650061
-0.01735588 0.17480637 0.01920515 -0.0942043 -0.05294179 -0.1761559 -0.08694 -0.0124545265
0.06321256 0.033078678 0.09088775 0.0056836363 0.02882114 0.005403109 -0.07298788 0.080060475
0.073993385 -0.046528578 -0.10802752 -0.024852885 -0.002305458 -0.03325627 0.042888507 -0.018326683
0.005996711 -0.010647901 0.0002681895 -0.0011342447 -0.037850462 0.001569358 -0.018415088 -0.07227667
0.0051320186 0.019023836 0.0027534137 0.014919578 -0.03410276 -0.1406025 0.048928265 0.048482418
-0.1422626 0.24888986 -0.07463771 -0.09778221 -0.076011285 -0.0804991 -0.11045029 0.035216823
-0.060222745 -0.13325173 0.009188172 -0.08249805 -0.017041638 -0.13866103 -0.026935648 -0.08192736
0.042651933 -0.15286343 -0.032957908 0.20428436 0.033179104 0.07151709 -0.07127367 -0.10353789
-0.023279196 0.20725101 -0.0047796513 0.03978395 0.030728303 0.00221783 -0.014446314 -0.00012212143
-0.020729406 9.232166e-05 0.010383572 -0.016589228 -0.029693706 -0.0006512965 -0.008927655 2.9370509e-05
0.001049336 -0.008823337 0.0079238005 -0.015824802 -0.00017105161 0.02356981 -0.0010952284 -0.016564567
-0.042184394 -0.0013745385 -0.003400446 -0.004311638 -0.012741417 0.009013541 -0.0007705944 0.004418132
0.018423496 -0.04412291 -0.06879025 0.13874197 -0.13217917 0.01571432 -0.17977351 -0.032080587
-0.109468244 -0.18022755 0.072641775 -0.08526214 0.056509294 0.13358769 -0.05492513 0.046982035
-0.07144637 0.094114885 0.10845583 -0.046361916 0.0049341954 0.11423626 0.13842428 0.08131355
-0.008853954 0.035279255 0.048633967 0.04010555 -0.042481307 0.06014447 0.17219278 -0.04592255
-0.16400386 -0.15871917 7.145986e-05 0.18932222 0.013198555 0.21361773 0.0689997 0.06466336
-0.15075143 0.1754066 0.13368511 0.02419498 -0.26489678 -0.15015037 0.20153178 -0.02710642
-0.13650621 0.073324606 0.25877228 0.10436902 0.17886862 0.36159462 0.058527663 0.16274333
0.05124313 0.080155365 0.040862434 -0.10829618 0.030746127 -0.13308176 0.023346953 -0.11609538
-0.16780142 -0.05842587 -0.13389918 0.048571438 0.018225055 -0.021184402 0.11670875 0.049604453
0.07551085 -0.08370131 -0.008439527 -0.04418677 0.0829649 -0.11462623 -0.040911846 -0.011590986
0.00011625422 0.10861913 0.008971561 -0.016903179 -0.023555968 0.016864315 0.08120596 -0.14332975
-0.072900765 -0.035130948 -0.0022144914 0.07719493 0.08721057 0.19353531 -0.07186556 -0.028813161
-0.11726247 -0.16523506 -0.11117342 0.17174372 -0.13310346 -0.117478386 0.040534742 -0.10633862
0.29135817 -0.15048711 0.12460509 0.14959244 0.052044343 0.121737465 -0.14099671 0.058521632
0.045263078 -0.23856975 -0.022927593 0.032599147 -0.11420511 -0.18944247 -0.043154202 -0.113791056
-0.063935325 0.095898405 -0.062293924 0.20424421 -0.07757496 -0.21183674 0.04067254 0.010538318
0.047034137 0.033828437 -0.03628283 -0.2435603 0.12918185 -0.07628297 0.29054448 -0.12407305
00000000: 3e42 bbbd 6e13 b63b 325b 333e 4520 6ebd
00000010: d7f7 fdbc 0c4f 06be 1f11 743b 428b fcbd
00000020: de39 ff3d faeb 053e 1b33 32ba 305c 2ebe
00000030: bd80 893d 54e3 74bd b5b1 8f3d 872a 0ebe
00000040: 0fc5 d8bd b6e8 a0bd 62ed d03c 069c 1cbd
00000050: a5d8 1fbe 4a00 a4bd da61 e93d 5aac 9cbd
00000060: eb2d 8ebc 7100 333e 1e54 9d3c 2fee c0bd
00000070: 7ed9 58bd 3662 34be 990d b2bd 120e 4cbc
00000080: 9675 813d 827d 073d 5b23 ba3d cc3d ba3b
00000090: 501a ec3c 900c b13b ab7a 95bd bff6 a33d
000000a0: d889 973d c094 3ebd 883d ddbd 4798 cbbc
000000b0: 2b17 17bb ba37 08bd dcab 2f3d d721 96bc
000000c0: 0f80 c43b 8974 2ebc c99b 8c39 f0aa 94ba
000000d0: 1609 1bbd ebb2 cd3a 3ddb 96bc ca05 94bd
000000e0: 7e2a a83b e0d7 9b3c 9e72 343b 3f71 743c
000000f0: 56af 0bbd 1afa 0fbe 0169 483d 8095 463d
00000100: 49ad 11be fcdc 7e3e a8db 98bd 0a42 c8bd
00000110: ceab 9bbd b6dc a4bd c333 e2bd 843f 103d
00000120: 20ac 76bd 2473 08be fd89 163c bdf4 a8bd
00000130: e89a 8bbc 28fd 0dbe 26a8 dcbc 88c9 a7bd
00000140: cbb3 2e3d 3b88 1cbe dffe 06bd eb2f 513e
00000150: d0e6 073d 8d77 923d eef7 91bd ac0b d4bd
00000160: 03b4 bebc 9c39 543e 9f9e 9cbb 7ff4 223d
00000170: ecb9 fb3c 0359 113b 3cb0 6cbc b90d 00b9
00000180: b7d0 a9bc d09c c138 dc1f 2a3c 22e6 87bc
00000190: 3740 f3bc c5bb 2aba 4d45 12bc b060 f637
000001a0: e089 893a c28f 10bc d4d2 013c 04a3 81bc
000001b0: 515c 33b9 7915 c13c c48d 8fba 6ab2 87bc
000001c0: 8bc9 2cbd dc29 b4ba 04da 5ebb a448 8dbb
000001d0: 60c1 50bc 88ad 133c b701 4aba fac5 903b
000001e0: dfec 963c 39ba 34bd e7e1 8cbd 6012 0e3e
000001f0: fa59 07be 51bb 803c 8c16 38be ef66 03bd
00000200: e330 e0bd 928d 38be 36c5 943d eb9d aebd
00000210: 4a76 673d 36cb 083e 2cf9 60bd 3c70 403d
00000220: 7952 92bd 4ebf c03d 171e de3d fee5 3dbd
00000230: 08af a13b b3f4 e93d 18bf 0d3e b887 a63d
00000240: 2d10 11bc fb80 103d 6934 473d b845 243d
00000250: e100 2ebd 0c5a 763d 4e53 303e 4919 3cbd
00000260: a1f0 27be 4787 22be b8dc 9538 afdd 413e
00000270: c13e 583c 9bbe 5a3e b74f 8d3d 396e 843d
00000280: 955e 1abe ca9d 333e c0e4 083e 8d34 c63c
00000290: 8da0 87be 05c1 19be 595e 4e3e 480e debc
000002a0: 49c8 0bbe 362b 963d cd7d 843e 6dbf d53d
000002b0: 5629 373e ee22 b93e b4ba 6f3d 30a6 263e
000002c0: 51e4 513d 7f28 a43d 5e5f 273d 63ca ddbd
000002d0: 4ddf fb3c 9646 08be 1c42 bf3c 6ac3 edbd
000002e0: 23d4 2bbe f74f 6fbd de1c 09be d8f2 463d
000002f0: b64c 953c e98a adbc ff04 ef3d 0a2e 4b3d
00000300: 6fa5 9a3d 986b abbd f145 0abc 30fd 34bd
00000310: 80e9 a93d 28c1 eabd 2e93 27bd 1ee8 3dbc
00000320: 82cd f338 b573 de3d 74fd 123c 8978 8abc
00000330: 72f8 c0bc 0827 8a3c 4f4f a63d 09c5 12be
00000340: ff4c 95bd 78e5 0fbd 0021 11bb 6018 9e3d
00000350: 759b b23d 1f2e 463e 402e 93bd 9409 ecbc
00000360: 4e27 f0bd 6133 29be e4ae e3bd 96dd 2f3e
00000370: 464c 08be 8298 f0bd c207 263d 10c8 d9bd
00000380: e62c 953e 4b19 1abe f430 ff3d c32e 193e
00000390: 732c 553d 7e51 f93d 7161 10be 61b4 6f3d
000003a0: c765 393d a14b 74be a6d2 bbbc af86 053d
000003b0: 5ee4 e9bd 35fd 41be 76c2 30bd 490b e9bd
000003c0: 86f0 82bd 6266 c43d ea27 7fbd 6525 513e
000003d0: 9fdf 9ebd bbeb 58be 4098 263d e9a8 2c3c
000003e0: dea6 403d b08f 0a3d 4e9d 14bd df67 79be
000003f0: 3f48 043e 3f3a 9cbd 3fc2 943e 031a febd

nn_fun2.2.bias f4 [30]
0.18475358 -0.058499172 -0.00585468 -0.036078673 0.01817715 -0.14522094 0.020491153 0.08903904
0.13404676 0.015740724 0.059505507 0.056643546 -0.075582 0.06640121 -0.1486402 -0.030610071
-0.0007408199 -0.036408667 0.06190256 -0.1211711 0.050156742 -0.10375033 -0.12556352 -0.030889397
-0.0044484315 -0.052787434 0.16101299 -0.08101013 -0.03377636 0.019033186
00000000: 0b30 3d3e d49c 6fbd 9ed8 bfbb 3bc7 13bd
00000010: 3fe8 943c ccb4 14be 10dd a73c 1a5a b63d
00000020: 8e43 093e b1f2 803c 0cbc 733d 1003 683d
00000030: bcca 9abd 5cfd 873d 2335 18be f9c1 fabc
00000040: 9533 42ba 4121 15bd 8a8d 7d3d 8e28 f8bd
00000050: 2871 4d3d 0e7b d4bd b993 00be c30b fdbc
00000060: 26c4 91bb a337 58bd 97e0 243e a4e8 a5bd
00000070: 1559 0abd 7ceb 9b3c

agg.0.weight f4 [1, 30]
-0.023940254 -0.00063829956 0.13117246 -0.0025694498 -0.038341757 0.11576408 0.006508506 0.08270163
0.034598473 -0.016713848 -0.076193005 -0.011126422 -0.10894403 -0.15910013 0.04135203 0.00029831726
0.0013678849 -0.09153434 0.035447832 0.06631529 0.109654285 -0.05077496 0.0018489616 -0.0069243917
0.026779486 0.0017790116 -0.020954877 -0.13466679 -0.0050155474 0.0018106758
00000000: 5a1e c4bc 8f53 27ba 1352 063e 3764 28bb
00000010: 3f0c 1dbd b815 ed3d 4e45 d53b 795f a93d
00000020: 21b7 0d3d 7beb 88bc 140b 9cbd 994b 36bc
00000030: 0c1e dfbd 25eb 22be bf60 293d 7767 9c39
00000040: 9a4a b33a 5b76 bbbd bf31 113d 50d0 873d
00000050: 6d92 e03d 68f9 4fbd db58 f23a 02e6 e2bb
00000060: a760 db3c b92d e93a 90a9 abbc 17e6 09be
00000070: 7659 a4bb 3354 ed3a
