multiple_model_analysis/results/er_experiment_MAK_size_10_33_alpha_0_scale_100_dynwght_False_std_reg_1.0_equiv_reg_0.0/neural_network.pth (torch, 16627 bytes, 14 tensors)

g.0.weight f4 [30, 1]
00000000: 07b6 c2be 702b 7bbe f234 d7be a389 99be
00000010: 2399 ecbe 0dac aabe 04de 17bf e1dd 18be
00000020: b96c a0be dd69 0c3c d79f f1be 439e 93be
00000030: 7a5e 023f 8799 82bf 0b1d 1ebe e603 81bd
00000040: dfd8 873e 2799 683f 43c8 453d eb11 f8be
00000050: 4ca9 e93e a6b2 c13e b8fa 143f 18f2 f6be
00000060: a496 33be b6a3 efbe 4478 403c 6893 07bf
00000070: b748 54bf 2790 31bf
-0.380295 -0.24528289 -0.42032582 -0.2998782 -0.46210584 -0.3333439 -0.59323144 -0.1492839
-0.3133295 0.008570162 -0.4719226 -0.28831682 0.5092541 -1.0203103 -0.15440767 -0.06299572
0.26532647 0.9085869 0.048286688 -0.4845117 0.45636976 0.3783161 0.58195066 -0.48231578
-0.17537934 -0.4680459 0.011747424 -0.529593 -0.82923454 -0.69360584

g.0.bias f4 [30]
00000000: 299e 253f 2bac cd3d e9f2 a9be bd98 043e
00000010: fd53 5f3e 8630 11bf ac6c dfbe 0d9e b3be
00000020: 025a df3e f192 3bbe 429c 2e3f 1b78 a53e
00000030: 848a 253f 8aae 703f 1e27 eabe 1017 9b3d
00000040: f36b 343f c0f9 f5bd 20ed 52bf 257d 503e
00000050: cbaa 503f a1c5 c23e 4345 12bf 58b6 563f
00000060: 0c41 04bd 3d16 d73d 400d d6be 15b4 923e
00000070: a23c b33e bdb9 a83e
0.6469446 0.10042604 -0.33193138 0.1294889 0.21809383 -0.56714666 -0.43637598 -0.3508152
0.43623358 -0.18317772 0.6820718 0.32318196 0.64664483 0.94016325 -0.4573297 0.07572758
0.7047722 -0.12010527 -0.82393074 0.20360239 0.8151061 0.38041404 -0.57136935 0.83871984
-0.032288596 0.105022885 -0.41806984 0.28653017 0.35007197 0.32954207

g.2.weight f4 [30, 30]
00000000: e06b f73d 456a b63d 47e0 823d f028 abbc
00000010: 5dd3 e2bd d063 6dbd fd9f 6abd 5e06 2e3e
00000020: 93d9 8ebd bf32 0a3d 5f98 20be 0099 cd3c
00000030: 6879 e6bd 7ebf 09bc da3b fb3d 1bb1 1d3d
00000040: 838a e43d 0c44 53bd 21cd 18be d6cd 42bd
00000050: ca07 263e 544e c9bd 01cb 1d3e 66e5 37be
00000060: 5fb8 4ebb 78c3 533d 2fd6 03be ef25 f7bc
00000070: 40d9 7fbd c36e a13c 364a eb3d cb54 36ba
00000080: 900a fc3c 1c6a c9bc d3a2 343d f29d 253d
00000090: b460 843d 3c70 c6bc e18a 2fbd 346a 183e
000000a0: a5be 14be 0d08 bebd 396f 173d c575 433b
000000b0: f073 49bd c2cd fbbb d266 f93d 4300 f5bb
000000c0: 8fc7 833b afb7 bc3c 56a7 1d3d 7e2c b5bd
000000d0: a935 cbbc 9a55 363c 088d 113e 7e82 ed3d
000000e0: 8951 cc3c 81b6 88b9 6be4 87bd a703 a8ba
000000f0: 9158 473d e01a 023c 6f4f 84b9 c23f 163c
00000100: 21a2 06bb 4aca 60bd e6b3 ab3d d2e3 3abd
00000110: 0bb8 61bd 7c68 983b 07ef 2d3d 3d7f 99bc
00000120: d834 84bd 55d6 edbd 318d aabd 21ee 3ebc
00000130: 6662 9b3d 77bc ee3c 3f6c 563d fd9e 743c
00000140: af3c 863d dbda d03c 279b 7f3d 3a67 513d
00000150: 1c2f a23c 8ebe 503d 4247 983d 406f 3bbb
00000160: 7362 d13c fedd 973c 36b5 6f3d cc06 013e
00000170: bf59 61bd e854 dabd ba14 e4bd 3e50 04bd
00000180: 1788 1abe 57d1 c43d 9882 01bd 5fce cd3d
00000190: 01b6 68bd 67d4 0dbe af01 a33d 5ce3 efbd
000001a0: d02d a8bd d37a e7bd 3bd5 a7bd 390a 20be
000001b0: 1642 b7bd e8f0 d43d 023e 00be 85d7 823d
000001c0: 2588 09be e068 953d bfb1 23be 4399 bdbd
000001d0: 1350 7e3b e079 9d3d 5885 35bd 84b4 32bd
000001e0: f00f 88bd 92b5 403e ed6d 23be c442 3b3e
000001f0: 9b94 f03d bc0f e7bc adaf 86bd b8b5 03be
00000200: 86c4 1f3d 29ec 503d b220 473d c9d4 333e
00000210: 665e 8e3d 7062 4e3e f5f8 b33d 4b6c 3e3e
00000220: abec fc3c 8f48 35b9 78c4 b5bd 1e1e 803e
00000230: 8a6b 9ebd 7faf 993c 21cc 01be f362 613d
00000240: 415e 223e 6bd3 193e e3e6 48be 151d 303e
00000250: 18cb a13e e062 943e c6ec b23b 19c5 b3bb
00000260: 74fa cd3d 3372 9d3b 3f73 543d b809 e3bd
00000270: 3995 633d 5d65 a43d b8e8 653d 965a 85bd
00000280: f770 d83c df0e 9b3d 5441 453d c8ce cebd
00000290: 3e4e 46bd e808 343b a276 b2bd 2156 313d
000002a0: 4db9 74bc 3b3d 4e3c 433c fe3d de57 ef3c
000002b0: ddbb de3d 873e 033e 6b27 903d eb89 393d
000002c0: ccf2 df3d 7884 27bc d2a2 2f3c 2e6c 3f3c
000002d0: c986 fbbd 7fe3 0cbc 8cdd ce3b 2aa2 b13c
000002e0: 63e0 3d3d 0f34 773d fd87 10be d13c a2bd
000002f0: 0924 82bd 46c5 31be 86e9 cf3d 15f5 b1bd
00000300: 7ce1 a5bd dd85 c63c 5ee0 26be 94c8 fa3d
00000310: ca15 cd3d fcdf 893d 63dd a63d da76 0dbc
00000320: cf44 d7bd ac04 92bd 2f35 5a3d 8469 c43d
00000330: d7bc 0bbe 3cab 573d dd76 0abd dfee 88bd
00000340: 1a72 03bc bbad 613d c32a 00bd 30e2 303b
00000350: df1d 4c3e f19c a23c b3e2 91bc 962a 903d
00000360: 085f 593e 9572 333e 335a 66be b9b3 593e
00000370: 1e2c 73be 67f9 1abe 3b2a 00be 3a5f b9bc
00000380: 2644 403d 60c5 50be 471c 07be 1f32 42bd
00000390: 856e 983d 9122 47bd 48de 10be 3ef7 f4bc
000003a0: dd34 743d 12da afbc fa25 f73d 5892 883d
000003b0: 39c3 5a3d b1fc 5f3d 2b51 4939 ebf8 c1bd
000003c0: 3b22 0bbe 0b50 533d 7176 fc3d 8ed2 d53b
000003d0: 241e 42bd 763e 7abd bdfc 27bd a24f 003e
000003e0: 562f bb3d f094 27be 3354 88bd 7ad7 533c
000003f0: 7787 6fbd 184b 09be 4bbe c83c a3d2 cb3d
0.120811224 0.08906988 0.06390434 -0.020893544 -0.110754706 -0.057956517 -0.057281483 0.16994616
-0.06975093 0.0337398 -0.15683125 0.02509737 -0.11253625 -0.008407472 0.12267275 0.03849898
0.111592315 -0.051578566 -0.14922 -0.04755958 0.16213909 -0.09829393 0.15409471 -0.17958602
-0.0031543 0.051700085 -0.12874673 -0.030169455 -0.062463045 0.019706136 0.11488764 -0.0006955384
0.030766755 -0.02458673 0.044100594 0.04043383 0.06463757 -0.02422344 -0.042857055 0.14884263
-0.1452585 -0.09278879 0.036971305 0.0029824835 -0.049182832 -0.0076844404 0.121778145 -0.007476838
0.004021592 0.023036806 0.038489662 -0.08846377 -0.02480586 0.011128807 0.14213955 0.11597155
0.024941223 -0.00026075917 -0.06635364 -0.0012818471 0.048668448 0.007940978 -0.00025236185 0.0091704745
-0.0020543414 -0.054880418 0.08383922 -0.045627423 -0.055107158 0.0046511274 0.042464282 -0.01873743
-0.06455392 -0.11613146 -0.083277114 -0.011653454 0.075871274 0.029142601 0.052349325 0.014930484
0.06554543 0.025494983 0.062403824 0.051123835 0.019797854 0.050962977 0.07435466 -0.0028600246
0.02555964 0.018538471 0.058522426 0.12600249 -0.05501723 -0.10660726 -0.11136766 -0.032303087
-0.15090977 0.09610241 -0.031618685 0.10049128 -0.056814197 -0.13850556 0.079593055 -0.11713287
-0.08211863 -0.11302724 -0.08194967 -0.156289 -0.08948152 0.10397512 -0.12523654 0.06388763
-0.13430841 0.07295394 -0.15985774 -0.09257748 0.0038805052 0.076892614 -0.04431662 -0.043629184
-0.06643665 0.18819264 -0.15959902 0.18287188 0.11747094 -0.028205745 -0.06576476 -0.12862289
0.03900578 0.05100647 0.048615165 0.1756164 0.06951599 0.20154738 0.08787719 0.18595998
0.03087457 -0.00017288535 -0.08875364 0.25022978 -0.07735355 0.01876044 -0.12675525 0.055026006
0.15856268 0.15022056 -0.19619326 0.17198594 0.3160026 0.28981686 0.0054603545 -0.0054861424
0.10057536 0.0048048734 0.05186772 -0.11085838 0.05556223 0.08027146 0.05613014 -0.065114185
0.026421053 0.07571196 0.048158005 -0.10098034 -0.04841446 0.002747113 -0.08714034 0.04329503
-0.014936757 0.012587841 0.12413838 0.029216703 0.10875676 0.12816821 0.070387684 0.045297544
0.10934982 -0.010224454 0.010719972 0.011683507 -0.122815676 -0.008599161 0.0063130315 0.021683771
0.04635657 0.06035238 -0.14114375 -0.07921756 -0.063545294 -0.1736041 0.10151963 -0.08689324
-0.08099648 0.024233753 -0.16296527 0.122452885 0.100139216 0.06732175 0.08147695 -0.008634293
-0.10511171 -0.07129797 0.053273376 0.09590438 -0.13646255 0.052653536 -0.033804763 -0.06686186
-0.008022809 0.055097323 -0.03129078 0.0026990287 0.1993327 0.019850226 -0.017808294 0.070393726
0.21227658 0.17524178 -0.22495346 0.21259965 -0.23747298 -0.15134202 -0.1251611 -0.022628415
0.04693999 -0.20387793 -0.1319438 -0.04741108 0.07442955 -0.04861695 -0.14147294 -0.02990305
0.059620727 -0.021466289 0.1206779 0.06668538 0.053408835 0.054684345 0.00019199091 -0.094713055
-0.13587277 0.051590007 0.123272784 0.006525344 -0.047392026 -0.061094724 -0.041012514 0.12530378
0.09139888 -0.16365409 -0.06656685 0.012929792 -0.0584788 -0.13407552 0.024504801 0.09952285

g.2.bias f4 [30]
00000000: 5a0e 9e3d 7b67 383d b2db abbc 7761 afbc
00000010: bc84 dd3d 4a7b a2bd 1f20 94bd 7038 76be
00000020: c9de 343e d97d 153d 3421 ee3d 740c 76bd
00000030: 7715 5dbd 811c e53d 6738 3cbe 8978 8abd
00000040: 319f 1e3e f7d8 5c3d af35 1fbe 61ed 3a3d
00000050: 9989 46be e2e6 e3bc 2902 b73d 4553 9abc
00000060: e957 893d a907 23bd 3fae ab3d c507 babd
00000070: 2d9f 8d3d 0bf8 293d
0.07717581 0.04502056 -0.020978782 -0.02140878 0.10816333 -0.07933672 -0.07232689 -0.24044967
0.17663111 0.03649697 0.11627427 -0.06007047 -0.05397555 0.11187077 -0.18380891 -0.067612715
0.15490414 0.05391785 -0.15547822 0.04563654 -0.19388427 -0.027820054 0.08935959 -0.018838534
0.06706221 -0.039802227 0.08382844 -0.09083513 0.06915126 0.041496318

g.4.weight f4 [1, 30]
00000000: b6f1 ac3b b6da 64ba 3cfb f4b8 a6d6 9b3c
00000010: 9e31 d43d e1a2 25ba 3b02 153a f324 4bbe
00000020: 8d75 0f39 4013 7bba 0b0e 6fbc d07d 1e3a
00000030: 9914 a6ba 75c3 03ba ad85 dcbd 3055 15bb
00000040: 856d e53d 157b 6f3a 303d f73c 33b2 ed39
00000050: 13e6 2dbe 1dbd 223a e31b 1438 87bc ccba
00000060: a649 bcbd 2fcb 0c3a 4b7b 273a a229 47ba
00000070: 8ab6 c83a e01b 04b9
0.0052778376 -0.00087301 -0.00011681623 0.01902325 0.10361026 -0.00063185213 0.00056842313 -0.19838314
0.00013681334 -0.00095777586 -0.01459075 0.0006045969 -0.0012670934 -0.0005026379 -0.10767684 -0.0022786371
0.1120253 0.0009135467 0.030180544 0.0004533693 -0.16982298 0.00062079896 3.531192e-05 -0.001562015
-0.09193735 0.0005370853 0.00063889165 -0.00075974513 0.001531319 -0.00012598885

nn_fun1.0.weight f4 [30, 1]
00000000: cdf0 973e 6715 80be f9c7 0fbf 327a a63e
00000010: 8126 0cbf 938d 23be d2da 4f3f 6fbc 0cbe
00000020: 0c03 1fbe d0a9 7fbf 931d e5bc 4dc8 afbe
00000030: f23f 25bf 8a42 d43e ef8c 43bf 3b8f 883d
00000040: 548e f4bd d925 093f e166 033e 423c 1b3f
00000050: 8c7b 1bbf 9c5a 623f 1115 f03e 394a 41bf
00000060: f01a 373d 7536 81be 31c5 a8be e390 af3e
00000070: bbf9 bcbe 9696 5b3c
0.29675904 -0.2501633 -0.5616451 0.32515103 -0.5474625 -0.15971975 0.8119327 -0.13743757
-0.15528506 -0.9986849 -0.027968204 -0.34332505 -0.645507 0.41457015 -0.7638692 0.06667944
-0.119412094 0.53573376 0.12832214 0.6063882 -0.6073539 0.8841951 0.46891072 -0.7550388
0.044703424 -0.2523686 -0.32962945 0.34290227 -0.3690928 0.013402602

nn_fun1.0.bias f4 [30]
00000000: 57fb f03d dc59 1cbf 2333 2a3f 370c 403b
00000010: 9417 cd3e 9332 35be 3523 edbe 90f8 35bf
00000020: 3252 5abe 99ea ad3e 3c70 17bf 03e4 343f
00000030: 193f 69be 69e8 ab3c a806 1d3e a09f 363f
00000040: d4fa 74bf 5949 24be 3f4a 4d3f 8ca4 b4be
00000050: 3030 4bbf 4f37 47bf f943 a4be 1d50 fcbe
00000060: 2268 223e d99b 07bf 63f9 be3e 2012 293f
00000070: 54d6 bcbe f3bd 4cbd
0.11766689 -0.61074615 0.6648428 0.0029304156 0.4005705 -0.17695074 -0.46315923 -0.710824
-0.21320418 0.33968046 -0.5915563 0.7066042 -0.22777976 0.020984845 0.1533457 0.7133732
-0.95695233 -0.16043605 0.80191416 -0.3528179 -0.79370403 -0.7781877 -0.3208311 -0.49279872
0.15860036 -0.5297218 0.37299642 0.6604328 -0.3688227 -0.049985837

nn_fun1.2.weight f4 [30, 30]
00000000: ef14 33bc 570f 943d 4c37 eabd a3a0 143d
00000010: ac93 83bd 9a36 e1bd b546 023e 8cf4 dfbd
00000020: a2c7 3ebd 4d6e 96bd 5d8d 2cbd 21db a33d
00000030: e4f0 cd3d cbd1 823d 3820 bebc 0b13 16be
00000040: 25fa d0bd 6c60 2eb8 8910 943d 9e70 d03d
00000050: 80a0 b1bd 676c fe3c ce23 e43c 116e 56bd
00000060: 340f b1bc 126d 623d c8d8 353d 78e8 80bd
00000070: 829a a5bd 7b5e cebc 9704 c0bc 8505 553d
00000080: 6f56 053e 925e e3bd 2218 59bd c23c 03bd
00000090: b961 1dbd e33d e6bb 62bc e3bd 8ab2 383b
000000a0: 2cdb 093e e568 343e b427 eb3d c54b 91bd
000000b0: a86a 2ebc 9ff6 803d a1f0 f2bd f006 9ebd
000000c0: 8992 f73d d76f 85bd 306d 193e b97c 7bbd
000000d0: 869e 8f3d 92f8 0bbe a5fa 133e 4bdd 193e
000000e0: 8757 bdbd 053f afbd b516 a13d cc22 66bb
000000f0: b7d8 e43d aefe da3d 1eb5 aebd 2266 7a3b
00000100: 1f64 a9bd fb0f 13bc 2b7b 123d ecac 2b3e
00000110: d1fd 0fbd 15fc 8a3e 67c7 e43c 84f0 e83d
00000120: f324 1cbb 78a9 03be 0d63 c93c 7bbe e73b
00000130: 6379 f6bd 4ca3 96bc 49a5 28bd a391 1cbe
00000140: a959 d7bd 5770 34be 7807 79bd e6a2 e0bd
00000150: 0a0c c1bd c853 163e 7b49 a6bd 3c50 8bbd
00000160: c31a 083e d3cd cb3d 8993 243c 2e08 9bbd
00000170: 97be 02bd 23e6 8738 a7a3 6c3d 4ef0 d63c
00000180: 1d86 1e3d 4f79 d3bc 1513 b43d 6805 3f3c
00000190: 6212 de3c 7974 cc3d d8e5 4abd 50c3 0abd
000001a0: 9a32 583b 73b4 e8bd 62fe 9b3d bc70 6f39
000001b0: cb7b d63d b1c8 3c3c 0ffe 073b 46f9 dabd
000001c0: a021 75bc 4f96 c23d 2a8e a63c 0606 1dbd
000001d0: 5bd1 eeba 0df6 d9bd 07cd edbb 7b2b 453b
000001e0: 50ba ac3d 74d9 fdbd e81a e93d a32d 18bd
000001f0: 25ff 113e e69e 2fbe ac9b d63d c2d0 e5bd
00000200: 27be 453d 6fa5 87be 7a65 14be 0085 11b9
00000210: b622 d9bd 573c b23d 5805 d1bd 4008 243d
00000220: c819 ca3d f782 093c 02c2 07bd 2811 26bd
00000230: b2ca a13c 2d95 0f3e 150c d63c 75a6 61bc
00000240: e4bd ddbd 1f7e c5bc 9bc0 bc3d adba 17be
00000250: 3ee8 1d3e 1cbd 62bb 95ce ca3d eaf8 393e
00000260: cc69 a93d 9824 023c 2652 1bbd 6ec4 123d
00000270: 64af 1a3e 3b7a 08be 7cb5 c5bd a87f 8d3d
00000280: ec0b 7bbd 2974 d63d 88af 94bd 2306 a83a
00000290: a645 d1bd 1036 8d3d 452e 043e fc54 463d
000002a0: 9b52 083e 15fc 30bd c5f3 4ebd 2f48 a4bd
000002b0: 262e d9bd e49d 063e f4dd 01bd c708 8fbd
000002c0: a1b0 b73d 09b8 80bc 1c53 283e 6c28 0b3d
000002d0: a4f9 02bd fa3a 9cbc f839 a8bd cd4d 3c3c
000002e0: b09e 803d 0460 853d 59bd 203d e9b3 ec3b
000002f0: 0cd4 873d c23c 2d3c 7867 5fbc 034c 75bd
00000300: ffb4 7dbb 665f 16bd d7e8 92bd 9f44 4f3c
00000310: 0b84 8dbd 2717 743b da71 f33b a824 663d
00000320: 1dd3 843d 935e f2bd 831a b1bd 4cc8 5cbd
00000330: 95f0 253c cb9d 01be 17a6 073d aebc 69bb
00000340: 5307 1f3d 113d 85bc 870f 043e 66f3 edbd
00000350: c090 bbbd a32f 0b3d 4e24 373c e0b4 7cbb
00000360: c44d 303d 23fa d93d 0bb0 b0bc 8596 3a3d
00000370: fcca 183d 280d ec3d fc92 27be cccc 253e
00000380: fbb0 3a3d 0804 b3bd 4055 18bd 9027 c13c
00000390: 6b7a 06be ef8f 08be a327 a83d 9eeb 02be
000003a0: f27f 28bd 06b9 c0ba cf05 e9bd 01c3 263e
000003b0: b62f b93b e8d5 ba3d cc3e 9fbd fbe2 ee3b
000003c0: 0f0e cf3d c72d dcbb 69ce 853d f000 9ebd
000003d0: f62c 0cbe ce3d 00be 60fd b53c 1e22 9ebc
000003e0: a44f 36bd bdb1 673c ab0e 12be 24c2 80bd
000003f0: 6c12 993d 7763 7a3d e66a 373d 8686 25be
-0.010930284 0.07229488 -0.11436328 0.036286008 -0.064246505 -0.109967425 0.12722285 -0.109353155
-0.046577103 -0.07345257 -0.042127002 0.0800078 0.10055712 0.06387671 -0.023208722 -0.14655702
-0.10203961 -4.1574633e-05 0.07229716 0.1017773 -0.08673191 0.03105755 0.027849104 -0.05235106
-0.021613695 0.0552798 0.04439619 -0.0629434 -0.08086111 -0.025191536 -0.023439689 0.052007217
0.13021253 -0.11102022 -0.05300153 -0.032040365 -0.038423274 -0.0070264204 -0.111199155 0.002818259
0.13462514 0.17618139 0.11482182 -0.0709453 -0.010645546 0.06297039 -0.118623026 -0.07716167
0.12088496 -0.065154724 0.14983058 -0.06139824 0.07012658 -0.13669041 0.14451082 0.15025823
-0.0924521 -0.08556942 0.07865659 -0.0035115955 0.111741476 0.106931075 -0.08530639 0.0038207849
-0.0827105 -0.008975978 0.035761993 0.16765183 -0.035154168 0.27145448 0.027927114 0.11374
-0.0023825734 -0.12857616 0.024583364 0.0070722676 -0.120348714 -0.018388413 -0.041173253 -0.15289931
-0.10515148 -0.17620979 -0.06079814 -0.109685704 -0.094261244 0.14680398 -0.08119484 -0.06802413
0.13291459 0.09951367 0.010044941 -0.075699195 -0.031920042 6.480168e-05 0.05777326 0.026237633
0.03870212 -0.02581468 0.08792702 0.011659004 0.027108375 0.09983153 -0.049535602 -0.03387767
0.0032989145 -0.11362543 0.07616879 0.00022834813 0.104728304 0.011522458 0.0020750796 -0.106920764
-0.01496163 0.09501325 0.020331461 -0.038335823 -0.0018220352 -0.106426336 -0.007257107 0.003008573
0.08433974 -0.123949915 0.11382085 -0.037152898 0.14257486 -0.17150459 0.10478911 -0.11221458
0.048277047 -0.26493403 -0.14491835 -0.00013877824 -0.10602324 0.08702915 -0.10206097 0.04004693
0.09868199 0.008393041 -0.033144005 -0.040543705 0.019749973 0.1402175 0.026128808 -0.013772597
-0.108272344 -0.02410799 0.09216424 -0.14817305 0.15420625 -0.0034597581 0.09902684 0.1816136
0.08272132 0.007943295 -0.03792014 0.03583186 0.15105969 -0.13327877 -0.09653756 0.06909114
-0.061290666 0.104713745 -0.072600424 0.0012819212 -0.102183625 0.06895077 0.12908275 0.04842089
0.13312761 -0.043209154 -0.050525445 -0.080215804 -0.10604505 0.13146168 -0.03170581 -0.06984096
0.08969236 -0.015712755 0.16437954 0.033974096 -0.031976357 -0.019071091 -0.08214182 0.0114931585
0.06280267 0.06512454 0.039243076 0.0072235954 0.066322416 0.010573568 -0.013635509 -0.059886944
-0.0038712618 -0.036712073 -0.07173317 0.012650638 -0.06909951 0.0037245245 0.0074293436 0.056187302
0.06485579 -0.11834445 -0.08647635 -0.053901955 0.01012816 -0.1265785 0.03311738 -0.003566544
0.038825344 -0.01626447 0.12896548 -0.1161869 -0.09158468 0.033980977 0.011178089 -0.0038559958
0.043042913 0.10643413 -0.021568319 0.045553703 0.037302956 0.11525947 -0.16364664 0.16191405
0.045578938 -0.08741003 -0.037190676 0.023578435 -0.13132636 -0.13336156 0.08210685 -0.12785193
-0.041137643 -0.0014703579 -0.11378061 0.16285326 0.0056514395 0.09122831 -0.077756494 0.007290242
0.10110103 -0.0067193243 0.0653351 -0.077150226 -0.13689026 -0.12523577 0.022215545 -0.019303378
-0.044509545 0.014141497 -0.14263408 -0.062870294 0.07474217 0.061130013 0.04477968 -0.16164598

nn_fun1.2.bias f4 [30]
00000000: 7507 62bd 6eb4 0cbd 80d5 233d ce56 a83c
00000010: e18a a9bd 637a 48bd 0add acbd 33c0 9ebc
00000020: 466e ca3d a2d4 45bd a473 c33d d63e b1bd
00000030: c64a 06bd 6e5f dc3c 936b c1bd 85d8 d1bd
00000040: c34f 173e fbc6 c6bd cc91 3dbc 7535 f1bd
00000050: 4de5 02be ca77 9dbd ee6a 163e d3ca d53d
00000060: da13 1c3c ce66 84bd 5bed 91bc 3169 78bd
00000070: 656d ab3d 8879 f9bd
-0.055182893 -0.03435176 0.03999853 0.020549204 -0.08278442 -0.048944842 -0.08440597 -0.019378757
0.09884314 -0.048298486 0.09543541 -0.08654563 -0.032786153 0.026900973 -0.09444346 -0.10246376
0.1477652 -0.09705921 -0.011570405 -0.11777774 -0.12782784 -0.076888636 0.14689228 0.10439076
0.009526217 -0.06464921 -0.017813375 -0.060647193 0.08370475 -0.12181383

nn_fun2.0.weight f4 [30, 1]
00000000: ac37 51bf aafc 023f a0f0 383f 9a4c bbbe
00000010: 5ee5 093f bf6c 56be 8fd8 5e3f b2b5 873e
00000020: a210 cf3e bb79 733e d1d2 513f eca6 6f3f
00000030: b773 073f 1c26 11be bcf0 983d 0282 24bf
00000040: 34dc d43e 1b67 49bf e1ba f4be 42b7 2e3f
00000050: 0c21 28bf 4d98 4c3e 3e6a 62bf a9eb 5bbf
00000060: 4eca 7f3e 9bcc bb3d 3dde 1b3f 0b07 92bf
00000070: a3dc 55bf 628a 14bf
-0.81725574 0.51166785 0.72242165 -0.3658188 0.5386561 -0.20939921 0.8704919 0.2650581
0.40442377 0.23776905 0.81962305 0.9361408 0.5291094 -0.14174694 0.074677914 -0.64260876
0.41574252 -0.7867295 -0.47798827 0.6824838 -0.65675426 0.19979973 -0.8844336 -0.85906464
0.24979517 0.09169885 0.60885984 -1.1408399 -0.8353979 -0.58023655

nn_fun2.0.bias f4 [30]
00000000: 3cfc 423f 26e7 443f eaa9 043f e2f3 efbe
00000010: 1f76 bfbd 2e34 93bc ef48 153e a799 513f
00000020: bb35 333e bcd5 17bf fc93 4f3f 1e70 30bf
00000030: 46f4 37bf 9231 b13e af16 17bf a28b 403f
00000040: 4ffb 5e3f 2883 57bf 1093 b5be be2b 213f
00000050: 401d 693e 4efe 93be 5797 123f 52a3 5b3e
00000060: 2df6 a23e b566 463f 3afc e6bd c754 dc3e
00000070: fa44 f1be d447 d2be
0.7616613 0.76915205 0.5182177 -0.46865755 -0.09348702 -0.017969217 0.14578603 0.8187508
0.17500965 -0.5931051 0.8108518 -0.6892108 -0.71857107 0.34608132 -0.5901899 0.7521306
0.87102216 -0.84184504 -0.35463762 0.6295737 0.22765064 -0.28904957 0.57262176 0.2144902
0.31828442 0.7750047 -0.11278577 0.4303343 -0.47122937 -0.41070426

nn_fun2.2.weight f4 [30, 30]
00000000: 051f 6cbd 9f34 4f3c e5bf ad3c dedb 233c
00000010: a2c7 4d3d 9204 873c 00d9 1a3e 5cc2 d03c
00000020: 3ba0 f7bd bd69 0d3e 00a9 ba3c 650f 60bc
00000030: 9437 893c 044d b1bd ba20 80bc 7c31 233c
00000040: 4b18 413d ad99 d13d 051f e43d 89ca bb3c
00000050: f8dc 20bd 4c31 d23d d184 0abe 23a3 5cbd
00000060: e8dc 8d3d c5c7 5f3d 2507 973d 3878 57bd
00000070: 5a2b 11be 7372 e4bd eac3 21be dfa0 8c3d
00000080: 137d a7bc 1aa9 e53d 93ee c9bc d5cb b1bd
00000090: da5c 2a3d d1a0 69bd 7aa1 183d de50 ec3d
000000a0: 0485 efbc 0aad 043e 83d5 9ebd 89ed 82bd
000000b0: 62f0 47bd bb77 5dbc d583 513d 9498 103d
000000c0: da19 b83d 262d 6d3d 4a98 50bd 1513 f9bb
000000d0: dce7 503d 806f 9b3d f6a2 e8bc dcfd 6cbc
000000e0: 59b3 a2bc 920f 7a3d 2821 0ebe 2dcc 86bc
000000f0: 546b 7e3c 9a31 62bc 87dc 103e 7891 3dbe
00000100: 21a3 eb3d a77b 60bd 51d2 523d 9a56 843c
00000110: b190 dfbd ce71 233e 302b 4e3d 6888 ffbc
00000120: 34c5 27bd bb61 03be f639 203e f894 c3bd
00000130: c9d6 1f3e 1370 c93c dd1d 0cbe 7dc6 a93d
00000140: cdb5 1abe 579f 1dbd 1229 d73d 1abf 0ebd
00000150: 3899 033d 54f0 f8bd 354a a53d 3397 6fbe
00000160: 600b fb3d 36d4 803c 98ec f83d d82f 763d
00000170: 181e 893d 96fc 7dbd ea8c 3f3d 0234 76bd
00000180: 9a51 863b 3ad4 ebbc 43a4 203b 0c74 eb3b
00000190: 2c7d 17be 7d7c bcbd 93dd 213d d080 bd39
000001a0: 4662 a53d c23a c13c 2bfe 55bd bedc a73d
000001b0: 4b03 fcbd d1e6 27bd ae1a 1c3c dac2 883d
000001c0: 5361 d53d 93a3 233d 3b7e d2bc 6f68 07be
000001d0: 15f8 0abb 6b20 273d 680c 0e3d 636c bdbd
000001e0: 5638 f23d ba68 ddbd 5fac 5ebd 3d36 4cbe
000001f0: deb8 a63d 3172 8dbd fe9f 7b3d 0bfb 54bd
00000200: bd22 8a3c 5d9f 3fbe 9bc0 e53d baa9 673a
00000210: fcae c1bd 1473 a9bd 98db d73d 3c0e 93bd
00000220: 6562 de3d d5c5 603d 0e3d 86bd 7022 edbd
00000230: 9ed2 abbd 969a 11be ecd1 c9bd 3352 81bd
00000240: 7d50 be3d 30a1 09bd 00a3 9b3d 8fbd 1dbe
00000250: 2372 893c a11e ad3d 1564 103e bb64 ad3b
00000260: 096b f5bd 1992 f3bd c1ba a73d 306b 0dbd
00000270: 83ed 68bd 25ec 46bc 6a1a cebd 8d32 153e
00000280: 584c 343d afc7 d33d e1bd f0bb b700 1d3e
00000290: d0dd dabd d3f4 55bd d9c9 203e 71f0 9b3d
000002a0: 5f46 4dbd 2083 ba3d 931c 96be 9f8f cb3d
000002b0: a524 783c 835a 90be a0ca 6a3c e0ab a2bd
000002c0: cd1d 1a3e f072 1dbe 6a15 12bd 5316 d9bb
000002d0: 2e92 cb3d ee16 1d3e 2b17 f3bd 61a3 99bc
000002e0: ada9 583d 497b 43bd 2d9a 9abb f17d ac3d
000002f0: 43de 1ebe 263e 3fbd 5851 01be 69cc 903d
00000300: 98f8 0c3e 3741 b73d 4288 9c3d 323f 973d
00000310: 991c dc3d 7162 803c e765 41bd abff 1ebe
00000320: 8ea3 27bc 2304 39bc c23a b03d c934 45bd
00000330: 5813 01be d459 0d3e 5f88 2dbd 4578 1cbd
00000340: bba5 3cbc 5954 89bd 00f3 29bd 182e aabc
00000350: de3f 423d 896d cebb 93a4 babd bb11 18bc
00000360: 4cc5 debd ebae a73d 404e 313d e707 4abc
00000370: 4ec7 c9bd 1588 16be 98b6 f23d 248a 6a3d
00000380: c23c 413d ed16 02be 3ad7 6ebd 534a 4fbd
00000390: 3d33 af3c 8f92 a63d 9d36 a53c 6b3f 9d3c
000003a0: 66ab 12bd faa2 5dbd 68d2 393e 4539 6d3d
000003b0: 2d7d b63d 89a6 ec3b c71b 5cbd 8904 8d3c
000003c0: 277c 1f3e 721b d4bd 6814 9e3d ec78 9fbd
000003d0: 6df5 85bd 0da2 d2bd 9160 903d 5237 703d
000003e0: 1600 133e 7cf5 d7bd 7cc0 c6bd 4170 223d
000003f0: 953b 9e3d 2d53 0a3d cfd3 043e 3b6e 2b3e
-0.05764677 0.012646823 0.021209667 0.010001151 0.050239213 0.016481671 0.15121841 0.025483303
-0.120911084 0.13809867 0.022785664 -0.013675545 0.016750135 -0.08657268 -0.015640605 0.009960528
0.04714231 0.102343895 0.11138729 0.022923725 -0.039273232 0.10263309 -0.13527228 -0.053866517
0.069269 0.054633874 0.073744096 -0.052604884 -0.14176694 -0.11154642 -0.15797392 0.06866621
-0.020445382 0.11213894 -0.024649894 -0.08681456 0.041592456 -0.057038132 0.03726337 0.11538862
-0.029238231 0.12956634 -0.07755568 -0.063929625 -0.04881323 -0.0135173155 0.051151115 0.03530176
0.08989306 0.057904385 -0.050926484 -0.0076011517 0.05100237 0.07589626 -0.028398018 -0.014464822
-0.01986091 0.061050005 -0.13879836 -0.01645478 0.015528519 -0.013805771 0.14146625 -0.18512523
0.11505724 -0.054805424 0.051470105 0.016154576 -0.109162696 0.15961382 0.050334156 -0.031192973
-0.040959552 -0.1283025 0.1564711 -0.09549898 0.15609278 0.024589574 -0.13683267 0.08289812
-0.15108414 -0.038482036 0.105058804 -0.034850217 0.032128543 -0.12155214 0.080707945 -0.23397522
0.12258029 0.01572619 0.12154502 0.06010422 0.06695193 -0.062008463 0.046765245 -0.060108192
0.004099083 -0.028787721 0.002451197 0.0071854647 -0.14793843 -0.09203432 0.03951795 0.00036144862
0.08075385 0.023587588 -0.052244347 0.081964 -0.123053156 -0.040991608 0.009527845 0.0667779
0.10418954 0.03995092 -0.025694957 -0.13223432 -0.0021204997 0.0408024 0.0346798 -0.09249189
0.118271515 -0.10810991 -0.054363605 -0.19942565 0.08140729 -0.06906546 0.061431877 -0.051997226
0.016862268 -0.18713136 0.11218377 0.0008837242 -0.09457204 -0.082739025 0.10539931 -0.07180449
0.10858611 0.054876167 -0.06554614 -0.11578834 -0.083897814 -0.14219126 -0.098544925 -0.063145064
0.09292696 -0.033600986 0.07599449 -0.15404342 0.016778057 0.084531076 0.14100678 0.005291549
-0.11983306 -0.118931 0.08189917 -0.03452605 -0.056867134 -0.012141262 -0.10063632 0.14570065
0.04401812 0.10340821 -0.007346854 0.15332304 -0.106868386 -0.052235436 0.15701999 0.0761422
-0.05011594 0.09107041 -0.29318675 0.09939503 0.0151454555 -0.28194055 0.014330536 -0.07942939
0.1505043 -0.15375876 -0.035664953 -0.0066249757 0.09939991 0.15340778 -0.11869653 -0.018754663
0.05289619 -0.047724996 -0.004718086 0.08422459 -0.15514474 -0.04669013 -0.12628686 0.07070238
0.13766706 0.089479856 0.076431766 0.073851004 0.10747642 0.01567194 -0.047216322 -0.15527217
-0.010231866 -0.01129249 0.08604957 -0.048146043 -0.12605035 0.13803798 -0.04236638 -0.038200635
-0.011514123 -0.06705541 -0.04149151 -0.020773932 0.04742419 -0.0062996787 -0.09113421 -0.009281571
-0.10877475 0.0818766 0.043287516 -0.012330986 -0.098524675 -0.14700349 0.11851233 0.057260647
0.047177084 -0.12704058 -0.058310725 -0.05060799 0.021386737 0.081334226 0.020167643 0.01919528
-0.03580799 -0.054110505 0.1814667 0.057915945 0.08910594 0.007222001 -0.053737428 0.017214077
0.15574704 -0.10356797 0.07718736 -0.07786736 -0.06540952 -0.10284815 0.070496686 0.058646508
0.14355502 -0.10544869 -0.09704682 0.039657835 0.07726208 0.03377073 0.12971424 0.16741268

nn_fun2.2.bias f4 [30]
00000000: fcd2 dfbb c1a9 983d e5e6 bdbd 98b5 b63d
00000010: 8735 99bd f383 09be 042b 6abd 3c92 05bd
00000020: a1f0 0bbe 2458 8abc 73f8 51bd 69fa 983b
00000030: 52e9 e8bd 6e98 833c b28f ff3d 85e6 acbb
00000040: f967 d23d cc29 a33d 4ca0 24be 0ea8 e0bc
00000050: fd06 09be dfec 073e d152 3dbd 5126 c83d
00000060: 0424 2d3e 8d94 c7bb fac3 d3bc 9260 653c
00000070: cedd ca3c 16dc 9a3d
-0.006830571 0.07454253 -0.09272555 0.08921355 -0.07480913 -0.13429241 -0.05716993 -0.032610163
-0.13666011 -0.016887732 -0.05126233 0.004668523 -0.11372627 0.016063895 0.124785796 -0.0052765035
0.102737375 0.079669565 -0.16076773 -0.027423885 -0.13381572 0.13273953 -0.046221558 0.09772933
0.1690827 -0.0060907067 -0.025850285 0.014000075 0.024763968 0.07561509

agg.0.weight f4 [1, 30]
00000000: 5df0 edba ecce 43bd 9ea6 4c3a 8aae 96ba
00000010: 5962 50bb 7bd7 37bd d8f9 623c 0075 d13d
00000020: e059 6fbd 1074 f23a a8bd 95bd 15ee a9bd
00000030: 66e4 113d 060a 1ebc 54ad f13d ab3d b539
00000040: f6c4 95bc f2ca febd 75d0 663a 42dd 6ebc
00000050: ff54 9e3a 305b b03d 2386 1d3c 950a 013e
00000060: ba5c d0bd 0ddd b7bd 6655 44bc dcc6 aa39
00000070: bc50 1f3d 1ba7 8dbb
-0.0018153299 -0.047804758 0.00078068103 -0.0011496108 -0.00317969 -0.044883233 0.013853513 0.10227394
-0.05843532 0.0018497724 -0.07311565 -0.08297364 0.03561821 -0.009645944 0.11800638 0.00034568956
-0.018282395 -0.124410525 0.0008804866 -0.014579119 0.0012079774 0.08611143 0.0096145 0.12601693
-0.10173936 -0.08977709 -0.011983251 0.00032573089 0.038895354 -0.004322899
